checkpoint/cnn_features_1d_0930-122637/299-0.4006-best_model.pth (torch, 940543 bytes, 30 tensors)

0.model_cnn.layer1.0.weight f4 [16, 1, 15]
0	0xbe1052e3	-0.14094119
1	0x3dd6a836	0.104813024
2	0xbe3f9ef2	-0.18712977
3	0x3e5318c0	0.2061491
4	0x3d58f3e0	0.052966952
5	0xbe177c8d	-0.14793606
6	0x3e88f567	0.26749727
7	0xbe6b0539	-0.22951211
8	0xbdbef334	-0.09323731
9	0x3e8cadf5	0.2747647
10	0x3e3b6173	0.18298893
11	0xbe4f9c83	-0.20274548
12	0x3e075a34	0.13218004
13	0xbe21ae0b	-0.15789048
14	0xbe6eea8a	-0.23331657
15	0x3ce2b2ea	0.027673203
16	0x3cf343bf	0.02969539
17	0x3e2d3b04	0.16917044
18	0x3e22e7eb	0.15908782
19	0xbd261c1c	-0.04055415
20	0x3dcbe71e	0.099561915
21	0x3e3c108a	0.18365684
22	0xbd9624b5	-0.0733122
23	0xbdc6e917	-0.09712427
24	0x3e409415	0.18806489
25	0x3e177f0c	0.14794558
26	0x3d4ee9de	0.050516002
27	0xbbed8b87	-0.007249299
28	0xbe62a476	-0.2213305
29	0xbe6e8b3c	-0.23295301
30	0x3e4b772d	0.1986968
31	0x3e5eb5d9	0.21749057
32	0x3e83846d	0.2568697
33	0xbe8363b9	-0.2566202
34	0x3e747657	0.23873268
35	0xbd255088	-0.040360004
36	0x3e374205	0.17896278
37	0xbdd9dba7	-0.106375985
38	0x3b4b5cf7	0.0031030753
39	0x3db98634	0.090588
40	0xbdba5c70	-0.09099662
41	0xbe19ca1f	-0.1501851
42	0x3e1495d2	0.14510277
43	0x3e912433	0.2834793
44	0xbdcc8096	-0.09985463
45	0xbe0da0be	-0.1383085
46	0xbe71cba6	-0.23612842
47	0xbe8c6c86	-0.27426547
48	0x3e4cdcd6	0.20006117
49	0x3e757211	0.23969294
50	0x3e17f00f	0.14837669
51	0xbe7044e5	-0.23463781
52	0xbe505b68	-0.20347369
53	0xbdeeceff	-0.11660575
54	0x3e086e96	0.13323435
55	0x3dfb7dbd	0.12279842
56	0x3e5aa1d2	0.21350792
57	0xbe6b245c	-0.22963089
58	0x3e92bc1c	0.2865914
59	0xbe7db950	-0.24777722
60	0x3d2902c1	0.041262392
61	0xbcb19b22	-0.021680418
62	0x3dfad23b	0.122471295
63	0xbe17de4c	-0.14830893
64	0x3e2b08a4	0.16702515
65	0xbd4f0b1d	-0.050547708
66	0x3e0b52f0	0.13605857
67	0x3deff28b	0.11716183
68	0x3db2e1f9	0.08734507
69	0xbd270d75	-0.040784318
70	0x3d0e5824	0.034752026
71	0xbe74ccd3	-0.23906259
72	0xbe1f3bd5	-0.15550168
73	0x3dbae433	0.09125557
74	0xbe51adaf	-0.20476411
75	0xbe385ba7	-0.18003713
76	0xbd0a4eae	-0.03376644
77	0xbce97bd4	-0.028501429
78	0xbd065848	-0.032799035
79	0x3e736b9c	0.23771518
80	0x3e0844f6	0.13307557
81	0xbe66100c	-0.22467059
82	0x3dd74761	0.10511661
83	0x3e8960b2	0.26831585
84	0x3e0009f6	0.125038
85	0xbe5d6539	-0.21620645
86	0x3d5d63f7	0.054050412
87	0x3de119e3	0.109912656
88	0x3bb2ce0a	0.0054566907
89	0xbe1745fe	-0.14772794
90	0x3e2fc275	0.17164023
91	0x3dffe50e	0.124948606
92	0x3e36416b	0.17798392
93	0xbea4fe70	-0.3222537
94	0x3ca8451b	0.020540765
95	0xbd5e6255	-0.054292995
96	0x3e23e805	0.16006477
97	0x3d0cecce	0.034405522
98	0xbd835ac5	-0.06413797
99	0x3dfd34ff	0.12363624
100	0x3d26d646	0.04073169
101	0x3dc9d80a	0.09855659
102	0x3e4d59ca	0.20053783
103	0x3bbfa8d7	0.0058489847
104	0x3d287006	0.04112246
105	0xbda5ffd1	-0.08105434
106	0x3e4053fd	0.18782039
107	0xbe154506	-0.14577112
108	0x3e2d4b18	0.16923177
109	0x3e3b2dd9	0.18279208
110	0x3ddd9948	0.10820252
111	0x3b81b6d4	0.0039585624
112	0xbcb6b15c	-0.022301368
113	0xbe4bce2d	-0.19902869
114	0xbe4ebe7d	-0.20189853
115	0x3e91e587	0.28495428
116	0x3c3b28f3	0.011423337
117	0xbe90fe11	-0.28318837
118	0xbd17a9d1	-0.037027184
119	0xbceaf36d	-0.028680528
120	0xbe12cfef	-0.14337133
121	0x3e49b3a8	0.1969744
122	0x3bebab64	0.007192062
123	0x3e08ef88	0.13372624
124	0xbe6ef9fa	-0.23337546
125	0xbd202cb8	-0.039105147
126	0x3cd33234	0.025780775
127	0x3e47d6cf	0.19515537
128	0x3ce1437d	0.027498001
129	0xbd751d8e	-0.05984264
130	0x3d45c2d9	0.048281524
131	0x3e865b9d	0.2624177
132	0x3d8d4c14	0.068992764
133	0xbe33f4a2	-0.17573789
134	0x3df55c6f	0.11980521
135	0xbe5896ec	-0.21151322
136	0x3d58271b	0.05277167
137	0x3deac1a5	0.11462716
138	0x3cdcd345	0.02695621
139	0x3d9935c3	0.07480957
140	0xbd8a1f17	-0.06744211
141	0x3dd32b62	0.10311009
142	0xbe101c11	-0.14073206
143	0xbec47f3f	-0.3837833
144	0x3df57347	0.11984878
145	0xbd8ceea5	-0.06881455
146	0x3dcbe522	0.09955813
147	0x3dcd885c	0.10035774
148	0x3d5e235c	0.05423294
149	0x3e831fa7	0.25610086
150	0xbd34ab89	-0.0441089
151	0xbe1bbebc	-0.15209478
152	0xbe993f66	-0.29931182
153	0xbe8fe888	-0.28107095
154	0xbdc2be1f	-0.09508919
155	0xbe909c1f	-0.2824411
156	0x3d02f8d5	0.031975586
157	0xbe8d0b66	-0.2754776
158	0xbe5b12cf	-0.21393894
159	0xbe2bd004	-0.1677857
160	0x3c4665b8	0.012109213
161	0xbe753c04	-0.23948675
162	0xbbd91f36	-0.006626035
163	0x3e1803a4	0.14845139
164	0x3d4bd204	0.049760833
165	0xbddceb63	-0.10787084
166	0xbe5eec11	-0.2176974
167	0xbded37ec	-0.11582932
168	0x3df2c180	0.118533134
169	0x3d8f0212	0.06982817
170	0xbd861e61	-0.06548763
171	0xbe5b9451	-0.21443297
172	0xbd87f40a	-0.06638344
173	0x3e92ac4e	0.28647083
174	0x3de06ee2	0.10958649
175	0xbe822d23	-0.25425062
176	0x3e59684e	0.21231195
177	0xbe5743ed	-0.21022005
178	0xbd980a12	-0.07423796
179	0x3defcf04	0.11709407
180	0xbe260126	-0.16211376
181	0xbe0a5acc	-0.13511199
182	0x3d7f5ed4	0.062346295
183	0x3e4f1178	0.20221508
184	0x3e9313a2	0.28725916
185	0x3e078dc9	0.1323768
186	0x3bbd7932	0.00578227
187	0x3e0bc15f	0.13647984
188	0xbc680163	-0.014160487
189	0x3e3e8edf	0.18609188
190	0xbe1471de	-0.14496562
191	0xbe67dc4a	-0.22642627
192	0xbda81711	-0.082075246
193	0x3e218bf2	0.15776041
194	0x3e9f4a4e	0.31111377
195	0x3e620199	0.22070922
196	0xbe5b1cb2	-0.21397665
197	0xbe8a1cdd	-0.26975146
198	0x3e5b59c0	0.21420956
199	0xbd9cec76	-0.07662289
200	0x3e0fd518	0.14046133
201	0x3da39524	0.07987431
202	0xbdfa3a89	-0.12218196
203	0x3e0c2d7b	0.13689224
204	0xbd4fb7f9	-0.05071256
205	0x3da042c1	0.07825232
206	0xbe89480b	-0.26812777
207	0xbd97fe79	-0.07421584
208	0xbe4d150c	-0.2002756
209	0x3e88740d	0.2665104
210	0x3cc33905	0.0238309
211	0xbe51e097	-0.2049583
212	0x3ba52a27	0.0050404253
213	0x3e7d51bb	0.24738209
214	0xbe744f9b	-0.23858492
215	0x3e18ba3c	0.14914793
216	0x3daef233	0.085422896
217	0xbe4cd1c1	-0.2000189
218	0xbd905033	-0.07046547
219	0xbe437859	-0.19088878
220	0x3e09baff	0.1345024
221	0xbcb85a45	-0.022503981
222	0xbe61df9a	-0.22057953
223	0x3e0293f9	0.1275176
224	0xbe4db4f9	-0.20088567
225	0x3e48c420	0.19606066
226	0x3cc9d0bc	0.024635665
227	0xbe4bab1b	-0.1988949
228	0x3dc3ffbe	0.09570263
229	0xbd811fbc	-0.06304881
230	0x3e76ca1e	0.24100539
231	0xbe31f0e9	-0.17377056
232	0xbc48a9a2	-0.012247475
233	0xbe544bf0	-0.20732093
234	0xbb79dc9c	-0.0038125878
235	0xbe61e948	-0.22061646
236	0xbba8c811	-0.005150803
237	0xbe7517c3	-0.23934846
238	0xbeafc804	-0.34332287
239	0x3d96c127	0.0736106

0.model_cnn.layer1.0.bias f4 [16]
0	0x39fa8be6	0.00047787948
1	0x39e5b53e	0.0004381332
2	0x39d5f89d	0.00040811757
3	0x390bca0a	0.00013331338
4	0xb9a62b3f	-0.00031694208
5	0x39747bba	0.00023315745
6	0xb8bf37c7	-9.117979e-05
7	0x3a09f377	0.00052624143
8	0xba72e42a	-0.00092655665
9	0x3912d7ce	0.00014004039
10	0xb92e75bb	-0.00016637791
11	0x394b2dfe	0.00019376722
12	0x37435a1b	1.1643885e-05
13	0xb9fe7973	-0.00048537142
14	0x393fc9b1	0.00018290315
15	0xb9389a7f	-0.00017605162

0.model_cnn.layer1.1.weight f4 [16]
0	0x3f9138e2	1.1345484
1	0x3f8040be	1.0019758
2	0x3f74a42f	0.95563024
3	0x3f8c9a5d	1.0984608
4	0x3f7b71ba	0.9822041
5	0x3f7f369a	0.9969269
6	0x3f69fb34	0.9139893
7	0x3f82aa8f	1.02083
8	0x3f840fde	1.0317342
9	0x3f87b174	1.0601029
10	0x3f7fb867	0.9989075
11	0x3f8bbb6c	1.0916572
12	0x3f83eb80	1.0306244
13	0x3f6541b9	0.8955341
14	0x3f7d19a6	0.9886726
15	0x3f74426f	0.9541387

0.model_cnn.layer1.1.bias f4 [16]
0	0x3d23491a	0.039864637
1	0xbc2bf2af	-0.010494872
2	0xbd360fdb	-0.044448715
3	0xbd0366aa	-0.03208033
4	0xbd3554d0	-0.044270337
5	0xbcc6a08f	-0.024246482
6	0xbd9bec01	-0.076133735
7	0xbb95b43d	-0.004568605
8	0xbd7ce6ea	-0.061743654
9	0xbd9933e5	-0.07480601
10	0x3cf2e157	0.029648466
11	0xbd27cbb1	-0.04096574
12	0xbdb1698f	-0.08662712
13	0xbb928a5b	-0.0044720597
14	0x3d398a7a	0.045298077
15	0x3d304e4a	0.043043412

0.model_cnn.layer1.1.running_mean f4 [16]
0	0x3b7fa48e	0.0039007994
1	0xbc55a67d	-0.013040182
2	0xbcf90d2c	-0.030401789
3	0x3c03b0a0	0.008037716
4	0x3bfd2175	0.0077249357
5	0xbc8e5d5a	-0.017378498
6	0xbcf84d25	-0.030310223
7	0x3b2be56b	0.0026229273
8	0xbcf650bc	-0.030067794
9	0xbc94809d	-0.018127734
10	0x3da9e305	0.08295254
11	0x3c594a11	0.013262288
12	0xbd3338e2	-0.04375542
13	0x3c8734fd	0.016504759
14	0x3cffc874	0.031223513
15	0x3d608d57	0.054822292

0.model_cnn.layer1.1.running_var f4 [16]
0	0x3cb2241d	0.021745736
1	0x3bd0b440	0.0063691437
2	0x3d6d2b99	0.057902906
3	0x3cc782e4	0.024354406
4	0x3b6c455b	0.0036052081
5	0x3d0181fa	0.031618096
6	0x3d25bbea	0.040462412
7	0x3bf8d189	0.007593338
8	0x3cb01823	0.021495884
9	0x3d356819	0.04428873
10	0x3d558c38	0.052135676
11	0x3c90ea8f	0.017689971
12	0x3ce53ca4	0.027983017
13	0x3d475f0c	0.04867463
14	0x3babdf31	0.0052451123
15	0x3d2e1375	0.042499024

0.model_cnn.layer2.0.weight f4 [32, 16, 3]
0	0x3e1ae55f	0.1512656
1	0xbd074324	-0.033023015
2	0xbe6f5814	-0.23373443
3	0xbb654b5d	-0.0034987547
4	0xbaf19edc	-0.0018434185
5	0xbe116899	-0.14200057
6	0xbdcc1a9c	-0.09966013
7	0x3cb27d6a	0.021788318
8	0xbdeff965	-0.1171749
9	0x3de31aea	0.11089118
10	0xbdbe1e44	-0.092831165
11	0xbdb9f5bd	-0.09080074
12	0xbdd38b3c	-0.10329291
13	0xbdad59e9	-0.084644146
14	0x3d59597d	0.05306386
15	0x3d1a2721	0.037634972
16	0xbd16db24	-0.036830083
17	0x3de342f1	0.110967524
18	0xbd0e7a69	-0.03478471
19	0xbd20dfc5	-0.039275903
20	0xbe06d94f	-0.13168834
21	0x3d7735f3	0.060354184
22	0x3d977f11	0.07397283
23	0x3e4e1bc8	0.20127785
24	0x3d9ea87b	0.07746979
25	0x3e056b1a	0.13029137
26	0xbdc8a46e	-0.097969875
27	0xbc9a4efd	-0.018836493
28	0x3daa84c0	0.08326101
29	0xbbf9cf46	-0.007623586
30	0x3d9c7545	0.07639555
31	0xbd38b18c	-0.045091197
32	0xbde67fbb	-0.112548314
33	0xbdd8088b	-0.105485044
34	0x3e018600	0.12648773
35	0x3cbf5911	0.0233579
36	0xbd9a4f61	-0.075346716
37	0x3e1c7b95	0.15281518
38	0xbdc8d4b4	-0.09806195
39	0x3dd9c96e	0.10634123
40	0x3df036d5	0.117292084
41	0x3df23ebd	0.11828373
42	0xb98399e5	-0.00025100927
43	0x3e22873d	0.15871902
44	0x3d439771	0.047751848
45	0x3d3380b2	0.043823905
46	0x3c696ef3	0.014247644
47	0xbb36dd8d	-0.002790305
48	0x3d406734	0.046973422
49	0xbc432af2	-0.011912094
50	0x3e3fe46f	0.18739484
51	0xbcc8f7c5	-0.024532208
52	0xbbfab466	-0.0076508997
53	0xbe05dd75	-0.1307276
54	0xbd389888	-0.04506734
55	0x3e3e2101	0.18567277
56	0x3bb8ea47	0.0056431624
57	0xbe28f4e1	-0.16499664
58	0xbdb0d5a8	-0.08634502
59	0x3df46c25	0.119346894
60	0xbd8b9976	-0.0681638
61	0x3e0a49a4	0.13504654
62	0x3df2afff	0.11849975
63	0xbddbb0e5	-0.10727099
64	0x3d2304b7	0.03979942
65	0x3c12597a	0.008932466
66	0xbddbd495	-0.10733906
67	0xbd1bddc9	-0.038053308
68	0x3d1367dc	0.03598772
69	0x3ddad03a	0.10684247
70	0xbd5746a0	-0.052557588
71	0x3de42b3f	0.11141061
72	0xbe2a505c	-0.16632217
73	0xbe01f884	-0.12692457
74	0xbdea44ca	-0.11438902
75	0x3e6d4878	0.23172176
76	0x3d926466	0.07148056
77	0x3d203e76	0.039122067
78	0xbe0e253c	-0.13881391
79	0xbe01a0b5	-0.12658961
80	0xbd85ac5c	-0.065270156
81	0x3e4ff45e	0.20308062
82	0x3b30b190	0.0026961304
83	0xbe0390f7	-0.12848268
84	0xbe2cf966	-0.16892013
85	0xbdd1e952	-0.102495804
86	0xbe121af5	-0.14268096
87	0x3da27ce4	0.07933977
88	0x3c1a68b0	0.0094243735
89	0xbda96b4a	-0.08272417
90	0xbd8efc86	-0.06981759
91	0xbd51f811	-0.051261965
92	0xbddf9790	-0.1091758
93	0xbdfa69e9	-0.12227232
94	0xbc21bb78	-0.009871356
95	0xbe0ee2ad	-0.13953657
96	0x3c150ff7	0.009098045
97	0x3dc1cb28	0.09462577
98	0xbdcef4e3	-0.10105302
99	0x3d3e2208	0.046419173
100	0xbc78f272	-0.015194522
101	0xbe12861c	-0.14308971
102	0x3df2c134	0.11853257
103	0x3d615659	0.05501399
104	0x3dcf4839	0.10121197
105	0x3cd8589c	0.02640944
106	0x3d1ea87a	0.03873489
107	0xbd53b055	-0.051681835
108	0xbbfc907b	-0.007707653
109	0xbe0abb10	-0.13547921
110	0x3e45d0ba	0.19317904
111	0xbe76fe00	-0.24120331
112	0x3e1f0946	0.15530881
113	0x3d651d89	0.05593637
114	0xbc5d9852	-0.0135250855
115	0x3e1a4ca1	0.15068294
116	0xbd93c29b	-0.072148524
117	0xbd5f2afb	-0.05448435
118	0x3da165ba	0.07880731
119	0xbcd609e6	-0.026127767
120	0x3d47a9a7	0.048745777
121	0xbe1b3d20	-0.15160036
122	0xbca6b9ea	-0.020352323
123	0xbe43cbee	-0.19120762
124	0xbd642ee5	-0.055708785
125	0xbd740c0b	-0.059581798
126	0x3da885e9	0.08228666
127	0xbbe060e1	-0.0068474864
128	0xbd7aa9b4	-0.061196998
129	0xbcd6078b	-0.026126644
130	0x3e431b79	0.19053449
131	0x3de814a1	0.1133206
132	0xbdd4cd3b	-0.10390707
133	0xbda7b87b	-0.08189484
134	0xbd1af73e	-0.037833445
135	0x3ded5d93	0.115901135
136	0x3c1156a7	0.008870757
137	0x3e28e4ec	0.16493577
138	0xbdf01566	-0.117228314
139	0xbe05d522	-0.13069585
140	0x3e19bea9	0.15014137
141	0x3da86c7a	0.08223815
142	0x3de11738	0.10990757
143	0xbbd9453c	-0.006630568
144	0x3d7d2aef	0.061808523
145	0xbd47debc	-0.0487964
146	0xbe042ab1	-0.1290691
147	0xbe28f259	-0.16498698
148	0x3d2a1b95	0.04153021
149	0xbd82dd7f	-0.06389903
150	0x3dc57954	0.09642282
151	0x3dd723e9	0.10504896
152	0xbd8eafa9	-0.06967098
153	0xbe018231	-0.1264732
154	0x3dcbcb0e	0.09950839
155	0xbe4b6a45	-0.19864757
156	0x3e440106	0.19141015
157	0xbdf02d74	-0.117274195
158	0x3d84688e	0.06465255
159	0x3dae5952	0.0851313
160	0xbce705fa	-0.028201092
161	0xbe1385ea	-0.14406553
162	0x3cc70ab3	0.024297094
163	0xbb5ac742	-0.0033382927
164	0xbdcb03a9	-0.099128075
165	0x3d9b51b7	0.07583945
166	0xbc3c29d4	-0.011484582
167	0xbda4b4e9	-0.080423184
168	0xbc60ae4e	-0.0137134325
169	0x3d6d57b8	0.057944983
170	0xbdd950ec	-0.10611138
171	0x3da303a7	0.07959681
172	0xbdb15e61	-0.086605795
173	0xbe6d9e3b	-0.23204891
174	0x3e1107cd	0.14163132
175	0xbd806a4a	-0.06270273
176	0xbcf8e819	-0.03038411
177	0x3d79d340	0.06099248
178	0x3da1fc7d	0.079094864
179	0x3d7fab36	0.06241914
180	0x3da3de90	0.08001435
181	0xbdb1a244	-0.08673528
182	0xbcca1721	-0.024669232
183	0x3c7fd6d0	0.01561518
184	0xbdda487e	-0.10658358
185	0xbdd65ea1	-0.10467268
186	0x3d64dd53	0.055875134
187	0x3d557360	0.052111983
188	0x3c966e35	0.018363098
189	0xbdd03c26	-0.101677224
190	0xbd8eb10b	-0.06967362
191	0x3de42032	0.11138953
192	0xbc3f2007	-0.011665351
193	0x3e1193ff	0.14216612
194	0xbd8c5a97	-0.06853216
195	0x3e62a871	0.22134568
196	0x3c577ca6	0.013152277
197	0x3cf1c6fb	0.029513827
198	0xbd05d600	-0.03267479
199	0x3e377965	0.17917402
200	0x3df3150e	0.1186925
201	0x3dd49d14	0.10381523
202	0x3ac2d638	0.0014864868
203	0xbd742e25	-0.05961432
204	0x3daba4e7	0.08381062
205	0x3c581d97	0.0131906485
206	0xbd517aec	-0.051142618
207	0x3da4eca8	0.08052951
208	0xbda9f983	-0.08299544
209	0xbdb68741	-0.089125164
210	0x3de1506d	0.11001668
211	0xbd54cba1	-0.05195201
212	0xbe31fee1	-0.17382385
213	0xbdd5914d	-0.104281045
214	0xbcddeb22	-0.02708966
215	0x3dac15e1	0.084026106
216	0xbe0af73b	-0.13570873
217	0xbe150e89	-0.14556326
218	0xbe2a53e3	-0.16633563
219	0xbe742176	-0.2384089
220	0xbe1ef3f5	-0.1552275
221	0x3e25c424	0.16188103
222	0x3de2304d	0.11044369
223	0xbd0932f0	-0.033495843
224	0x3d8daa27	0.069172196
225	0xbd2164df	-0.03940284
226	0xbdaba82d	-0.08381686
227	0x3e3828b1	0.17984273
228	0x3e017329	0.12641586
229	0xbd856c07	-0.06514745
230	0xbc917ffe	-0.017761227
231	0x3da70c41	0.08156634
232	0x3b8e0399	0.004333925
233	0x3e4631a1	0.1935487
234	0xbd9038fa	-0.070421174
235	0xbe5f575c	-0.21810669
236	0xbd8404fa	-0.06446262
237	0x3de01df9	0.10943217
238	0xbe0ea1d3	-0.13928919
239	0x3e460aea	0.19340101
240	0xbdcd75e3	-0.10032251
241	0x3d30d25f	0.043169376
242	0x3bd3d309	0.0064643663
243	0xbe069ad0	-0.13144994
244	0xbd93df8d	-0.07220373
245	0x3d8dd0f2	0.06924619
246	0x3d05ee8c	0.0326982
247	0xbdf6518e	-0.12027274
248	0xbe054ff1	-0.13018776
249	0xbd117d98	-0.035520166
250	0x3e0fbb64	0.14036328
251	0xbd0c4165	-0.034242053
252	0x3e07c3c1	0.13258268
253	0xbccd97c2	-0.025096778
254	0x3da5ad11	0.080896504
255	0x3dcf9181	0.101351745

0.model_cnn.layer2.0.bias f4 [32]
0	0xb6531a99	-3.1456932e-06
1	0x38ba333a	8.878713e-05
2	0x38700cd3	5.7232402e-05
3	0x3792f99c	1.752079e-05
4	0x38a565f1	7.886801e-05
5	0xb892bd6f	-6.997107e-05
6	0x371f102c	9.480904e-06
7	0x37b26bd2	2.1269461e-05
8	0xb881c948	-6.188691e-05
9	0xb85bc196	-5.239396e-05
10	0x340b0e03	1.2950481e-07
11	0x38fb51de	0.000119838616
12	0x388bb319	6.661396e-05
13	0x389df7de	7.532512e-05
14	0x3898ea35	7.291549e-05
15	0x38cba8b3	9.711217e-05
16	0xb747d001	-1.1909754e-05
17	0x385cf765	5.268249e-05
18	0x3423b823	1.5247547e-07
19	0xb7be22dd	-2.2666e-05
20	0x380877c6	3.2536474e-05
21	0x37a8c297	2.0117774e-05
22	0xb8c81ee4	-9.542497e-05
23	0xb854378f	-5.059648e-05
24	0xb8bc638b	-8.98308e-05
25	0x38aee540	8.339668e-05
26	0xb691c96a	-4.3447844e-06
27	0x39115a45	0.00013861906
28	0xb8cbccda	-9.717951e-05
29	0x3757251f	1.2823642e-05
30	0x3846c172	4.738704e-05
31	0xb7927c22	-1.746236e-05

0.model_cnn.layer2.1.weight f4 [32]
0	0x3f8744a8	1.0567827
1	0x3f85a9c0	1.0442429
2	0x3f702c93	0.93818015
3	0x3f75914c	0.9592483
4	0x3f6b6149	0.9194532
5	0x3f80acb0	1.00527
6	0x3f735781	0.95055395
7	0x3f7120ad	0.94190484
8	0x3f7ca6d4	0.9869206
9	0x3f8744e6	1.0567901
10	0x3f585460	0.84503746
11	0x3f7de4e1	0.99177366
12	0x3f865bc6	1.0496757
13	0x3f6fd90c	0.9369056
14	0x3f8322fc	1.0245051
15	0x3f83122b	1.023992
16	0x3f891beb	1.0711645
17	0x3f877e0a	1.0585339
18	0x3f823d09	1.0174876
19	0x3f72ead8	0.94889593
20	0x3f8a90b3	1.0825409
21	0x3f81db4f	1.0145053
22	0x3f7a87c1	0.97863394
23	0x3f809d28	1.004796
24	0x3f8e4a58	1.1116438
25	0x3f897925	1.0740095
26	0x3f7fb822	0.9989034
27	0x3f7c98a4	0.9867041
28	0x3f92f698	1.1481504
29	0x3f822652	1.0167944
30	0x3f83bd04	1.0292058
31	0x3f87364d	1.0563446

0.model_cnn.layer2.1.bias f4 [32]
0	0x3d27cfe3	0.04096974
1	0x3d665dc4	0.056241766
2	0xbd5a1b9f	-0.053248998
3	0xbbd975be	-0.0066363504
4	0xbdacb939	-0.08433766
5	0xbd61a88e	-0.055092387
6	0xbe0ec175	-0.13940986
7	0xbd222184	-0.039582744
8	0x3b8390e9	0.0040150774
9	0xbdabdfc6	-0.08392291
10	0xbd9a1039	-0.075226255
11	0xbda7e704	-0.081983596
12	0xbd7b69c6	-0.06138017
13	0xbdf18044	-0.11792043
14	0xbc2701e2	-0.01019332
15	0xbd4f6334	-0.050631717
16	0xbcb7eca9	-0.022451716
17	0x3d21e8b2	0.039528556
18	0xbd601f43	-0.054717313
19	0xbdfa6e9c	-0.12228128
20	0xbd63a070	-0.055572927
21	0xbdde5fe1	-0.10858131
22	0xbe07d7a1	-0.1326585
23	0xbda58233	-0.08081474
24	0x3c1fb19e	0.009746937
25	0x3c655b17	0.013998768
26	0xbd315e73	-0.043302964
27	0xbd9bcbd1	-0.07607234
28	0x3cbe5e04	0.02323819
29	0xba011ce3	-0.0004925264
30	0xbdceb545	-0.10093168
31	0xbcecfd63	-0.028929418

0.model_cnn.layer2.1.running_mean f4 [32]
0	0x3aeb5509	0.001795442
1	0xbe897316	-0.26845616
2	0x3c8e4e9f	0.017371474
3	0xbcae8cf1	-0.02130744
4	0x3cf4035b	0.029786756
5	0xbd130a8b	-0.035898726
6	0xbc076518	-0.008263849
7	0x3bc2a6ea	0.005940308
8	0xbe1cb4a9	-0.15303291
9	0xbcf10fee	-0.029426541
10	0xbe39592a	-0.1810042
11	0x3aad861a	0.0013238818
12	0xbe8e1ed5	-0.27757898
13	0x3dec01df	0.115237944
14	0x3e37a395	0.17933495
15	0xbe05ea30	-0.13077617
16	0xbe8c4e36	-0.2740342
17	0x3d963da5	0.073359765
18	0x3d8e079d	0.06935046
19	0x3ddf3733	0.108992
20	0xbd9795e1	-0.07401634
21	0x3ddf4960	0.10902667
22	0x3c9ac747	0.018893851
23	0xbcf2bc5d	-0.029630834
24	0xbec5faa7	-0.38667795
25	0xbde5917d	-0.1120939
26	0xbe239142	-0.1597338
27	0x3cddfef1	0.027099105
28	0xbe07d391	-0.132643
29	0xbe1c99c1	-0.15293027
30	0xbe964805	-0.29351822
31	0xbe84db51	-0.25948575

0.model_cnn.layer2.1.running_var f4 [32]
0	0x3d23fcf8	0.04003617
1	0x3e04192c	0.12900227
2	0x3dc4317c	0.09579751
3	0x3d42bf54	0.047545746
4	0x3e3d503a	0.18487635
5	0x3d8bd9bd	0.0682864
6	0x3cde608c	0.027145647
7	0x3d47cd55	0.048779804
8	0x3e23627d	0.15955539
9	0x3d0921ac	0.033479378
10	0x3deabc8a	0.11461742
11	0x3dc2b7ab	0.09507688
12	0x3eb9b728	0.3627255
13	0x3d17343b	0.036915045
14	0x3d800a38	0.06251949
15	0x3dbeec0b	0.093223654
16	0x3d7e2f41	0.062056784
17	0x3d242954	0.040078476
18	0x3d2d9658	0.042379707
19	0x3d61541b	0.05501185
20	0x3d2547a5	0.04035153
21	0x3dac73d3	0.08420529
22	0x3ceeb563	0.029139226
23	0x3d119326	0.035540722
24	0x3e1bad80	0.15202904
25	0x3d51cfc9	0.05122355
26	0x3e0817ab	0.13290279
27	0x3d3242de	0.0435208
28	0x3daee526	0.085398
29	0x3e1b0deb	0.15142028
30	0x3e3d1546	0.18465146
31	0x3d71de5a	0.05904994

0.model_cnn.layer3.0.weight f4 [64, 32, 3]
0	0x3e02d4b2	0.1277645
1	0x3d2e4f6d	0.042556215
2	0xbe19a951	-0.15005995
3	0x3dbc3822	0.09190394
4	0xbb85d05b	-0.004083676
5	0x3ccd9bfa	0.02509879
6	0xbd88e668	-0.066845715
7	0x3dd210bf	0.102571
8	0xbd2ef0fe	-0.042710297
9	0xbc4fb6e2	-0.01267788
10	0x3cc8265b	0.024432352
11	0xbe2f6a95	-0.17130502
12	0xbd37e762	-0.0448984
13	0xbe150969	-0.14554371
14	0xbd97e1a4	-0.074160844
15	0x3d7cb585	0.061696548
16	0x3b3a6b7e	0.0028445418
17	0x3dd1590b	0.10222062
18	0xbc18624b	-0.009300779
19	0x3caa6b5a	0.020803142
20	0xbd3eef20	-0.046614766
21	0xbe1a9dc5	-0.15099247
22	0x3c382f75	0.011241783
23	0x3c3b9e5c	0.01145133
24	0xbcfbf46b	-0.030756196
25	0x3da9d2ad	0.08292136
26	0xbba76e73	-0.005109602
27	0xbdaea568	-0.085276425
28	0x3dba2b6d	0.09090314
29	0xbd81b5f4	-0.06333533
30	0x3d917ffc	0.07104489
31	0x3e43e72b	0.19131152
32	0x3db0b65e	0.08628534
33	0xbd4b0b06	-0.04957106
34	0x3cf2e703	0.02965117
35	0x3dbd3bf6	0.09239952
36	0xbe1c2989	-0.1525022
37	0x3ddadc65	0.10686568
38	0xbb9968b2	-0.00468167
39	0x3d97ff08	0.0742169
40	0xbdc52241	-0.09625674
41	0x3d00abe5	0.03141393
42	0xbb9908ca	-0.004670237
43	0xbe20a493	-0.1568778
44	0x3e049628	0.12947905
45	0x3dc64200	0.09680557
46	0x3d949291	0.07254518
47	0xbe218ddf	-0.15776776
48	0xbb592680	-0.003313452
49	0x3da3de76	0.080014154
50	0x3dca6a56	0.09883563
51	0xbc3bbf77	-0.011459223
52	0xbe10c3cc	-0.1413719
53	0xbda7baeb	-0.08189949
54	0x3d3064e1	0.043064956
55	0x3cf1aa53	0.029500162
56	0xbd838915	-0.06422631
57	0xbd51028e	-0.051027827
58	0xbdf1e2c6	-0.11810832
59	0x3d88f523	0.06687381
60	0x3d971a76	0.07378094
61	0x3dc372fe	0.095434174
62	0xbc26e308	-0.010185964
63	0x3d71f757	0.059073772
64	0x3db71362	0.08939244
65	0xbc6e7fd5	-0.014556845
66	0x3ded3e47	0.11584144
67	0xbde32752	-0.11091484
68	0xbcc99581	-0.024607422
69	0x3bba7c33	0.005691075
70	0x3dbe522a	0.09293015
71	0x3c37d598	0.011220358
72	0x3d255dc8	0.04037264
73	0x3d677c75	0.056515176
74	0x3da1aac3	0.07893898
75	0x3cbb9389	0.022897499
76	0xbb947191	-0.0045301397
77	0x3dbae4ca	0.09125669
78	0xbd3d2981	-0.04618216
79	0xbd597394	-0.05308874
80	0xbde0134e	-0.10941182
81	0x3d1a981d	0.037742723
82	0x3bc18820	0.00590612
83	0xbcfa1784	-0.030528791
84	0x3dccdc22	0.100029245
85	0x3dfcd4ad	0.12345252
86	0xbdb66d3c	-0.089075536
87	0xbe2fab3e	-0.17155167
88	0xbd5062db	-0.050875526
89	0xbd961d6c	-0.073298305
90	0xbdd62aff	-0.104574196
91	0x3df9b614	0.12192932
92	0xbd822e16	-0.063564464
93	0xbcdacc8a	-0.02670886
94	0x3e26106e	0.16217205
95	0x3c9d8ba2	0.019231621
96	0x3cd3f6ef	0.025874583
97	0x3e30b3cb	0.17256086
98	0x3e4a6a2a	0.19767061
99	0x3c525799	0.012838268
100	0x3e0bbf3b	0.13647167
101	0xbc9d3aac	-0.019193016
102	0x3d061929	0.03273884
103	0x3d1aa016	0.037750326
104	0x3b4e6f28	0.003149936
105	0xbc68bf4e	-0.014205767
106	0x3df9c56e	0.1219586
107	0xbcc9f066	-0.024650764
108	0xbd8aefb7	-0.06784003
109	0xbc5ed82c	-0.013601344
110	0xbb33be42	-0.0027426635
111	0xbde2ab46	-0.11067824
112	0x3c4cbf65	0.012496804
113	0x3dfda461	0.123848684
114	0xbe00af8f	-0.1256697
115	0x3d978c67	0.073998265
116	0xbe2848cc	-0.1643402
117	0xbdc7ae4e	-0.09750043
118	0x3dd539b4	0.104113966
119	0x3d07b1e4	0.033128634
120	0xbe0c30e9	-0.13690533
121	0x3e2d737d	0.16938587
122	0xbdb078b6	-0.08616774
123	0xbb2330ae	-0.0024900842
124	0x3cd61c19	0.026136445
125	0x3cfa83d3	0.030580437
126	0x3d3df9aa	0.046380676
127	0xbdc32386	-0.0952826
128	0xbe002e73	-0.12517719
129	0xbe143a6d	-0.14475413
130	0xbdb9f061	-0.09079052
131	0x3d95c291	0.07312501
132	0x3b3c391c	0.0028720563
133	0xbddebb8f	-0.10875618
134	0xbe76b9f0	-0.24094367
135	0x3d62f3f7	0.055408444
136	0x3dfe285c	0.12410042
137	0x3d43c790	0.04779774
138	0x3dc1cf77	0.09463399
139	0xbc963a25	-0.018338272
140	0x3b408d19	0.0029380976
141	0x3c90767d	0.017634625
142	0xbcd78303	-0.026307588
143	0x3c994439	0.018709289
144	0x3da13c3c	0.07872817
145	0x3d21f101	0.03953648
146	0xbe1f624f	-0.15564846
147	0xbd301a41	-0.042993788
148	0xbd644089	-0.055725608
149	0x3d54d901	0.051964764
150	0xbc020cb1	-0.007937596
151	0xbc9a3861	-0.018825712
152	0xbe0ad0f8	-0.13556278
153	0xbd14fb4f	-0.03637248
154	0xbdc11c67	-0.094292454
155	0x3cb97680	0.022639513
156	0xbcff1825	-0.031139443
157	0x3d876169	0.066103764
158	0xbe441ca2	-0.19151548
159	0xbd731d48	-0.059354097
160	0x3c54881f	0.012971907
161	0xbde7d5ee	-0.11320101
162	0xbe2248ca	-0.1584808
163	0x3def339f	0.11679768
164	0x3d00eca7	0.03147569
165	0xbcc24c36	-0.02371798
166	0xbd529c89	-0.051418815
167	0xbdddb5eb	-0.10825714
168	0x3e177efe	0.14794537
169	0x3dfcb9f7	0.123401575
170	0xbc000739	-0.007814222
171	0x3d9f1c9e	0.0776913
172	0xbd3d8b69	-0.04627553
173	0x3d9e33a4	0.077246934
174	0xbdc13d0f	-0.09435474
175	0xbcb2ac04	-0.021810539
176	0x3dea5297	0.11441534
177	0x3d8e23f4	0.06940451
178	0x3dfa89b3	0.12233295
179	0xbd75043c	-0.05981849
180	0xbd335ea5	-0.043791432
181	0xbddfa13f	-0.10919427
182	0xbde7fb36	-0.113272116
183	0xbd3155f2	-0.043294854
184	0x3db0ac13	0.086265706
185	0x3d47ffc1	0.04882789
186	0xbd624f2e	-0.055251293
187	0xbdb7752b	-0.08957895
188	0xbe165d08	-0.14683926
189	0x3cac1a2f	0.021008579
190	0xbdb1ebe9	-0.086875744
191	0xbdbfb06a	-0.0935982
192	0xbe26041d	-0.16212507
193	0xbd90dc46	-0.07073264
194	0xbdc1a504	-0.09455302
195	0xbd4ada56	-0.049524628
196	0xbe98e717	-0.29863808
197	0xbc01ae7a	-0.007915134
198	0x3c0b4e97	0.008502624
199	0x3d164835	0.036689956
200	0xbe0d9333	-0.13825683
201	0xbbbea3f2	-0.0058178836
202	0x3d6ff6c6	0.05858495
203	0x3d8786f3	0.066175364
204	0x3dbacdd1	0.091212876
205	0xbd926827	-0.07148772
206	0x3dc4a041	0.096008785
207	0xbdba457b	-0.090952836
208	0x3d9a934a	0.075476244
209	0xba3647dd	-0.00069534575
210	0xbdc519c6	-0.096240565
211	0x3c0ed3fb	0.008717532
212	0xbdb29896	-0.0872051
213	0xbdbb729f	-0.091527216
214	0x3d4b9f13	0.049712252
215	0xbd8ef22f	-0.069797866
216	0x3d849796	0.06474225
217	0xbe3e8b40	-0.18607807
218	0x3d7aebca	0.061260022
219	0x3d098dc2	0.033582456
220	0xbc8b9000	-0.017036438
221	0x3caebfb0	0.021331638
222	0xbc817539	-0.015802966
223	0xbd75f9ed	-0.0600528
224	0x3c69eb5a	0.014277304
225	0xbc121a59	-0.008917415
226	0xbd6afe85	-0.057371635
227	0xbd2d2076	-0.042267285
228	0x3cc6bbfc	0.02425956
229	0xbcb66fa6	-0.022270035
230	0x3c5afd40	0.013366044
231	0xbd66906e	-0.056290083
232	0x3d67e74f	0.056617077
233	0x3c2ed3db	0.0106706275
234	0xbcf58163	-0.029968923
235	0x3c9b6047	0.018966807
236	0x3d8ecaf1	0.06972302
237	0xbc4851af	-0.012226506
238	0x3d9f6d6c	0.077845424
239	0xbd12f1f3	-0.035875272
240	0xbdaf3b87	-0.08556276
241	0xbdc84fe8	-0.09780866
242	0x3dbe3da4	0.09289101
243	0x3da5bf68	0.080931485
244	0xbdd032e3	-0.10165956
245	0x3d300261	0.04297102
246	0xbd885b4b	-0.06658038
247	0x3c33dd98	0.010978125
248	0xbd38d080	-0.045120716
249	0xbc8de2b3	-0.017320013
250	0xbd9f2963	-0.07771566
251	0x3ca93f12	0.020659957
252	0x3c1a93d2	0.009434657
253	0x3d31c182	0.043397434
254	0xbe0f558a	-0.13997474
255	0xbdafce0a	-0.08584221

0.model_cnn.layer3.0.bias f4 [64]
0	0x36a7f2fb	5.0052745e-06
1	0x35d8ebfc	1.6161935e-06
2	0x3737f1c8	1.0963944e-05
3	0xb7590480	-1.2935256e-05
4	0x3728bf78	1.005816e-05
5	0x370eb09c	8.50498e-06
6	0xb72aa40f	-1.01709875e-05
7	0xb755849c	-1.2726665e-05
8	0x3670ce08	3.5882713e-06
9	0x3735723c	1.0815038e-05
10	0xb712a097	-8.739668e-06
11	0xb6f46e39	-7.2845983e-06
12	0xb70a92a5	-8.259584e-06
13	0x374ec837	1.2325173e-05
14	0xb6125e4e	-2.1810588e-06
15	0x38533525	5.0355815e-05
16	0xb8338ec9	-4.2809905e-05
17	0x368d5715	4.212265e-06
18	0xb787e034	-1.6197657e-05
19	0xb5e3ee00	-1.6982085e-06
20	0xb6d98878	-6.482991e-06
21	0x3747945b	1.1895866e-05
22	0xb7b05c6b	-2.102387e-05
23	0xb76a90cf	-1.3981203e-05
24	0x38149bc5	3.543102e-05
25	0xb7e5c697	-2.7391403e-05
26	0x3763785d	1.3558279e-05
27	0xb5de1bc9	-1.6548375e-06
28	0xb7b7b007	-2.189727e-05
29	0xb80430e4	-3.1516785e-05
30	0x37ecdfb3	2.823756e-05
31	0xb67acc37	-3.7371772e-06
32	0x37d51f57	2.5406172e-05
33	0x360ae275	2.0695418e-06
34	0x37b1b043	2.1182123e-05
35	0xb77d8a03	-1.51121085e-05
36	0xb780e129	-1.5363637e-05
37	0xb747c856	-1.1907969e-05
38	0x379f9578	1.9023879e-05
39	0x379fda95	1.9056062e-05
40	0xb58c6c5d	-1.0462351e-06
41	0xb59c710f	-1.165581e-06
42	0x3697ffe6	4.529941e-06
43	0x36a3dfd1	4.883834e-06
44	0x36c9374e	5.996705e-06
45	0x37675587	1.3788586e-05
46	0xb701e110	-7.741401e-06
47	0xb7205a6a	-9.557794e-06
48	0x365a8408	3.2561384e-06
49	0xb78ab0e3	-1.6533251e-05
50	0x35ededfb	1.7727137e-06
51	0x3536e1ab	6.8128674e-07
52	0xb6e84d22	-6.9231182e-06
53	0x37a22842	1.9330651e-05
54	0x370b5a8e	8.3061295e-06
55	0xb6c9ddb8	-6.0160783e-06
56	0x37940f3f	1.7650074e-05
57	0x36971985	4.5031215e-06
58	0x372d4e66	1.0329857e-05
59	0xb801c5f8	-3.094037e-05
60	0x37321b30	1.0615957e-05
61	0xb7404e37	-1.1462303e-05
62	0xb73ac183	-1.1131519e-05
63	0xb69aea39	-4.6168248e-06

0.model_cnn.layer3.1.weight f4 [64]
0	0x3f6c8ebb	0.9240529
1	0x3f830876	1.0236957
2	0x3f859779	1.0436851
3	0x3f6cc1cb	0.92483205
4	0x3f7d74d8	0.99006414
5	0x3f79a205	0.9751285
6	0x3f76053c	0.9610174
7	0x3f69e147	0.9135937
8	0x3f83654a	1.0265286
9	0x3f6b24f3	0.91853255
10	0x3f84bdb6	1.0370395
11	0x3f8424d5	1.032374
12	0x3f819008	1.012208
13	0x3f896ba3	1.0735973
14	0x3f6559b4	0.8959
15	0x3f82f0e2	1.0229762
16	0x3f813e7d	1.0097195
17	0x3f83e592	1.0304434
18	0x3f84687a	1.0344384
19	0x3f6508a9	0.8946634
20	0x3f88c44b	1.0684904
21	0x3f88acc2	1.0677722
22	0x3f83cb77	1.0296468
23	0x3f946600	1.1593628
24	0x3f83d8f2	1.0300581
25	0x3f7da1e9	0.9907518
26	0x3f867bd5	1.050654
27	0x3f803bc8	1.0018244
28	0x3f7964e3	0.97419566
29	0x3f82db76	1.0223224
30	0x3f82ac72	1.0208876
31	0x3f83f93a	1.0310433
32	0x3f816656	1.0109355
33	0x3f786b16	0.970384
34	0x3f8190f6	1.0122364
35	0x3f7fd426	0.9993309
36	0x3f84dcea	1.0379918
37	0x3f81dc6e	1.0145395
38	0x3f816822	1.0109904
39	0x3f902776	1.1262043
40	0x3f861154	1.0474038
41	0x3f7f6b52	0.9977313
42	0x3f7df692	0.9920436
43	0x3f72e5a1	0.94881636
44	0x3f81cab9	1.0139991
45	0x3f8e8dfd	1.1137081
46	0x3f6d15ea	0.92611563
47	0x3f884d5e	1.064861
48	0x3f7e4bb0	0.9933424
49	0x3f7bffac	0.98437
50	0x3f86808b	1.0507978
51	0x3f57190e	0.84022605
52	0x3f743a1f	0.95401186
53	0x3f8d9254	1.1060281
54	0x3f8ec9ea	1.1155369
55	0x3f8b7eed	1.089811
56	0x3f80f3ab	1.0074362
57	0x3f6ebb68	0.9325471
58	0x3f6d4a5f	0.92691606
59	0x3f8e5094	1.111834
60	0x3f68bdc0	0.90914536
61	0x3f6d6292	0.9272853
62	0x3f8b7045	1.0893637
63	0x3f67c2bb	0.9053151

0.model_cnn.layer3.1.bias f4 [64]
0	0xbe1f71d9	-0.15570773
1	0xbdfeb59b	-0.12436982
2	0x3bd3d1d8	0.0064642243
3	0xbe426ba0	-0.18986368
4	0xbdd46bba	-0.1037211
5	0xbd904dfc	-0.07046124
6	0xbcff7b84	-0.031186827
7	0xbe7035c1	-0.23458005
8	0xbce34160	-0.027741134
9	0xbd5a98d2	-0.053368397
10	0xbe34775a	-0.17623654
11	0xbc7e0a71	-0.015505419
12	0xbdf0fc08	-0.11766821
13	0xbc92edb4	-0.017935611
14	0xbdfa2edf	-0.12215971
15	0xbe5aa97c	-0.21353716
16	0xbd5051ac	-0.05085914
17	0xbde5c11c	-0.11218473
18	0xbdcb5fbe	-0.09930371
19	0xbd8974c8	-0.067117274
20	0xbdea345b	-0.11435767
21	0xbd68355f	-0.056691524
22	0xbc058a57	-0.008150659
23	0xbe2c9f1f	-0.16857575
24	0xbde391cd	-0.11111794
25	0xbd92ab96	-0.07161634
26	0xbd67d0e8	-0.056595713
27	0xbdd86875	-0.105667986
28	0xbe4f42ef	-0.20240377
29	0xbdadb2c8	-0.084813654
30	0xbdb69b60	-0.08916354
31	0xbd22e3db	-0.03976808
32	0xbdc81de2	-0.09771325
33	0xbe044c95	-0.12919839
34	0xbd8fe253	-0.0702559
35	0xbdbece59	-0.093167014
36	0xbdbbc117	-0.09167688
37	0xbdfb58c4	-0.1227279
38	0xbcec6494	-0.028856553
39	0xbd617cde	-0.055050723
40	0xbb2855ee	-0.0025685984
41	0xbda7d315	-0.081945576
42	0xbd72bbee	-0.059261255
43	0xbd939e30	-0.07207906
44	0xbce381de	-0.027771886
45	0x3dd843b3	0.105597876
46	0xbe036527	-0.12831555
47	0xbcedae2d	-0.029013718
48	0xbced3c47	-0.028959407
49	0xbd91ff53	-0.07128777
50	0xbd147a45	-0.036249418
51	0xbdb6ebad	-0.0893167
52	0xbd43d1e0	-0.047807574
53	0xbe151ff5	-0.14562972
54	0xbd8dc984	-0.06923202
55	0xbd389d49	-0.045071874
56	0xbe5eb5e6	-0.21749076
57	0xbd239afa	-0.03994272
58	0xbdf974ac	-0.121804565
59	0x3dfd1db3	0.1235918
60	0xbdf8e0b8	-0.12152237
61	0xbd53d25f	-0.051714297
62	0xbd15ffbb	-0.036620837
63	0xbe0e1fc2	-0.13879302

0.model_cnn.layer3.1.running_mean f4 [64]
0	0x3e094f48	0.1340915
1	0xbdecd033	-0.11563148
2	0xbf1540e1	-0.5830212
3	0x3e710fd4	0.23541194
4	0x3e9ec675	0.31010786
5	0xbe13306d	-0.14373942
6	0xbe221049	-0.15826525
7	0xbc8c6ef6	-0.017142754
8	0xbe91727e	-0.28407663
9	0xbf27042d	-0.65240747
10	0xbdd522be	-0.10407017
11	0xbf6c5cd9	-0.92329174
12	0x3d84a09a	0.06475945
13	0xbf399fa6	-0.7250923
14	0xbed49902	-0.41522986
15	0x3da7901f	0.08181786
16	0x3ed71442	0.42007643
17	0x3e390902	0.18069842
18	0x3d363a18	0.044488996
19	0x3d711dbb	0.058866244
20	0x3e626bf4	0.22111493
21	0xbec14ffd	-0.3775634
22	0x3f054f03	0.5207369
23	0xbf2b2b3c	-0.66862845
24	0xbe6afc34	-0.2294777
25	0xbdecf38d	-0.11569891
26	0xbe89bba2	-0.26900965
27	0x3d07c56e	0.033147268
28	0x3d8e68ba	0.06953569
29	0x3e99280f	0.29913375
30	0x3e8a14fc	0.26969135
31	0x3ea52d0b	0.32260928
32	0xbeecad14	-0.46225798
33	0xbd62b510	-0.055348456
34	0x3e586d1c	0.21135372
35	0xbe104dab	-0.14092128
36	0xbd8442fd	-0.064580895
37	0x3edb8aaf	0.42879245
38	0x3cafd508	0.021463886
39	0xbf08a4c1	-0.53376395
40	0xbe92d78b	-0.2868007
41	0xbea180f3	-0.31543693
42	0x3e4445a0	0.19167185
43	0xbe0f1a49	-0.1397487
44	0xbef040dd	-0.46924487
45	0xbf0024f5	-0.5005639
46	0x3e505541	0.20345022
47	0xbf1350eb	-0.57545346
48	0xbef60b0e	-0.4805531
49	0xbe8db7fb	-0.27679428
50	0xbf1849c6	-0.5948757
51	0x3e59a498	0.21254194
52	0xbf107565	-0.5642913
53	0xbdfb60be	-0.122743115
54	0xbf36d8b8	-0.71424437
55	0xbefed827	-0.49774286
56	0x3bbe3ae4	0.00580536
57	0xbce02ac3	-0.02736414
58	0x3d9fd325	0.078039445
59	0xbf659f86	-0.8969654
60	0xbe40810b	-0.18799226
61	0x3e31fd30	0.1738174
62	0xbd907084	-0.07052711
63	0xbea84089	-0.32861736

0.model_cnn.layer3.1.running_var f4 [64]
0	0x3e556095	0.20837624
1	0x3e58259f	0.21108101
2	0x3e4a8870	0.1977861
3	0x3e16dd1d	0.14732786
4	0x3ed3dc66	0.41379088
5	0x3f074194	0.5283444
6	0x3e3b206b	0.18274085
7	0x3e33a669	0.17543949
8	0x3f4b700c	0.79467845
9	0x3f681338	0.90654325
10	0x3e2f6027	0.17126523
11	0x3fae9c53	1.3641456
12	0x3e35e53c	0.17763227
13	0x3f11a240	0.568882
14	0x3e7f8371	0.24952485
15	0x3e51e632	0.20497969
16	0x3e232d5e	0.15935275
17	0x3e6f4269	0.23365177
18	0x3e312cda	0.17302266
19	0x3e83fcd9	0.25778845
20	0x3e08b492	0.13350132
21	0x3dd5aa60	0.10432887
22	0x3e592e1e	0.21208999
23	0x3e1d3c9f	0.15355156
24	0x3dee63ad	0.116401054
25	0x3ddfba56	0.10924213
26	0x3e47938c	0.19489878
27	0x3e794775	0.24343665
28	0x3e21fd33	0.15819244
29	0x3e0f2521	0.13979007
30	0x3e72ad86	0.23699006
31	0x3e194ab0	0.14969897
32	0x3e167b15	0.1469539
33	0x3e28d4a5	0.16487367
34	0x3e95d450	0.29263544
35	0x3e24c0dc	0.16089195
36	0x3e893bb7	0.2680337
37	0x3e3b3eb4	0.18285638
38	0x3e27329a	0.16327897
39	0x3e97bd48	0.29636598
40	0x3f3c59a9	0.7357431
41	0x3e2d25ef	0.16909002
42	0x3e94fc0e	0.29098552
43	0x3e85afa7	0.26110575
44	0x3dff5418	0.124672115
45	0x3e9da868	0.30792546
46	0x3e523488	0.20527852
47	0x3fb56f5b	1.4174608
48	0x3fa44d52	1.2836096
49	0x3e8962ea	0.26833278
50	0x3eb2b32b	0.3490232
51	0x3fb46e41	1.4096147
52	0x3e8189fa	0.2530058
53	0x3e6c8ae0	0.23099852
54	0x3ee0f16f	0.439342
55	0x3e8c895c	0.27448547
56	0x3e1d51e0	0.15363264
57	0x3ebec88b	0.37262377
58	0x3e04c6c2	0.12966445
59	0x3eff3ef4	0.49852717
60	0x3e8d264a	0.27568275
61	0x3de70ebb	0.112821065
62	0x3e5dc931	0.2165878
63	0x3e99ac02	0.30014044

0.model_cnn.layer4.0.weight f4 [128, 64, 3]
0	0x3c1c97ca	0.009557674
1	0x3cca3185	0.024681816
2	0xbd0a03c9	-0.033695016
3	0xbe348a6a	-0.17630926
4	0x3db3a00b	0.0877076
5	0xbc8e4d0d	-0.017370725
6	0xbdd8f8fd	-0.10594366
7	0xbcea1969	-0.02857657
8	0xbdd92539	-0.10602803
9	0xbc3595a8	-0.011083044
10	0x3bca8576	0.0061804606
11	0xbd6bd84c	-0.057579324
12	0x3dd654d4	0.104653984
13	0xbd453b3a	-0.048152186
14	0xbd6033e6	-0.054736994
15	0xbb087dcf	-0.002082694
16	0x3dd932c9	0.106053896
17	0x3d9f14b0	0.07767618
18	0x3dbf9f2e	0.09356533
19	0xbc2e2e86	-0.010631209
20	0x3c047b49	0.008086034
21	0x3c246bb4	0.010035444
22	0x3dbda970	0.09260833
23	0xbbd4b278	-0.0064910017
24	0x3e00926a	0.12555853
25	0x3dd30a7a	0.103047326
26	0x3c5e1715	0.013555308
27	0xbd1ff1a0	-0.03904879
28	0xbe029caf	-0.12755083
29	0x3cfe676a	0.031055171
30	0xbda37dce	-0.0798298
31	0x3d73a23e	0.059480898
32	0xbd517773	-0.051139306
33	0x3df7509d	0.12075923
34	0x3d8606b4	0.06544247
35	0x3cf506d1	0.029910477
36	0xbd4f99e6	-0.05068388
37	0x3d3e8585	0.046514053
38	0x3c863a88	0.016385332
39	0xbde43a22	-0.111439005
40	0xbca1e9ea	-0.01976486
41	0x3d667f3f	0.056273695
42	0x3bdd220a	0.0067484425
43	0x3dbaee77	0.09127515
44	0xbd24d6df	-0.04024398
45	0xbd959352	-0.0730349
46	0x3d3e4082	0.04644824
47	0x3da252ac	0.07925925
48	0xbd494f1a	-0.049147703
49	0x3dddb88c	0.10826215
50	0x3cc0b22d	0.02352246
51	0x3dac20a9	0.08404667
52	0x3d83948d	0.06424818
53	0xbd1dd454	-0.03853257
54	0x3e0c5626	0.13704738
55	0xbc3ccb5b	-0.011523093
56	0xbcfcdec8	-0.03086795
57	0x3cd48b37	0.025945289
58	0x3bfb1e78	0.0076635443
59	0xbd43f064	-0.047836676
60	0x3df367f1	0.118850596
61	0x3e2f4d71	0.17119385
62	0xbca2a93d	-0.01985609
63	0x3cdc4592	0.026888642
64	0xbd257ed6	-0.040404163
65	0x3d8c7865	0.06858901
66	0xbd770758	-0.060309738
67	0xbd01f1ff	-0.031724926
68	0x3da46616	0.08027284
69	0x3d4f9feb	0.05068962
70	0xbdc343b9	-0.095344014
71	0xbd5c40f9	-0.0537729
72	0xbd3f8898	-0.046761125
73	0x3b07f7ba	0.0020747022
74	0xbcf793bd	-0.030221814
75	0x3e0bad6a	0.13640371
76	0xbdb0831e	-0.086187586
77	0x3dc4ecc8	0.09615475
78	0xbda06888	-0.07832438
79	0x3dba3805	0.09092716
80	0xbe038450	-0.12843442
81	0x3a7ad389	0.00095682644
82	0xbd721577	-0.0591025
83	0xbdc13ee1	-0.09435821
84	0x3cad7f2d	0.021178806
85	0xbd7a00a7	-0.06103578
86	0xbd7c689c	-0.0616232
87	0x3d99bc5a	0.07506628
88	0x3dc051c0	0.093905926
89	0x3d8d7425	0.069069184
90	0x3e0a12bd	0.1348371
91	0x3c302de1	0.010753126
92	0x3e03ca0e	0.12870046
93	0x3c09435a	0.008377874
94	0xbadcee53	-0.0016855694
95	0xbda1734c	-0.07883319
96	0xbd331666	-0.043722533
97	0x3d6083f2	0.054813333
98	0x3c373d83	0.011184099
99	0xbd515c2e	-0.0511133
100	0x3e0fdee6	0.14049873
101	0xbcb73df0	-0.022368401
102	0xbd9f9e95	-0.07793919
103	0x3b1791ed	0.002312775
104	0xbdbe0dc1	-0.09279967
105	0x3d3b5ef4	0.04574485
106	0xbd6aa569	-0.057286654
107	0x3c9a499c	0.018833928
108	0xbe0c8fbf	-0.1372671
109	0x3d6a3afe	0.057185166
110	0x3d505625	0.050863404
111	0x3cd31aa2	0.025769535
112	0x3b8cf1b3	0.0043012737
113	0x3c615613	0.013753432
114	0x3abfc861	0.0014631861
115	0xbe130422	-0.14357045
116	0x3d0f62cd	0.035006333
117	0xbda2041a	-0.079109386
118	0xbb1edc32	-0.0024240133
119	0xbda5f328	-0.08103019
120	0x3d95fb6e	0.07323347
121	0x3dd2280b	0.10261544
122	0xbc82f088	-0.015983835
123	0xbca12bc1	-0.019674184
124	0x3d504c0e	0.05085378
125	0xbc32d672	-0.010915386
126	0x3d1e94a1	0.038715962
127	0xbb2ab9ef	-0.0026050766
128	0x3c6777c4	0.014127675
129	0x3cf71c46	0.030164849
130	0xbd3b0154	-0.045655563
131	0x3c9a5b75	0.018842438
132	0x3c3a9902	0.011389019
133	0x3d7c82ea	0.061648287
134	0xbc8648da	-0.01639216
135	0x3d428194	0.047486857
136	0x3b7377b7	0.0037150213
137	0xbdf5dfa4	-0.12005547
138	0x3da64d8e	0.08120261
139	0xbcacc184	-0.02108837
140	0xbc259789	-0.01010693
141	0x3cfaeed3	0.030631458
142	0x3d302a5d	0.04300915
143	0x3de793a7	0.11307459
144	0x3cdf6844	0.027271397
145	0x3de04b1f	0.10951828
146	0x3d17a6d0	0.03702432
147	0xbdcf0b25	-0.101095475
148	0x3db7c53f	0.089731686
149	0xbca2e748	-0.019885674
150	0xbd78923e	-0.060686342
151	0xbd4b649b	-0.04965649
152	0xbd126e57	-0.03574976
153	0xbcafdf11	-0.021468671
154	0x3d558187	0.05212548
155	0xbda0689e	-0.07832454
156	0xbd900fe9	-0.070342846
157	0x3df81a43	0.12114384
158	0x3d899851	0.06718505
159	0xbd358dd2	-0.044324704
160	0xbd8ab629	-0.067730255
161	0xba95564c	-0.0011393516
162	0x3ddb20c8	0.10699612
163	0x3d5e6e81	0.054304603
164	0x3e00bd29	0.12572159
165	0x3cfc0aca	0.030766863
166	0x3d8d751d	0.06907103
167	0x3c8ce22a	0.017197687
168	0x3e0f8ec3	0.14019303
169	0x3d098953	0.03357823
170	0xbd9e29ad	-0.07722793
171	0xbdbe0a75	-0.09279338
172	0xbd50ad56	-0.050946556
173	0x3bdad4ab	0.006678184
174	0x3c600eb7	0.013675383
175	0x3d073a11	0.03301436
176	0x3e05de89	0.13073172
177	0xbd9b2941	-0.07576228
178	0xbc510cfa	-0.0127594415
179	0x3d20be2d	0.039243866
180	0xbc9f2ce0	-0.019430578
181	0xbcad303f	-0.02114117
182	0xbd6becca	-0.057598867
183	0x3ca75215	0.020424882
184	0x3cb7af56	0.022422474
185	0x3d38aa75	0.045084435
186	0x3dfd3ae0	0.12364745
187	0x3e222b8a	0.15836921
188	0x3da477e5	0.080306806
189	0x3ce4735d	0.02788704
190	0x3d5eb053	0.054367375
191	0xbc6ab6e0	-0.014325827
192	0xbd729341	-0.059222464
193	0x3c23b550	0.009991959
194	0xbc51e38c	-0.012810599
195	0xbd044be9	-0.032298956
196	0x3d6880b0	0.05676335
197	0xbdb8b3f8	-0.09018701
198	0x3c06e533	0.008233356
199	0x3d8e3563	0.069437765
200	0xbb8bdcaf	-0.004268251
201	0xbd28a5bf	-0.041173693
202	0xbdb83102	-0.089937225
203	0xbdbf1fee	-0.09332262
204	0xbdc0ddd5	-0.09417311
205	0xbdfb6106	-0.12274365
206	0xbddda7c4	-0.108230144
207	0x3bccf010	0.0062542036
208	0xbdb4620f	-0.08807766
209	0xbd0b658c	-0.03403239
210	0x3a4b62c9	0.00077585556
211	0x3d4fd18c	0.05073695
212	0x3d46c495	0.04852732
213	0xbe02042e	-0.12696907
214	0x3d181327	0.03712764
215	0xbda98f14	-0.08279243
216	0x3d83441c	0.06409475
217	0x3b5afd6c	0.0033415211
218	0x3db7737b	0.08957573
219	0xbc18bcb1	-0.009322331
220	0x3d3dcc3b	0.046337347
221	0xbd7bab9b	-0.061442953
222	0x3d81851f	0.06324219
223	0x3d85014f	0.0649439
224	0xbdf53b3b	-0.11974188
225	0x3d0edfa5	0.034881253
226	0xbd00126b	-0.031267565
227	0xbbfd13b9	-0.0077232984
228	0xbb42f27b	-0.002974658
229	0xbd6aa262	-0.057283767
230	0xbd992493	-0.07477679
231	0x3d2379e9	0.039911184
232	0x3d6dcdad	0.058057476
233	0x3d9eefd6	0.07760589
234	0x3c482eda	0.0122182015
235	0x3cf9a25d	0.030472929
236	0xbe063320	-0.1310544
237	0x3da1580a	0.0787812
238	0xbc898d7b	-0.016791096
239	0xbd33b48f	-0.043873366
240	0x3daec611	0.08533872
241	0xbd5b63dd	-0.053562034
242	0xbcbaf4f3	-0.022821879
243	0xbdf0398a	-0.11729725
244	0x3b6cedf9	0.0036152585
245	0xbd61257c	-0.05496739
246	0x3c22d3e3	0.009938213
247	0x3cf87b3f	0.030332206
248	0xbdaa1757	-0.08305233
249	0xbc6ea37b	-0.014565344
250	0x3c6b3bf2	0.014357554
251	0xbc0bed4e	-0.008540465
252	0x3da226b0	0.07917535
253	0xbb620772	-0.00344893
254	0x3d1ee51f	0.038792726
255	0xbd8e510e	-0.06949054

0.model_cnn.layer4.0.bias f4 [128]
0	0x37165587	8.96061e-06
1	0xb6791e8d	-3.7121674e-06
2	0x36a1c34b	4.820909e-06
3	0x367241ea	3.6099177e-06
4	0x36712aed	3.5936785e-06
5	0xb7428606	-1.1594506e-05
6	0xb617dba2	-2.2628597e-06
7	0x370de84c	8.458341e-06
8	0xb6285556	-2.5083623e-06
9	0x3679878a	3.7182785e-06
10	0xb6ce68df	-6.151487e-06
11	0x351b8c2c	5.7945977e-07
12	0x350e26a6	5.2955363e-07
13	0xb6912f80	-4.3268665e-06
14	0x37087451	8.133314e-06
15	0xb596ac66	-1.1226045e-06
16	0x37447fb5	1.17122445e-05
17	0xb700f50d	-7.68645e-06
18	0xb6b19d64	-5.2933337e-06
19	0x35c1300b	1.4393603e-06
20	0x35e52ac5	1.7074277e-06
21	0x3717dcae	9.051682e-06
22	0xb60282d5	-1.9447664e-06
23	0x35cd5106	1.5297271e-06
24	0xb7361ded	-1.0855013e-05
25	0xb60e92ee	-2.1245173e-06
26	0x3706e9c8	8.041454e-06
27	0xb4ae7798	-3.2497042e-07
28	0xb6203a07	-2.3875634e-06
29	0x3659037e	3.2337553e-06
30	0xb6025ca2	-1.942543e-06
31	0xb6bd5712	-5.6427752e-06
32	0xb5f98214	-1.8589803e-06
33	0x37dba789	2.6184849e-05
34	0x35678537	8.624806e-07
35	0x32a093fd	1.8693749e-08
36	0xb5da7415	-1.627605e-06
37	0xb5f8d971	-1.8540724e-06
38	0xb61c5f30	-2.3301218e-06
39	0x35c499ef	1.4647939e-06
40	0x358db329	1.0557461e-06
41	0xb68c255b	-4.176674e-06
42	0x361a8968	2.302777e-06
43	0xb58497a1	-9.878896e-07
44	0x378fcbc9	1.7141823e-05
45	0x36e4c0d7	6.817379e-06
46	0xb608c36c	-2.037933e-06
47	0xb5ea190a	-1.7441646e-06
48	0x366a5866	3.4920172e-06
49	0xb5d8714c	-1.6126228e-06
50	0x3671d787	3.6037252e-06
51	0x35e6ca5e	1.7195232e-06
52	0x35e1631c	1.6792651e-06
53	0xb6701d6b	-3.577991e-06
54	0x338a007f	6.426216e-08
55	0xb515a176	-5.574178e-07
56	0xb6f1ffc9	-7.212137e-06
57	0xb4ba0f9c	-3.4656557e-07
58	0x351e7cd9	5.9041264e-07
59	0x369aa738	4.6090245e-06
60	0x35f7a4ae	1.8450862e-06
61	0x359f0232	1.1847062e-06
62	0x357d20f4	9.42978e-07
63	0xb714c6a9	-8.867742e-06
64	0xb6a15918	-4.808546e-06
65	0xb49de653	-2.9411112e-07
66	0x36970340	4.500529e-06
67	0x34eba96f	4.389544e-07
68	0x35cac745	1.5108168e-06
69	0xb603bf30	-1.9631807e-06
70	0xb6825622	-3.884329e-06
71	0xb5eaab7a	-1.7484265e-06
72	0xb7077351	-8.073476e-06
73	0x34bad330	3.479886e-07
74	0x3601b3df	1.9327197e-06
75	0x35ba04c5	1.3859468e-06
76	0xb5bddcb8	-1.4145835e-06
77	0x3592752b	1.0911948e-06
78	0x370c9fa0	8.381816e-06
79	0xb6334f7f	-2.6719351e-06
80	0xb6cee0a1	-6.1654287e-06
81	0xb5a4f469	-1.2290085e-06
82	0xb552f73b	-7.8590864e-07
83	0xb4b22ae2	-3.3186285e-07
84	0xb74b4637	-1.2116091e-05
85	0xb3403da1	-4.4759535e-08
86	0x35b5b2f6	1.3537635e-06
87	0x36473317	2.968305e-06
88	0x3695401e	4.4480103e-06
89	0x35881621	1.013923e-06
90	0x364d3efe	3.0584047e-06
91	0xb4dd0c7b	-4.1173539e-07
92	0xb688769f	-4.066925e-06
93	0xb61ece14	-2.3663788e-06
94	0xb59d4406	-1.1717209e-06
95	0xb763a9ec	-1.3569817e-05
96	0xb5a1ed43	-1.2064487e-06
97	0x357ad7bc	9.344619e-07
98	0xb711b43f	-8.68464e-06
99	0xb5dca8cd	-1.6440405e-06
100	0xb5adb42c	-1.2941941e-06
101	0xb6701ea5	-3.5780624e-06
102	0xb5ad9469	-1.2932697e-06
103	0x33127cc2	3.410674e-08
104	0xb6306a1a	-2.6287803e-06
105	0x36470fc4	2.9662488e-06
106	0x35cf98bc	1.5467153e-06
107	0xb773ab7f	-1.4523858e-05
108	0xb5bf7272	-1.4263917e-06
109	0xb6890df5	-4.084543e-06
110	0x350b8aa8	5.1983307e-07
111	0xb6c26dce	-5.7944335e-06
112	0x379cf405	1.871028e-05
113	0x35128075	5.457617e-07
114	0x35aed0e2	1.3024803e-06
115	0xb54befc8	-7.597232e-07
116	0xb6386bf3	-2.7480971e-06
117	0xb56b4d3f	-8.765673e-07
118	0x372e5243	1.0390361e-05
119	0xb6f87006	-7.404017e-06
120	0xb6c81d2f	-5.963862e-06
121	0x3690ac96	4.311626e-06
122	0x36af057f	5.2160462e-06
123	0xb4fb6ec8	-4.6832997e-07
124	0x35693367	8.6874064e-07
125	0xb70523ba	-7.935736e-06
126	0xb670c011	-3.5874584e-06
127	0xb680cb2e	-3.8383505e-06

0.model_cnn.layer4.1.weight f4 [128]
0	0x3f827862	1.0192988
1	0x3f726d49	0.94698006
2	0x3f8970a9	1.0737506
3	0x3f7eaf60	0.9948635
4	0x3f7f36f1	0.9969321
5	0x3f8571be	1.0425336
6	0x3f73916c	0.9514377
7	0x3f88c9bc	1.0686564
8	0x3f87b224	1.0601239
9	0x3f9363d0	1.1514835
10	0x3f8106c1	1.0080186
11	0x3f8676de	1.0505025
12	0x3f7b9c67	0.98285526
13	0x3f83644e	1.0264986
14	0x3f82c8c6	1.0217521
15	0x3f49cd3e	0.788288
16	0x3f8869e0	1.065731
17	0x3f8723d1	1.0557805
18	0x3f7931df	0.9734172
19	0x3f82cb24	1.0218244
20	0x3f800939	1.0002815
21	0x3f8adf60	1.0849419
22	0x3f7c31ef	0.9851369
23	0x3f850d7c	1.039474
24	0x3f885954	1.0652261
25	0x3f703832	0.9383575
26	0x3f76a279	0.96341664
27	0x3f4e0e03	0.8049013
28	0x3f808710	1.0041218
29	0x3f6ac038	0.9169955
30	0x3f867255	1.0503641
31	0x3f7da54e	0.9908036
32	0x3f7fc73a	0.9991337
33	0x3f83de48	1.030221
34	0x3f5a2a04	0.8522036
35	0x3f5f8412	0.873109
36	0x3f812803	1.0090336
37	0x3f7bffbd	0.984371
38	0x3f8e0683	1.1095737
39	0x3f6b3b31	0.91887194
40	0x3f84b7fa	1.0368645
41	0x3f8050b8	1.0024633
42	0x3f6ddd35	0.9291566
43	0x3f7a6e3e	0.97824466
44	0x3f7a7225	0.9783042
45	0x3f83118f	1.0239733
46	0x3f8b04d5	1.086085
47	0x3f79c49e	0.9756564
48	0x3f89e475	1.0772845
49	0x3fa0bee5	1.2558256
50	0x3f89078e	1.070543
51	0x3f80f263	1.007397
52	0x3f874164	1.0566831
53	0x3f859933	1.0437378
54	0x3f83fffe	1.0312498
55	0x3f5e4656	0.86826074
56	0x3f7ffe53	0.9999744
57	0x3f8b497f	1.0881804
58	0x3f7c41a9	0.9853769
59	0x3f82bc7a	1.0213768
60	0x3f73a907	0.9517979
61	0x3f803f2d	1.001928
62	0x3f9833a7	1.1890763
63	0x3f87cb38	1.0608892
64	0x3f80480b	1.0021986
65	0x3f6f44fb	0.9346463
66	0x3f8395bd	1.0280071
67	0x3f53be22	0.82711995
68	0x3f689a2f	0.90860265
69	0x3f824595	1.0177485
70	0x3f7648df	0.9620494
71	0x3f90d717	1.131564
72	0x3f818b5a	1.0120652
73	0x3f822f00	1.0170593
74	0x3f829455	1.0201517
75	0x3f5b68d8	0.85706854
76	0x3f828f85	1.0200049
77	0x3fa555ec	1.2916846
78	0x3f7bf3dd	0.9841898
79	0x3f7ab301	0.9792939
80	0x3f78bbe8	0.9716172
81	0x3f78cc56	0.9718679
82	0x3f83d466	1.0299194
83	0x3f7ca416	0.98687875
84	0x3f82a612	1.0206931
85	0x3f765083	0.962166
86	0x3f664316	0.89946115
87	0x3f899259	1.0747787
88	0x3f832d4a	1.0248196
89	0x3f7d9bb0	0.99065685
90	0x3f8829bf	1.063774
91	0x3f734dbd	0.95040494
92	0x3f833dd5	1.0253245
93	0x3f8309d1	1.0237371
94	0x3f818bb2	1.0120757
95	0x3f841ad9	1.0320693
96	0x3f601f75	0.87548
97	0x3f889087	1.0669106
98	0x3f844e20	1.0336342
99	0x3f7bece7	0.9840836
100	0x3f7603bc	0.9609945
101	0x3f8916fc	1.0710139
102	0x3f660477	0.8985056
103	0x3f7f05e2	0.9961835
104	0x3f7a5022	0.9777852
105	0x3f780a81	0.9689103
106	0x3f5682bf	0.8379325
107	0x3f89ee15	1.0775782
108	0x3f843e11	1.0331441
109	0x3f8418e1	1.0320092
110	0x3f869ab6	1.0515964
111	0x3f74b8c9	0.9559446
112	0x3f85eeb7	1.0463475
113	0x3f68fbc6	0.91009176
114	0x3f99a18b	1.2002424
115	0x3f86b465	1.0523802
116	0x3f72e222	0.948763
117	0x3f7b57e9	0.98181015
118	0x3f875457	1.0572613
119	0x3f866c80	1.0501862
120	0x3f86ee1c	1.0541415
121	0x3f80e172	1.00688
122	0x3f8b339c	1.0875125
123	0x3f9a0139	1.2031623
124	0x3f7c9cb7	0.9867663
125	0x3f8ab7b0	1.0837307
126	0x3f7db50f	0.991044
127	0x3f82d583	1.0221409
