checkpoint/cnn_features_1d_0930-122637/50-0.3397-best_model.pth (torch, 940543 bytes, 30 tensors)

0.model_cnn.layer1.0.weight f4 [16, 1, 15]
0	0xbe205a3c	-0.15659422
1	0x3dca1229	0.09866745
2	0xbe24a1d7	-0.16077362
3	0x3e344ada	0.17606679
4	0x3cb62cfc	0.022238247
5	0xbe1defcb	-0.15423505
6	0x3e86c3d9	0.26321295
7	0xbe664d19	-0.22490348
8	0xbd925f50	-0.07147086
9	0x3e83ba50	0.25728083
10	0x3e505c9e	0.2034783
11	0xbe417996	-0.18894038
12	0x3e0cfe6c	0.13768929
13	0xbe116df4	-0.142021
14	0xbe5f3613	-0.21797971
15	0x3cdfdd78	0.027327284
16	0x3d729574	0.05922456
17	0x3e2dde70	0.16979384
18	0x3e29109e	0.16510245
19	0xbbc36d22	-0.0059639374
20	0x3dab9479	0.08377928
21	0x3e2989e5	0.16556509
22	0xbd8fb25e	-0.07016443
23	0xbda07c20	-0.07836175
24	0x3e3b0692	0.18264225
25	0x3e1c5a72	0.15268877
26	0x3d231328	0.03981319
27	0x3c78ccf1	0.015185581
28	0xbe376eb4	-0.17913324
29	0xbe469ce4	-0.19395787
30	0x3e57eda3	0.21086745
31	0x3e4fce0f	0.20293449
32	0x3e7cded5	0.24694379
33	0xbe6f545b	-0.23372023
34	0x3e72c6f7	0.23708712
35	0xbd7e7379	-0.062121842
36	0x3e2099bb	0.15683644
37	0xbe068fce	-0.13140795
38	0x3c29c9bf	0.010363041
39	0x3dcc82a4	0.09985855
40	0xbd927e9e	-0.071530566
41	0xbe1b2f8e	-0.1515486
42	0x3dfaeb38	0.12251896
43	0x3e872a47	0.26399443
44	0xbdaa56a8	-0.083173096
45	0xbe2180d6	-0.15771803
46	0xbe328adf	-0.17435788
47	0xbe674ae9	-0.2258717
48	0x3e61468c	0.21999568
49	0x3e741534	0.23836213
50	0x3e35db65	0.17759474
51	0xbe46cd21	-0.19414188
52	0xbe5ba2ed	-0.2144887
53	0xbe18cab0	-0.14921069
54	0x3e1e53b6	0.1546162
55	0x3e025654	0.12728244
56	0x3e3f3834	0.18673784
57	0xbe606ced	-0.21916552
58	0x3e8afc4a	0.27145606
59	0xbe80647f	-0.25076672
60	0x3d23172b	0.039817017
61	0xbca0c6dd	-0.019626075
62	0x3dd04581	0.10169507
63	0xbe0e41ec	-0.13892335
64	0x3e12eed7	0.14348923
65	0xbc3e7aa9	-0.011625924
66	0x3e19df4c	0.15026587
67	0x3de899cd	0.1135746
68	0x3da78aa6	0.08180742
69	0xbcd2cf16	-0.025733512
70	0x3cc0c60d	0.023531938
71	0xbe654181	-0.22388269
72	0xbe22ae0a	-0.15886703
73	0x3dbc9599	0.09208221
74	0xbe1ec3bb	-0.15504353
75	0xbe23f7bd	-0.16012473
76	0xbcf5e649	-0.030017035
77	0x3b3e6e40	0.0029057413
78	0xbc1213a9	-0.00891582
79	0x3e6c7a67	0.23093568
80	0x3e088664	0.13332516
81	0xbe72b5b4	-0.23702127
82	0x3dc8c267	0.09802704
83	0x3e84c5a4	0.25932038
84	0x3e0cc5f8	0.13747394
85	0xbe50fa2a	-0.2040793
86	0x3d61922c	0.05507104
87	0x3def3625	0.11680249
88	0x3c96b9c4	0.018399127
89	0xbdb8cb0b	-0.090231024
90	0x3e35ca34	0.17752916
91	0x3e05e138	0.13074195
92	0x3e42326a	0.18964544
93	0xbe8aacb9	-0.27084902
94	0x3cbe2ba1	0.023214163
95	0xbd1ceeba	-0.038313605
96	0x3e0eb5ba	0.1393651
97	0xbca3cd69	-0.019995408
98	0xbd9e89bc	-0.077411145
99	0x3dd43f1c	0.103636
100	0x3cf011c6	0.02930535
101	0x3dfbf2bd	0.12302158
102	0x3e2a279f	0.16616677
103	0xbb997529	-0.004683156
104	0x3d522ccb	0.05131225
105	0xbdade4b7	-0.084908895
106	0x3e41b1a0	0.18915415
107	0xbe19f41b	-0.15034525
108	0x3e38ae37	0.18035208
109	0x3e29a886	0.16568193
110	0x3dda3af3	0.10655775
111	0x3c90ba44	0.017666943
112	0xbd0e4521	-0.034733895
113	0xbe4ec3e0	-0.20191908
114	0xbe4a463e	-0.19753358
115	0x3e85687e	0.26056284
116	0xbbffd146	-0.0078069298
117	0xbe6d4bed	-0.23173495
118	0xbcfc0632	-0.030764673
119	0x3bdcafa0	0.0067348033
120	0xbe06d59e	-0.13167426
121	0x3e404201	0.18775178
122	0x3b3e3b70	0.0029027127
123	0x3e0e392e	0.13889
124	0xbe5ddcb2	-0.2166622
125	0xbd26cf2b	-0.040724915
126	0x3d58fe0c	0.052976653
127	0x3e4fbf6f	0.2028787
128	0x3d13bb87	0.036067512
129	0xbd824bb9	-0.06362099
130	0x3d5a80a8	0.053345352
131	0x3e780179	0.24219312
132	0x3d748514	0.059697226
133	0xbe2d0094	-0.16894752
134	0x3e04db6c	0.12974328
135	0xbe6603c6	-0.22462377
136	0x3d6f0cc0	0.05836177
137	0x3debba27	0.11510115
138	0x3d7b81c1	0.06140304
139	0x3da08d53	0.078394555
140	0xbdc1cc25	-0.094627656
141	0x3db26629	0.08710892
142	0xbe038658	-0.12844217
143	0xbea3ebb6	-0.3201577
144	0x3dbe6d56	0.09298198
145	0xbd6b8b22	-0.057505734
146	0x3d7aaa8b	0.0611978
147	0x3da022f8	0.0781917
148	0x3c9f034f	0.019410757
149	0x3e6691e5	0.22516592
150	0xbd4aecc0	-0.04954219
151	0xbdaee8d6	-0.08540504
152	0xbe63be7c	-0.22240633
153	0xbe719be0	-0.23594618
154	0xbe024248	-0.12720597
155	0xbe8ed617	-0.27897713
156	0x3be8b2ff	0.007101416
157	0xbea90bff	-0.33016965
158	0xbe7d5c4b	-0.24742238
159	0xbe753928	-0.23947585
160	0xbd8d601d	-0.06903098
161	0xbe7f6384	-0.24940306
162	0xbd550257	-0.052004185
163	0x3d85718a	0.065157965
164	0x3cad9ac0	0.021191955
165	0xbe1fc041	-0.15600683
166	0xbe48eaee	-0.19620869
167	0xbdcbee86	-0.09957604
168	0x3df6896c	0.1203793
169	0x3d77687b	0.060402375
170	0xbd9ee321	-0.07758165
171	0xbe4186ab	-0.18899028
172	0xbd9e1c40	-0.07720232
173	0x3e823098	0.254277
174	0x3decb722	0.11558367
175	0xbe829772	-0.2550617
176	0x3e3c0f07	0.18365107
177	0xbe49c0e0	-0.19702482
178	0xbd323f01	-0.043517116
179	0x3dce92c9	0.10086591
180	0xbe2db435	-0.16963275
181	0xbe084efd	-0.13311382
182	0x3d56ef9c	0.052474603
183	0x3e645c43	0.2230082
184	0x3e87b54b	0.26505503
185	0x3e03fc20	0.12889147
186	0xb99eb0cf	-0.0003026784
187	0x3e0c4430	0.13697886
188	0x3a8ba555	0.0010654131
189	0x3e4443ab	0.19166438
190	0xbe20378c	-0.1564619
191	0xbe3f1818	-0.18661535
192	0xbd8f5d93	-0.0700027
193	0x3e0fbe97	0.14037548
194	0x3e8b0ede	0.2715978
195	0x3e65345a	0.22383252
196	0xbe5bd02a	-0.21466127
197	0xbe6097b2	-0.21932867
198	0x3e495c65	0.19664152
199	0xbd6850df	-0.05671775
200	0x3e2115d8	0.15730989
201	0x3d219544	0.03944899
202	0xbdde01b4	-0.108401686
203	0x3dfaf367	0.122534566
204	0xbd4b4c15	-0.049633104
205	0x3e08654f	0.13319896
206	0xbe7feb68	-0.24992144
207	0xbd85a821	-0.06526209
208	0xbe526a34	-0.20548326
209	0x3e82af7f	0.25524518
210	0x3d0eff53	0.034911465
211	0xbe5ab341	-0.21357442
212	0xbcebc7f1	-0.028781863
213	0x3e6c79c7	0.2309333
214	0xbe509fa7	-0.20373403
215	0x3e1634da	0.14668599
216	0x3d89f085	0.067353286
217	0xbe262e2d	-0.16228552
218	0xbd417289	-0.04722837
219	0xbe193eb4	-0.14965326
220	0x3e0ad541	0.13557912
221	0xbc5e68f4	-0.013574827
222	0xbe6e398a	-0.23264137
223	0x3e0e16d8	0.13875902
224	0xbe3d15ca	-0.18465343
225	0x3e44e3f7	0.19227587
226	0xbd457cac	-0.0482146
227	0xbe42b882	-0.19015697
228	0x3d1f5e7a	0.03890846
229	0xbdbfcb48	-0.09364945
230	0x3e600c27	0.21879636
231	0xbe2e9985	-0.1705075
232	0xbd024d91	-0.031812254
233	0xbe6bafd8	-0.23016298
234	0xbccc11fc	-0.02491092
235	0xbe5918e5	-0.21200903
236	0xbdc9050f	-0.09815418
237	0xbe67ebb0	-0.22648501
238	0xbe956856	-0.29181165
239	0x3dfa7c9f	0.12230801

0.model_cnn.layer1.0.bias f4 [16]
0	0xbb8f9dca	-0.0043828236
1	0x3ad221d7	0.0016031814
2	0xb813d817	-3.524878e-05
3	0xbb0d6186	-0.002157302
4	0xba3d1f5f	-0.00072144525
5	0x3b9640e8	0.004585374
6	0x3b8ca6be	0.004292338
7	0xb87d0e46	-6.0333194e-05
8	0xbab2cd0f	-0.0013641434
9	0x3bc81460	0.0061059445
10	0x3b51564e	0.003194231
11	0x39c80143	0.00038147913
12	0x3afa8bc2	0.0019115137
13	0xb9f925ff	-0.0004752129
14	0x3b80b0d9	0.003927332
15	0xbb3110e9	-0.0027018136

0.model_cnn.layer1.1.weight f4 [16]
0	0x3f8bbcad	1.0916954
1	0x3f80432e	1.0020502
2	0x3f7c2858	0.9849906
3	0x3f8647cb	1.049066
4	0x3f80149d	1.0006291
5	0x3f7b8706	0.98252904
6	0x3f763ef9	0.9618984
7	0x3f8037a0	1.0016975
8	0x3f83808e	1.0273607
9	0x3f825ac5	1.0183951
10	0x3f80edcc	1.007257
11	0x3f83c774	1.0295243
12	0x3f817a7a	1.0115502
13	0x3f742104	0.9536288
14	0x3f7db3d6	0.9910253
15	0x3f7a2a3e	0.97720706

0.model_cnn.layer1.1.bias f4 [16]
0	0x3cce812a	0.025208075
1	0xba2784e5	-0.0006390347
2	0xbce088c3	-0.027408963
3	0xbccef9d9	-0.025265621
4	0xbcc13f80	-0.02358985
5	0xbbd37d2c	-0.0064541306
6	0xbd33a227	-0.043855812
7	0x3c3d7a1f	0.0115647605
8	0xbcc16ba4	-0.023610897
9	0xbcf74003	-0.03018189
10	0x3b118e87	0.0022210197
11	0xbd2da81f	-0.04239666
12	0xbd9aeb94	-0.07564464
13	0x3c323d40	0.010878861
14	0x3ca1ef1b	0.019767335
15	0x3cdc57b2	0.026897285

0.model_cnn.layer1.1.running_mean f4 [16]
0	0xbb802de3	-0.00391172
1	0xbcbe9164	-0.023262687
2	0xbce3485a	-0.02774446
3	0x3b2f879f	0.0026783717
4	0x3ba7c8e9	0.005120386
5	0xbc9521a1	-0.018204512
6	0xbccff65a	-0.025386024
7	0x3aa2e0dd	0.0012426634
8	0xbcfd7d03	-0.0309434
9	0xbc42f5e7	-0.011899448
10	0x3dcebc23	0.10094478
11	0x3c7d1b48	0.015448399
12	0xbd285d20	-0.041104436
13	0x3c595be5	0.013266538
14	0x3d019b7c	0.031642422
15	0x3d7f02ac	0.062258407

0.model_cnn.layer1.1.running_var f4 [16]
0	0x3cd28201	0.025696756
1	0x3c03d755	0.008046945
2	0x3d765efc	0.060149178
3	0x3cdd6fa5	0.027030775
4	0x3b5a514f	0.0033312624
5	0x3cd3b2bb	0.025842061
6	0x3d274d00	0.040844917
7	0x3c0242ed	0.007950527
8	0x3c972417	0.018449826
9	0x3d49e487	0.049290206
10	0x3d769d66	0.0602087
11	0x3cff61e7	0.031174613
12	0x3cefff51	0.029296549
13	0x3d4d3978	0.050103635
14	0x3b989664	0.0046566
15	0x3d2cc676	0.042181455

0.model_cnn.layer2.0.weight f4 [32, 16, 3]
0	0x3e0b8c2d	0.13627692
1	0xbcea5460	-0.028604686
2	0xbe300866	-0.17190704
3	0x3b41ccbb	0.0029571492
4	0x3cc96946	0.024586331
5	0xbdd81ed2	-0.105527535
6	0xbda3c36d	-0.07996259
7	0x3d356415	0.0442849
8	0xbddf98ef	-0.10917842
9	0x3de276f2	0.11057843
10	0xbd88820d	-0.0666543
11	0xbdb42b94	-0.08797374
12	0xbd9ef85e	-0.07762216
13	0xbdd98079	-0.10620207
14	0x3d0338ba	0.03203652
15	0x3d83a8b9	0.06428666
16	0xbd734b93	-0.059398245
17	0x3db2a5e5	0.08723048
18	0xbcd125a7	-0.02553065
19	0xbd116265	-0.035494227
20	0xbe01e4ec	-0.12684983
21	0x3d45cbbd	0.048290003
22	0x3d6d1a10	0.057886183
23	0x3e3304d6	0.17482314
24	0x3d9eaa22	0.07747294
25	0x3deba2b9	0.11505646
26	0xbde95ee2	-0.113950506
27	0x3d519c51	0.051174466
28	0x3dbac505	0.0911961
29	0xbccc1f0a	-0.024917144
30	0x3da596f9	0.080854364
31	0xbd326a17	-0.043558206
32	0xbde55f58	-0.11199826
33	0xbdcd5b1d	-0.10027144
34	0x3df259ea	0.11833556
35	0x3c1a5196	0.009418866
36	0xbd8441e7	-0.064578824
37	0x3e095493	0.13411169
38	0xbddbd940	-0.107347965
39	0x3dd2095d	0.10255692
40	0x3e109715	0.14120133
41	0x3e095e7f	0.13414954
42	0xbbee4d11	-0.0072723706
43	0x3e03debc	0.12877935
44	0x3d7d1ed3	0.061796974
45	0x3d2c1abd	0.042017687
46	0xba033da1	-0.0005006437
47	0x3bd36200	0.0064508915
48	0x3d5c2ba6	0.053752564
49	0x3d90d256	0.070713684
50	0x3df6ecce	0.12056886
51	0xbd47830e	-0.048708968
52	0x3be29206	0.00691438
53	0xbe0c323c	-0.13691038
54	0xbd31b432	-0.04338474
55	0x3e2d52d3	0.16926126
56	0x3c0cff23	0.008605751
57	0xbdbd4ece	-0.092435464
58	0xbd9cdf90	-0.07659829
59	0x3dd81d62	0.10552479
60	0xbd4300cb	-0.047608178
61	0x3e0f9773	0.14022617
62	0x3df32c9a	0.118737414
63	0xbdb15d33	-0.086603545
64	0x3d67cd2d	0.056592155
65	0x3d368915	0.044564325
66	0xbdd9e4b0	-0.10639322
67	0xbc306527	-0.010766304
68	0x3d061888	0.03273824
69	0x3dcf62a5	0.10126237
70	0xbccb4d20	-0.02481705
71	0x3de27e1a	0.11059208
72	0xbe1762d3	-0.14783792
73	0xbddb9c81	-0.1072321
74	0xbdf34955	-0.11879221
75	0x3e35cce7	0.17753945
76	0x3d8c41f3	0.06848516
77	0x3bf4c1bf	0.0074693854
78	0xbe03f03e	-0.12884614
79	0xbdf9331c	-0.121679515
80	0xbd2029a0	-0.039102197
81	0x3e20c975	0.1570185
82	0x3ceb7c14	0.028745688
83	0xbcc2d772	-0.023784373
84	0xbe02bcb1	-0.12767293
85	0xbdaa982a	-0.08329804
86	0xbdfb1173	-0.122591875
87	0x3c89c351	0.016816767
88	0x3d0f2440	0.03494668
89	0xbdcd2c3b	-0.10018202
90	0xbda0fffc	-0.07861325
91	0xbd14ee4f	-0.03636008
92	0xbda2f022	-0.07955958
93	0xbde94dbc	-0.1139178
94	0xbb1e2dc7	-0.0024136172
95	0xbe04c302	-0.12965015
96	0xbc0d4a70	-0.008623704
97	0x3df89dca	0.12139471
98	0xbda00a68	-0.07814485
99	0x3d537eec	0.051634714
100	0x3c8b213f	0.016983626
101	0xbde6cc46	-0.11269431
102	0x3e0577a5	0.13033922
103	0x3d55cae0	0.05219543
104	0x3da0fa5f	0.078602545
105	0x3d3e14db	0.046406608
106	0x3dc88038	0.09790081
107	0xbd8a719a	-0.06759949
108	0x3c8375f4	0.016047455
109	0xbdf86740	-0.121290684
110	0x3e12f548	0.1435138
111	0xbe18d94e	-0.14926645
112	0x3e1b1f25	0.151486
113	0x3d160452	0.036625214
114	0xb928901d	-0.00016075415
115	0x3e028005	0.12744148
116	0xbd70070d	-0.058600474
117	0xbd4ffd2c	-0.050778553
118	0x3d341a09	0.04397014
119	0xbc897fee	-0.016784634
120	0x3cfb67ce	0.030689146
121	0xbe032a88	-0.12809193
122	0x3cee8f29	0.029120998
123	0xbd400554	-0.04688008
124	0xbd966aee	-0.07344614
125	0xbde60c08	-0.112327635
126	0x3d7dc735	0.061957557
127	0xbc80b62d	-0.015711868
128	0xbd967a9c	-0.07347605
129	0xbc418ddf	-0.01181361
130	0x3df819d2	0.121143
131	0x3e0219d6	0.12705168
132	0xbd8bcf66	-0.068266675
133	0xbdb6f0ea	-0.089326695
134	0xbca81004	-0.02051545
135	0x3e0aceff	0.13555525
136	0x3c6151b0	0.013752386
137	0x3dabdddc	0.08391926
138	0xbde2f3ee	-0.11081682
139	0xbdb33d64	-0.08751944
140	0x3da601f6	0.08105843
141	0x3dc82175	0.097720064
142	0x3d8b2ac5	0.06795267
143	0xbc8cb436	-0.017175775
144	0x3d85f89d	0.0654156
145	0xbd8c6667	-0.06855469
146	0xbd93adce	-0.07210885
147	0xbe1800cd	-0.14844055
148	0x3d336ca6	0.043804787
149	0xbd8826ea	-0.06648047
150	0x3da87620	0.082256556
151	0x3dd82840	0.10554552
152	0xbd490bbd	-0.04908346
153	0xbdf4198e	-0.11918937
154	0x3d992e83	0.074795745
155	0xbe183536	-0.14864048
156	0x3e1c99b5	0.1529301
157	0xbdc18ece	-0.09451066
158	0x3d8da581	0.06916333
159	0x3db0dee1	0.08636261
160	0xbd19c634	-0.037542537
161	0xbdb34198	-0.087527454
162	0x3cf706e5	0.030154655
163	0x3c8087f3	0.015689826
164	0xbdc2d58b	-0.09513386
165	0x3dbcd893	0.09220996
166	0x3bdc9012	0.0067310417
167	0xbd935ddd	-0.071956374
168	0x3d09923f	0.033586737
169	0x3d27ffd1	0.04101545
170	0xbdadd63b	-0.08488127
171	0x3c70ac35	0.014689495
172	0xbd84b5ad	-0.064799644
173	0xbe47dfb4	-0.1951893
174	0x3deef495	0.11667744
175	0xbdb08705	-0.08619503
176	0xbd5e16cf	-0.05422097
177	0x3dc32bb8	0.09529823
178	0x3d46d37f	0.048541542
179	0x3d40bc8e	0.04705482
180	0x3da4337a	0.08017631
181	0xbd886e9b	-0.06661721
182	0xbbaff32c	-0.0053695645
183	0x3ce3e513	0.027819192
184	0xbdc65c56	-0.096855804
185	0xbe171a5c	-0.14756149
186	0x3d63f2f7	0.05565163
187	0x3d8a7aa3	0.06761672
188	0xbb9288eb	-0.0044718883
189	0xbdaedad7	-0.08537834
190	0xbd572960	-0.052529693
191	0x3db8f33d	0.09030769
192	0xbcb5f37e	-0.022210833
193	0x3db3c589	0.08777911
194	0xbd41b259	-0.047289226
195	0x3e34a6e6	0.17641792
196	0x3c7d8393	0.015473264
197	0x3d911dca	0.0708576
198	0xbd10e39f	-0.035373326
199	0x3e0b14cc	0.13582152
200	0x3df325e2	0.1187246
201	0x3db2ce2a	0.08730729
202	0x3bdde7b2	0.006772005
203	0xbd889d93	-0.0667068
204	0x3da1583b	0.07878157
205	0x3beab48a	0.007162635
206	0xbd2894bf	-0.04115748
207	0x3da4774f	0.08030569
208	0xbddb1e93	-0.10699191
209	0xbd93a197	-0.07208555
210	0x3de86aad	0.11348472
211	0xbd93356f	-0.07187926
212	0xbe2eceef	-0.17071126
213	0xbdb76f98	-0.08956832
214	0xbc67d7c2	-0.014150562
215	0x3d6c7b35	0.057734687
216	0xbdde6dde	-0.10860799
217	0xbe0354a3	-0.12825255
218	0xbe08b50c	-0.13350314
219	0xbe1fc703	-0.1560326
220	0xbe00877a	-0.1255168
221	0x3e32b19f	0.1745057
222	0x3daeb4cb	0.08530577
223	0xbd69102e	-0.056900196
224	0x3d466788	0.04843858
225	0xbdbd4d25	-0.0924323
226	0xbdf52d64	-0.11971548
227	0x3e039e3e	0.12853333
228	0x3dfc3b20	0.12315965
229	0xbd3bd62f	-0.04585856
230	0xbc96ec8a	-0.018423337
231	0x3dd7b474	0.105324656
232	0x3d91b80c	0.07115182
233	0x3de8779f	0.11350941
234	0xbdb20a60	-0.08693385
235	0xbe39f871	-0.18161179
236	0xbc998b87	-0.01874329
237	0x3dfa2b72	0.12215318
238	0xbdec52ec	-0.115392536
239	0x3e22f7b0	0.15914798
240	0xbd834558	-0.06409711
241	0xbc90431f	-0.01761013
242	0x3cbdc254	0.023163952
243	0xbde5fb9e	-0.11229633
244	0xbd965402	-0.07340242
245	0x3d53e7de	0.051734798
246	0x3ccf9eaa	0.025344212
247	0xbd48f24b	-0.049059194
248	0xbe0de021	-0.1385503
249	0xbd2b2a5e	-0.04178845
250	0x3dba378b	0.09092625
251	0xbbb15764	-0.005412029
252	0x3dd13ead	0.102170326
253	0xbd213cc2	-0.039364584
254	0x3d95e901	0.073198326
255	0x3dbe63e9	0.092964

0.model_cnn.layer2.0.bias f4 [32]
0	0xbaa80d99	-0.0012821435
1	0xba73a09c	-0.0009293647
2	0xba27758b	-0.00063880597
3	0xba9eb4cb	-0.0012108324
4	0x3b1b8382	0.0023729508
5	0x3a7f8d83	0.0009748565
6	0x3ad487e0	0.001621481
7	0xb9c8da19	-0.00038309468
8	0xbab2d323	-0.0013643246
9	0x3a0cab10	0.00053660665
10	0x3a5ab951	0.00083436543
11	0x3a907f20	0.0011024214
12	0x39a1ce7c	0.00030862156
13	0xbab614c6	-0.0013891689
14	0xb9de4cf4	-0.00042400474
15	0x3ae00d28	0.0017093765
16	0x3b2b79e2	0.0026165177
17	0x3b8abe6e	0.004234127
18	0xba50d766	-0.0007966667
19	0x38c46d64	9.366384e-05
20	0xba1d9015	-0.00060105446
21	0xba78b6b3	-0.00094876735
22	0x3a0aae54	0.0005290259
23	0xba7c72cb	-0.00096301426
24	0x3a97af9e	0.0011572724
25	0x393481bf	0.00017214472
26	0xb8adae89	-8.2817925e-05
27	0x3a7b8cad	0.00095958525
28	0xba12d16d	-0.0005600665
29	0x3b031c07	0.002000572
30	0x3a57fcf3	0.00082392915
31	0x3a331564	0.00068314956

0.model_cnn.layer2.1.weight f4 [32]
0	0x3f828e7f	1.0199736
1	0x3f83f86d	1.0310189
2	0x3f73a801	0.9517823
3	0x3f79e97b	0.9762189
4	0x3f750cad	0.95722467
5	0x3f7bb788	0.9832692
6	0x3f7e2d0b	0.9928748
7	0x3f7af5a7	0.98031086
8	0x3f7e82f6	0.9941858
9	0x3f831c32	1.024298
10	0x3f740980	0.95326996
11	0x3f7f2858	0.99670935
12	0x3f827105	1.0190741
13	0x3f78efd7	0.97240967
14	0x3f8133fb	1.0093988
15	0x3f7f8df6	0.9982599
16	0x3f86cc7e	1.0531156
17	0x3f82cd2c	1.0218863
18	0x3f830de8	1.0238619
19	0x3f7ceb97	0.9879698
20	0x3f8514e9	1.0397006
21	0x3f80ce99	1.0063049
22	0x3f7ae60b	0.9800727
23	0x3f80080e	1.0002458
24	0x3f85cf6f	1.0453929
25	0x3f859f3a	1.0439217
26	0x3f7fc3f0	0.9990835
27	0x3f801ec7	1.0009392
28	0x3f894509	1.0724193
29	0x3f803357	1.0015668
30	0x3f819db2	1.012625
31	0x3f84b00f	1.0366229

0.model_cnn.layer2.1.bias f4 [32]
0	0x3c84996c	0.016186439
1	0x3c9a9535	0.018869976
2	0xbd05b0bd	-0.032639254
3	0x3c279eb7	0.010230712
4	0xbd2df86c	-0.04247324
5	0xbcc80338	-0.024415597
6	0xbd7e21c0	-0.062043905
7	0xbccfb1a6	-0.025353264
8	0x3b644a5a	0.0034834356
9	0xbd049566	-0.03236904
10	0x3b28ac32	0.0025737402
11	0xbce9b614	-0.028529204
12	0xbc8d9efc	-0.017287724
13	0xbd2de9e4	-0.042459384
14	0xbb0bc3c5	-0.0021326405
15	0xbc12de1a	-0.008964086
16	0x3bc5fea9	0.0060423207
17	0x3b7799fd	0.0037780993
18	0xbd0b4cdf	-0.034008857
19	0xbd7d3565	-0.0618185
20	0xba397c93	-0.0007075753
21	0xbc56921d	-0.01309636
22	0xbd35d28b	-0.044390243
23	0xbd8d1b2a	-0.06889947
24	0x3c76c6b7	0.015062026
25	0x3cbf87bf	0.023380158
26	0xbca26f32	-0.019828413
27	0xbd12f268	-0.035875708
28	0x3d40e9fd	0.04709815
29	0xba8f1982	-0.0010917636
30	0xbd083e0c	-0.033262298
31	0x3cd641f5	0.026154498

0.model_cnn.layer2.1.running_mean f4 [32]
0	0x3cc012e4	0.023446508
1	0xbe56cd7c	-0.20976824
2	0x3d0e8f1e	0.034804456
3	0xbc4c1713	-0.012456673
4	0x3c4e738d	0.012600792
5	0xbd002e9b	-0.031294446
6	0xbb5b5502	-0.0033467417
7	0x3cbfb41b	0.02340131
8	0xbdc5552d	-0.096353866
9	0xbc5b5d69	-0.01338897
10	0xbdaca6e7	-0.084302716
11	0x3d340057	0.043945637
12	0xbe747cce	-0.23875734
13	0x3def3297	0.11679571
14	0x3e2d3ce5	0.1691776
15	0xbda80d0e	-0.08205615
16	0xbe378e09	-0.17925276
17	0x3dbe0e1b	0.09280034
18	0x3d8828d6	0.06648414
19	0x3df35645	0.11881689
20	0xbdcb64fe	-0.09931372
21	0x3d3ca761	0.046058062
22	0x3cd5de81	0.026107075
23	0x3c8bab6f	0.01704952
24	0xbe9cd048	-0.30627656
25	0xbd8431b5	-0.06454793
26	0xbd7417f8	-0.05959317
27	0x3ccc493a	0.02493726
28	0xbdf9c765	-0.121962346
29	0xbd8b33dd	-0.067970015
30	0xbe76c9a8	-0.24100363
31	0xbe63eeb5	-0.22259028

0.model_cnn.layer2.1.running_var f4 [32]
0	0x3c9f233e	0.019425984
1	0x3e10dce3	0.14146762
2	0x3df15406	0.11783604
3	0x3cd6adab	0.026205858
4	0x3e2a9862	0.16659692
5	0x3d2a7a72	0.04162068
6	0x3cf4b31b	0.02987056
7	0x3d2e1630	0.04250163
8	0x3db6bdae	0.08922897
9	0x3c62003b	0.013794
10	0x3e1d10f3	0.15338497
11	0x3d84d565	0.06486014
12	0x3e8cfe78	0.27537894
13	0x3d19c8b3	0.037544917
14	0x3d3b40b4	0.045716003
15	0x3d6d2124	0.057892933
16	0x3d12370e	0.035697035
17	0x3cb3aa0a	0.021931667
18	0x3cc239b7	0.023709161
19	0x3d1ae78d	0.03781848
20	0x3d4ac958	0.049508423
21	0x3d8b57f4	0.06803885
22	0x3cb230df	0.02175182
23	0x3c9fd9dd	0.019513065
24	0x3e03537c	0.12824816
25	0x3d0e1431	0.034687225
26	0x3dbb55e5	0.091472425
27	0x3ccadec1	0.02476442
28	0x3d289dcf	0.041166123
29	0x3db4354f	0.0879923
30	0x3e1064e4	0.14100987
31	0x3d396e51	0.04527122

0.model_cnn.layer3.0.weight f4 [64, 32, 3]
0	0x3de362ef	0.111028545
1	0x3d9d92e5	0.076940335
2	0xbe0a817b	-0.13525955
3	0x3d74d436	0.059772693
4	0xbd03ffb0	-0.032226264
5	0xbb1f129c	-0.0024272567
6	0xbd8381a3	-0.064212106
7	0x3da387e2	0.07984902
8	0xbdb16c9e	-0.08663295
9	0xbc13c46d	-0.0090189995
10	0x3cae09ec	0.021244965
11	0xbd862960	-0.065508604
12	0xbd347c28	-0.044063717
13	0xbe02411f	-0.12720154
14	0xbd06c797	-0.032905187
15	0x3d5389ad	0.05164497
16	0xbd202278	-0.039095372
17	0x3df3312d	0.11874614
18	0x3bf4c61d	0.007469906
19	0xbc28250e	-0.010262741
20	0xbd151515	-0.03639706
21	0xbdf9b104	-0.12191966
22	0x3c816a16	0.015797656
23	0xbc36f2be	-0.011166273
24	0xbc9453ae	-0.018106308
25	0x3dbc2928	0.091875374
26	0xbd224d70	-0.03962463
27	0xbda232ae	-0.07919823
28	0x3c9ccc1d	0.019140298
29	0xbd8ee841	-0.06977893
30	0x3d787189	0.06065515
31	0x3e04f154	0.12982684
32	0x3d88e402	0.06684114
33	0xbd83d62f	-0.06437337
34	0x3d863c98	0.06554526
35	0x3d82542b	0.0636371
36	0xbd3fb87c	-0.046806797
37	0x3db453d9	0.08805055
38	0x3b8b40bc	0.0042496603
39	0x3d2be8ee	0.041970186
40	0xbdb0c297	-0.08630865
41	0x3d607620	0.054800153
42	0x3c2a5cf9	0.010398143
43	0xbdef4664	-0.11683348
44	0x3df25b4d	0.118338205
45	0x3db0da91	0.08635438
46	0x3d8c52a0	0.06851697
47	0xbdd5344e	-0.10410367
48	0x3971c75b	0.00023057817
49	0x3d9c289b	0.076249324
50	0x3d9e1a6e	0.07719885
51	0xbd200308	-0.03906539
52	0xbdf284ed	-0.1184176
53	0xbd8ab5f5	-0.06772987
54	0x3d56e4b4	0.052464202
55	0x3c04307e	0.008068202
56	0xbd28dc77	-0.041225877
57	0xbd5ba4d7	-0.053624
58	0xbdc3e42a	-0.09565003
59	0x3d3cd598	0.046102136
60	0x3c8a8efc	0.016913883
61	0x3dab0171	0.08349884
62	0xbd62f9d5	-0.05541404
63	0x3d7216c8	0.059103757
64	0x3d7ffc86	0.062496684
65	0xbbcf66a4	-0.0063293744
66	0x3dc89e6d	0.09795842
67	0xbd295200	-0.041337967
68	0xbd75eb53	-0.060038876
69	0x3c580018	0.013183616
70	0x3da57d15	0.08080498
71	0x3ccb5fc8	0.024825945
72	0xbbc0d504	-0.0058847684
73	0x3d0856a4	0.033285752
74	0x3d854c5a	0.065087035
75	0x3c9dfeac	0.019286476
76	0x3d15a8b8	0.036537856
77	0x3d5d36d3	0.054007363
78	0xbd1864ce	-0.03720551
79	0xbd12748f	-0.03575569
80	0xbda5c40d	-0.08094034
81	0x3d871476	0.065956995
82	0x3cee4f47	0.029090537
83	0x3b85c482	0.0040822634
84	0x3d78c613	0.060735773
85	0x3d8c5a9a	0.068532184
86	0xbdc729ba	-0.097247556
87	0xbe0b4562	-0.13600686
88	0xbd55fa6d	-0.052240778
89	0xbde33d94	-0.110957295
90	0xbd8fc535	-0.07020036
91	0x3d9f12d5	0.07767264
92	0xbd381039	-0.044937346
93	0xbcf010a5	-0.029304812
94	0x3e116fb2	0.14202765
95	0x3d809e81	0.06280232
96	0x3d1f1c78	0.03884551
97	0x3dce04d1	0.100595124
98	0x3dba7e3d	0.09106109
99	0x3c493a44	0.012281958
100	0x3dc3a7c0	0.0955348
101	0x3d69d488	0.05708745
102	0x3cf47933	0.029842949
103	0x3b230068	0.0024872068
104	0x3cf4ec2f	0.029897777
105	0x3bb62c61	0.0055594896
106	0x3d9125a3	0.07087257
107	0x3cd90a99	0.026494311
108	0xbd3be61e	-0.045873754
109	0xbce17711	-0.027522596
110	0x3d3d83a7	0.04626813
111	0xbd9602b2	-0.07324733
112	0xbd98847b	-0.07447144
113	0x3da834bf	0.082131855
114	0xbdfe0166	-0.124026105
115	0x3d8071aa	0.0627168
116	0xbdfb09ba	-0.122577146
117	0xbdb3c068	-0.08776933
118	0x3dd4c56e	0.10389219
119	0x3caae780	0.02086234
120	0xbdc33143	-0.0953088
121	0x3e16a4ca	0.147113
122	0xbcd611da	-0.02613156
123	0x3d00eb42	0.03147436
124	0x3bfcf47d	0.007719575
125	0x3d883924	0.06651524
126	0x3ca66f33	0.020316696
127	0xbdca0efd	-0.0986614
128	0xbdc683fe	-0.09693144
129	0xbdf67ab4	-0.120351225
130	0xbd9154d8	-0.07096261
131	0x3dbd632d	0.09247432
132	0x3b746e65	0.0037297246
133	0xbd5cd848	-0.0539172
134	0xbe0ab949	-0.13547243
135	0x3d96f743	0.0737138
136	0x3df455dd	0.119304396
137	0x3d94bcb1	0.072625525
138	0x3db9e273	0.09076395
139	0xbd2262de	-0.03964507
140	0xbba8c1fb	-0.0051500774
141	0xbc414b5b	-0.011797751
142	0x3c9cc794	0.019138135
143	0xbd26e826	-0.040748738
144	0x3d6bb280	0.057543278
145	0x3d546f91	0.05186421
146	0xbe00dc92	-0.12584141
147	0xbdc92f85	-0.09823517
148	0x3c686337	0.014183811
149	0x3ce90c12	0.028448138
150	0x3d0f15bd	0.03493284
151	0xbc29e7ef	-0.010370239
152	0xbdf6908b	-0.12039288
153	0xbd4240bf	-0.047425028
154	0xbda1ee41	-0.079067715
155	0x3d23cc00	0.03998947
156	0x3d8a9962	0.06767537
157	0xbc1d8a87	-0.009615547
158	0xbd814fc5	-0.06314043
159	0xbdbcfeb0	-0.09228265
160	0xbcc92394	-0.024553098
161	0xbd542aa6	-0.051798485
162	0xbde6d44b	-0.112709604
163	0x3da55a0f	0.08073818
164	0x3d19c981	0.037545685
165	0xbd2d5c4a	-0.04232434
166	0xbd9081af	-0.07055985
167	0xbdd8c328	-0.10584098
168	0x3e11cb6c	0.14237756
169	0x3d78054d	0.06055193
170	0x3d1d266e	0.038366728
171	0x3da221f4	0.07916632
172	0xbcc44485	-0.023958454
173	0x3ddafbf4	0.106925875
174	0xbd74b1ca	-0.059739865
175	0xbd48fa69	-0.049066935
176	0x3d7db0e0	0.06193626
177	0x3d724d98	0.05915603
178	0x3dde9f22	0.10870196
179	0xbcb2ea89	-0.02184035
180	0xbcac76c1	-0.02105272
181	0xbd801b4a	-0.06255205
182	0xbdbe67b5	-0.09297124
183	0xbd1f9204	-0.03895761
184	0x3d774d30	0.060376346
185	0x3d5002d8	0.050783962
186	0xbd02337a	-0.031787373
187	0xbccbf406	-0.024896633
188	0xbdcf7a01	-0.10130692
189	0x3cb90522	0.022585455
190	0xbd69c7ce	-0.057075314
191	0xbdb7b8ad	-0.08970771
192	0xbe008d45	-0.1255389
193	0xbd764296	-0.060122095
194	0xbdb323fa	-0.08747096
195	0xbd90ba6a	-0.07066806
196	0xbe575d3b	-0.21031658
197	0xbd32150a	-0.043477096
198	0x3cbc95e4	0.023020692
199	0xba4f9f4c	-0.00079201604
200	0xbe070ae0	-0.13187742
201	0x3cf1471a	0.02945285
202	0x3d96b236	0.0735821
203	0x3d4b504a	0.049637116
204	0x3d9f0e5d	0.077664115
205	0xbd46a08a	-0.048492946
206	0x3dae2f53	0.0850512
207	0xbdaaedb2	-0.08346118
208	0x3d449fa8	0.048003823
209	0xbcc35cae	-0.023847904
210	0xbd4a919b	-0.049455266
211	0x3b4d96b2	0.003137034
212	0xbd637c0b	-0.05553822
213	0xbd74d08a	-0.05976919
214	0x3d2858df	0.04110038
215	0xbdaaadc3	-0.08333924
216	0x3d927ce7	0.071527295
217	0xbe084b77	-0.13310038
218	0x3c4f4d65	0.01265273
219	0x3b5c7872	0.0033641127
220	0xbc2e5229	-0.010639706
221	0x3d4e92ae	0.050432853
222	0xbd1e9b37	-0.038722243
223	0xbd57ead9	-0.052714203
224	0xbc829817	-0.015941663
225	0xbae4c1af	-0.0017452742
226	0x3c4ed1b5	0.01262324
227	0xbc268018	-0.010162376
228	0x3c17c7b7	0.009263924
229	0x3c006b87	0.0078381365
230	0x3a249c90	0.0006279433
231	0xbd7718f5	-0.060326535
232	0x3d613c8d	0.054989386
233	0x3c6ee484	0.01458085
234	0xbba6983e	-0.0050840667
235	0xbca4d123	-0.020119255
236	0x3da94f00	0.08267021
237	0xbd02464c	-0.03180532
238	0x3d7ea5b3	0.06216974
239	0xbcba9e45	-0.022780547
240	0xbd961cb9	-0.07329697
241	0xbdaaaf73	-0.083342455
242	0x3d6f4452	0.058414765
243	0x3d560a1a	0.052255727
244	0xbcf91175	-0.030403832
245	0x3d685893	0.056725096
246	0xbd4b077f	-0.049567696
247	0xb97e2a8c	-0.00024239178
248	0xbd406a87	-0.046976592
249	0xbc97a81b	-0.018512776
250	0xbd9b2bdc	-0.07576725
251	0x3d12343f	0.035694357
252	0xba826225	-0.0009947462
253	0x3cdf4e69	0.027259069
254	0xbdce8fe2	-0.10086037
255	0xbd6e7ed3	-0.058226418

0.model_cnn.layer3.0.bias f4 [64]
0	0x3843ac14	4.6651883e-05
1	0x392820b2	0.00016033908
2	0x3925aefe	0.00015800816
3	0xb861d7ed	-5.3845277e-05
4	0x38d7b2a2	0.00010285272
5	0x38acd302	8.2409024e-05
6	0x38f4d014	0.00011673584
7	0xba24090f	-0.00062574534
8	0xb87625eb	-5.8686284e-05
9	0xb901a6d2	-0.00012364544
10	0x39610bb0	0.00021462026
11	0xb995f544	-0.00028602232
12	0x38c02a33	9.163134e-05
13	0x3a11d165	0.0005562513
14	0x390a4f05	0.00013190143
15	0xba3602e3	-0.0006943179
16	0xb8e06c79	-0.00010701357
17	0x3889fc14	6.579622e-05
18	0xb8ef2a5c	-0.00011404298
19	0xb8ab8b73	-8.17989e-05
20	0x3916e3dc	0.00014389999
21	0xb8b8e3c6	-8.81623e-05
22	0xba0a3cba	-0.0005273331
23	0x38e42371	0.00010878489
24	0x39ba6189	0.00035549354
25	0x39958a50	0.00028522545
26	0xb92d632a	-0.00016535507
27	0x388748df	6.450875e-05
28	0x399e73c8	0.00030222372
29	0xb917b4a4	-0.00014467776
30	0x39808f2d	0.00024520737
31	0x3984421f	0.00025226266
32	0x3806bda6	3.2124713e-05
33	0xb91ca5d0	-0.0001493909
34	0xba21149f	-0.00061447354
35	0xba221a6f	-0.00061837485
36	0x3822cd9b	3.8815295e-05
37	0x382ebbe3	4.1659816e-05
38	0x3a0bf2ab	0.00053385895
39	0x3847f33b	4.7671823e-05
40	0xb7c47a60	-2.3422006e-05
41	0xb97c3e96	-0.00024055908
42	0xb8a0f1f4	-7.674462e-05
43	0x39029124	0.00012451835
44	0x3987b892	0.00025886722
45	0x381622a1	3.5795038e-05
46	0x39d5b595	0.00040761815
47	0x389e3d3c	7.545433e-05
48	0xb93dacd2	-0.00018088825
49	0x38efafc7	0.00011429149
50	0x3a0a3a93	0.00052730105
51	0xb568b67e	-8.6692296e-07
52	0xb9d2499a	-0.0004010916
53	0x37d5a8c9	2.5470175e-05
54	0x39516e0d	0.0001997279
55	0xb9866efc	-0.00025641161
56	0x38042718	3.150766e-05
57	0x361de85a	2.353007e-06
58	0xb8fa2e9f	-0.00011929613
59	0xba248403	-0.0006275775
60	0x379d6cf6	1.8766597e-05
61	0xb8740b00	-5.8184378e-05
62	0xb8f9394b	-0.00011883917
63	0xb7b38a10	-2.1402753e-05

0.model_cnn.layer3.1.weight f4 [64]
0	0x3f7c2f95	0.98510104
1	0x3f7f3bf2	0.99700844
2	0x3f82a2a7	1.0205888
3	0x3f78a22e	0.97122467
4	0x3f82b375	1.0211016
5	0x3f799e81	0.9750748
6	0x3f79a6e7	0.975203
7	0x3f73cb34	0.9523194
8	0x3f81b418	1.0133085
9	0x3f6dce45	0.9289287
10	0x3f840392	1.031359
11	0x3f8141f3	1.0098251
12	0x3f81bdbb	1.0136026
13	0x3f83d975	1.0300738
14	0x3f7495b8	0.9554095
15	0x3f7dfc2a	0.99212897
16	0x3f825476	1.0182025
17	0x3f81e96b	1.0149359
18	0x3f823692	1.0172904
19	0x3f73c325	0.9521964
20	0x3f86536b	1.0494207
21	0x3f86ba7d	1.0525662
22	0x3f84abb6	1.0364902
23	0x3f8cee1e	1.1010168
24	0x3f7db181	0.99098974
25	0x3f7ec188	0.99514055
26	0x3f86ca7a	1.0530541
27	0x3f80b05e	1.0053823
28	0x3f796fe3	0.9743635
29	0x3f7a6b3c	0.97819877
30	0x3f821dff	1.0165404
31	0x3f8105e0	1.0079918
32	0x3f81d528	1.0143175
33	0x3f7a7b20	0.97844124
34	0x3f834e56	1.0258281
35	0x3f823298	1.017169
36	0x3f835bcf	1.0262393
37	0x3f8272e9	1.0191318
38	0x3f7f1e9a	0.9965607
39	0x3f890f1c	1.0707736
40	0x3f837cde	1.0272481
41	0x3f80530c	1.0025344
42	0x3f80c82a	1.0061085
43	0x3f7c52c1	0.9856377
44	0x3f7bf010	0.9841318
45	0x3f83d363	1.0298885
46	0x3f787f75	0.97069484
47	0x3f8272b1	1.0191251
48	0x3f813dfd	1.0097042
49	0x3f7f900c	0.99829173
50	0x3f84b4e7	1.0367707
51	0x3f7034f6	0.9383081
52	0x3f7cda81	0.9877091
53	0x3f870783	1.0549167
54	0x3f828a2e	1.0198419
55	0x3f84e794	1.0383172
56	0x3f82ff8a	1.0234234
57	0x3f7d2002	0.98876965
58	0x3f7c6d24	0.98604035
59	0x3f842954	1.0325112
60	0x3f71b9bb	0.9442403
61	0x3f769be7	0.9633164
62	0x3f8410be	1.0317609
63	0x3f75e5ac	0.96053576

0.model_cnn.layer3.1.bias f4 [64]
0	0xbd0ff8ec	-0.0351495
1	0xbd0acb39	-0.033885214
2	0xbb5973eb	-0.0033180665
3	0xbdc1d2f2	-0.09464063
4	0xbd08f7f5	-0.033439595
5	0xbd20a9c6	-0.03922441
6	0xbcc71449	-0.024301665
7	0xbdb502fb	-0.08838459
8	0xbc5c2cfe	-0.013438461
9	0xbd5d7b69	-0.05407277
10	0xbdcc7ce6	-0.0998476
11	0x3aeb864c	0.0017969101
12	0xbc07db99	-0.008292102
13	0x3c628a32	0.013826894
14	0xbd040834	-0.032234386
15	0xbdcb4a0a	-0.09926231
16	0xbc24006a	-0.010009864
17	0xbcf4dc48	-0.029890195
18	0xbd63372f	-0.05547255
19	0xbc5738c0	-0.013136089
20	0xbcff353f	-0.03115332
21	0xbd0ab90e	-0.03386789
22	0x3bf13f5a	0.0073622884
23	0xbd8c268d	-0.068432905
24	0xbd704440	-0.05865884
25	0xbd248156	-0.040162407
26	0xbd57b28e	-0.052660517
27	0xbca7551f	-0.020426331
28	0xbdfa2e9d	-0.12215922
29	0xbd0e440b	-0.03473286
30	0xbd8433a1	-0.0645516
31	0xbcfd0c51	-0.030889662
32	0xbd201c89	-0.039089713
33	0xbd8038e1	-0.06260849
34	0xbd1dfddd	-0.03857218
35	0xbd72fa47	-0.059320714
36	0xbcbce07e	-0.023056265
37	0xbd046dce	-0.03233128
38	0xbcc55825	-0.024089882
39	0xbcdf2665	-0.027239988
40	0x3c1a10d6	0.009403428
41	0xbd411d64	-0.04714717
42	0xbcf20b26	-0.029546332
43	0xbccac616	-0.024752658
44	0xbd0e7336	-0.034777842
45	0x3d9111f6	0.07083504
46	0xbda9e61a	-0.082958415
47	0xbbcfea2b	-0.0063450537
48	0xbb89d78b	-0.004206603
49	0xbcc9b9cf	-0.024624733
50	0xbb935191	-0.0044958075
51	0xbce303f1	-0.02771184
52	0xbc72ad3f	-0.014811813
53	0xbd650114	-0.05590923
54	0xbc49adba	-0.012309486
55	0xbcbf226e	-0.023331847
56	0xbd5c1f09	-0.053740535
57	0xbb85dc70	-0.004085116
58	0xbceea723	-0.029132431
59	0x3cff3ddc	0.031157427
60	0xbd9cddfd	-0.076595284
61	0x3b00f7f6	0.0019679046
62	0xbcf54060	-0.029937923
63	0xbd9405b1	-0.07227648

0.model_cnn.layer3.1.running_mean f4 [64]
0	0x3d919ebb	0.071103536
1	0xbd64abc6	-0.05582788
2	0xbec9ce00	-0.39414978
3	0x3e0e3870	0.13888717
4	0x3e556d79	0.20842542
5	0xbec10e6e	-0.3770632
6	0x3d57a678	0.05264899
7	0x3c6fe07e	0.014640925
8	0x3c7640c2	0.015030088
9	0xbf01f10f	-0.5075845
10	0x3dfca2f6	0.1233577
11	0xbf0d1f6c	-0.5512607
12	0xbd525c8e	-0.0513578
13	0xbecf6c1c	-0.40512168
14	0xbe82d48e	-0.2555279
15	0xbda3724c	-0.07980785
16	0x3eaa48e1	0.33258727
17	0xbd8bc99c	-0.06825563
18	0x3ca8a0a1	0.020584406
19	0x3e95c33d	0.29250517
20	0x3d705da4	0.058683053
21	0xbe7fad39	-0.24968423
22	0x3e464be5	0.19364889
23	0xbed15d51	-0.40891507
24	0xbdc8918f	-0.09793388
25	0xbc76ab73	-0.015055525
26	0xbe03b0fa	-0.1286048
27	0x3dae5b42	0.085135
28	0x3e881523	0.26578626
29	0x3e299cbc	0.16563696
30	0x3e2a6a32	0.16642073
31	0x3e5ef9dc	0.21775001
32	0x3cfe5048	0.03104414
33	0x3cdbf3e4	0.026849695
34	0x3e51a2bd	0.20472236
35	0x3cf842b9	0.030305253
36	0xbbffa56e	-0.007801703
37	0x3e174e55	0.14775975
38	0x3d67c040	0.05657983
39	0xbe91b25a	-0.28456384
40	0xbd32a593	-0.043614935
41	0xbe83ab10	-0.25716448
42	0x3e0a7aac	0.13523358
43	0xbcbd53d6	-0.023111265
44	0xbeb7f158	-0.35926318
45	0xbe1a3271	-0.15058304
46	0x3e58b20e	0.21161672
47	0xbed8564d	-0.42253342
48	0xbe84e938	-0.25959182
49	0xbe0f0b1d	-0.13969083
50	0xbec25db4	-0.37962115
51	0x3e3bd423	0.18342642
52	0xbeecd47a	-0.46255857
53	0xbd4d5489	-0.050129447
54	0xbf179820	-0.592165
55	0xbe8aa865	-0.270816
56	0xbdba6249	-0.09100778
57	0x3d8498db	0.06474467
58	0x3d8b1685	0.06791405
59	0xbf15af70	-0.5847082
60	0xbdd04838	-0.10170025
61	0x3ec146e5	0.377494
62	0xbe2cdfc9	-0.16882242
63	0xbdb38027	-0.087646775

0.model_cnn.layer3.1.running_var f4 [64]
0	0x3e0907c6	0.13381872
1	0x3e3c6895	0.1839927
2	0x3e319767	0.17342912
3	0x3e15595d	0.1458487
4	0x3e56a586	0.2096158
5	0x3ee554e2	0.44791323
6	0x3dcc907e	0.09988497
7	0x3e1ab8f9	0.15109624
8	0x3eabcc79	0.33554438
9	0x3ee0d85d	0.43915072
10	0x3dc630dc	0.09677288
11	0x3ec6da08	0.3883822
12	0x3e2ca439	0.16859521
13	0x3e9ae6a5	0.30254093
14	0x3e1337b5	0.1437672
15	0x3ddc58fe	0.107591614
16	0x3dd27611	0.10276426
17	0x3e605c53	0.21910219
18	0x3e068be4	0.13139302
19	0x3e57cbff	0.21073912
20	0x3db50265	0.08838347
21	0x3d828965	0.06373862
22	0x3e353303	0.1769524
23	0x3d89a44c	0.0672079
24	0x3df26a5d	0.118366934
25	0x3dbcdbba	0.09221597
26	0x3dd2ff79	0.10302634
27	0x3e0e2a85	0.13883407
28	0x3e24b7e9	0.16085781
29	0x3de80369	0.113287754
30	0x3e000a89	0.12504019
31	0x3de4b39c	0.1116707
32	0x3e21543f	0.15754794
33	0x3dc288b1	0.09498728
34	0x3e3034ad	0.17207594
35	0x3dcefbdb	0.10106631
36	0x3e41152a	0.1885573
37	0x3e22f6f7	0.15914522
38	0x3de34bc3	0.11098435
39	0x3e8a33cd	0.26992646
40	0x3ebfe8d0	0.3748231
41	0x3dd13d37	0.10216754
42	0x3dd782ea	0.10523017
43	0x3e9de812	0.30841118
44	0x3dbe5bd9	0.09294862
45	0x3e57e1da	0.2108225
46	0x3e8bc8ff	0.27301785
47	0x3f6ad46f	0.917304
48	0x3eb9bd4e	0.3627724
49	0x3e27dae3	0.16392092
50	0x3dd6a0d0	0.10479891
51	0x3f4772ec	0.7790973
52	0x3e212fb4	0.15740854
53	0x3e16f24b	0.14740865
54	0x3e6eae53	0.23308687
55	0x3e4d1bd8	0.20030153
56	0x3df3e65f	0.11909174
57	0x3e7211d1	0.23639609
58	0x3dc32c5e	0.09529947
59	0x3e7b4854	0.2453931
60	0x3e32e6cf	0.17470859
61	0x3dcd5b42	0.10027172
62	0x3dc66fdf	0.096893065
63	0x3e48c7d1	0.19607474

0.model_cnn.layer4.0.weight f4 [128, 64, 3]
0	0xba834212	-0.0010014197
1	0x3c615c0c	0.013754856
2	0xbcc9e2d7	-0.024644298
3	0xbdc579e0	-0.096423864
4	0x3d5188c4	0.05115582
5	0xbc57e8be	-0.013178049
6	0xbdbae21e	-0.0912516
7	0xbdbc53fb	-0.091957055
8	0xbd4313ea	-0.047626413
9	0xbce260ab	-0.027633986
10	0x3cc70983	0.024296528
11	0xbd24c08b	-0.040222686
12	0x3d93a783	0.07209685
13	0xbd1c3e0e	-0.038145117
14	0xbd3089d2	-0.043100186
15	0xbcb54d6c	-0.022131644
16	0x3d95a0a0	0.073060274
17	0xbbbf7dc2	-0.005843849
18	0x3d8a4e83	0.06753256
19	0x3c140a05	0.009035592
20	0x3d53b53d	0.051686514
21	0x3812ccf3	3.4999986e-05
22	0x3d101d09	0.03518394
23	0xbc0eb302	-0.008709671
24	0x3d8f7423	0.07004573
25	0x3d70bcbe	0.05877375
26	0xbc76294b	-0.015024493
27	0xbce187e9	-0.027530627
28	0xbdf010ba	-0.1172194
29	0x3d5b3092	0.053513117
30	0xbd74f4a6	-0.059803627
31	0x3d7bb107	0.061448123
32	0xbcdff624	-0.027339049
33	0x3d8f89e4	0.070087224
34	0x3c986d01	0.018606665
35	0xbc89fca4	-0.016844101
36	0xbde1b072	-0.110199824
37	0x3d6757e1	0.056480292
38	0xbc90de3e	-0.017684098
39	0xbdaf011e	-0.08545135
40	0xbbb42e44	-0.0054986794
41	0x3d8179bc	0.06322047
42	0x3d1f436d	0.03888266
43	0x3d987e7c	0.07446
44	0xbc90a0f7	-0.017654879
45	0xbd47bce6	-0.048764132
46	0x3c94152a	0.018076498
47	0x3c857a8b	0.016293785
48	0xbd668531	-0.056279365
49	0x3d40987c	0.04702042
50	0x3d86908b	0.06570538
51	0x3d0cd32f	0.034381088
52	0x3da77797	0.08177107
53	0x3d05464b	0.03253774
54	0x3e023027	0.12713681
55	0xbcff5a07	-0.031170858
56	0x3cc11d49	0.023573535
57	0x3d150d22	0.036389478
58	0x3c464e31	0.012103603
59	0xbb390d61	-0.0028236734
60	0x3da8905b	0.082306586
61	0x3df689aa	0.12037976
62	0xbc48846c	-0.012238603
63	0xbc927346	-0.017877232
64	0x3b5ef274	0.0034019025
65	0x3da64e4f	0.08120405
66	0x3bcab1ef	0.006185762
67	0x399dc723	0.00030093742
68	0x3d7a33af	0.061084446
69	0x3d6cb2af	0.057787593
70	0xbd560c92	-0.05225808
71	0xbdb88bce	-0.09011041
72	0x3a2e313c	0.000664491
73	0x3bc04bcb	0.00586841
74	0x3c5b9a4a	0.013403485
75	0x3d411760	0.047141433
76	0xbc363955	-0.011122067
77	0x3dc232fc	0.09482381
78	0x3c6b8ffa	0.014377588
79	0x3d0c04d0	0.034184277
80	0xbd4e4fea	-0.05036918
81	0x3c9634fc	0.018335812
82	0xbd14b163	-0.03630198
83	0xbd80c819	-0.062881656
84	0x3c20538d	0.009785545
85	0xbca3f960	-0.020016372
86	0xbd6f9aa7	-0.058497097
87	0x3d6a4165	0.05719127
88	0x3d3e3da4	0.046445504
89	0x3d84197b	0.064501725
90	0x3db5395d	0.08848832
91	0xbcb3bf3f	-0.02194178
92	0x3dbcaed6	0.09213035
93	0xbc9b93b7	-0.018991334
94	0x3c52fe17	0.012877963
95	0xbd318872	-0.043343015
96	0xbd162a35	-0.036661346
97	0x3d424e64	0.04743804
98	0x3c82310b	0.015892526
99	0xbd4d36bf	-0.050101038
100	0x3da0b0df	0.078462355
101	0xbcde2c8b	-0.02712085
102	0xbd0df6ff	-0.034659382
103	0xbc88a2c9	-0.016679185
104	0xbd6ef845	-0.058342237
105	0x3d7162ac	0.05893199
106	0x3a804102	0.0009784999
107	0x3d92a9a6	0.07161264
108	0xbdfb0968	-0.122576535
109	0x3c620ebf	0.013797461
110	0x3c401bdf	0.011725395
111	0xbc16bbb2	-0.0092000235
112	0xbc6bb1ab	-0.014385621
113	0x3b90c051	0.004417457
114	0xbd4aa0d2	-0.049469776
115	0xbd71adcb	-0.059003633
116	0x3ca831b7	0.020531518
117	0xbce468de	-0.027882036
118	0xbc2fdc40	-0.010733664
119	0xbd85c2ce	-0.06531297
120	0x3d5f303b	0.054489356
121	0x3d47b7ef	0.048759397
122	0xbd4cd39a	-0.050006486
123	0xbd00bf60	-0.03143251
124	0xbc5a1b13	-0.013312119
125	0xbd090f12	-0.033461638
126	0x3d4bf055	0.049789745
127	0x3b88423d	0.004158287
128	0x3d3c9a70	0.04604572
129	0x3d5384ee	0.051640444
130	0x3c6c04fb	0.014405484
131	0x3cd3945a	0.025827575
132	0x3cffd9f8	0.031231865
133	0x3d494c4e	0.049145035
134	0xbc0bc9c0	-0.008531988
135	0x3ce60b06	0.028081428
136	0xbd0769b1	-0.03305978
137	0xbd04204a	-0.032257356
138	0x3d377be4	0.044795886
139	0xbd21e8c5	-0.039528627
140	0x3d176aa9	0.036966953
141	0xbca89234	-0.020577528
142	0xbaffbc4e	-0.0019511075
143	0x3d89248c	0.06696424
144	0xbc98e14b	-0.018662116
145	0x3d9d9a05	0.076953925
146	0x3bdabdef	0.006675474
147	0xbdb35104	-0.08755687
148	0x3cc9c733	0.024631118
149	0x3c354eee	0.011066182
150	0xbc65fc2f	-0.014037176
151	0xbd3a4a66	-0.045481108
152	0x3b900024	0.004394548
153	0xbcd14691	-0.025546344
154	0x3d86b584	0.0657759
155	0xbd82f914	-0.06395164
156	0xbd36a851	-0.044594113
157	0x3d1cabf7	0.038249936
158	0x3d262fda	0.04057298
159	0x3ca47d99	0.02007942
160	0xbd7e6a8a	-0.062113322
161	0x3d12299b	0.03568421
162	0x3d8f5239	0.069981046
163	0x3d6e0c09	0.058116946
164	0x3dde3b9e	0.10851215
165	0x3d220416	0.039554678
166	0x3d8a1429	0.067421265
167	0x3d17ca59	0.03705821
168	0x3da0d3b4	0.07852879
169	0x3d946145	0.07245115
170	0xbcccb1be	-0.024987098
171	0xbdf951c2	-0.12173797
172	0xbd419b4b	-0.04726724
173	0xbd083dbc	-0.033262
174	0xbd420bcf	-0.047374543
175	0x3d864736	0.06556551
176	0x3dcb2950	0.09919989
177	0xbd782a02	-0.060586937
178	0x3c5a9be1	0.0133428285
179	0x3c53b667	0.012921906
180	0xbb7b438f	-0.0038339829
181	0xb8f8b730	-0.00011859683
182	0xbbf08c86	-0.0073409704
183	0x3a1c9873	0.00059736444
184	0x3d7f92ff	0.062396046
185	0xbc45bd69	-0.012069085
186	0x3d750a31	0.059824172
187	0x3dc992ec	0.09842476
188	0x3dc4d8fd	0.096117
189	0x3d88b57f	0.06675243
190	0x3c96263e	0.018328782
191	0x3c854be8	0.016271546
192	0xbd9caf52	-0.07650627
193	0xba90ef99	-0.0011057734
194	0xbcc69f97	-0.02424602
195	0x3c8f004c	0.017456196
196	0x3d0058b0	0.03133458
197	0xbd101fa3	-0.03518642
198	0xbc2bf310	-0.010494962
199	0x3d8db3b9	0.06919045
200	0xbcc34545	-0.023836741
201	0xbd06f8ec	-0.032952234
202	0xbda6c7c9	-0.08143575
203	0xbda0ba3f	-0.078480236
204	0xbda1d832	-0.07902564
205	0xbdb7ecb5	-0.08980695
206	0xbd5d7d4f	-0.05407458
207	0x3cb403b0	0.021974415
208	0xbd9ec8db	-0.07753154
209	0xbd3ccfd1	-0.046096627
210	0xbc32545d	-0.010884372
211	0x3d0312a6	0.032000206
212	0x3caf90f8	0.021431431
213	0xbda11b5e	-0.07866548
214	0x3d80e75d	0.06294129
215	0xbd442319	-0.047885034
216	0x3d827114	0.06369224
217	0xbbc86ded	-0.00611662
218	0x3d9606a6	0.07325487
219	0x3c4a6aa3	0.012354526
220	0x3cc6da94	0.024274148
221	0xbd75e4b0	-0.060032547
222	0x3d62ebca	0.055400647
223	0x3d9bc39e	0.076056704
224	0xbd61db41	-0.055140737
225	0x3d3401d9	0.043947075
226	0xbd0eafd0	-0.034835637
227	0xbd052e11	-0.032514635
228	0xbd56f774	-0.052482083
229	0xbd149373	-0.03627343
230	0xbccf203b	-0.025283923
231	0x3d052fbf	0.032516237
232	0xbd0fa3d7	-0.03506836
233	0x3d96107a	0.073273614
234	0xbb45b357	-0.003016671
235	0x3ca7fe84	0.020507105
236	0xbdcbec0c	-0.09957132
237	0x3d9a59e5	0.07536677
238	0x3d064fab	0.03279082
239	0x3cf48836	0.029850107
240	0x3db507fe	0.08839415
241	0xbd285d7d	-0.041104782
242	0xbc602bf1	-0.013682351
243	0xbddc7c35	-0.10765878
244	0xbce242db	-0.02761977
245	0xbdfa5f90	-0.12225258
246	0x3c7906f8	0.015199415
247	0xbb87b7fb	-0.004141805
248	0xbd8131df	-0.0630834
249	0xbbcabfcd	-0.006187415
250	0x3c8c9635	0.017161468
251	0xbc36e760	-0.011163563
252	0x3d583046	0.052780412
253	0xbd60de56	-0.054899536
254	0x3d1b0869	0.037849817
255	0xbd81a42b	-0.06330141

0.model_cnn.layer4.0.bias f4 [128]
0	0x39381937	0.00017557
1	0x38740a6c	5.818384e-05
2	0x3911f38e	0.00013919009
3	0xb811b23e	-3.4736695e-05
4	0x3798a440	1.8196297e-05
5	0xb918cc05	-0.00014571853
6	0x38808945	6.129084e-05
7	0x3988bf61	0.0002608253
8	0xb9867f10	-0.0002565314
9	0x38a0adc9	7.6617645e-05
10	0x37cc40df	2.4348903e-05
11	0x3811f360	3.4797355e-05
12	0x38bf6b11	9.1275324e-05
13	0xb7f759ac	-2.9486451e-05
14	0x38b2f2cb	8.532925e-05
15	0x3745776b	1.1769919e-05
16	0xb99b4810	-0.00029617595
17	0x391aa56f	0.00014748213
18	0xb963c14b	-0.00021720414
19	0x38d83403	0.000103093706
20	0xb80bd2c3	-3.333647e-05
21	0xb98843eb	-0.00025990544
22	0x38097eec	3.278155e-05
23	0x37efeeae	2.8602164e-05
24	0xb8788f19	-5.9261078e-05
25	0x3626a1ad	2.4830035e-06
26	0xb92f9f60	-0.00016748672
27	0xb7d8c417	-2.5840518e-05
28	0x38efce99	0.0001143489
29	0xb83772e7	-4.373761e-05
30	0x38b6fc63	8.725447e-05
31	0x3915f35c	0.00014300406
32	0xb8434109	-4.655219e-05
33	0xb8fcb112	-0.00012049278
34	0xb8c7b205	-9.522218e-05
35	0x38ffe472	0.00012201899
36	0xb83440a4	-4.2975546e-05
37	0xb7cae2aa	-2.4185825e-05
38	0xba070652	-0.0005150783
39	0x379d0926	1.8720119e-05
40	0xb84849d3	-4.775247e-05
41	0x38b5410b	8.642868e-05
42	0x37a2e9a1	1.9420697e-05
43	0x38bb09a8	8.9186535e-05
44	0xb8b52477	-8.637545e-05
45	0xb976fe13	-0.00023555038
46	0xb8d3c66e	-0.000100982244
47	0xb88457b9	-6.31059e-05
48	0x38441a17	4.675434e-05
49	0x374061e0	1.146688e-05
50	0xb9b9c4dc	-0.0003543262
51	0xb5bd82a6	-1.4119621e-06
52	0xb63f69f5	-2.8522893e-06
53	0xb91c8ad1	-0.00014929032
54	0xb8243da4	-3.9158054e-05
55	0xb81b8d6f	-3.70866e-05
56	0xb8237f11	-3.898057e-05
57	0x38cf7368	9.892025e-05
58	0x3897e38e	7.2426265e-05
59	0x3804cc07	3.1661268e-05
60	0x387312da	5.795327e-05
61	0xb70fc77c	-8.56991e-06
62	0x387ad08a	5.9798862e-05
63	0xb8db727a	-0.00010464057
64	0xb93fa8eb	-0.00018278106
65	0x37f0711c	2.86629e-05
66	0xb843c24e	-4.6672583e-05
67	0x374e7011	1.2304649e-05
68	0x394301d4	0.0001859733
69	0x37b02e2d	2.1002337e-05
70	0x35836080	9.788346e-07
71	0xb8840d00	-6.296672e-05
72	0xb8192247	-3.6509966e-05
73	0xb7cf737d	-2.4730101e-05
74	0xb84c9399	-4.877485e-05
75	0xb7006e34	-7.655053e-06
76	0x3579b227	9.3018974e-07
77	0x38151296	3.5541678e-05
78	0x392ec5f2	0.00016667673
79	0x37f75aa1	2.9486897e-05
80	0xb89886be	-7.2730225e-05
81	0xb9512e94	-0.00019949145
82	0x38cd8f1a	9.8018165e-05
83	0x38fd4f53	0.000120787554
84	0x384c8ba0	4.8767426e-05
85	0xb7f1eec9	-2.8840632e-05
86	0xb753ed99	-1.26319e-05
87	0x37af4ece	2.0898322e-05
88	0x398c16fb	0.00026720003
89	0xb6b1f566	-5.303579e-06
90	0x38db2564	0.00010449698
91	0xb80a6ffd	-3.300606e-05
92	0xb9d1c358	-0.0004000913
93	0xb76a190c	-1.3953319e-05
94	0xb7b907ec	-2.2057407e-05
95	0xb79ed6ab	-1.893503e-05
96	0xb88dbb3a	-6.7582776e-05
97	0xb9a74983	-0.00031907493
98	0x3916fe85	0.0001439993
99	0x387beb8c	6.0062433e-05
100	0xb81f0fca	-3.792326e-05
101	0xb82017e6	-3.816923e-05
102	0x38899923	6.561193e-05
103	0xb76dfa79	-1.41846185e-05
104	0x37948548	1.7705039e-05
105	0x379e547d	1.887441e-05
106	0x3812940f	3.4947003e-05
107	0xb8ab34c0	-8.163741e-05
108	0xb84f5185	-4.9428567e-05
109	0xb7b8cd3d	-2.203008e-05
110	0xb947b676	-0.00019046091
111	0xb8f7b0ba	-0.00011810796
112	0xb9881e66	-0.0002596259
113	0xb8d10dcd	-9.968467e-05
114	0xb7dc3501	-2.6250726e-05
115	0xb6cd2076	-6.113255e-06
116	0x371bb0ad	9.2798555e-06
117	0x382db88c	4.1418287e-05
118	0xb80c5ccf	-3.3465036e-05
119	0xb911656f	-0.00013866065
120	0xb825223f	-3.937096e-05
121	0x38aa4f17	8.120963e-05
122	0x38906d88	6.886857e-05
123	0x37312c37	1.0560317e-05
124	0xb61230fa	-2.1784203e-06
125	0xb98572e1	-0.00025453328
126	0xb9106c74	-0.00013773312
127	0xb826052c	-3.95823e-05

0.model_cnn.layer4.1.weight f4 [128]
0	0x3f80567a	1.002639
1	0x3f7e12f9	0.992477
2	0x3f830dc1	1.0238572
3	0x3f7e7cb3	0.99409026
4	0x3f81e200	1.0147095
5	0x3f81bfae	1.0136621
6	0x3f7d4ec7	0.9894833
7	0x3f857c81	1.042862
8	0x3f862eb8	1.0483007
9	0x3f8dbbe9	1.1072971
10	0x3f815e3e	1.0106885
11	0x3f84a861	1.0363885
12	0x3f80749f	1.003559
13	0x3f8035a9	1.0016376
14	0x3f828c64	1.0199094
15	0x3f695962	0.9115201
16	0x3f852108	1.0400705
17	0x3f82bfab	1.0214742
18	0x3f7f626d	0.9975956
19	0x3f82e732	1.0226805
20	0x3f8036c2	1.0016711
21	0x3f847793	1.0348991
22	0x3f81360e	1.0094621
23	0x3f805be2	1.002804
24	0x3f87438c	1.0567489
25	0x3f7447cd	0.9542206
26	0x3f7ef9fe	0.9960021
27	0x3f6eed9b	0.9333131
28	0x3f813eae	1.0097253
29	0x3f7da2b7	0.9907641
30	0x3f83d259	1.0298568
31	0x3f80b1f4	1.0054307
32	0x3f8209a6	1.0159194
33	0x3f837ac3	1.0271839
34	0x3f769dd8	0.963346
35	0x3f74096b	0.9532687
36	0x3f7a3ef3	0.977523
37	0x3f7db569	0.99104935
38	0x3f878ba2	1.0589488
39	0x3f7a250e	0.9771279
40	0x3f8241f5	1.0176378
41	0x3f8290c6	1.0200431
42	0x3f7a7493	0.9783413
43	0x3f7fab18	0.99870443
44	0x3f7dc186	0.9912342
45	0x3f82e5eb	1.0226415
46	0x3f86011f	1.0469092
47	0x3f7df687	0.99204296
48	0x3f83ee85	1.0307165
49	0x3f8a72b7	1.0816258
50	0x3f85aebc	1.044395
51	0x3f7f3a48	0.99698305
52	0x3f847fc5	1.0351492
53	0x3f856e4a	1.0424283
54	0x3f849755	1.0358683
55	0x3f77f6d6	0.96861017
56	0x3f817e94	1.0116754
57	0x3f862e7c	1.0482936
58	0x3f7ce57f	0.98787683
59	0x3f7dbdfb	0.9911801
60	0x3f751f7e	0.9575118
61	0x3f77b8c1	0.9676629
62	0x3f83c8e7	1.0295686
63	0x3f86b446	1.0523765
64	0x3f803eac	1.0019126
65	0x3f7ae8c4	0.9801142
66	0x3f7f3dab	0.9970347
67	0x3f6cfc4d	0.9257248
68	0x3f789d0d	0.9711464
69	0x3f7f4099	0.99707943
70	0x3f7d2fd8	0.9890113
71	0x3f89c9bd	1.0764691
72	0x3f8166b8	1.0109472
73	0x3f83af57	1.0287884
74	0x3f7fc5ea	0.9991137
75	0x3f74920b	0.95535344
76	0x3f802c2f	1.0013484
77	0x3f8c70fc	1.097198
78	0x3f8032c2	1.001549
79	0x3f8068e8	1.0032015
80	0x3f80055a	1.0001633
81	0x3f7fa5c3	0.9986231
82	0x3f826f5f	1.0190238
83	0x3f7fb31d	0.9988268
84	0x3f836938	1.0266485
85	0x3f7d42b9	0.98929936
86	0x3f7207cb	0.9454314
87	0x3f7e613d	0.99367124
88	0x3f7d91ac	0.990504
89	0x3f7d486b	0.98938626
90	0x3f8916ad	1.0710045
91	0x3f7c8b95	0.98650485
92	0x3f82642a	1.0186818
93	0x3f83b8fe	1.029083
94	0x3f812483	1.0089267
95	0x3f83d6da	1.0299942
96	0x3f749b77	0.9554972
97	0x3f8604b9	1.0470191
98	0x3f839715	1.0280482
99	0x3f814d0c	1.0101638
100	0x3f7d9bca	0.9906584
101	0x3f84b313	1.0367149
102	0x3f7956ae	0.9739789
103	0x3f7ec761	0.9952298
104	0x3f810a8a	1.0081341
105	0x3f7709a7	0.96499103
106	0x3f705db7	0.93893
107	0x3f868d5a	1.0511887
108	0x3f82d430	1.0221004
109	0x3f82163b	1.0163034
110	0x3f8330bc	1.0249248
111	0x3f7f9262	0.9983274
112	0x3f850e13	1.039492
113	0x3f7a4bdc	0.97772
114	0x3f8e6c24	1.1126752
115	0x3f8319ff	1.0242308
116	0x3f782e16	0.9694532
117	0x3f805b7c	1.0027919
118	0x3f83eea6	1.0307205
119	0x3f8444c1	1.0333482
120	0x3f823483	1.0172275
121	0x3f824872	1.0178359
122	0x3f857409	1.0426036
123	0x3f8623ac	1.0479636
124	0x3f82d138	1.0220098
125	0x3f86beea	1.0527012
126	0x3f808869	1.0041629
127	0x3f810211	1.0078756
