checkpoint/cnn_features_1d_0930-122637/57-0.3494-best_model.pth (torch, 940543 bytes, 30 tensors)

0.model_cnn.layer1.0.weight f4 [16, 1, 15]
0	0xbe1e584f	-0.15463375
1	0x3ddbd3d4	0.107337624
2	0xbe22bfc7	-0.1589347
3	0x3e37dc21	0.17955066
4	0x3cf447a5	0.029819319
5	0xbe1774cf	-0.14790653
6	0x3e86ae7a	0.2630499
7	0xbe608bfd	-0.21928401
8	0xbd900697	-0.07032507
9	0x3e8561c0	0.2605114
10	0x3e534c54	0.20634586
11	0xbe459ea5	-0.192988
12	0x3e155b46	0.145856
13	0xbe16da51	-0.14731719
14	0xbe61e1b4	-0.22058755
15	0x3cdfa40b	0.027299901
16	0x3d778de4	0.06043805
17	0x3e2c9c07	0.16856395
18	0x3e28ddf0	0.16490912
19	0xbc086266	-0.008324241
20	0x3da17398	0.07883376
21	0x3e2eb385	0.17060669
22	0xbd873a29	-0.0660289
23	0xbda9e32e	-0.08295284
24	0x3e37faf7	0.17966829
25	0x3e1bdd04	0.1522103
26	0x3d21a56c	0.0394644
27	0x3c37cdbd	0.011218485
28	0xbe3b60ad	-0.18298598
29	0xbe4f9552	-0.20271805
30	0x3e53ac90	0.20671296
31	0x3e48ac30	0.19596934
32	0x3e828bbb	0.2549723
33	0xbe6e55c5	-0.23274906
34	0x3e73c3ee	0.2380521
35	0xbd8574c2	-0.065164104
36	0x3e1f8fcc	0.15582198
37	0xbe09da91	-0.13462283
38	0x399ca3c9	0.00029876668
39	0x3dcc3029	0.09970123
40	0xbd98bcf9	-0.07457919
41	0xbe1c2821	-0.15249683
42	0x3e000a9c	0.12504047
43	0x3e87d9bd	0.2653331
44	0xbdad4ed3	-0.084623
45	0xbe208d35	-0.15678866
46	0xbe37eeff	-0.17962264
47	0xbe6d47b1	-0.2317188
48	0x3e5d6e9f	0.2162423
49	0x3e7240dc	0.23657554
50	0x3e36164f	0.17781948
51	0xbe4a8466	-0.19777068
52	0xbe5c4e5d	-0.21514268
53	0xbe16b2c5	-0.14716633
54	0x3e1f9905	0.15585716
55	0x3e01f927	0.126927
56	0x3e4010f8	0.18756473
57	0xbe5f8dfe	-0.2183151
58	0x3e8b40e3	0.27197942
59	0xbe80be47	-0.2514517
60	0x3d249eb6	0.04019042
61	0xbc9b5088	-0.018959299
62	0x3dc7eabe	0.097615704
63	0xbe14952f	-0.14510034
64	0x3e12c45b	0.14332716
65	0xbbdf7a34	-0.0068199877
66	0x3e12ff2b	0.14355151
67	0x3de36e53	0.11105027
68	0x3da8c6ed	0.08241067
69	0xbcb1510e	-0.021645095
70	0x3ce85033	0.028358554
71	0xbe6933bd	-0.22773643
72	0xbe24c02f	-0.16088937
73	0x3dba6665	0.091015615
74	0xbe21e57a	-0.15810195
75	0xbe251444	-0.16121012
76	0xbd0bd50e	-0.03413873
77	0xbab7b985	-0.0014017081
78	0xbc7ca227	-0.0154195195
79	0x3e700ace	0.23441622
80	0x3e0a18ff	0.13486098
81	0xbe698df4	-0.22808057
82	0x3dc90e8f	0.0981723
83	0x3e85b23b	0.26112542
84	0x3e0cca36	0.13749012
85	0xbe52c036	-0.20581135
86	0x3d5f6e04	0.05454828
87	0x3deb74e0	0.114969015
88	0x3ca6fccc	0.020384215
89	0xbdc15fb9	-0.09442086
90	0x3e332636	0.17495045
91	0x3e022ebe	0.12713143
92	0x3e3df397	0.18549953
93	0xbe8d1030	-0.27551413
94	0x3d10f5cd	0.035390664
95	0xbd0ef1a5	-0.03489842
96	0x3e0f5100	0.13995743
97	0xbc370813	-0.011171359
98	0xbd977889	-0.07396037
99	0x3dde9932	0.108690634
100	0x3d0f6c53	0.035015415
101	0x3e00d488	0.12581074
102	0x3e2e3670	0.17012954
103	0xbafa392b	-0.0019090524
104	0x3d6b241c	0.057407483
105	0xbda872e8	-0.08225042
106	0x3e425a1e	0.1897969
107	0xbe155cc7	-0.14586173
108	0x3e381543	0.1797686
109	0x3e2ea9c6	0.17056951
110	0x3de40c42	0.111351505
111	0x3c9bde2e	0.019026842
112	0xbd16855b	-0.03674827
113	0xbe4be9af	-0.19913362
114	0xbe4c59ce	-0.19956133
115	0x3e852ad0	0.26009226
116	0xbbfa3e7d	-0.0076368437
117	0xbe72eba8	-0.23722708
118	0xbd1d002c	-0.038330242
119	0x3b5169b1	0.0031953866
120	0xbe08c00b	-0.13354509
121	0x3e3e5c3c	0.18589872
122	0x3b0ff7d4	0.0021967785
123	0x3e099cdb	0.13438742
124	0xbe618ed4	-0.22027141
125	0xbd440d5a	-0.047864296
126	0x3d408568	0.047002226
127	0x3e4e6402	0.20155337
128	0x3d0f928d	0.03505187
129	0xbd81bd47	-0.0633493
130	0x3d5983f8	0.05310437
131	0x3e7ae496	0.24501261
132	0x3d78d499	0.060749624
133	0xbe2a638f	-0.16639541
134	0x3e037092	0.12835911
135	0xbe6793bd	-0.22614951
136	0x3d62633f	0.05527043
137	0x3de9b345	0.11411146
138	0x3d702679	0.05863044
139	0x3dab25bb	0.08356806
140	0xbdb08329	-0.08618767
141	0x3dbcfd95	0.092280544
142	0xbdfbc891	-0.122941144
143	0xbeaaaeb6	-0.3333642
144	0x3db52c23	0.08846309
145	0xbd64cc56	-0.055858932
146	0x3d7f022f	0.06225794
147	0x3d9f6476	0.07782833
148	0x3cc511ae	0.024056282
149	0x3e5fbebb	0.21850102
150	0xbd52b502	-0.051442154
151	0xbdaf835b	-0.08569976
152	0xbe6b2c4d	-0.22966118
153	0xbe765a42	-0.24057868
154	0xbdf0cf95	-0.11758343
155	0xbe8f0e2d	-0.27940503
156	0x3ca9415d	0.02066105
157	0xbea6feaa	-0.32616168
158	0xbe790d93	-0.24321584
159	0xbe6bbc0b	-0.23020951
160	0xbd821d08	-0.063531935
161	0xbe8067a5	-0.25079075
162	0xbd41483a	-0.04718802
163	0x3d8a881e	0.067642435
164	0x3cc994e1	0.024607124
165	0xbe17618b	-0.14783303
166	0xbe495d17	-0.19664417
167	0xbdd4cc85	-0.103905715
168	0x3defc55d	0.11707566
169	0x3d7775f1	0.060415212
170	0xbd950200	-0.07275772
171	0xbe39cfa1	-0.1814561
172	0xbd96b961	-0.07359577
173	0x3e85a01b	0.26098713
174	0x3df2015f	0.11816668
175	0xbe80869d	-0.25102702
176	0x3e41e8bb	0.18936436
177	0xbe4f38b9	-0.20236482
178	0xbd3fadc9	-0.046796594
179	0x3dd063ed	0.10175309
180	0xbe2dddb7	-0.16979109
181	0xbe069572	-0.13142946
182	0x3d42d885	0.04756977
183	0x3e64972f	0.22323297
184	0x3e8718da	0.26386148
185	0x3e04ddbf	0.12975214
186	0x39bc30cd	0.00035894514
187	0x3e0d2de0	0.13787031
188	0xba26419a	-0.0006342173
189	0x3e418e7f	0.18902014
190	0xbe1f8b37	-0.1558045
191	0xbe41c8ba	-0.18924227
192	0xbd90c38e	-0.07068549
193	0x3e118995	0.1421264
194	0x3e8c7722	0.2743464
195	0x3e63fdf1	0.2226484
196	0xbe64a02a	-0.22326723
197	0xbe6b8325	-0.22999246
198	0x3e446beb	0.19181792
199	0xbd6e5055	-0.05818208
200	0x3e1f3cfe	0.1555061
201	0x3d1cfa1c	0.03832446
202	0xbde0d7d9	-0.1097867
203	0x3e00da8b	0.12583368
204	0xbd44502b	-0.047928017
205	0x3e0685cd	0.13136978
206	0xbe8059bb	-0.2506846
207	0xbd88a360	-0.06671786
208	0xbe512fec	-0.20428437
209	0x3e80a909	0.25128964
210	0x3d0ee9e2	0.034891017
211	0xbe58682b	-0.21133487
212	0xbcc655fd	-0.024210924
213	0x3e6c4855	0.23074467
214	0xbe54b8f0	-0.20773673
215	0x3e16ab81	0.14713861
216	0x3d8ef640	0.06980562
217	0xbe2bee20	-0.16790056
218	0xbd39676f	-0.045264658
219	0xbe173d85	-0.14769562
220	0x3e0a5f7d	0.13512988
221	0xbc6d2602	-0.014474394
222	0xbe6dfcaf	-0.23240922
223	0x3e0c65a0	0.13710642
224	0xbe3d3db7	-0.18480574
225	0x3e47880d	0.19485493
226	0xbd3f95ef	-0.046773847
227	0xbe408d92	-0.18804005
228	0x3d1574ad	0.036488224
229	0xbdb2c839	-0.08729596
230	0x3e65084a	0.22366443
231	0xbe2d9e17	-0.16954838
232	0xbcef46d2	-0.029208574
233	0xbe6e214c	-0.23254889
234	0xbcbc564e	-0.022990372
235	0xbe529fe0	-0.205688
236	0xbdbcd13c	-0.09219596
237	0xbe66d7b0	-0.22543216
238	0xbe946ffd	-0.2899169
239	0x3df6655a	0.1203105

0.model_cnn.layer1.0.bias f4 [16]
0	0x3b79b859	0.0038104265
1	0x3af2aa9f	0.0018513984
2	0xbac49e24	-0.0015000743
3	0xbac95888	-0.0015361467
4	0xb9e7e475	-0.00044229967
5	0xb984e8f8	-0.00025350577
6	0x3ae7237a	0.0017634474
7	0x3b8bf7a6	0.0042714654
8	0x3b2bc907	0.002621235
9	0x3aa923e3	0.0012904372
10	0xba144a08	-0.00056567835
11	0xba82638f	-0.0009947884
12	0xba68dde1	-0.000888316
13	0x39e7b228	0.0004419249
14	0x3baf224a	0.0053446637
15	0xbaaf1a1f	-0.0013359225

0.model_cnn.layer1.1.weight f4 [16]
0	0x3f8be2e7	1.092862
1	0x3f805ac1	1.0027696
2	0x3f7c4ad6	0.9855169
3	0x3f866493	1.0499443
4	0x3f80356b	1.0016302
5	0x3f7b15fe	0.9808043
6	0x3f7592d6	0.9592718
7	0x3f80c034	1.0058656
8	0x3f835daa	1.0262959
9	0x3f81e5bd	1.0148236
10	0x3f8084b8	1.0040503
11	0x3f84a062	1.0361445
12	0x3f819b78	1.012557
13	0x3f72c388	0.94829607
14	0x3f7ec797	0.995233
15	0x3f7a1299	0.9768463

0.model_cnn.layer1.1.bias f4 [16]
0	0x3caa6776	0.020801287
1	0x3aa12335	0.0012293818
2	0xbcc0d35b	-0.023538282
3	0xbcd7d6d5	-0.026347557
4	0xbcc4dac3	-0.024030095
5	0xbc364c14	-0.011126537
6	0xbd366229	-0.044527207
7	0x3c6ed44e	0.014576985
8	0xbd06904f	-0.032852467
9	0xbd0c1aa4	-0.034205094
10	0x3ba95291	0.0051673134
11	0xbd1a7efb	-0.037718754
12	0xbd941cf3	-0.07232084
13	0x3c338faa	0.010959545
14	0x3ca568b1	0.020191522
15	0x3cd4db70	0.025983542

0.model_cnn.layer1.1.running_mean f4 [16]
0	0x3b657e30	0.003501784
1	0xbc8d0da1	-0.017218413
2	0xbce5e47a	-0.028063048
3	0xb8878e87	-6.4638494e-05
4	0x3b6b50ea	0.0035906383
5	0xbcc6ea49	-0.024281638
6	0xbcea6453	-0.028612291
7	0x3b6bf49c	0.0036003953
8	0xbce7b9fd	-0.028286928
9	0xbc85666e	-0.016284194
10	0x3dc4577e	0.09587
11	0x3c41e26a	0.0118337665
12	0xbd32bb83	-0.043635856
13	0x3c770a7a	0.015078181
14	0x3d017cc0	0.03161311
15	0x3d7f9e3c	0.062406763

0.model_cnn.layer1.1.running_var f4 [16]
0	0x3cce5987	0.025189174
1	0x3bff22ea	0.0077861445
2	0x3d708bbb	0.058727007
3	0x3ce65715	0.028117696
4	0x3b5af03b	0.0033407349
5	0x3cd33483	0.025781875
6	0x3d2c9eaf	0.04214352
7	0x3bfb7b8d	0.0076746405
8	0x3c9bebdc	0.019033365
9	0x3d4f8776	0.050666295
10	0x3d7cfc70	0.06176418
11	0x3cee6c0c	0.029104255
12	0x3cf29ac5	0.029614815
13	0x3d485ed3	0.048918556
14	0x3b96a3f1	0.00459718
15	0x3d318253	0.043337177

0.model_cnn.layer2.0.weight f4 [32, 16, 3]
0	0x3e08ff36	0.13378605
1	0xbcf6c40f	-0.030122785
2	0xbe35287e	-0.17691228
3	0x39c9b9a4	0.0003847602
4	0x3ccfed60	0.025381744
5	0xbdd66259	-0.10467977
6	0xbda5c93e	-0.080950245
7	0x3d3a8fe1	0.04554737
8	0xbddbdc6d	-0.10735402
9	0x3dd6afbe	0.10482739
10	0xbd8c03f2	-0.0683669
11	0xbda6530a	-0.08121307
12	0xbd94eed8	-0.07272118
13	0xbdd88dc0	-0.10573912
14	0x3d0285e6	0.031865977
15	0x3d84c2a2	0.06482436
16	0xbd86ffe6	-0.065917775
17	0x3dacb86c	0.08433613
18	0xbce0650a	-0.02739193
19	0xbd1b7b3a	-0.037959315
20	0xbe01f3fe	-0.12690732
21	0x3d3f31a0	0.046678185
22	0x3d79435b	0.06085525
23	0x3e3af83b	0.18258755
24	0x3d9e634d	0.07733784
25	0x3dec44ca	0.11536558
26	0xbdf35da3	-0.11883094
27	0x3d2025f8	0.03909871
28	0x3db576d3	0.088605545
29	0xbcd2d7ad	-0.025737608
30	0x3da68c76	0.081322595
31	0xbd30a6a1	-0.04312766
32	0xbde36d7a	-0.11104865
33	0xbdd4fad4	-0.10399404
34	0x3de139a3	0.109973215
35	0x3c0d4f4d	0.008624864
36	0xbd855fed	-0.06512437
37	0x3e078819	0.13235511
38	0xbddbe891	-0.10737718
39	0x3dcea1c8	0.10089451
40	0x3e149421	0.14509632
41	0x3e0de73b	0.13857739
42	0xbc2fccfd	-0.010730025
43	0x3e098883	0.13430981
44	0x3d823aa4	0.06358841
45	0x3d29ff49	0.041503225
46	0x3bbbe79c	0.005734397
47	0x3c251c6e	0.010077579
48	0x3d4b7eda	0.049681522
49	0x3d8d5672	0.06901254
50	0x3dfb18c2	0.122605816
51	0xbd5bb559	-0.053639743
52	0x3b1def5f	0.0024098975
53	0xbe0f57cc	-0.13998336
54	0xbd5d1232	-0.05397243
55	0x3e2a1b82	0.16612056
56	0x3b160517	0.0022891217
57	0xbdcc33ab	-0.099707924
58	0xbd9af9f9	-0.0756721
59	0x3ddbcea5	0.10732774
60	0xbd4ba6b1	-0.049719516
61	0x3e0f47fd	0.13992305
62	0x3def9464	0.11698225
63	0xbdb3a2a9	-0.08771259
64	0x3d5dfa3a	0.054193713
65	0x3d30aa73	0.043131303
66	0xbde3f372	-0.11130418
67	0xbc764582	-0.01503122
68	0x3cc36af4	0.02385471
69	0x3dcd1932	0.10014571
70	0xbc9fdad6	-0.019513529
71	0x3ddc9d35	0.10772172
72	0xbe19ae5a	-0.15007916
73	0xbddf19df	-0.108936064
74	0xbdfa1b90	-0.122122884
75	0x3e3b8954	0.18314105
76	0x3d966ffd	0.07345579
77	0xb9845665	-0.0002524137
78	0xbdffc9db	-0.12489673
79	0xbdf013bb	-0.11722513
80	0xbd134973	-0.03595872
81	0x3e251e43	0.16124825
82	0x3ce8096b	0.028324803
83	0xbcb71e61	-0.022353353
84	0xbe032a55	-0.12809117
85	0xbdacf46e	-0.08445059
86	0xbdfde032	-0.123962775
87	0x3c44ebda	0.012019122
88	0x3d0080c2	0.031372793
89	0xbdcbb82c	-0.09947237
90	0xbd9bbf7f	-0.07604884
91	0xbccce7ba	-0.02501284
92	0xbd9d8800	-0.076919556
93	0xbdf378cf	-0.11888277
94	0x3b75cafd	0.0037505024
95	0xbe0044e3	-0.12526278
96	0xbb8b0e16	-0.0042436225
97	0x3e0788b0	0.13235736
98	0xbdafe1b9	-0.08587975
99	0x3d43bf04	0.04778959
100	0x3cb1172a	0.02161749
101	0xbdee45ce	-0.11634408
102	0x3e01ae98	0.12664258
103	0x3d4d40cc	0.050110623
104	0x3d9e32e0	0.077245474
105	0x3d551e21	0.052030686
106	0x3dc746ce	0.09730302
107	0xbd871b69	-0.06597025
108	0x3c90072b	0.017581543
109	0xbdf907f9	-0.12159724
110	0x3e190f89	0.14947332
111	0xbe12e30e	-0.14344427
112	0x3e18377f	0.1486492
113	0x3d24ef8a	0.040267505
114	0xbbbee4f0	-0.0058256313
115	0x3e04f927	0.12985669
116	0xbd7c593e	-0.061608545
117	0xbd356b91	-0.044292036
118	0x3d520a10	0.051279128
119	0xbcadaa46	-0.021199357
120	0x3d217626	0.039419316
121	0xbdfdde3e	-0.12395905
122	0x3cd559b2	0.026043747
123	0xbd82c6c4	-0.06385568
124	0xbd915bc6	-0.070975825
125	0xbde09137	-0.109651975
126	0x3d77202f	0.060333427
127	0xbc94fbfe	-0.018186565
128	0xbd9b5c61	-0.07585979
129	0xbc8cc736	-0.017184835
130	0x3e037374	0.1283701
131	0x3e0a46cf	0.13503574
132	0xbd8e96fe	-0.06962393
133	0xbdb4e822	-0.08833338
134	0xbc4c2309	-0.012459525
135	0x3e045174	0.12921697
136	0x3cebc493	0.028780257
137	0x3dbece4a	0.0931669
138	0xbdecc197	-0.11560362
139	0xbdac4928	-0.08412391
140	0x3da838fc	0.08213994
141	0x3dbeaeec	0.093107074
142	0x3d9be9e7	0.07612973
143	0xbcad30ad	-0.021141374
144	0x3d7add6e	0.061246328
145	0xbd6cb757	-0.057792034
146	0xbd98e837	-0.074661665
147	0xbe18cde2	-0.14922288
148	0x3d2cee01	0.042219166
149	0xbd8a4f6b	-0.06753429
150	0x3daa9923	0.0832999
151	0x3dcefd54	0.10106912
152	0xbd52be29	-0.051450882
153	0xbdf6cc55	-0.12050692
154	0x3da578be	0.0807967
155	0xbe204432	-0.15651014
156	0x3e1ee4a2	0.15516904
157	0xbdc28da9	-0.09499676
158	0x3d8d9b8f	0.06914436
159	0x3dad5096	0.08462636
160	0xbd14d18e	-0.03633266
161	0xbdb7f2ce	-0.08981858
162	0x3cfdcc67	0.030981256
163	0x3c115d91	0.008872406
164	0xbdc7730d	-0.09738741
165	0x3db84a28	0.08998519
166	0x3c0e3c57	0.008681378
167	0xbda072a6	-0.078343675
168	0x3cd842c6	0.026399028
169	0x3d228e3e	0.039686434
170	0xbdbd277a	-0.09236045
171	0x3ca68e92	0.020331655
172	0xbd846393	-0.06464305
173	0xbe497c9f	-0.19676445
174	0x3dee4aa8	0.11635333
175	0xbdb0675c	-0.08613464
176	0xbd5cd898	-0.053917497
177	0x3dc269ba	0.09492822
178	0x3d3e6419	0.04648218
179	0x3d3f8dc4	0.046766058
180	0x3da2d208	0.079502165
181	0xbd89eb22	-0.06734301
182	0xbb83bc48	-0.0040202476
183	0x3cf8d4f7	0.030374987
184	0xbdcbe8b5	-0.09956495
185	0xbe1803df	-0.14845227
186	0x3d65bbfa	0.05608747
187	0x3d8d3461	0.06894756
188	0xbb4970f8	-0.00307375
189	0xbdabdda5	-0.08391885
190	0xbd6c4837	-0.057686057
191	0x3dbb6385	0.09149841
192	0xbcb6341e	-0.022241648
193	0x3db4e69e	0.08833049
194	0xbd4bde72	-0.049772687
195	0x3e396895	0.18106301
196	0x3c531069	0.01288233
197	0x3d880af6	0.06642716
198	0xbd01fbf2	-0.031734414
199	0x3e106ba6	0.14103565
200	0x3deea527	0.11652594
201	0x3dbb720e	0.091526136
202	0x3be2eb2a	0.0069250064
203	0xbd763a8b	-0.060114425
204	0x3da25e4d	0.07928143
205	0x3bbe097b	0.00579947
206	0xbd403ba7	-0.04693189
207	0x3da02928	0.0782035
208	0xbdd71b61	-0.10503269
209	0xbd9db151	-0.07699836
210	0x3ded4d24	0.11586979
211	0xbd804c49	-0.0626455
212	0xbe300b83	-0.17191891
213	0xbdb8a7e2	-0.09016396
214	0xbc839377	-0.016061528
215	0x3d6e5c22	0.058193333
216	0xbddd311e	-0.10800384
217	0xbe07c7e1	-0.13259842
218	0xbe0628b9	-0.13101472
219	0xbe1d4440	-0.15358067
220	0xbe02579d	-0.12728734
221	0x3e325f56	0.1741918
222	0x3db2e882	0.087357536
223	0xbd609d0f	-0.054837283
224	0x3d4e9e6f	0.050444063
225	0xbdad3457	-0.08457249
226	0xbde9a1a3	-0.11407783
227	0x3e06ae57	0.13152443
228	0x3df618aa	0.12016423
229	0xbd4d3bd8	-0.0501059
230	0xbc9d828c	-0.019227289
231	0x3dda66e7	0.10664158
232	0x3d88ed85	0.06685928
233	0x3df9054c	0.121592134
234	0xbdab476f	-0.08363234
235	0xbe361fdf	-0.17785595
236	0xbcb438bb	-0.021999707
237	0x3dfecd98	0.12441558
238	0xbde8e8b3	-0.11372509
239	0x3e278484	0.16359144
240	0xbd8aa00d	-0.067688085
241	0xbcc9390e	-0.024563339
242	0x3c8d67ec	0.017261468
243	0xbde7c0db	-0.11316081
244	0xbda6fdb1	-0.081538565
245	0x3d2986a8	0.041388184
246	0x3cd7a842	0.026325349
247	0xbd68a2c9	-0.05679587
248	0xbe14a6db	-0.14516775
249	0xbd4045e1	-0.04694164
250	0x3dbf9081	0.09353734
251	0xbb26e561	-0.002546631
252	0x3dd9ebdb	0.10640689
253	0xbd19e24f	-0.03756934
254	0x3d98bd13	0.07457938
255	0x3da767a3	0.08174064

0.model_cnn.layer2.0.bias f4 [32]
0	0xba8628cb	-0.0010235546
1	0xb91b28e1	-0.0001479718
2	0xb9aff377	-0.00033559997
3	0xb9745f79	-0.0002330522
4	0x391e0ee5	0.00015073603
5	0xb975f4a9	-0.00023456164
6	0x3a029554	0.0004981358
7	0x39bd474f	0.00036102018
8	0x3881124c	6.1546074e-05
9	0xbaa0c040	-0.0012264326
10	0x39a8ee78	0.0003222113
11	0x39b01cef	0.00033590893
12	0xba3cff7e	-0.0007209702
13	0x39961a77	0.00028629947
14	0x39a41169	0.0003129349
15	0x3a8cd836	0.0010745588
16	0x3aa7ff24	0.0012817127
17	0x3a9b1e82	0.0011834654
18	0x394e38ed	0.00019666897
19	0x3983be14	0.00025127886
20	0x3ad6e880	0.0016396195
21	0x39487859	0.0001911832
22	0xb8bfed9e	-9.1518494e-05
23	0xb9b0747b	-0.0003365612
24	0xb9c793cb	-0.00038066352
25	0xb8e182af	-0.00010753178
26	0x391c4fc9	0.00014907042
27	0x3a8e1b08	0.0010841796
28	0x39c91aed	0.0003835777
29	0x39d83806	0.0004124047
30	0xb9e7128c	-0.00044073572
31	0xb88a10cb	-6.583481e-05

0.model_cnn.layer2.1.weight f4 [32]
0	0x3f82eed1	1.0229131
1	0x3f83401b	1.0253938
2	0x3f7241c8	0.94631624
3	0x3f795b20	0.9740467
4	0x3f73865f	0.9512691
5	0x3f7d1df9	0.9887386
6	0x3f7c008c	0.98438334
7	0x3f7b51f2	0.98171914
8	0x3f7da86a	0.99085104
9	0x3f82fb44	1.023293
10	0x3f71496b	0.9425265
11	0x3f7e3580	0.99300385
12	0x3f82f09e	1.022968
13	0x3f788747	0.97081417
14	0x3f825315	1.0181605
15	0x3f8066fe	1.0031431
16	0x3f86bc2d	1.0526177
17	0x3f82ab30	1.0208492
18	0x3f838322	1.0274394
19	0x3f7bfb2b	0.98430127
20	0x3f860581	1.047043
21	0x3f8091f2	1.0044539
22	0x3f7ac000	0.9794922
23	0x3f80899d	1.0041996
24	0x3f85a7c4	1.0441823
25	0x3f860c14	1.0472436
26	0x3f7fee4c	0.9997299
27	0x3f806b61	1.003277
28	0x3f88d5a6	1.06902
29	0x3f807005	1.0034186
30	0x3f81ae18	1.0131254
31	0x3f844e8c	1.0336471

0.model_cnn.layer2.1.bias f4 [32]
0	0x3c384e77	0.011249176
1	0x3c8a9c58	0.016920254
2	0xbd09a7da	-0.03360734
3	0xb99452ce	-0.00028290454
4	0xbd3dcdcb	-0.046338838
5	0xbcc6994f	-0.024243025
6	0xbd97d876	-0.074143335
7	0xbcd4e0b0	-0.025986046
8	0x3b170c03	0.002304793
9	0xbd1c67b0	-0.03818482
10	0xbc988cb3	-0.018621778
11	0xbd06c2d5	-0.03290065
12	0xbc9b2361	-0.018937768
13	0xbd2b04a2	-0.041752465
14	0xb848f7d7	-4.7914535e-05
15	0xbc590f46	-0.01324827
16	0x3ad48dbf	0.001621656
17	0x3c874e64	0.016516872
18	0xbcfcb69b	-0.030848792
19	0xbd8a8e25	-0.06765393
20	0xba4ca132	-0.00078060024
21	0xbca41672	-0.020030234
22	0xbd4a31ca	-0.04936389
23	0xbd6b3aad	-0.057429004
24	0x3bef7f74	0.007308895
25	0x3cab2943	0.020893699
26	0xbc8cad66	-0.017172527
27	0xbd1030a9	-0.035202656
28	0x3d37b344	0.044848695
29	0x3ad1da69	0.0016010526
30	0xbd23f09f	-0.040024396
31	0x3c9fd942	0.019512776

0.model_cnn.layer2.1.running_mean f4 [32]
0	0x3c451705	0.012029414
1	0xbe5b43d6	-0.21412596
2	0x3d0a7422	0.03380216
3	0xbccde803	-0.025135046
4	0x3cb7425f	0.022370515
5	0xbd762d10	-0.06010157
6	0x399c0b5f	0.0002976311
7	0x3cd8fa5f	0.026486574
8	0xbe07a836	-0.13247761
9	0xbc9fc307	-0.019502176
10	0xbd89a95e	-0.06721757
11	0x3ceaffd3	0.02868644
12	0xbe75027c	-0.23926729
13	0x3dc877ab	0.0978845
14	0x3e2dae0d	0.16960926
15	0xbd8fde22	-0.0702479
16	0xbe421fa8	-0.18957388
17	0x3d9f257e	0.07770823
18	0x3d7ac855	0.061226208
19	0x3e04a8d1	0.12955023
20	0xbdbaccf6	-0.091211244
21	0x3d8b0673	0.067883395
22	0x3cc2f63f	0.02379906
23	0x3b07ca0b	0.0020719792
24	0xbe9bb768	-0.30413365
25	0xbd8f873f	-0.07008218
26	0xbdeacec0	-0.11465216
27	0x3d0b59dd	0.034021247
28	0xbe02d367	-0.12775956
29	0xbdc3340d	-0.09531412
30	0xbe6bc5bc	-0.23024648
31	0xbe690e45	-0.2275935

0.model_cnn.layer2.1.running_var f4 [32]
0	0x3cb7408e	0.02236965
1	0x3e2fafcc	0.17156905
2	0x3dd7ccc7	0.10537105
3	0x3cf33033	0.02968607
4	0x3e33c091	0.17553927
5	0x3d3eaac6	0.04654958
6	0x3d039d40	0.032132387
7	0x3d2bc6c2	0.041937597
8	0x3dec4362	0.1153629
9	0x3c8ca4e4	0.01716847
10	0x3e1d13f4	0.15339643
11	0x3d95ac59	0.07308263
12	0x3e9642ae	0.29347748
13	0x3d1a849e	0.03772413
14	0x3d49eadd	0.04929625
15	0x3d613169	0.05497876
16	0x3d1a1427	0.037616875
17	0x3cbb6c70	0.022878855
18	0x3ccd5409	0.025064485
19	0x3d20e352	0.03927929
20	0x3d4fa5d1	0.050695244
21	0x3d9c5b64	0.07634619
22	0x3cc22b84	0.02370239
23	0x3cc4f9b7	0.024044855
24	0x3df7f580	0.12107372
25	0x3d0d3630	0.034475505
26	0x3e1a9073	0.15094166
27	0x3cc75582	0.024332765
28	0x3d9ffa49	0.0781141
29	0x3dfe33c0	0.12412214
30	0x3e1c50d5	0.1526521
31	0x3d4475a2	0.047963746

0.model_cnn.layer3.0.weight f4 [64, 32, 3]
0	0x3df7b0b3	0.120942496
1	0x3d9b70d9	0.07589883
2	0xbe0f3b24	-0.13987404
3	0x3d4f2dc3	0.05058075
4	0xbd25ea8c	-0.040506884
5	0xbbba59fd	-0.005686997
6	0xbd80a87d	-0.062821366
7	0x3da4068c	0.08009061
8	0xbdbf53da	-0.09342165
9	0xbc0eadf6	-0.008708468
10	0x3c9c3424	0.019067831
11	0xbd8a5e0f	-0.067562215
12	0xbd34a087	-0.044098403
13	0xbe06d6df	-0.13167904
14	0xbd0b78b0	-0.034050643
15	0x3d63c278	0.05560538
16	0xbd0dcc29	-0.03461853
17	0x3dff8cfb	0.12478062
18	0x3bda7870	0.0066671893
19	0xbb8d6426	-0.004314917
20	0xbd2b3c83	-0.041805755
21	0xbdf66a9d	-0.120320536
22	0x3c84396c	0.016140662
23	0xbc7b00fa	-0.015320057
24	0xbcd981cb	-0.026551148
25	0x3da87cea	0.082269505
26	0xbd04385c	-0.03228031
27	0xbdaec267	-0.08533173
28	0x3c995940	0.018719316
29	0xbda69a63	-0.08134916
30	0x3d7b4a4f	0.061350163
31	0x3e03a037	0.12854086
32	0x3d8663fe	0.06562041
33	0xbd87c8ff	-0.06630134
34	0x3d868181	0.0656767
35	0x3d97b51b	0.0740759
36	0xbd827586	-0.06370072
37	0x3db1f719	0.08689708
38	0x3b261a48	0.0025345255
39	0x3d428ee2	0.047499545
40	0xbdbc80cc	-0.092042536
41	0x3d45fb37	0.04833528
42	0xbab3d84e	-0.001372108
43	0xbdfbe7d6	-0.123000786
44	0x3df3515d	0.11880753
45	0x3daec321	0.08533312
46	0x3d8c507f	0.06851291
47	0xbdea8137	-0.11450427
48	0xbb0a3a0d	-0.002109173
49	0x3d984123	0.07434299
50	0x3dab69e4	0.083698064
51	0xbd0de900	-0.034646034
52	0xbdfac84c	-0.12245235
53	0xbd8a131a	-0.067419246
54	0x3d4532c7	0.04814413
55	0xbb14702d	-0.002264987
56	0xbd3b8763	-0.04578341
57	0xbd5c846c	-0.053837225
58	0xbdc74b71	-0.09731186
59	0x3d2b15f5	0.041768987
60	0x3c9b8cbc	0.018988006
61	0x3da2fa26	0.07957868
62	0xbd859149	-0.065218516
63	0x3d6b895e	0.05750405
64	0x3d83f1b9	0.06442589
65	0xbc0876f0	-0.008329138
66	0x3db70c81	0.08937932
67	0xbd48c058	-0.04901156
68	0xbd6df186	-0.058091663
69	0x3c38956b	0.011266093
70	0x3d9c2b07	0.07625394
71	0x3cb54ac2	0.022130374
72	0xba02acff	-0.0004984885
73	0x3cf58d19	0.029974507
74	0x3d79941c	0.060932264
75	0x3c823162	0.015892688
76	0x3d0316fe	0.03200435
77	0x3d6526b6	0.05594512
78	0xbd277b9b	-0.040889364
79	0xbd284700	-0.041083336
80	0xbdb6d63a	-0.08927579
81	0x3d8bfe2e	0.0683559
82	0x3cdbb58a	0.026819963
83	0x3b4484cd	0.0029986382
84	0x3d838429	0.06421692
85	0x3d9fed79	0.07808966
86	0xbdad2b5c	-0.08455536
87	0xbe0dc65e	-0.13845202
88	0xbd484898	-0.048897356
89	0xbddc29e9	-0.10750181
90	0xbd9cbcff	-0.07653236
91	0x3d9b603c	0.075867146
92	0xbd46af68	-0.048507124
93	0xbd090578	-0.03345248
94	0x3e0e73c9	0.13911356
95	0x3d76e55b	0.060277324
96	0x3d493ad4	0.04912837
97	0x3dbb406c	0.09143147
98	0x3dc153be	0.09439801
99	0x3c6da7f5	0.014505376
100	0x3dc38564	0.095469266
101	0x3d2ff1af	0.042955097
102	0x3ce120c6	0.027481448
103	0xba9cb05a	-0.0011954412
104	0x3cc9306f	0.024559228
105	0xbaf7e919	-0.0018914073
106	0x3d9f9365	0.07791785
107	0x3cc2c654	0.02377621
108	0xbd5a4c06	-0.053295158
109	0xbcabbcdc	-0.020964079
110	0x3d49d4c0	0.04927516
111	0xbdac63f7	-0.08417504
112	0xbd9bcfae	-0.07607971
113	0x3d9e127b	0.077183686
114	0xbe09a8a5	-0.13443239
115	0x3d819809	0.063278265
116	0xbe02bac6	-0.12766561
117	0xbda5e5bf	-0.08100461
118	0x3ddbad5e	0.107264265
119	0x3c90f789	0.017696159
120	0xbdd4ec3f	-0.10396623
121	0x3e0cbd31	0.13744046
122	0xbcb05c1c	-0.021528296
123	0x3d1c0e80	0.038099766
124	0x3c50454e	0.012711836
125	0x3d7fa712	0.06241519
126	0x3c2ba247	0.010475702
127	0xbdd0d101	-0.10196114
128	0xbdc64843	-0.096817516
129	0xbdf9157c	-0.12162301
130	0xbd976ae0	-0.07393432
131	0x3dc24c05	0.09487156
132	0xbb4ce49a	-0.0031264187
133	0xbd6c1564	-0.057637587
134	0xbe0f1bb4	-0.13975412
135	0x3da85f3a	0.08221288
136	0x3dee0212	0.11621489
137	0x3d8a61aa	0.06756909
138	0x3db16718	0.08662242
139	0xbd2ef28f	-0.04271179
140	0xbc102be3	-0.008799526
141	0xbc5e67ec	-0.013574582
142	0x3d10c8e1	0.035347823
143	0xbd0da42f	-0.034580406
144	0x3d622343	0.05520941
145	0x3d4aee76	0.04954382
146	0xbe096a88	-0.13419545
147	0xbdcd9216	-0.10037629
148	0x3b5bc144	0.0033531943
149	0x3cc8f8fd	0.02453279
150	0x3cdd6b0a	0.02702858
151	0xbca0a0c2	-0.019607905
152	0xbe04ce09	-0.12969221
153	0xbd404ed3	-0.046950173
154	0xbd9c822a	-0.07642014
155	0x3d2606eb	0.04053394
156	0x3d87097c	0.06593606
157	0xbb5fc75e	-0.0034145932
158	0xbd77a13d	-0.060456503
159	0xbdd3bbf0	-0.103385806
160	0xbc9a7247	-0.01885332
161	0xbd66092d	-0.056161094
162	0xbdef03a1	-0.11670614
163	0x3d9dec2b	0.07711061
164	0x3d0fb9ac	0.03508918
165	0xbd2db567	-0.042409327
166	0xbd91872d	-0.07105861
167	0xbddc3ce6	-0.10753803
168	0x3e0e1f38	0.13879097
169	0x3d861e1f	0.06548714
170	0x3d025295	0.031817038
171	0x3d85c568	0.06531793
172	0xbd19f6dd	-0.037588943
173	0x3dd8f529	0.105936356
174	0xbd623d6d	-0.05523436
175	0xbd2f9b4c	-0.042872712
176	0x3d899b97	0.067191295
177	0x3d6b3a11	0.057428423
178	0x3dd93c78	0.106072366
179	0xbce4ea40	-0.02794373
180	0xbcc5f7b6	-0.02416597
181	0xbd721c25	-0.059108872
182	0xbdb99046	-0.09060721
183	0xbd35cdb4	-0.044385627
184	0x3d71bb78	0.059016675
185	0x3d65d405	0.0561104
186	0xbd1afad4	-0.037836865
187	0xbc981d72	-0.018568728
188	0xbdc57563	-0.0964153
189	0x3c6deed2	0.014522271
190	0xbd782dc6	-0.060590528
191	0xbdb8253a	-0.089914754
192	0xbdfecf6e	-0.12441908
193	0xbd733f7d	-0.05938672
194	0xbdc4cff7	-0.09609979
195	0xbd846214	-0.064640194
196	0xbe566b4a	-0.20939365
197	0xbd160d91	-0.03663403
198	0x3cc51fbd	0.024062986
199	0x3b8079ef	0.0039207856
200	0xbe08c042	-0.1335459
201	0x3ce79cbe	0.028272983
202	0x3d913c05	0.07091526
203	0x3d396442	0.04526163
204	0x3da29943	0.079393886
205	0xbd25eb74	-0.04050775
206	0x3dc26f2d	0.09493861
207	0xbda2a4b2	-0.079415694
208	0x3d5d3380	0.054004192
209	0xbc9a88dd	-0.01886409
210	0xbd439e0c	-0.047758147
211	0x3c3e4467	0.011612988
212	0xbd53ac99	-0.051678274
213	0xbd627ca1	-0.055294637
214	0x3d456207	0.04818919
215	0xbd9f8304	-0.07788661
216	0x3d8f33b4	0.069922835
217	0xbe1903ca	-0.14942852
218	0x3c089749	0.00833685
219	0x3c2fb10e	0.0107233655
220	0xbb07fce7	-0.0020750107
221	0x3d5beb4e	0.0536912
222	0xbd147d05	-0.03625204
223	0xbd4b9527	-0.04970279
224	0xbc051450	-0.008122519
225	0xbc145245	-0.009052818
226	0x3ace17fd	0.0015723702
227	0xbc93400b	-0.017974874
228	0x3b18cb21	0.0023314434
229	0xbb2b1d8f	-0.0026110148
230	0xbbebe589	-0.0071989936
231	0xbd669a7c	-0.05629967
232	0x3d6f4219	0.058412645
233	0x3c858192	0.016297136
234	0x3aaa58ca	0.0012996432
235	0xbc876bab	-0.016530832
236	0x3db2d670	0.08732307
237	0xbd09bcf7	-0.033627477
238	0x3d64676f	0.055762704
239	0xbd00c444	-0.031437173
240	0xbd8fa2db	-0.07013484
241	0xbda0b180	-0.078463554
242	0x3d84f1a1	0.064913996
243	0x3d3c02e6	0.0459012
244	0xbd130b21	-0.035899285
245	0x3d459723	0.04823984
246	0xbd3d6f9f	-0.04624903
247	0x3b7371cb	0.0037146683
248	0xbd483cb1	-0.048886005
249	0xbc869d35	-0.016432384
250	0xbd909dc3	-0.07061341
251	0x3d2bb08e	0.041916423
252	0xbb546a50	-0.0032412
253	0x3cd4859f	0.025942622
254	0xbdbe95dc	-0.09305927
255	0xbd6f37b0	-0.058402717

0.model_cnn.layer3.0.bias f4 [64]
0	0xb8d15e02	-9.983407e-05
1	0xb885e8ac	-6.385273e-05
2	0xb8c61881	-9.44594e-05
3	0xb838a96b	-4.40268e-05
4	0xb81143d2	-3.4633857e-05
5	0xb80df661	-3.3846478e-05
6	0xb839eda4	-4.4328757e-05
7	0xb854e176	-5.0754716e-05
8	0xb91c27e7	-0.00014892184
9	0xb90989f2	-0.00013116727
10	0xb971ffcc	-0.00023078843
11	0x38e33784	0.00010834544
12	0xb89215e9	-6.9659036e-05
13	0xb9168a39	-0.00014356607
14	0x383008be	4.196981e-05
15	0x38c8269b	9.543934e-05
16	0x38961104	7.155727e-05
17	0xb8a416fd	-7.824411e-05
18	0xb9af38a5	-0.00033420805
19	0xb844b40d	-4.6897727e-05
20	0x380f7cc3	3.421005e-05
21	0x39a5c9ba	0.0003162155
22	0xb92e6c01	-0.00016634168
23	0x39bd5545	0.0003611242
24	0x35ed1046	1.7662612e-06
25	0x37dd1610	2.6355527e-05
26	0xb8ab788f	-8.176371e-05
27	0x37002233	7.637357e-06
28	0xb8e2d2e1	-0.00010815799
29	0xb89e3b65	-7.54509e-05
30	0x36b6d4e1	5.448805e-06
31	0x3755d853	1.2746156e-05
32	0xb8ace641	-8.244487e-05
33	0x381ef1a3	3.7895177e-05
34	0x39325239	0.00017006033
35	0xb9083b9f	-0.00012992181
36	0xb9053e0b	-0.00012706981
37	0xb864bdab	-5.4536078e-05
38	0xb99fb0aa	-0.00030458468
39	0xb8a41c0b	-7.825353e-05
40	0x39417a50	0.00018451479
41	0x38114ada	3.4640405e-05
42	0xb946faf5	-0.0001897624
43	0xb789a32a	-1.6407652e-05
44	0xb81e8681	-3.7795402e-05
45	0x377935f5	1.4854119e-05
46	0xb913bbc8	-0.00014088966
47	0x393901d7	0.0001764366
48	0x394b7521	0.00019403223
49	0x36818923	3.8604644e-06
50	0xb89592de	-7.13223e-05
51	0x35005905	4.7813256e-07
52	0x38e646c5	0.000109804365
53	0x38669f22	5.4984477e-05
54	0xb9089948	-0.00013027072
55	0xb7d58974	-2.5455585e-05
56	0xb755fb9c	-1.2754372e-05
57	0xb89dcc68	-7.524417e-05
58	0xb86f101e	-5.699705e-05
59	0x372334b1	9.727825e-06
60	0x38621986	5.390637e-05
61	0xb85a681b	-5.2072206e-05
62	0xb91c06bc	-0.00014879828
63	0x365c44f0	3.2822682e-06

0.model_cnn.layer3.1.weight f4 [64]
0	0x3f7a647c	0.97809577
1	0x3f7c033a	0.98442423
2	0x3f834955	1.0256754
3	0x3f786232	0.97024834
4	0x3f826442	1.0186846
5	0x3f77f2af	0.9685468
6	0x3f799cdc	0.97504973
7	0x3f741af0	0.95353603
8	0x3f81d765	1.0143858
9	0x3f6c1e85	0.9223407
10	0x3f836cf7	1.0267628
11	0x3f80e0ea	1.0068638
12	0x3f818e59	1.0121566
13	0x3f8442e9	1.0332919
14	0x3f72db13	0.9486553
15	0x3f7d74bb	0.9900624
16	0x3f82b652	1.021189
17	0x3f8261fe	1.0186155
18	0x3f82c179	1.0215293
19	0x3f72a99d	0.9479006
20	0x3f866dfb	1.0502313
21	0x3f8749b8	1.0569372
22	0x3f845af2	1.0340254
23	0x3f8da0ec	1.1064734
24	0x3f7f3aa9	0.99698883
25	0x3f7f3f81	0.99706274
26	0x3f86afda	1.0522416
27	0x3f80ebfd	1.0072018
28	0x3f794b79	0.9738079
29	0x3f7c6d16	0.9860395
30	0x3f81f210	1.0151997
31	0x3f81bb21	1.0135232
32	0x3f822acf	1.0169314
33	0x3f7a8e6f	0.97873586
34	0x3f82830f	1.0196246
35	0x3f8197fa	1.0124505
36	0x3f837bd8	1.0272169
37	0x3f820316	1.0157192
38	0x3f7eb6ea	0.99497855
39	0x3f88d249	1.0689174
40	0x3f8380ce	1.0273683
41	0x3f7e5e7a	0.9936291
42	0x3f80ab27	1.0052232
43	0x3f7ac6e3	0.9795973
44	0x3f7c7940	0.9862251
45	0x3f84b81c	1.0368686
46	0x3f79299d	0.9732912
47	0x3f8284be	1.019676
48	0x3f80df82	1.0068209
49	0x3f7ec655	0.9952138
50	0x3f854fda	1.0414994
51	0x3f70011a	0.9375168
52	0x3f7c7c92	0.9862758
53	0x3f87996f	1.0593699
54	0x3f83df61	1.0302545
55	0x3f848497	1.0352963
56	0x3f836b71	1.0267164
57	0x3f7d31a5	0.98903877
58	0x3f7c7fb0	0.98632336
59	0x3f846578	1.0343466
60	0x3f71ca38	0.94449186
61	0x3f7587f8	0.95910597
62	0x3f84d4e4	1.0377469
63	0x3f73457e	0.9502791

0.model_cnn.layer3.1.bias f4 [64]
0	0xbd695aa3	-0.056971204
1	0xbd5c8e66	-0.05384674
2	0x3c357045	0.01107413
3	0xbdd15a59	-0.102223106
4	0xbd1ebf26	-0.038756512
5	0xbd43c453	-0.04779465
6	0xbca0d560	-0.019632995
7	0xbdba7eb5	-0.09106199
8	0xbc80d105	-0.015724668
9	0xbd8ba68a	-0.06818874
10	0xbde8af88	-0.11361605
11	0xbb36a189	-0.0027867279
12	0xbc87ca27	-0.016575886
13	0x3bf5352b	0.0074831448
14	0xbd2ec049	-0.042663846
15	0xbdeb4e38	-0.114895284
16	0xbc7516c1	-0.014959038
17	0xbd16b60a	-0.0367947
18	0xbd79d555	-0.060994465
19	0xbcda06b9	-0.026614534
20	0xbd11a280	-0.035555363
21	0xbd0b353a	-0.033986308
22	0x39fcdbf0	0.00048229052
23	0xbda1d87d	-0.0790262
24	0xbd89f043	-0.067352794
25	0xbd34ab6c	-0.044108793
26	0xbd6ba607	-0.057531383
27	0xbc87d56c	-0.01658126
28	0xbe057ec7	-0.13036643
29	0xbce99536	-0.028513532
30	0xbd803efe	-0.06262015
31	0xbcddf81f	-0.027095852
32	0xbd1e9cf0	-0.038723886
33	0xbd7069f8	-0.05869481
34	0xbd3d0031	-0.04614276
35	0xbd733620	-0.05937779
36	0xbce40fe4	-0.027839608
37	0xbd53cdaa	-0.05170981
38	0xbcfa2153	-0.030533468
39	0xbd258d41	-0.040417913
40	0x3b5cec05	0.0033710015
41	0xbd77f998	-0.060540766
42	0xbcf0e650	-0.029406697
43	0xbcf9d644	-0.030497678
44	0xbd20353b	-0.039113265
45	0x3d84215c	0.06451675
46	0xbdac9bc3	-0.08428147
47	0xbc3910fd	-0.011295554
48	0xbbee6108	-0.0072747506
49	0xbcedfa0d	-0.029049898
50	0xbbd44d53	-0.0064789443
51	0xbcf07d31	-0.02935657
52	0xbc1633fa	-0.009167666
53	0xbd789794	-0.06069143
54	0xbc87c4ce	-0.016573336
55	0xbd061d03	-0.03274251
56	0xbd644fca	-0.055740155
57	0xbb7fcfdc	-0.0039033806
58	0xbd1c46b1	-0.038153354
59	0x3ce96246	0.028489243
60	0xbda3d456	-0.07999484
61	0x3c01c730	0.007921025
62	0xbcd188b5	-0.025577882
63	0xbda876a9	-0.08225758

0.model_cnn.layer3.1.running_mean f4 [64]
0	0x3d22594d	0.039635945
1	0xbd81e118	-0.06341761
2	0xbecdf874	-0.40228617
3	0x3e49cad9	0.19706286
4	0x3e846d68	0.2586472
5	0xbee9e46c	-0.45682085
6	0x3c142fe1	0.009044618
7	0x3c5654dc	0.0130817555
8	0xb98633e3	-0.0002559713
9	0xbf0a9879	-0.54138905
10	0x3df0bd0f	0.1175481
11	0xbf1c9096	-0.6115812
12	0xbcdb31dd	-0.026757175
13	0xbf00329c	-0.50077224
14	0xbe6ac3cc	-0.22926253
15	0xbd9dd433	-0.077064894
16	0x3eb326e7	0.34990618
17	0xbdc4ae1b	-0.096035205
18	0x3c305c6a	0.010764221
19	0x3e95e830	0.29278708
20	0x3daf6aec	0.085653156
21	0xbe6f319d	-0.2335877
22	0x3e7f8f0e	0.24956915
23	0xbed40d60	-0.41416454
24	0xbdbddc18	-0.09270495
25	0xbd07cc89	-0.033154044
26	0xbe2d6b16	-0.16935381
27	0x3d5d7f27	0.05407634
28	0x3e9bff31	0.30468133
29	0x3e50a29c	0.2037453
30	0x3e020283	0.1269627
31	0x3e253461	0.16133262
32	0xbd0c7495	-0.03429087
33	0xbc62b663	-0.01383743
34	0x3e473ce0	0.19456816
35	0x3c4064f9	0.011742824
36	0xbc4a6d24	-0.012355123
37	0x3e358c3c	0.17729276
38	0x3d175bb3	0.036952686
39	0xbe8218b9	-0.25409487
40	0xbdbb9633	-0.091595076
41	0xbe78f3d6	-0.24311766
42	0x3e306484	0.17225844
43	0xbd4c5f1e	-0.0498954
44	0xbec2fce3	-0.38083562
45	0xbe1e7493	-0.15474157
46	0x3e13061c	0.143578
47	0xbedc71b5	-0.43055502
48	0xbea0d91c	-0.3141564
49	0xbe1b09da	-0.15140477
50	0xbec863ba	-0.39138585
51	0x3e4cea54	0.20011264
52	0xbee8ebba	-0.45492345
53	0xbd662af0	-0.056193292
54	0xbf1461b1	-0.57961565
55	0xbea70363	-0.3261977
56	0xbd8b805c	-0.06811592
57	0x3d2f8d9a	0.04285965
58	0x3d5a9c9b	0.053372007
59	0xbf115712	-0.56773484
60	0xbd3e69b8	-0.04648754
61	0x3ea1a193	0.31568584
62	0xbdf3ee05	-0.11910633
63	0xbdf83749	-0.1211992

0.model_cnn.layer3.1.running_var f4 [64]
0	0x3e0b783b	0.13620083
1	0x3e4e90d9	0.20172442
2	0x3df2e6b7	0.118604116
3	0x3e24510e	0.16046545
4	0x3e69f4fc	0.2284736
5	0x3f0d6355	0.55229694
6	0x3dc779a4	0.09739998
7	0x3e07ac23	0.13249259
8	0x3ebf08d3	0.3731142
9	0x3eb8c901	0.36090854
10	0x3ddce583	0.107859634
11	0x3f0d4570	0.5518408
12	0x3e1e3d64	0.15453106
13	0x3ea690d0	0.32532358
14	0x3e27a7c1	0.16372587
15	0x3df02f3d	0.1172776
16	0x3dcac7ad	0.099013664
17	0x3e7332e6	0.23749885
18	0x3de7697e	0.11299418
19	0x3e467483	0.19380383
20	0x3db8bc8f	0.0902034
21	0x3d5b29c3	0.053506624
22	0x3dec7a30	0.11546743
23	0x3dbd6fe2	0.092498556
24	0x3dd4fa16	0.103992626
25	0x3dc4a30f	0.096014135
26	0x3dc36a69	0.095417805
27	0x3e01898e	0.12650129
28	0x3dfd4f7f	0.12368678
29	0x3db51700	0.088422775
30	0x3e00356a	0.12520376
31	0x3db07dfa	0.08617778
32	0x3dfbeac8	0.1230064
33	0x3dbca008	0.09210211
34	0x3e377652	0.1791623
35	0x3dcb084b	0.09913691
36	0x3e32f9f0	0.17478156
37	0x3e18a262	0.14905694
38	0x3dea0c8e	0.11428176
39	0x3e858178	0.2607534
40	0x3ef0ab9c	0.47005928
41	0x3dd6284c	0.10456905
42	0x3dd25db5	0.102717794
43	0x3e452ceb	0.19255416
44	0x3de5c35b	0.11218902
45	0x3e26c4c0	0.16285992
46	0x3e094f48	0.1340915
47	0x3f439d43	0.7641184
48	0x3f0b6b5f	0.5446071
49	0x3e325c9e	0.17418143
50	0x3dff77a9	0.12473995
51	0x3f60725b	0.8767449
52	0x3e34c744	0.17654139
53	0x3e1219eb	0.142677
54	0x3e4d9062	0.20074609
55	0x3e56cd64	0.20976788
56	0x3dd9d1ce	0.1063572
57	0x3e395fb4	0.18102914
58	0x3dc464c7	0.09589534
59	0x3e3ac2e3	0.18238406
60	0x3e2c0c84	0.1680165
61	0x3da4190c	0.0801259
62	0x3def834f	0.11694967
63	0x3e4b6dbc	0.19866079

0.model_cnn.layer4.0.weight f4 [128, 64, 3]
0	0xbb9bc9c4	-0.004754277
1	0x3be1bafd	0.006888746
2	0xbcbf1d8c	-0.023329519
3	0xbdce4894	-0.10072437
4	0x3d5d47b6	0.054023467
5	0xbc082f73	-0.008312094
6	0xbdc00ab7	-0.09377044
7	0xbda02ff3	-0.078216456
8	0xbd542ae3	-0.051798712
9	0xbcf4a214	-0.029862441
10	0x3cb41381	0.021981956
11	0xbd3a2881	-0.045448784
12	0x3d949f98	0.072570026
13	0xbd209785	-0.039207
14	0xbd322767	-0.04349461
15	0xbc8b86fe	-0.017032143
16	0x3da5b226	0.0809062
17	0x3ac38be0	0.0014919005
18	0x3d844faa	0.06460507
19	0x3b8e3d00	0.004340768
20	0x3d755888	0.059898883
21	0x3a666c53	0.0008789945
22	0x3d162a88	0.036661655
23	0xbbc46464	-0.005993413
24	0x3d9d07e5	0.076675214
25	0x3d84c1ed	0.06482301
26	0xbc477737	-0.012174419
27	0xbce929be	-0.028462287
28	0xbdebacf0	-0.115075946
29	0x3d6feaf4	0.058573678
30	0xbd8aef0d	-0.067838766
31	0x3d631241	0.05543733
32	0xbd24dac9	-0.040247712
33	0x3d9ebb06	0.07750516
34	0x3cb47d7f	0.022032497
35	0xbc28bc79	-0.010298842
36	0xbdeeb842	-0.11656238
37	0x3d6454a5	0.055744786
38	0xbc4191dd	-0.011814562
39	0xbdb0221e	-0.08600257
40	0xbc1ff801	-0.009763719
41	0x3d71de0c	0.05904965
42	0x3cc28962	0.02374715
43	0x3d98820e	0.07446681
44	0xbcbb450c	-0.022860073
45	0xbd3ec7c7	-0.04657724
46	0x3c80bd4d	0.015715266
47	0x3c89c1ec	0.016816102
48	0xbd7a98b6	-0.061180793
49	0x3d36e685	0.044653434
50	0x3d7945e5	0.060857672
51	0x3d12948e	0.035786204
52	0x3d9d177a	0.076704934
53	0x3cb77a7b	0.02239727
54	0x3dff43e5	0.12464122
55	0xbcf0b05b	-0.029380968
56	0x3cad0fd2	0.021125708
57	0x3d025a16	0.031824194
58	0x3c887d64	0.016661353
59	0xbc261d98	-0.010138892
60	0x3da2a419	0.079414554
61	0x3dfac4db	0.122445785
62	0xbba154cc	-0.0049234387
63	0xbbaa2d77	-0.005193408
64	0xbba637d0	-0.0050725713
65	0x3d9a10ff	0.07522773
66	0x3beec80f	0.0072870324
67	0x3be6909d	0.007036282
68	0x3d8b9c87	0.068169646
69	0x3d73ba3a	0.05950377
70	0xbd722a35	-0.059122283
71	0xbda5f811	-0.081039555
72	0xbc293870	-0.010328397
73	0x3c41a5e2	0.011819335
74	0x3c9d8993	0.01923064
75	0x3d398516	0.045292936
76	0xbca9c5eb	-0.020724257
77	0x3dc76cc0	0.09737539
78	0x3c17c85b	0.009264077
79	0x3d297b54	0.04137738
80	0xbd56c313	-0.05243213
81	0x3c6ab488	0.014325269
82	0xbd30bcd3	-0.043148827
83	0xbd8cbecf	-0.06872331
84	0x3b90795a	0.0044089975
85	0xbcaed7c6	-0.021343123
86	0xbd83eb6f	-0.0644139
87	0x3d74cefc	0.05976771
88	0x3d3c976c	0.046042845
89	0x3d89fc7d	0.067376114
90	0x3d9b665b	0.07587882
91	0xbc96df0e	-0.018416908
92	0x3dc150d9	0.094392486
93	0xbcc458a9	-0.023968058
94	0x3c7786d1	0.015107826
95	0xbd314faf	-0.043288883
96	0xbd1ad9f5	-0.037805516
97	0x3d3dc0ce	0.04632645
98	0x3c958710	0.01825288
99	0xbd4a2f39	-0.04936144
100	0x3d9cb9ce	0.07652627
101	0xbd07e9f7	-0.03318211
102	0xbd094601	-0.033514027
103	0xbc762ae8	-0.015024878
104	0xbd752b2d	-0.05985563
105	0x3d68c640	0.05682969
106	0xbbabe28b	-0.005245512
107	0x3d8b1ac3	0.06792214
108	0xbe082907	-0.132969
109	0x3c5802cf	0.013184263
110	0x3c3da4d2	0.011574941
111	0xb9e9d112	-0.00044596993
112	0xbc375c1f	-0.011191397
113	0x3b5b758e	0.0033486816
114	0xbd6181df	-0.055055495
115	0xbd8d2b8a	-0.0689307
116	0x3c8a46d0	0.01687947
117	0xbcc13c58	-0.023588344
118	0xbb55dba9	-0.0032632148
119	0xbd8b7949	-0.06810243
120	0x3d668882	0.056282528
121	0x3d5b6543	0.053563368
122	0xbd35015d	-0.044190753
123	0xbd0c7830	-0.034294307
124	0xbc51a4be	-0.012795625
125	0xbd0ca76f	-0.034339365
126	0x3d5eaa74	0.054361776
127	0x3c1d865d	0.009614554
128	0x3d20b545	0.039235372
129	0x3d39cde9	0.045362387
130	0x3c1d0fa0	0.009586245
131	0x3ce673e9	0.028131442
132	0x3d0e42df	0.034731742
133	0x3d35002e	0.044189624
134	0xbc058368	-0.0081490055
135	0x3ca1fa5c	0.019772701
136	0xbcf841d1	-0.030304821
137	0xbd233703	-0.039847385
138	0x3d3274f8	0.04356858
139	0xbd097daf	-0.033567127
140	0x3d01b22f	0.03166407
141	0xbc842197	-0.016129298
142	0x3a6f7c2c	0.00091356295
143	0x3d936154	0.07196298
144	0xbc6543a4	-0.013993178
145	0x3da6d07d	0.08145235
146	0x3c20a2f6	0.009804478
147	0xbdc2dc53	-0.0951468
148	0x3ca68c3c	0.02033054
149	0x3b1800b0	0.002319377
150	0xbcc0ef3d	-0.023551578
151	0xbd2f5281	-0.04280329
152	0x3b25660b	0.0025237824
153	0xbcf36a64	-0.029713817
154	0x3d7ec043	0.062195074
155	0xbd885210	-0.06656277
156	0xbd4b9b54	-0.04970868
157	0x3d46136a	0.04835836
158	0x3d106f99	0.035262678
159	0x3c7ea641	0.015542568
160	0xbd8913c1	-0.06693221
161	0x3d09807d	0.0335698
162	0x3d8fb98f	0.07017814
163	0x3d5c4e81	0.053785805
164	0x3dcc98a9	0.09990055
165	0x3d293ace	0.041315846
166	0x3d961a71	0.07329262
167	0x3d2928b9	0.0412986
168	0x3db60ea0	0.08889508
169	0x3d95d6fe	0.07316397
170	0xbd14c02d	-0.036316086
171	0xbdf1b749	-0.11802537
172	0xbd43881a	-0.04773722
173	0xbcf35c00	-0.029706955
174	0xbd339711	-0.04384524
175	0x3d5bcd7e	0.05366277
176	0x3dc9dee7	0.098569684
177	0xbd51c545	-0.05121352
178	0x3c647f48	0.013946362
179	0x3c52b053	0.012859422
180	0xbbbe318b	-0.005804246
181	0x3aa283d7	0.001239891
182	0xbc64ecc6	-0.013972467
183	0x3bafd4f1	0.0053659608
184	0x3d8085a5	0.06275491
185	0xbb8673d4	-0.0041031633
186	0x3d7d8f7e	0.061904423
187	0x3dc93206	0.09823994
188	0x3dcc9ac2	0.09990455
189	0x3d85fc65	0.06542281
190	0x3c353a93	0.011061328
191	0x3c808b9f	0.015691577
192	0xbda0a597	-0.07844084
193	0x38ad5d48	8.266658e-05
194	0xbccf9711	-0.025340589
195	0x3c3eb9b0	0.011640951
196	0x3cb47a4e	0.022030976
197	0xbd21f2e9	-0.039538298
198	0xbc39afe7	-0.011333442
199	0x3d87b054	0.06625429
200	0xbcd493ff	-0.025949476
201	0xbd179d72	-0.037015386
202	0xbdb1f69f	-0.08689617
203	0xbda729e7	-0.08162289
204	0xbda7dcd7	-0.08196419
205	0xbdbb98ea	-0.091600254
206	0xbd7165fe	-0.058935158
207	0x3c9e512a	0.019325811
208	0xbd9d8bbb	-0.07692667
209	0xbd318fa1	-0.043349866
210	0xbc299ae6	-0.010351872
211	0x3d02f249	0.031969342
212	0x3c8f2c62	0.017477218
213	0xbda4e81c	-0.08052084
214	0x3d858586	0.06519608
215	0xbd61ca76	-0.055124722
216	0x3d7d9417	0.061908808
217	0xbb77454d	-0.0037730515
218	0x3d9921ad	0.07477126
219	0x3c42a5da	0.011880362
220	0x3cd112fd	0.02552175
221	0xbd757815	-0.059928972
222	0x3d615871	0.055015985
223	0x3d90d776	0.07072346
224	0xbd699e48	-0.057035714
225	0x3d218f59	0.039443348
226	0xbd1b3e07	-0.03790095
227	0xbcfeaa0b	-0.031086942
228	0xbd669db3	-0.056302737
229	0xbd1ee519	-0.038792703
230	0xbcffbee2	-0.03121895
231	0x3d0c15f7	0.034200635
232	0xbcdd8144	-0.027039178
233	0x3d935c5b	0.0719535
234	0x3a9d39fa	0.0011995428
235	0x3c74aaea	0.014933327
236	0xbdce961c	-0.10087225
237	0x3d96dfc8	0.07366902
238	0x3d03f655	0.032217342
239	0x3cce040c	0.025148414
240	0x3dafaeb9	0.085782476
241	0xbd33e8e3	-0.04392327
242	0xbc8d794d	-0.017269755
243	0xbddefbb1	-0.1088785
244	0xbcce096b	-0.025150975
245	0xbdfe1774	-0.12406817
246	0x3c934339	0.01797639
247	0xbb62929e	-0.0034572254
248	0xbd8d4dfd	-0.06899641
249	0xbbc1c72a	-0.005913635
250	0x3c51dd33	0.012809086
251	0xbc3be59d	-0.011468318
252	0x3d611f6e	0.054961614
253	0xbd7b25c6	-0.06131532
254	0x3cf6e7a2	0.030139748
255	0xbd907837	-0.07054179

0.model_cnn.layer4.0.bias f4 [128]
0	0x370565c9	7.9511165e-06
1	0xb6e4a806	-6.81449e-06
2	0xb8b7bd8e	-8.761427e-05
3	0x36a8a0fa	5.0255303e-06
4	0x3691c924	4.3447526e-06
5	0xb8cb3644	-9.689902e-05
6	0x37def8f1	2.6580385e-05
7	0xb770ad34	-1.4345442e-05
8	0xb88d0b91	-6.725558e-05
9	0xb83d980b	-4.5202712e-05
10	0xb8b6481d	-8.6918684e-05
11	0x379b8506	1.8539384e-05
12	0x36fac76a	7.4737954e-06
13	0xb7dd7476	-2.6399484e-05
14	0xb85b44e6	-5.2277835e-05
15	0x380a4096	3.2961914e-05
16	0xb929a925	-0.00016180107
17	0xb6c8b4f1	-5.981529e-06
18	0xb8092a01	-3.2702465e-05
19	0xb8b91430	-8.825248e-05
20	0xb849b68a	-4.8092137e-05
21	0x386911dd	5.5568165e-05
22	0xb7a8e477	-2.0133548e-05
23	0x3652bab7	3.140112e-06
24	0xb8cd95c4	-9.803058e-05
25	0xb7003f65	-7.644155e-06
26	0x38f98912	0.000118987766
27	0x374c9520	1.2194068e-05
28	0xb9189f29	-0.00014555141
29	0x367378e3	3.6280187e-06
30	0xb90fb237	-0.00013703933
31	0xb5a25daa	-1.20972e-06
32	0x36e9c875	6.9672774e-06
33	0xb8bd2180	-9.018462e-05
34	0xb64310d2	-2.9067055e-06
35	0xb7dd0107	-2.6345731e-05
36	0x36ec5be4	7.0440456e-06
37	0x37ac8694	2.0566666e-05
38	0x39691069	0.00022226725
39	0xb78c4637	-1.6721997e-05
40	0xb82fbe17	-4.1900286e-05
41	0xb7cbeca3	-2.4309678e-05
42	0x380409e1	3.1480453e-05
43	0xb90027ae	-0.00012221813
44	0xb92b4c7a	-0.0001633632
45	0xb7dff14e	-2.6696038e-05
46	0xb7ce28a1	-2.4576033e-05
47	0xb7a3eb7d	-1.9540772e-05
48	0xb67e13cc	-3.7860473e-06
49	0xb735edbb	-1.0843792e-05
50	0xb8eacf8e	-0.000111966496
51	0xb80eb161	-3.4020635e-05
52	0x38e8c6cd	0.000110996516
53	0xb82165cd	-3.84802e-05
54	0x37fe831b	3.034021e-05
55	0xb71e920e	-9.45154e-06
56	0xb8620c89	-5.3894273e-05
57	0xb7a49f46	-1.9624491e-05
58	0xb720601d	-9.559121e-06
59	0x373128f2	1.0559555e-05
60	0xb89826b4	-7.255134e-05
61	0xb6da745f	-6.5104537e-06
62	0x382679b9	3.9690847e-05
63	0xb7002d62	-7.639961e-06
64	0xb8bebbeb	-9.0949085e-05
65	0x37c79a9f	2.379465e-05
66	0x389f4680	7.5948425e-05
67	0x382cb603	4.1177507e-05
68	0xb85abe52	-5.21525e-05
69	0x37d939d2	2.589534e-05
70	0xb880e4a1	-6.146101e-05
71	0xb748b2fc	-1.1962602e-05
72	0xb7c2f39d	-2.3240043e-05
73	0xb9192893	-0.00014606332
74	0xb8a4eb46	-7.8639525e-05
75	0xb66d15c9	-3.5328433e-06
76	0xb6a7eb01	-5.004346e-06
77	0xb72088ac	-9.568565e-06
78	0x37d8d109	2.5846546e-05
79	0xb76cde32	-1.411843e-05
80	0xb744155c	-1.16874835e-05
81	0xb82ec4f4	-4.166826e-05
82	0xb56dfa89	-8.8653957e-07
83	0xb7bb8bb4	-2.2357191e-05
84	0xb9104d71	-0.0001376176
85	0xb800e09f	-3.0726773e-05
86	0x32cc1165	2.3756636e-08
87	0x37bae380	2.2278866e-05
88	0x38aa4101	8.1183396e-05
89	0x37a9bdd1	2.023476e-05
90	0x38e44904	0.000108854874
91	0xb6ca9310	-6.0371895e-06
92	0xb8a969d3	-8.078259e-05
93	0xb82bd390	-4.096661e-05
94	0x3803fdf2	3.146934e-05
95	0xb8397cff	-4.422385e-05
96	0x376e1af0	1.4192177e-05
97	0x38453c1f	4.7024452e-05
98	0xb753f3c6	-1.2633338e-05
99	0x386226c3	5.39187e-05
100	0x37027c39	7.777527e-06
101	0xb844bb53	-4.69045e-05
102	0xb68eb074	-4.2524716e-06
103	0xb80f4277	-3.4155757e-05
104	0x381c597f	3.7276648e-05
105	0xb514eb43	-5.547665e-07
106	0xb6c5b91f	-5.8926084e-06
107	0x36eab7d2	6.995143e-06
108	0x38160daa	3.5775513e-05
109	0x36dfef8d	6.6738053e-06
110	0xb8850279	-6.342395e-05
111	0xb7df8cd1	-2.6649244e-05
112	0x38ad9170	8.276373e-05
113	0x37e1ca07	2.6916166e-05
114	0xb73d17be	-1.1270806e-05
115	0xb894db83	-7.098077e-05
116	0xb86b08ef	-5.6036686e-05
117	0xb7d900cf	-2.5868792e-05
118	0x37ba304c	2.2195418e-05
119	0xb894d99c	-7.097723e-05
120	0x3819a3b2	3.6630496e-05
121	0x391dec0b	0.0001506062
122	0x382bc936	4.095697e-05
123	0xb8c247db	-9.264025e-05
124	0x37c44ca2	2.3400706e-05
125	0xb8bd4710	-9.025459e-05
126	0x3940884a	0.00018361319
127	0x371a2c5b	9.189443e-06

0.model_cnn.layer4.1.weight f4 [128]
0	0x3f8067e2	1.0031703
1	0x3f7cd0a0	0.98755836
2	0x3f83b9ab	1.0291036
3	0x3f7f1827	0.9964623
4	0x3f81e718	1.0148649
5	0x3f8241cc	1.017633
6	0x3f7b9e0e	0.9828805
7	0x3f8581be	1.0430219
8	0x3f86cd3f	1.0531386
9	0x3f8d7edd	1.1054341
10	0x3f81491e	1.0100439
11	0x3f851257	1.0396222
12	0x3f810d4e	1.0082185
13	0x3f80c3b5	1.0059725
14	0x3f82edd7	1.0228833
15	0x3f6718bd	0.9027212
16	0x3f8578b4	1.0427461
17	0x3f83536d	1.0259835
18	0x3f7f0c1b	0.99627846
19	0x3f82f7dc	1.0231891
20	0x3f80533d	1.0025402
21	0x3f84d28d	1.0376755
22	0x3f818831	1.0119687
23	0x3f817368	1.0113344
24	0x3f877fb6	1.0585849
25	0x3f73f77e	0.9529952
26	0x3f7f0e2e	0.9963101
27	0x3f6d2c39	0.92645603
28	0x3f81914a	1.0122464
29	0x3f797b05	0.9745334
30	0x3f83f73e	1.0309827
31	0x3f80307f	1.00148
32	0x3f81e61a	1.0148346
33	0x3f83d6ce	1.0299928
34	0x3f748513	0.95515555
35	0x3f7300ba	0.94922984
36	0x3f7abc91	0.9794398
37	0x3f7f7a93	0.9979641
38	0x3f879206	1.0591438
39	0x3f797110	0.97438145
40	0x3f82ba59	1.0213119
41	0x3f83284d	1.0246674
42	0x3f78e104	0.97218347
43	0x3f7ff5f5	0.99984676
44	0x3f7dbcc1	0.9911614
45	0x3f831332	1.0240233
46	0x3f86c514	1.0528893
47	0x3f7ed346	0.9954113
48	0x3f84f599	1.038745
49	0x3f8cb4b2	1.0992644
50	0x3f868c60	1.0511589
51	0x3f7f9fba	0.998531
52	0x3f847881	1.0349275
53	0x3f85d9a7	1.0457047
54	0x3f849e11	1.0360738
55	0x3f7678ce	0.96278083
56	0x3f815b27	1.0105942
57	0x3f8716ac	1.0553794
58	0x3f7dee7d	0.9919203
59	0x3f7e756d	0.9939793
60	0x3f75de8e	0.96042717
61	0x3f7827f9	0.96935993
62	0x3f84c9eb	1.037412
63	0x3f871e18	1.0556059
64	0x3f803880	1.0017242
65	0x3f7a5268	0.9778199
66	0x3f8057e7	1.0026826
67	0x3f6aff2f	0.9179563
68	0x3f78dd1f	0.97212404
69	0x3f802251	1.0010473
70	0x3f7e05dc	0.9922769
71	0x3f8acfd3	1.0844673
72	0x3f81c570	1.0138378
73	0x3f839aa1	1.0281564
74	0x3f8063fb	1.0030512
75	0x3f73e9d4	0.9527867
76	0x3f80a279	1.0049583
77	0x3f8e86e3	1.1134914
78	0x3f801f48	1.0009546
79	0x3f80826d	1.0039803
80	0x3f802ab9	1.0013038
81	0x3f7f9ae2	0.9984571
82	0x3f823465	1.017224
83	0x3f80251c	1.0011325
84	0x3f831f00	1.0243835
85	0x3f7c91b3	0.9865982
86	0x3f705a91	0.93888193
87	0x3f7fb00a	0.9987799
88	0x3f7e1578	0.9925151
89	0x3f7d3e09	0.98922783
90	0x3f884569	1.0646182
91	0x3f7e274d	0.9927872
92	0x3f82bcfe	1.0213926
93	0x3f840a71	1.0315686
94	0x3f815565	1.0104185
95	0x3f843342	1.0328143
96	0x3f7429f7	0.95376533
97	0x3f8696fc	1.0514827
98	0x3f8461fe	1.0342405
99	0x3f815fb8	1.0107336
100	0x3f7ee379	0.99565846
101	0x3f851061	1.0395623
102	0x3f77a918	0.9674239
103	0x3f7fb14f	0.99879926
104	0x3f815a2c	1.0105643
105	0x3f76e3a1	0.96441084
106	0x3f6d6b0c	0.92741466
107	0x3f873687	1.0563515
108	0x3f82932a	1.0201161
109	0x3f828eac	1.019979
110	0x3f8325e0	1.0245934
111	0x3f7eefd3	0.9958469
112	0x3f8515b9	1.0397254
113	0x3f794580	0.97371674
114	0x3f8fc79f	1.1232795
115	0x3f83b104	1.0288396
116	0x3f78be3d	0.9716528
117	0x3f80b50b	1.005525
118	0x3f8430e3	1.0327419
119	0x3f849435	1.0357729
120	0x3f8279c0	1.0193405
121	0x3f825a9c	1.0183902
122	0x3f862ac5	1.0481802
123	0x3f87ccc8	1.0609369
124	0x3f823ab1	1.0174161
125	0x3f87564b	1.057321
126	0x3f801854	1.0007424
127	0x3f815849	1.0105067
