checkpoint/cnn_features_1d_0930-122637/59-0.4038-best_model.pth (torch, 940543 bytes, 30 tensors)

0.model_cnn.layer1.0.weight f4 [16, 1, 15]
000000 55 08 21 be 72 06 d2 3d 97 3c 25 be c5 8f 34 3e
       -0.15725835 0.102551356 -0.16136394 0.17632969
000010 fc f7 ed 3c b8 a8 17 be bf eb 86 3e 83 e7 5d be
       0.029048912 -0.14810455 0.26351735 -0.21670346
000020 c0 f9 8a bd 35 14 86 3e a7 23 52 3e 97 95 4a be
       -0.06785917 0.26187292 0.20521413 -0.19783626
000030 68 76 1a 3e 05 47 14 be a1 b5 65 be 2c b9 ee 3c
       0.15084231 -0.14480217 -0.22432567 0.029141031
000040 70 bb 69 3d 2c ba 2c 3e c0 ed 26 3e 8b 28 25 bc
       0.05706352 0.16867894 0.16301632 -0.010080467
000050 99 65 a5 3d 9e 20 31 3e d6 df 81 bd 2d 0f a2 bd
       0.08076019 0.17297599 -0.063415214 -0.07913051
000060 9c 09 3a 3e fa 56 1a 3e 5b c5 24 3d f0 34 5b 3c
       0.18167728 0.15072241 0.040227275 0.0133793205
000070 64 55 3b be 87 07 52 be 68 75 4e 3e 21 07 4d 3e
       -0.18294293 -0.20510684 0.20161974 0.2002225
000080 1c 00 83 3e 01 cc 6f be 72 9a 79 3e 86 f9 62 bd
       0.2558602 -0.23417665 0.24375322 -0.055413745
000090 70 17 25 3e 1a d1 02 be d3 9a e8 3b 59 e3 cf 3d
       0.16122222 -0.12775078 0.0070985346 0.10150785
0000a0 e1 4b 98 bd 2e 4d 19 be 0d fe 00 3e 1d 52 88 3e
       -0.07436348 -0.14970848 0.12596913 0.26625147
0000b0 9b 45 ae bd e7 68 1d be 94 1a 3c be 1a 1b 6d be
       -0.0850937 -0.15372048 -0.18369514 -0.2315487
0000c0 60 80 5d 3e af 63 70 3e e4 b1 36 3e 45 93 4d be
       0.21631002 0.23475526 0.17841297 -0.2007571
0000d0 36 05 5f be f6 29 1c be 5c b8 1d 3e dc 38 ff 3d
       -0.21779332 -0.15250382 0.15402359 0.12462017
0000e0 79 d5 3f 3e 7b c7 60 be b4 76 8b 3e 3a 99 81 be
       0.18733777 -0.21951096 0.27239 -0.25312215
0000f0 37 24 20 3d 95 fc 9c bc 09 28 c8 3d c7 73 15 be
       0.039097037 -0.01916341 0.09773261 -0.14594947
000100 a9 09 13 3e b9 5a 0f bc 36 0a 12 3e c0 5b e1 3d
       0.14359154 -0.008749657 0.14261708 0.11003828
000110 13 77 a7 3d ca e0 be bc 9b 1e ee 3c 51 1e 6b be
       0.081770085 -0.023300547 0.029067328 -0.22960784
000120 ce ea 25 be a9 8e b9 3d 60 e3 23 be f9 86 2b be
       -0.16202852 0.090604134 -0.16004705 -0.16750707
000130 0e 5e 13 bd b1 a7 2b 3b b0 1d 64 bc 57 5d 71 3e
       -0.03597837 0.002619248 -0.013923094 0.23570763
000140 2f 06 04 3e 7a eb 6c be a6 7b c5 3d 2a b4 81 3e
       0.12892984 -0.23136702 0.09642725 0.25332767
000150 1c d8 04 3e 54 f7 57 be a7 af 5e 3d f8 ea de 3d
       0.12973064 -0.21090442 0.054366734 0.108846605
000160 fa f2 60 3c 64 8d c0 bd 46 6e 32 3e 21 96 04 3e
       0.013729805 -0.09401968 0.17424878 0.12947895
000170 01 eb 37 3e 25 c7 8f be 29 89 d9 3c 5c fe 1d bd
       0.1796074 -0.28081623 0.02655466 -0.038572654
000180 fd 65 0d 3e 5f 04 23 bc 28 ac 97 bd b9 99 e0 3d
       0.13808437 -0.009949773 -0.07405883 0.1096682
000190 13 d3 0c 3d a2 2b fb 3d 62 48 32 3e f7 56 3e ba
       0.034380984 0.12264182 0.17410424 -0.00072608836
0001a0 36 9f 71 3d 80 b2 a9 bd 50 0e 3f 3e 1f 0a 19 be
       0.058989726 -0.08285999 0.18657804 -0.14945267
0001b0 03 18 38 3e f6 ac 2d 3e 1f c9 d9 3d 92 ab 9e 3c
       0.1797791 0.1696051 0.10634064 0.01936892
0001c0 0c 55 1d bd 89 9e 4e be 51 e1 4f be fb 79 85 3e
       -0.038411185 -0.20177664 -0.20300795 0.26069626
0001d0 42 bf 0b bc b6 e3 71 be 84 ea 22 bd af 5e 91 3b
       -0.008529486 -0.23622021 -0.039774433 0.004436336
0001e0 a6 95 0a be e8 a8 40 3e 53 b5 14 3b 02 b3 0a 3e
       -0.13533649 0.18814433 0.0022691085 0.13544849
0001f0 79 fa 63 be 7c c3 5d bd 9d a6 1f 3d 45 a2 4a 3e
       -0.22263516 -0.054141507 0.038977254 0.19788463
000200 d9 69 03 3d da 28 85 bd 91 a2 54 3d 98 f0 78 3e
       0.032083366 -0.065019324 0.051912848 0.24310529
000210 0e b1 6e 3d c2 04 2e be 89 63 01 3e 8b 06 6d be
       0.05827432 -0.16994002 0.12635626 -0.23147027
000220 94 4c 4f 3d f6 38 e0 3d fc bd 5a 3d b5 88 a4 3d
       0.05061014 0.109483644 0.05340384 0.08033887
000230 20 6d b1 bd be bb b8 3d ba 87 01 be 7a fb aa be
       -0.08663392 0.09020184 -0.12649432 -0.33394986
000240 5f 36 b8 3d 5b b2 4f bd 60 a5 83 3d 90 e6 9f 3d
       0.089947455 -0.050707202 0.06428027 0.07807648
000250 1a c2 c2 3c 32 23 5c 3e f6 fa 4f bd ad 04 ac bd
       0.023774195 0.21497801 -0.050776444 -0.08399329
000260 ab 6f 6b be b9 34 74 be 10 92 f2 bd 49 f9 8f be
       -0.22991817 -0.23848237 -0.118442655 -0.28119877
000270 63 7f a8 3c d9 34 a6 be 02 5f 79 be 5a 4a 6b be
       0.020568555 -0.32462195 -0.24352649 -0.22977582
000280 1a dc 86 bd 5a 71 82 be 1e fb 49 bd 58 ba 8b 3d
       -0.0658495 -0.25477105 -0.04931175 0.068226516
000290 ef d7 c7 3c 1e 1e 15 be a9 98 49 be 28 58 d7 bd
       0.024394957 -0.1456227 -0.19687141 -0.10514861
0002a0 36 06 eb 3d 59 af 7b 3d 1c 57 a4 bd 8f 2f 41 be
       0.11475794 0.06144652 -0.08024427 -0.18865798
0002b0 54 37 9e bd 3c e7 83 3e 6a 33 ea 3d 79 9c 83 be
       -0.07725397 0.25762355 0.11435588 -0.25705317
0002c0 b1 52 3d 3e bf c0 56 be 81 d8 3f bd 93 c0 c9 3d
       0.18488576 -0.20971964 -0.046837334 0.09851184
0002d0 45 71 2b be c5 ec 05 be 12 f6 37 3d de 95 64 3e
       -0.16742428 -0.13078602 0.044912405 0.22322795
0002e0 9f 42 87 3e 73 61 05 3e 9b 12 9f 3a d1 fb 0e 3e
       0.26418015 0.13025455 0.0012136282 0.13963248
0002f0 ea 03 16 3b 88 5c 45 3e 6b 92 1c be a8 b8 3b be
       0.0022890517 0.19273579 -0.15290229 -0.1833216
000300 7d 2f 79 bd 20 24 18 3e d5 6f 90 3e 7e 4d 63 3e
       -0.060836304 0.1485753 0.2821032 0.2219753
000310 f0 ef 60 be c9 2f 6d be e0 7d 45 3e 19 00 74 bd
       -0.21966529 -0.2316276 0.19286299 -0.059570406
000320 a2 dd 1d 3e 93 d0 16 3d 00 18 e8 bd 81 de fd 3d
       0.15416577 0.036820006 -0.11332703 0.12395955
000330 9d 59 49 bd 1e 2f 06 3e 5c 2d 80 be 94 64 8e bd
       -0.049157728 0.13103911 -0.25034606 -0.069527775
000340 25 15 51 be d9 0d 82 3e 3a 3d 06 3d 11 fb 53 be
       -0.20418222 0.2540119 0.032773234 -0.20701243
000350 0e 32 b6 bc eb 97 6c 3e cc 69 57 be 8e 96 17 3e
       -0.022240665 0.23104827 -0.21036452 0.14803526
000360 6e 6e 8d 3d 28 9b 2d be 8d bf 3f bd ad 98 1d be
       0.069058284 -0.16953719 -0.046813536 -0.15390272
000370 79 8c 08 3e ee 63 7c bc e8 51 6e be 2f 7f 09 3e
       0.13334836 -0.0154046845 -0.23273432 0.13427423
000380 f8 d0 40 be 0a e1 48 3e ab 3d 27 bd aa 06 3d be
       -0.18829715 0.19617096 -0.040830296 -0.18459573
000390 fb b3 24 3d d8 98 ab bd 3d e4 68 3e 34 e0 28 be
       0.040210705 -0.08378762 0.22743316 -0.16491777
0003a0 af ac e0 bc 18 e8 6d be 3d 0e ba bc 4c d7 52 be
       -0.027426092 -0.23233068 -0.022711867 -0.20589942
0003b0 40 1e bb bd ce 69 66 be 8e ba 94 be ee f1 f6 3d
       -0.09136629 -0.22501299 -0.2904858 0.12057863

0.model_cnn.layer1.0.bias f4 [16]
000000 bd 1a 85 3a 0a 38 97 bb 87 34 81 3a 17 7d 34 ba
       0.0010155063 -0.0046148347 0.0009857573 -0.0006885095
000010 55 26 9e bb fb 1f d5 ba 17 8d 8d ba 54 a7 e7 3a
       -0.004826347 -0.0016260141 -0.0010799494 0.0017673769
000020 88 ac f9 3a 19 8e dd 3a da 06 18 39 b8 53 d0 ba
       0.0019048611 0.001690331 0.00014498402 -0.0015894091
000030 50 0d 03 bb e8 44 db b9 c3 c7 ea 3b d8 84 ca 39
       -0.0019996949 -0.00041822274 0.0071649267 0.0003862742

0.model_cnn.layer1.1.weight f4 [16]
000000 47 aa 8b 3f b3 83 80 3f b9 91 7c 3f 11 94 86 3f
       1.091134 1.0040191 0.98659855 1.0513936
000010 54 51 80 3f ae 7b 79 3f 2e e5 74 3f 3b cb 80 3f
       1.0024819 0.97454345 0.956622 1.0062021
000020 d9 3a 83 3f 76 8d 81 3f 9a 8d 80 3f 71 e4 84 3f
       1.0252334 1.0121295 1.0043213 1.0382215
000030 7f ed 81 3f 0c 90 72 3f 00 2f 7e 3f 2d 83 7a 3f
       1.0150603 0.9475105 0.99290466 0.9785641

0.model_cnn.layer1.1.bias f4 [16]
000000 b9 b1 8b 3c f7 25 35 3b 7f eb a4 bc 62 34 ef bc
       0.017052518 0.0027641037 -0.020131825 -0.029199783
000010 c3 38 a4 bc c1 48 2a bc 2f 55 3d bd c7 46 80 3c
       -0.020046597 -0.010393322 -0.046223816 0.01565875
000020 b1 e6 11 bd e4 43 10 bd 06 22 b8 3b d3 be 1c bd
       -0.035620395 -0.035220996 0.0056192903 -0.03826792
000030 6e f0 90 bd de ab 16 3c 79 57 d1 3c 93 e5 fc 3c
       -0.07077108 0.00919625 0.025554406 0.030871188

0.model_cnn.layer1.1.running_mean f4 [16]
000000 58 b8 fa 3a 3c 6b cf bc 16 fc e7 bc 5b ce 8b 3b
       0.0019128425 -0.025319688 -0.028318446 0.004266543
000010 a9 6f 9d 3a 0e 05 b9 bc a3 90 f9 bc 40 12 b1 3b
       0.0012011427 -0.022585418 -0.030464476 0.005403787
000020 f1 6c d1 bc d6 9f 4f bc 1c f8 c7 3d d5 ca 4d 3c
       -0.025564643 -0.012672385 0.0976412 0.012560566
000030 c7 b0 3c bd 12 9d 61 3c 0a 9c 0c 3d f6 20 7e 3d
       -0.046067026 0.013770359 0.034328498 0.062043153

0.model_cnn.layer1.1.running_var f4 [16]
000000 0c 6e d8 3c 4c c6 00 3c 34 d9 6e 3d e2 47 d7 3c
       0.026419662 0.007859778 0.05831261 0.026279394
000010 b4 86 53 3b 20 6b dc 3c 44 d5 27 3d 4f 86 f7 3b
       0.0032276334 0.02690655 0.04097487 0.0075538526
000020 68 f8 9c 3c 39 0a 56 3d aa ea 79 3d fa 91 e4 3c
       0.019161418 0.052255843 0.06101481 0.027901638
000030 05 c9 f0 3c d0 ab 4a 3d b0 6e 98 3b 75 c1 31 3d
       0.029392729 0.04948026 0.004651867 0.043397386

0.model_cnn.layer2.0.weight f4 [32, 16, 3]
000000 b6 14 06 3e 87 50 08 bd d9 df 33 be 35 3b 7c ba
       0.13093838 -0.03327992 -0.1756586 -0.00096218596
000010 69 bc b7 3c 3a 35 db bd ea 78 aa bd 2d 74 39 3d
       0.022428708 -0.107035115 -0.08323844 0.04527681
000020 43 9a e0 bd 8c 5f d1 3d 47 ae 93 bd 89 bf a2 bd
       -0.10966923 0.10223302 -0.07210975 -0.07946689
000030 78 b4 99 bd 11 d2 d8 bd d3 10 e9 3c 18 f6 79 3d
       -0.07505125 -0.10586942 0.028450405 0.06102571
000040 c7 bd 8c bd 40 97 a4 3d c0 74 f4 bc c0 46 22 bd
       -0.06872135 0.08036661 -0.029840827 -0.039618254
000050 79 68 06 be 35 4e 33 3d 71 6d 7c 3d 9c 1f 3d 3e
       -0.1312579 0.043775756 0.06162781 0.1846909
000060 4d 7e 97 3d 5d 3b e8 3d c0 b9 f9 bd 52 a9 0d 3d
       0.07397137 0.11339448 -0.12193632 0.034585305
000070 2a be b9 3d ee 1f f8 bc 6d e8 a0 3d 6b 2d 3a bd
       0.09069474 -0.030288663 0.07856832 -0.04545347
000080 18 f9 e7 bd 83 43 d7 bd 96 e3 de 3d 85 b3 e2 39
       -0.11326808 -0.10510924 0.10883252 0.00043239832
000090 24 ea 8a bd f2 c2 03 3e 91 7b e6 bd 55 9b cd 3d
       -0.0678294 0.12867334 -0.11254037 0.10039393
0000a0 95 d1 12 3e 14 4d 07 3e 7e a6 30 bc c4 fa 06 3e
       0.14337762 0.13212997 -0.010781882 0.13181597
0000b0 cc a7 82 3d f6 24 23 3d 4f 2d 6f 3b fb d2 13 3c
       0.06379661 0.03983017 0.0036495512 0.00902247
0000c0 d8 83 52 3d f4 74 89 3d 3d 22 02 3e 41 25 59 bd
       0.051395267 0.0671176 0.12708373 -0.053014044
0000d0 91 0a 6d 3b 62 03 0c be 46 9a 56 bd 4e ce 27 3e
       0.0036169628 -0.13673165 -0.05239322 0.16387293
0000e0 98 a0 19 bb ee f7 d0 bd 4a ff 98 bd c3 36 e1 3d
       -0.0023441669 -0.10203539 -0.074705675 0.10996773
0000f0 a8 39 44 bd 1c 0c 0f 3e 2a 02 f1 3d ae 70 b0 bd
       -0.047906548 0.13969463 0.11767991 -0.08615242
000100 b0 b3 64 3d a3 d3 2d 3d 1e 46 e0 bd 07 cd 92 bc
       0.055835426 0.04243816 -0.10950874 -0.01792003
000110 af ce a2 3c 24 f2 ce 3d 62 e7 6c bc 49 ea da 3d
       0.019873945 0.101047784 -0.014459463 0.106892176
000120 5d 8f 1c be f7 fd dd bd eb d1 f7 bd 23 2f 36 3e
       -0.15289064 -0.108394556 -0.121005856 0.17791419
000130 11 4d 8a 3d 41 29 4c 3b 12 db 03 be 4b 90 f8 bd
       0.067529805 0.003115252 -0.12876537 -0.12136897
000140 fb 8b 23 bd 59 7e 22 3e b9 78 fd 3c 5b 02 d7 bc
       -0.039928418 0.1586851 0.030941354 -0.02624624
000150 05 08 07 be b6 b0 ab bd f3 aa fd bd 57 c6 58 3c
       -0.13186653 -0.08383314 -0.123861216 0.013230882
000160 90 d1 01 3d 1c bf c9 bd 90 4e b1 bd 46 1b d5 bc
       0.031693995 -0.09850904 -0.08657563 -0.026013982
000170 c2 c0 a5 bd fc f9 f2 bd 05 08 8d 38 e8 3f 05 be
       -0.08093406 -0.11864087 6.724898e-05 -0.1301266
000180 c5 1d de bb 35 1e 06 3e 48 9b aa bd 7e 44 5b 3d
       -0.006778451 0.1309746 -0.08330399 0.053532116
000190 d8 ef e4 3c 02 8e dd bd 0f 92 05 3e d4 04 61 3d
       0.027946398 -0.108181015 0.13043998 0.054936245
0001a0 81 61 ad 3d 7b 1d 4b 3d 34 a4 c5 3d f8 ee 6c bd
       0.08465863 0.04958866 0.0965046 -0.057845086
0001b0 55 ec cd 3c 48 26 ec bd eb 26 1a 3e a2 8e 15 be
       0.025137106 -0.11530739 0.15053909 -0.14605191
0001c0 d3 6a 16 3e 9f 39 16 3d cd 18 5e bb 5c 43 08 3e
       0.14689188 0.036676046 -0.0033889294 0.13306946
0001d0 b7 2c 68 bd 27 76 38 bd 2a d7 82 3d ba 24 1a bc
       -0.05668327 -0.045034554 0.063886955 -0.00940817
0001e0 86 50 26 3d e0 9e fb bd 8b 2a bb 3c 39 ce 75 bd
       0.040604137 -0.122861624 0.022847435 -0.060011122
0001f0 24 3c 94 bd 7c 98 d3 bd 74 eb 7e 3d 53 44 82 bc
       -0.072380334 -0.103318185 0.062236264 -0.01590172
000200 66 8c 94 bd 48 07 73 bc d7 57 01 3e 67 4c 06 3e
       -0.072533414 -0.014833279 0.12631164 0.13115083
000210 45 93 7d bd 35 ba b0 bd a3 00 2e bc 08 a3 05 3e
       -0.061908025 -0.08629266 -0.010620269 0.13050473
000220 35 00 f2 3c 98 ed cc 3d 60 02 eb bd cc 3c a9 bd
       0.029541114 0.10006255 -0.11475062 -0.08263549
000230 66 4e b3 3d 49 75 c1 3d a0 44 a8 3d 1f 64 82 bc
       0.08755188 0.094461985 0.08216214 -0.015916882
000240 02 93 5c 3d be d4 68 bd 3f c0 98 bd 59 ae 1d be
       0.053851135 -0.05684351 -0.07458543 -0.1539854
000250 22 b3 25 3d ae bb 8c bd 54 a1 a5 3d d9 a3 ca 3d
       0.040454037 -0.068717346 0.080874115 0.09894533
000260 c3 1f 64 bd 89 2a f4 bd 99 9f af 3d f2 19 23 be
       -0.055694353 -0.119221754 0.08575363 -0.15927866
000270 91 2b 1e 3e 53 79 cb bd a9 5c 83 3d f5 ec a7 3d
       0.15446307 -0.0993525 0.06414158 0.08199493
000280 99 ca 1a bd 63 a7 ba bd c1 b6 e7 3c d9 54 9d 3b
       -0.03779087 -0.09113958 0.028285386 0.0048013744
000290 1a 32 d2 bd 02 77 ba 3d 90 0e 1d 3c 65 16 a2 bd
       -0.10263462 0.0910473 0.0095859915 -0.07914428
0002a0 51 43 a8 3c 62 6c 08 3d 2d b6 be bd 5b f8 ac 3c
       0.020539911 0.033306487 -0.09312091 0.021114519
0002b0 01 f7 78 bd 7e 83 44 be 4a bc e9 3d 8c 40 b4 bd
       -0.060782436 -0.19190785 0.114128664 -0.08801374
0002c0 28 f4 63 bd 53 58 b6 3d 5d d7 23 3d 73 1f 37 3d
       -0.055652767 0.08903565 0.04000031 0.044707727
0002d0 7e 52 a2 3d f8 f4 88 bd 21 2f a8 bb c9 95 e4 3c
       0.079258904 -0.06687349 -0.0051325713 0.027903454
0002e0 92 50 c8 bd e0 a7 1c be 66 9b 53 3d ad 91 8d 3d
       -0.097809926 -0.15298414 0.05166187 0.06912551
0002f0 39 56 69 bb 1a 9e b0 bd 80 50 71 bd 0a b5 b8 3d
       -0.0035604371 -0.086239055 -0.05891466 0.090189055
000300 7f a5 87 bc 44 8f ad 3d 5e 84 55 bd b8 fd 3b 3e
       -0.016558407 0.084745914 -0.05212819 0.18358505
000310 c2 d2 2d 3c 17 5c 83 3d 99 e5 02 bd 05 57 0f 3e
       0.010609331 0.06414049 -0.031957243 0.13998039
000320 a0 f6 ea 3d c5 33 b1 3d 88 51 04 3c a2 8d 6f bd
       0.11472821 0.086524524 0.008076079 -0.05848468
000330 31 24 a4 3d 4d 39 de 3b d1 7b 34 bd 68 23 a7 3d
       0.080147155 0.006781733 -0.044063393 0.0816105
000340 a2 d9 cb bd 4d ab 98 bd 50 ea ed 3d 49 35 7f bd
       -0.099536195 -0.07454548 0.11616957 -0.062306676
000350 f6 f4 31 be cf 52 bc bd 0d 40 8c bc 5d ae 76 3d
       -0.17378601 -0.09195482 -0.017120386 0.06022488
000360 ed 17 d6 bd 6b 2a 05 be 65 6c 0a be 6a fb 17 be
       -0.10453782 -0.13004462 -0.13517912 -0.14842
000370 9c 31 07 be f7 44 31 3e 30 9b ae 3d ab 48 69 bd
       -0.13202518 0.17311464 0.085256934 -0.056954067
000380 b3 b3 46 3d 63 bc ac bd 71 d6 ed bd ee 8d 07 3e
       0.04851122 -0.084343694 -0.11613167 0.13237736
000390 44 33 f8 3d f4 07 4f bd f3 69 8a bc 7b 0f da 3d
       0.12119153 -0.050544694 -0.016896224 0.10647484
0003a0 75 f5 85 3d 96 6e 01 3e 8a af ab bd 8f bf 38 be
       0.06540958 0.12639841 -0.08383091 -0.18041824
0003b0 68 bb d5 bc ad ef fd 3d c5 fa eb bd 69 ee 28 3e
       -0.026090339 0.1239923 -0.1152244 0.16497196
0003c0 40 41 8f bd 86 c2 8a bc 2b 51 7b 3c fb a6 e3 bd
       -0.06994867 -0.01693846 0.015339176 -0.11115833
0003d0 5e d6 a0 bd a3 f9 31 3d 28 06 d5 3c ee e1 68 bd
       -0.07853387 0.043450963 0.026003912 -0.05685609
0003e0 0e 3e 0e be 37 3e 2b bd d4 0f c5 3d 7f cc de ba
       -0.1389086 -0.04180738 0.096221596 -0.00169982
0003f0 dd 8c da 3d 40 a4 17 bd 45 b7 9b 3d 1a cc a6 3d
       0.10671399 -0.037021875 0.07603315 0.08144398

0.model_cnn.layer2.0.bias f4 [32]
000000 37 cd d0 b7 f4 69 d8 b8 f2 a7 74 b9 86 5a d9 ba
       -2.4891093e-05 -0.00010319418 -0.00023332218 -0.0016582764
000010 40 eb 1d 3a a7 91 93 3a 8d 87 04 ba ca 39 12 39
       0.00060241297 0.0011258618 -0.0005055599 0.00013945173
000020 45 09 00 3a 5c ce b0 3a 3d f6 a0 b9 31 5c ae 39
       0.0004884194 0.0013489234 -0.0003070104 0.00033256554
000030 1a a5 83 3a 25 9f 18 b9 de fe b2 b9 fd 0e f8 b6
       0.0010043711 -0.00014555136 -0.00034140697 -7.392721e-06
000040 5f 7a 31 b9 e9 4f 7b 3a 40 f1 11 ba 87 94 99 b9
       -0.00016925622 0.00095867977 -0.000556726 -0.00029293096
000050 a3 cc 8d ba b4 7d 31 b9 13 3d 45 b9 95 71 d6 b9
       -0.0010818433 -0.00016926863 -0.00018810136 -0.00040901886
000060 07 07 81 3a 1f 94 ce 39 a9 aa 49 b8 5a fc a6 b9
       0.0009844013 0.0003940174 -4.8081074e-05 -0.00031850004
000070 a1 ca bd 38 24 12 dc 39 59 a1 8e ba e5 fc ce b9
       9.049965e-05 0.00041975186 -0.0010881826 -0.00039479803

0.model_cnn.layer2.1.weight f4 [32]
000000 af 9a 82 3f b2 77 83 3f 74 93 72 3f 20 a0 78 3f
       1.0203456 1.0270903 0.94756246 0.9711933
000010 13 2f 74 3f b0 81 7d 3f 45 1b 7d 3f d8 4a 7b 3f
       0.9538433 0.9902601 0.98869735 0.9816108
000020 48 c5 7d 3f ed 66 82 3f f2 48 71 3f af d9 7d 3f
       0.9912915 1.018766 0.9425193 0.99160284
000030 32 04 83 3f b9 a3 77 3f e9 6f 82 3f b0 7b 80 3f
       1.0235655 0.96734196 1.0190402 1.0037746
000040 91 60 87 3f 2f 0b 83 3f ac 37 83 3f 6f a6 7b 3f
       1.0576345 1.0237788 1.0251365 0.9830083
000050 d0 c3 85 3f 5e 75 7f 3f 9c ed 79 3f be 86 80 3f
       1.0450382 0.99788463 0.9762819 1.004112
000060 26 66 86 3f c0 34 86 3f 8a d6 7f 3f af d2 80 3f
       1.0499923 1.0484848 0.99936736 1.0064296
000070 92 fc 88 3f a4 a8 80 3f d9 72 81 3f cb b3 84 3f
       1.0702078 1.0051465 1.0113174 1.0367368

0.model_cnn.layer2.1.bias f4 [32]
000000 22 f8 68 3c 59 e8 c6 3c 16 a1 17 bd d7 41 4e bb
       0.014219316 0.024280714 -0.037018858 -0.003147235
000010 dd 17 34 bd 74 e6 d1 bc 43 01 8c bd f1 09 c2 bc
       -0.04396807 -0.025622584 -0.06836178 -0.023686381
000020 d3 7d 29 3b c5 ed 27 bd 22 69 8e bc 81 b7 06 bd
       0.002586235 -0.04099824 -0.017384116 -0.032889847
000030 34 0f b0 bc 17 ab 2a bd d1 93 0a bb 1d 70 62 bc
       -0.021491624 -0.04166707 -0.0021145234 -0.013820675
000040 22 4c 09 ba 8e 1d b0 3c cf 5a 15 bd 32 0f 8b bd
       -0.000523748 0.021498468 -0.036463555 -0.06790008
000050 91 c6 cd ba 07 dd c1 bc be b8 51 bd 2c cb 5d bd
       -0.0015699436 -0.023664964 -0.051201575 -0.054148838
000060 74 b9 08 3c cb ec 90 3c eb 56 9c bc 7c 76 1d bd
       0.008344997 0.017691037 -0.019084414 -0.038443074
000070 54 9c 29 3d 43 dc 09 3b 5b 7d 39 bd f1 91 93 3c
       0.04140885 0.0021035827 -0.045285564 0.018013926

0.model_cnn.layer2.1.running_mean f4 [32]
000000 ff 98 84 3b a6 a4 59 be 48 2b 50 3d 0f 96 f3 bc
       0.004046559 -0.21254215 0.050822526 -0.02973464
000010 11 21 ae 3c 4b 23 65 bd e0 e9 90 bb 8f 61 bf 3c
       0.021256002 -0.05594186 -0.0044224113 0.02336195
000020 9e 88 08 be a4 3e ba bc 79 07 9d bd ed 6c e3 3c
       -0.13333365 -0.022734948 -0.07667441 0.0277619
000030 26 50 70 be 6d b5 c8 3d 5a 45 28 3e 0e 54 93 bd
       -0.23468074 0.09800229 0.16432706 -0.071937665
000040 86 9e 36 be 12 d8 8f 3d 8f ce 87 3d 18 74 01 3e
       -0.1783391 0.07023634 0.06631195 0.12641943
000050 31 86 c2 bd 1b e8 8b 3d f3 e6 b8 3c 4e 7a f6 3b
       -0.09498251 0.0683138 0.022571063 0.007521904
000060 32 8b 99 be bf 39 97 bd ea 20 e9 bd 28 72 2c 3d
       -0.2998901 -0.07384061 -0.11383231 0.042101055
000070 a8 40 06 be 4d c4 be bd c8 a3 64 be d2 e1 65 be
       -0.13110602 -0.09314785 -0.22328103 -0.22449425

0.model_cnn.layer2.1.running_var f4 [32]
000000 f6 0c cb 3c 59 15 29 3e 6b 15 ed 3d 80 37 f2 3c
       0.024786454 0.1651205 0.11576351 0.02956748
000010 9c 84 3b 3e 07 a8 33 3d fe 1b 00 3d f1 06 35 3d
       0.18312305 0.043861415 0.031276695 0.044196073
000020 57 92 e0 3d 9e 0a 9e 3c d8 6d 18 3e d6 33 8c 3d
       0.10965412 0.019292172 0.14885652 0.068458244
000030 a8 6f 8f 3e d0 dc 21 3d bf 8c 3b 3d ab ee 6d 3d
       0.28014874 0.039517224 0.045788523 0.05808894
000040 6c 5c 20 3d 5c a5 bc 3c 1f 4f bd 3c b6 1e 14 3d
       0.03915064 0.023028068 0.023109017 0.0361621
000050 5d ba 59 3d a9 e9 98 3d 30 53 be 3c 91 dc e3 3c
       0.053156245 0.07466442 0.023233026 0.027815135
000060 87 7c ee 3d f0 54 0e 3d 39 d7 13 3e 07 5e dd 3c
       0.116448455 0.03474897 0.1443757 0.027022375
000070 9f e2 9a 3d b7 b5 dd 3d 90 59 15 3e 65 e0 2b 3d
       0.07562756 0.10825675 0.14584947 0.041962046

0.model_cnn.layer3.0.weight f4 [64, 32, 3]
000000 5a 41 ec 3d f7 f1 92 3d b8 51 0f be f9 43 43 3d
       0.11535902 0.071750574 -0.13996017 0.047672246
000010 e7 8a 35 bd 87 82 8f bb 01 70 66 bd 68 df aa 3d
       -0.04432192 -0.0043795737 -0.05625916 0.083433926
000020 92 42 ae bd 44 45 cf bb 55 fe 72 3c 0b 60 8e bd
       -0.08508791 -0.006325396 0.014831145 -0.069519125
000030 b8 a5 15 bd 61 82 02 be c8 31 e5 bc ec 42 77 3d
       -0.036534995 -0.12745048 -0.02797784 0.060366556
000040 24 15 24 bd ec 36 01 3e 7a ae 35 3c 6b 5d 8c ba
       -0.040059224 0.12618607 0.011088962 -0.0010708993
000050 df 06 2e bd 85 58 f1 bd cb df b7 3c 98 cd 78 bc
       -0.04248702 -0.11784462 0.02244558 -0.015185736
000060 be b5 ca bc be f2 a4 3d 14 b0 07 bd d4 e5 b7 bd
       -0.024744865 0.08054112 -0.033126906 -0.08979383
000070 3d b0 c1 3c 2c d7 a4 bd b9 3c 8b 3d c5 99 0b 3e
       0.023643607 -0.08048853 0.06798691 0.13632877
000080 61 92 98 3d e4 61 87 bd 66 29 84 3d e7 7f 97 3d
       0.074497946 -0.06610468 0.064532086 0.07397442
000090 4e d9 7f bd dd 6e b6 3d 8a 32 d8 ba 2a 4d 57 3d
       -0.062463097 0.08907864 -0.0016494554 0.052563824
0000a0 24 d7 ae bd d4 02 43 3d 81 04 0a 3b be 0c ff bd
       -0.085371286 0.04761012 0.0021059813 -0.12453602
0000b0 23 63 ef 3d 6a dc ba 3d 94 75 8a 3d b3 7f e6 bd
       0.11688831 0.09124072 0.067607075 -0.112548254
0000c0 db 50 0b 3b 4c 12 94 3d 7f 04 bb 3d 77 22 f5 bc
       0.002125791 0.07230052 0.09131717 -0.02992366
0000d0 a1 81 f7 bd cd ca 86 bd aa 85 58 3d 58 35 21 3b
       -0.120852716 -0.0658165 0.052861847 0.0024598446
0000e0 3a 69 39 bd 21 70 4c bd 88 29 bb bd 0e d4 35 3d
       -0.045266367 -0.049911622 -0.09138781 0.044391684
0000f0 a6 e5 98 3c 85 40 96 3d 48 6f 92 bd b8 4b 83 3d
       0.018664192 0.07336525 -0.071501315 0.064109266
000100 a8 a6 8b 3d 18 0d 61 bb f9 09 b6 3d 11 83 42 bd
       0.068188965 -0.003434008 0.08888621 -0.047488276
000110 c0 a1 64 bd 40 8c 3c 3c 5c 8f a4 3d fa 35 e2 3c
       -0.05581832 0.011508048 0.08035156 0.027613629
000120 7f 95 05 bb 36 f7 ea 3c d9 6d 62 3d 52 92 3d 3c
       -0.0020383296 0.028682332 0.05528054 0.01157053
000130 76 64 f3 3c 5b 88 5a 3d 53 8d 26 bd 21 61 41 bd
       0.02971099 0.053352695 -0.04066212 -0.04721177
000140 14 23 c5 bd 5c a6 94 3d c0 01 fe 3c 1e 12 d9 3a
       -0.09625831 0.07258293 0.031006694 0.0016561185
000150 07 24 85 3d e1 53 9e 3d 50 03 af bd 8f ab 0b be
       0.06501012 0.077308424 -0.08545554 -0.13639663
000160 76 80 53 bd ef 25 e2 bd 22 c6 96 bd 59 5b 98 3d
       -0.05163618 -0.110423915 -0.073620096 0.07439298
000170 ec 3a 5a bd a3 e5 13 bd fe 7f 0b 3e 60 49 66 3d
       -0.05327885 -0.03610767 0.13623044 0.05622232
000180 3f d1 4c 3d f2 45 c4 3d ef 01 cb 3d a4 45 80 3c
       0.05000424 0.095836535 0.09912478 0.015658207
000190 c0 4a cc 3d 24 04 24 3d bd 26 07 3d ce 4e 9c 3b
       0.09975195 0.04004301 0.032995928 0.0047701364
0001a0 74 e7 d7 3c 57 41 4e 3b 02 30 99 3d 87 9a b9 3c
       0.026355483 0.003147205 0.0747986 0.022656692
0001b0 53 fc 36 bd a2 f9 56 bc 7c 4d 62 3d 7f 47 a7 bd
       -0.04467423 -0.013121041 0.055249676 -0.08167934
0001c0 03 82 9a bd bd 3f a4 3d d3 37 02 be 6f e3 93 3d
       -0.07544329 0.080199696 -0.12716608 0.07221114
0001d0 b5 9c f4 bd 50 50 9e bd 26 30 e6 3d 03 5b e4 3c
       -0.11943952 -0.07730162 0.11239652 0.027875429
0001e0 fe 3c d8 bd 27 03 0c 3e 7e 2f d4 bc 1f bf 26 3d
       -0.10558508 0.13673078 -0.025901552 0.04070961
0001f0 f0 90 d8 3c 60 c2 8e 3d cc 4d b0 3c f8 b3 bc bd
       0.0264363 0.06970668 0.021521471 -0.09214014
000200 bd 2f bb bd 68 bc fc bd 00 9f 9a bd f2 34 bd 3d
       -0.09139965 -0.12340623 -0.07549858 0.09238614
000210 bc 8b db bb 93 ea 74 bd e2 4b 11 be e4 d5 b2 3d
       -0.0067000072 -0.05979402 -0.14189103 0.08732203
000220 0e 0f 00 3e d7 09 95 3d 5a 3f be 3d 3b 43 19 bd
       0.12505743 0.072772674 0.09289427 -0.03741763
000230 13 58 a4 ba db 2b 8c bb 68 25 0c 3d 81 2d 07 bd
       -0.0012538455 -0.004277689 0.03421536 -0.03300238
000240 5d 13 82 3d d3 c7 58 3d 85 4d 0b be 2b b9 c5 bd
       0.063513495 0.052924942 -0.1360379 -0.096544586
000250 c9 d9 e7 3b bb a9 f1 3c 84 1a 12 3d e1 fc 26 bc
       0.0070755226 0.02949988 0.03566982 -0.010192127
000260 f6 a1 00 be 59 e3 18 bd ee 29 8f bd 84 76 40 3d
       -0.12561783 -0.03732619 -0.06990419 0.046988025
000270 80 26 89 3d 12 6b 96 bb d9 ae 80 bd c7 68 c6 bd
       0.066967964 -0.0045904005 -0.062833495 -0.096879534
000280 e1 f4 4e bc a1 a5 5a bd f5 83 e4 bd 15 9d a0 3d
       -0.012631626 -0.053380612 -0.11157981 0.07842461
000290 61 c4 27 3d 91 09 0c bd c9 e9 81 bd 72 31 c6 bd
       0.040958766 -0.03418881 -0.06343419 -0.096774
0002a0 62 78 0e 3e b8 80 88 3d 6b 0e e9 3c 4f cb 96 3d
       0.1391311 0.06665176 0.028449258 0.07362997
0002b0 c2 10 13 bd fc a0 de 3d 16 38 75 bd 6f d1 3d bd
       -0.035904653 0.10870549 -0.05986794 -0.04634231
0002c0 c8 d9 86 3d 35 91 84 3d 4b 60 e6 3d 28 e0 ba bc
       0.06584507 0.064730085 0.11248835 -0.022811964
0002d0 0d 0d d1 bc 59 b5 5e bd 1e 10 be bd be d6 2b bd
       -0.025518918 -0.054372165 -0.09280418 -0.04195284
0002e0 25 4e 75 3d b0 ed 63 3d e3 8f 15 bd e3 98 dd bc
       0.059888978 0.0556466 -0.036514174 -0.027050441
0002f0 33 c9 c6 bd f5 ec 79 3c d6 a5 82 bd 07 30 c3 bd
       -0.097063445 0.015254249 -0.06379287 -0.09530645
000300 08 a9 00 be 55 f6 60 bd 11 5c cc bd f8 51 88 bd
       -0.1256448 -0.05492242 -0.09978498 -0.06656259
000310 ac dd 62 be 2b 97 38 bd e3 ae cc 3c 0b 71 be 3b
       -0.22154874 -0.04506604 0.024985736 0.0058118156
000320 ed 85 07 be 10 0b da 3c c2 79 8f 3d 66 63 3c 3d
       -0.13234682 0.026616603 0.07005645 0.04599323
000330 25 af a6 3d 4c 91 26 bd 0c 9c ca 3d 2b 7f a1 bd
       0.08138875 -0.04066591 0.09893045 -0.078855835
000340 95 3a 63 3d f2 26 75 bc 9f 64 3f bd 14 d8 3c 3c
       0.05547579 -0.014962899 -0.04672682 0.011526126
000350 53 a6 4c bd c5 ac 63 bd 3a 01 48 3d 35 4a 9a bd
       -0.049963307 -0.055584688 0.048829295 -0.07533685
000360 25 a9 8e 3d 30 bf 19 be 92 ec 18 3c 8c 71 60 3c
       0.069658555 -0.15014338 0.0093337465 0.013698947
000370 ad 1b 90 ba 41 b2 5c 3d 23 6d 04 bd 3f 57 40 bd
       -0.0010994576 0.053880934 -0.032330643 -0.046958204
000380 7b 5f 83 b9 74 47 53 bc 5e 6a 19 3b 1b ea a6 bc
       -0.00025057406 -0.012895454 0.0023409347 -0.020375302
000390 21 15 00 3b 26 c7 6c bb 95 cb 9c bb c2 0d 60 bd
       0.0019543844 -0.0036129444 -0.004785011 -0.05470062
0003a0 2e 84 7b 3d e7 58 9f 3c 45 6e b8 3a 54 d8 48 bc
       0.061405353 0.019451572 0.0014070949 -0.012258608
0003b0 ae 79 b7 3d 05 db 09 bd 23 74 6e 3d fb c6 ca bc
       0.089587554 -0.03365614 0.058216225 -0.024753084
0003c0 26 e9 84 bd d4 18 a5 bd 3c 63 8f 3d 70 c9 2a 3d
       -0.06489782 -0.08061376 0.07001349 0.041696012
0003d0 03 21 1f bd de 28 45 3d f7 1a 41 bd 63 a6 e2 3b
       -0.03884984 0.048134677 -0.047144856 0.0069168075
0003e0 fa fa 43 bd c3 53 72 bc cb 46 87 bd 4e bd 31 3d
       -0.04784677 -0.014790478 -0.066052996 0.043393426
0003f0 fb 45 d3 ba ed 0c 08 3d 00 11 ba bd e4 61 69 bd
       -0.0016118878 0.033215452 -0.09085274 -0.05697812

0.model_cnn.layer3.0.bias f4 [64]
000000 40 4c 88 b8 70 dc 95 b8 04 2a c6 b7 31 7b 0a b9
       -6.499188e-05 -7.145933e-05 -2.3623004e-05 -0.00013206598
000010 50 2d 6e b9 9b 1c 5a 37 c0 32 3c b9 d2 41 6f b8
       -0.00022714329 1.3000473e-05 -0.00017947983 -5.704334e-05
000020 6b 33 f8 b7 38 26 35 b6 2b b6 d6 38 0a 25 38 39
       -2.9587847e-05 -2.6993348e-06 0.000102382466 0.00017561406
000030 ac 35 05 b8 52 39 a5 37 da 0d cd b8 6d cd 29 39
       -3.1759657e-05 1.9696225e-05 -9.777742e-05 0.00016193623
000040 b5 8d 9a b4 99 df b5 b7 a1 d0 23 38 30 de 78 38
       -2.878784e-07 -2.1681002e-05 3.905653e-05 5.9334736e-05
000050 fc 48 eb b9 26 d7 cf b8 eb 2a 7b b9 62 34 dc 39
       -0.0004487707 -9.910604e-05 -0.00023953214 0.00042000698
000060 d5 23 c3 b9 e6 41 d7 38 de 67 b1 38 0b f0 ea b6
       -0.00037219995 0.000102642734 8.4593645e-05 -7.001688e-06
000070 df 78 70 39 6a 43 d9 38 f7 f6 5a b9 1c 43 1f 39
       0.00022933212 0.00010359923 -0.00020882102 0.00015188422
000080 3d c5 86 37 a9 5e c1 38 fc 13 b3 b8 63 f8 8f 38
       1.6065891e-05 9.220589e-05 -8.5391075e-05 6.865037e-05
000090 a2 9a 07 39 c2 0c 87 b8 4b 9e 13 39 97 dd da b8
       0.00012932208 -6.439678e-05 0.00014077981 -0.000104363244
0000a0 a1 b7 9a b7 d7 d9 26 b9 87 4d 27 38 91 43 43 b9
       -1.844374e-05 -0.00015912145 3.9888106e-05 -0.0001862182
0000b0 45 70 26 38 08 bd f0 b8 33 42 bf b8 90 4a 52 b8
       3.9682043e-05 -0.000114793016 -9.11992e-05 -5.0137343e-05
0000c0 b3 c1 1b b8 fb e1 57 37 21 0d 2a b8 02 96 54 b7
       -3.7135276e-05 1.2867614e-05 -4.0543386e-05 -1.2671111e-05
0000d0 08 db db 38 9f f0 3a 39 96 c4 b0 b8 f2 45 77 b8
       0.000104835315 0.0001782798 -8.428951e-05 -5.895453e-05
0000e0 eb 3e 13 b8 c9 2e 06 39 d8 d8 1e b9 13 2c b8 b9
       -3.5106128e-05 0.00012796665 -0.00015148835 -0.00035128053
0000f0 d1 7e 7a b7 73 df 95 38 2c b7 a2 b8 a7 ff 0f 39
       -1.4930688e-05 7.146494e-05 -7.7588804e-05 0.0001373278

0.model_cnn.layer3.1.weight f4 [64]
000000 b0 bb 7a 3f 42 2b 7e 3f a7 f9 83 3f c4 c0 78 3f
       0.9794264 0.99284756 1.0310563 0.97169137
000010 a9 5f 82 3f 28 8c 78 3f 9f 53 79 3f af d0 73 3f
       1.0185443 0.9708886 0.9739322 0.952403
000020 31 c6 81 3f 40 88 6c 3f df 9c 83 3f ee fc 80 3f
       1.0138608 0.923954 1.0282248 1.0077188
000030 5e 62 81 3f 6c 46 84 3f 81 65 72 3f a8 fd 7d 3f
       1.0108144 1.0333991 0.9468613 0.99215174
000040 b2 7d 82 3f 1b 6a 82 3f 3a 3d 82 3f f6 30 72 3f
       1.0194609 1.0188631 1.0174935 0.9460596
000050 c5 5a 86 3f 9f 4a 87 3f 29 78 83 3f 81 e8 8d 3f
       1.0496451 1.0569648 1.0271045 1.108658
000060 a2 bf 7f 3f 43 62 7f 3f 29 9f 86 3f b5 44 81 3f
       0.99901783 0.9975931 1.0517322 1.0099093
000070 61 e9 79 3f d4 58 7c 3f 9b eb 81 3f db fa 81 3f
       0.9762173 0.9857304 1.0150026 1.015468
000080 c7 62 82 3f 0a 15 7b 3f 91 5a 82 3f d4 81 81 3f
       1.0186394 0.9807898 1.0183889 1.0117745
000090 fa 6e 83 3f d0 f0 81 3f f5 a9 7e 3f 95 54 88 3f
       1.0268242 1.0151615 0.99478084 1.0650812
0000a0 13 85 83 3f 3b 8b 7d 3f 1b ea 7f 3f 0d c1 79 3f
       1.0274986 0.99040574 0.9996659 0.975602
0000b0 11 1d 7d 3f 2f f1 84 3f 53 4a 79 3f a8 3a 82 3f
       0.98872477 1.0386103 0.97379035 1.017415
0000c0 91 c5 80 3f 5d 55 7f 3f 91 c5 84 3f 22 81 6f 3f
       1.0060292 0.9973963 1.0372792 0.93556416
0000d0 30 b5 7c 3f 1a 36 88 3f 46 ea 83 3f b4 85 84 3f
       0.9871397 1.064151 1.030587 1.0353303
0000e0 7e 2c 83 3f 35 ea 7c 3f 92 46 7c 3f ec e5 84 3f
       1.0247953 0.9879487 0.9854518 1.0382667
0000f0 e1 2b 70 3f bd 12 76 3f 4d 0b 85 3f 34 bc 73 3f
       0.93816954 0.9612234 1.0394074 0.9520905

0.model_cnn.layer3.1.bias f4 [64]
000000 a3 c1 7a bd b5 7f 3e bd 34 50 14 3c e4 b3 cf bd
       -0.061219823 -0.04650851 0.009052325 -0.10141733
000010 74 4f 1d bd f7 86 2e bd 9e 31 a4 bc a7 d6 bc bd
       -0.03840585 -0.04260918 -0.02004319 -0.09220629
000020 a8 6b 80 bc 1c 67 8f bd 92 d4 e7 bd 92 af 6b bb
       -0.015676335 -0.070020884 -0.113198414 -0.0035962802
000030 da b1 97 bc 78 0d 8d 3b 7a a4 3f bd 10 16 ea bd
       -0.018517423 0.004304584 -0.046787716 -0.11429989
000040 2b 60 85 bc 62 9d 18 bd b9 64 7c bd 0a 11 f3 bc
       -0.016281208 -0.037259467 -0.061619494 -0.02967121
000050 1b 2f 10 bd c1 2f e7 bc f5 9c 21 bb ae 2c b2 bd
       -0.035201173 -0.028221013 -0.0024660204 -0.08699928
000060 b9 d5 89 bd 36 43 27 bd b7 7a 65 bd 21 51 84 bc
       -0.067302175 -0.04083558 -0.056025233 -0.016151967
000070 6f 28 00 be d5 fd f7 bc 42 28 88 bd 0d a1 a1 bc
       -0.12515424 -0.030272404 -0.066483036 -0.019730115
000080 6e 8f 27 bd 0f 47 5c bd 0c 96 43 bd 25 5f 75 bd
       -0.04090827 -0.053778704 -0.047750518 -0.05990519
000090 f2 b0 09 bd 94 19 4d bd 3b 87 02 bd 10 2f 3c bd
       -0.033616014 -0.05007322 -0.031867247 -0.04594332
0000a0 78 48 85 3a ef 13 7f bd 14 16 10 bd 6f 2b 0b bd
       0.0010168692 -0.06227487 -0.035177305 -0.03397697
0000b0 0f dc 25 bd 38 83 73 3d 10 ed a6 bd 8a e0 8f bc
       -0.040493067 0.05945131 -0.08150685 -0.017563123
0000c0 d8 2c 0f bc 65 fe 00 bd 1b 3f 1f bc 59 2f 00 bd
       -0.008738719 -0.03149261 -0.009719635 -0.031295154
0000d0 4c 8d 04 bc de 2c 77 bd f7 d0 89 bc a1 85 08 bd
       -0.008090328 -0.060345523 -0.016823275 -0.033330563
0000e0 91 12 75 bd 2b 79 94 bb c4 dd 3b bd 43 4f f5 3c
       -0.05983216 -0.004531046 -0.04586579 0.029945021
0000f0 4e 95 9f bd ef e1 3d 3c 55 07 ba bc 4e 50 97 bd
       -0.077921495 0.011589511 -0.022708574 -0.07388364

0.model_cnn.layer3.1.running_mean f4 [64]
000000 6b af 4e 3d c7 4a 12 bb 34 16 bf be 92 e5 4c 3e
       0.05046026 -0.0022322403 -0.37321627 0.20009449
000010 31 21 66 3e 23 b7 e3 be a8 ec 47 3c 2f 74 4e bb
       0.22473599 -0.4447566 0.012202419 -0.0031502356
000020 05 b3 be 3b 80 a7 09 bf ce 9b 1e 3e 1a e3 20 bf
       0.0058196806 -0.5377121 0.15489122 -0.6284653
000030 27 b4 60 bc 65 06 07 bf 14 7c 5d be ac fc a6 bd
       -0.013714827 -0.5274413 -0.21629363 -0.08153662
000040 00 f9 bd 3e 1f 57 95 bd 84 2c 87 3d 97 68 94 3e
       0.37104034 -0.07292008 0.066002876 0.28986046
000050 3e 50 d7 3d 06 92 89 be 51 da 6a 3e 37 89 d8 be
       0.10513352 -0.2686922 0.22934844 -0.42292187
000060 94 45 48 bd b6 f3 98 bc d2 d7 3c be 89 d5 7e 3d
       -0.04889448 -0.018670898 -0.18441704 0.06221536
000070 bc 56 84 3e 59 35 72 3e 48 7f 16 3e 8e 6c 53 3e
       0.25847423 0.23653163 0.14696991 0.20646879
000080 89 0e 86 bc 7f 2d 02 bd 92 f9 40 3e 6d f2 38 3c
       -0.016364353 -0.03178167 0.18845204 0.011288268
000090 71 fd 3d 39 9b 6f 3f 3e 27 2e 77 3d 8f 4b 92 be
       0.00018118859 0.18694918 0.06034675 -0.28573272
0000a0 4b 08 b0 bd 13 34 38 be fe 53 13 3e 20 db 79 bd
       -0.08595332 -0.17988615 0.14387509 -0.06099999
0000b0 c5 fb bf be 90 c6 2c be 55 ba 1f 3e 42 58 e0 be
       -0.37496772 -0.1687262 0.15598424 -0.43817335
0000c0 c9 e4 a2 be bc 89 15 be d1 f4 db be b9 4a 46 3e
       -0.31815174 -0.14603323 -0.42960218 0.19364442
0000d0 31 b0 e7 be 31 70 07 bd 93 c0 23 bf 14 65 ae be
       -0.4525161 -0.03306598 -0.6396572 -0.3406149
0000e0 9d 10 2c bd b8 82 5b 3d ac 4f a7 3d cb 14 12 bf
       -0.04200803 0.05359146 0.08169493 -0.5706298
0000f0 a6 a6 ab bd 4e 1d a1 3e ab c1 e8 bd 86 2b d2 bd
       -0.08381395 0.3146767 -0.11365064 -0.10262208

0.model_cnn.layer3.1.running_var f4 [64]
000000 b4 e4 12 3e df d8 09 3e e4 e6 b7 3d 8b 20 43 3e
       0.14345056 0.13461636 0.08979586 0.19055383
000010 03 73 82 3e f5 f7 b8 3e 9a e1 f5 3d 3e dd f4 3d
       0.25478372 0.36126676 0.12005921 0.11956261
000020 cf d9 b2 3e f9 15 af 3e 85 b5 d2 3d 12 93 1e 3f
       0.349318 0.3419645 0.10288528 0.6194316
000030 fd c0 1a 3e 3c 63 d8 3e 29 8a 51 3e 35 8c e9 3d
       0.15112682 0.4226321 0.2046286 0.114036955
000040 ba e5 c0 3d a9 ad 6b 3e fc 7f fc 3d c9 3f 80 3e
       0.09418817 0.23015465 0.123290986 0.25048664
000050 fb 96 a9 3d 45 a2 75 3d d7 04 2f 3e 59 ec c4 3d
       0.0828075 0.059969205 0.1709169 0.09615392
000060 84 5f a9 3d 2a cc bc 3d 07 40 bf 3d 63 2d ff 3d
       0.08270171 0.09218629 0.09338384 0.12459829
000070 ca 19 1e 3e 4a a0 ad 3d d2 0c e7 3d 57 17 b3 3d
       0.15439525 0.08477838 0.11281742 0.08744686
000080 c6 1e e0 3d 1e a3 c1 3d c8 46 5d 3e 7e cb c2 3d
       0.109433696 0.0945494 0.21609032 0.09511469
000090 6b 50 44 3e 4f 6c 33 3e 5f 50 02 3e 41 e8 8a 3e
       0.19171302 0.17521785 0.12725972 0.2713032
0000a0 cf 18 ea 3e 67 69 b6 3d 60 89 37 3e c0 ca 6a 3e
       0.45722052 0.08906823 0.17923498 0.22928905
0000b0 89 0d f4 3d 9a 44 35 3e c0 94 16 3e 11 5e 41 3f
       0.11916644 0.1770195 0.14705181 0.7553416
0000c0 67 c7 20 3f 84 ef 32 3e 6a f8 22 3e 6d b4 63 3f
       0.62804264 0.1747418 0.15915075 0.8894718
0000d0 c8 ff 21 3e 9d cb 10 3e 80 bc 96 3e be 04 52 3e
       0.15820229 0.14140172 0.2944069 0.20509622
0000e0 ef e8 d8 3d 19 06 41 3e 45 d3 a1 3d 2c b1 39 3e
       0.105913036 0.18849982 0.079016246 0.18133992
0000f0 bb 69 18 3e 9c e8 95 3d c4 d6 d6 3d 80 2d 46 3e
       0.14884083 0.07319757 0.10490182 0.19353294

0.model_cnn.layer4.0.weight f4 [128, 64, 3]
000000 20 6d f6 bb 20 0b 17 3c 43 c8 b8 bc c8 ac e2 bd
       -0.007520333 0.009218961 -0.02255643 -0.11068112
000010 f0 a0 46 3d f0 44 cb ba d0 b7 bb bd 5d 76 a7 bd
       0.048493326 -0.0015508216 -0.09165919 -0.08176873
000020 86 85 67 bd 7f 93 05 bd 46 7a b3 3c 0f 2b 34 bd
       -0.056523822 -0.032611366 0.02190889 -0.043986376
000030 14 b1 97 3d 16 ec 29 bd ac aa 35 bd 10 a0 67 bc
       0.07406822 -0.041484915 -0.04435222 -0.014137283
000040 77 4b a7 3d 27 ef 43 3b 01 61 78 3d e4 b1 31 3b
       0.08168691 0.0029897185 0.060639385 0.0027114088
000050 e6 30 68 3d 53 77 7a 39 a7 82 19 3d f6 71 e8 bb
       0.05668726 0.0002388631 0.037478115 -0.0070936633
000060 df 3d a3 3d 78 8c 86 3d 35 80 1f bc f3 b9 fc bc
       0.07970785 0.06569761 -0.009735157 -0.030850386
000070 0b 6c ee bd 6e af 6e 3d 95 d7 8a bd c4 18 60 3d
       -0.11641701 0.05827277 -0.067794 0.05471112
000080 86 f5 1f bd 89 62 a6 3d b4 8b ce 3c a2 3d 07 bc
       -0.03905251 0.08124263 0.0252131 -0.0082544405
000090 4f ed f1 bd b0 b6 55 3d a0 1e 51 bc 23 bc b2 bd
       -0.11812841 0.052176178 -0.012763649 -0.087272905
0000a0 37 0b 19 bc 0e 93 75 3d d8 19 b5 3c 08 dc 93 3d
       -0.009341053 0.059954695 0.02210705 0.07219702
0000b0 6c 7c c5 bc 4e d4 31 bd 22 ce 54 3c 55 0d 8a 3c
       -0.02410718 -0.04341536 0.012988599 0.01685206
0000c0 a1 72 71 bd e3 e5 38 3d 80 5b 66 3d 56 ad 02 3d
       -0.05894721 0.045141112 0.056239605 0.031903587
0000d0 e4 ba 98 3d 9a 34 f3 3c 71 8d 01 3e d0 f5 ed bc
       0.074575216 0.029688168 0.12651612 -0.029047877
0000e0 09 3d b3 3c 9e 2a 0a 3d eb d7 a4 3c 9b ae d2 bb
       0.02187969 0.03373205 0.020122489 -0.006429506
0000f0 1f 74 a0 3d 7d 1e f9 3d b1 29 40 bc ee ee a7 bb
       0.07834648 0.12164018 -0.01172869 -0.005124918
000100 32 a4 b1 bb 7a ce 94 3d 4f d4 1e 3c 8b 24 c9 3b
       -0.005421185 0.07265945 0.009694173 0.0061383895
000110 30 89 82 3d 4d 31 71 3d 06 ca 76 bd 00 a0 9e bd
       0.06373823 0.058884908 -0.06025126 -0.07745361
000120 8f 19 42 bc b4 f0 ad 3b fc dc 53 3c 68 a6 41 3d
       -0.011846914 0.005308235 0.012931105 0.047277838
000130 f5 7b c6 bc f5 d5 c7 3d ac 7c 93 3b 42 76 2d 3d
       -0.02422903 0.09757606 0.004500946 0.042349108
000140 46 3c 62 bd 84 6b 76 3c 43 4f 29 bd c8 50 8c bd
       -0.055233262 0.015040282 -0.041335355 -0.06851345
000150 d7 91 cd 3b a6 9f a9 bc 43 cd 74 bd 1e fd 76 3d
       0.006273489 -0.02070601 -0.059766065 0.060299985
000160 b9 5b 4b 3d f4 22 88 3d 13 5f 9c 3d 70 b4 b0 bc
       0.04964802 0.06647292 0.076353215 -0.021570414
000170 0d f6 c2 3d b4 4b ce bc 8e 77 91 3c f6 9c 28 bd
       0.09519587 -0.025182582 0.017757203 -0.041165315
000180 71 c8 1d bd c3 ba 41 3d 62 22 8b 3c 60 74 57 bd
       -0.038521234 0.04729725 0.016984168 -0.05260122
000190 10 fd 9e 3d 40 7f 0c bd 86 1c 0b bd 58 da 80 bc
       0.077631116 -0.034301043 -0.03396275 -0.015729114
0001a0 7c 69 8a bd 46 61 7b 3d d5 88 82 bb 59 43 82 3d
       -0.06758401 0.061372064 -0.003983597 0.06360502
0001b0 d4 17 07 be 41 9a 8f 3c 96 2e 75 3c 7c f6 db ba
       -0.13192683 0.017529609 0.01496472 -0.0016781832
0001c0 1d 1f 23 bc 1c 0a 22 3b 20 50 70 bd a7 02 87 bd
       -0.009956148 0.0024725264 -0.058670163 -0.06592303
0001d0 11 38 77 3c e9 2c c9 bc 29 e9 ac ba a3 19 88 bd
       0.015089051 -0.024557548 -0.0013192046 -0.06645515
0001e0 e0 d5 6b 3d 03 05 5c 3d 2c dc 2f bd 2e c9 1d bd
       0.057577014 0.053715717 -0.04293458 -0.038521938
0001f0 ac fe 91 bc 36 02 13 bd 7e 7d 6c 3d 57 cd 1b 3c
       -0.017821632 -0.03589078 0.057736866 0.009509406
000200 59 9c 29 3d 68 05 42 3d 7b 87 19 3c c2 fe da 3c
       0.04140887 0.047368437 0.00937068 0.026732806
000210 2e 15 0f 3d d4 2c 3b 3d cd e7 ef bb 80 b6 bd 3c
       0.034932308 0.04569705 -0.007321334 0.023158312
000220 2a 4d eb bc f0 2e 3d bd 56 02 38 3d f6 98 fd bc
       -0.028723318 -0.04618734 0.044924103 -0.030956727
000230 0f 5c 24 3d e6 1e 7b bc db 51 c6 3a 28 93 96 3d
       0.040126856 -0.015327191 0.0015130596 0.073522866
000240 20 ec 5c bc d8 b7 a9 3d e0 52 3a 3c b3 db be bd
       -0.013484031 0.082870185 0.011372298 -0.09319248
000250 49 aa af 3c 9a 78 07 3c e6 58 0b bd 6a af 3d bd
       0.021443503 0.0082685 -0.034020327 -0.046309866
000260 24 5a 3c 3b c8 3d ec bc cb fc 83 3d ce 88 8d bd
       0.0028740251 -0.028838053 0.06444701 -0.06910859
000270 23 87 4b bd b4 8a 4e 3d 19 e7 09 3d be 64 84 3c
       -0.049689423 0.050425246 0.033667658 0.016161319
000280 73 82 83 bd 3a 4f 13 3d 9a de 8e 3d 01 aa 4a 3d
       -0.064213656 0.03596423 0.06976052 0.049478535
000290 ca 43 d2 3d 05 b8 2f 3d 85 10 9c 3d e6 4c 35 3d
       0.10266836 0.042900104 0.07620338 0.04426279
0002a0 dd 9a b2 3d ba b1 91 3d c3 60 14 bd 6a 72 ed bd
       0.08720944 0.07113977 -0.03622509 -0.115940884
0002b0 3f 80 45 bd d5 b7 f0 bc bf 84 3f bd 2f ec 4f 3d
       -0.048218008 -0.029384533 -0.046757456 0.05076235
0002c0 96 73 c7 3d f1 ff 39 bd 23 36 8b 3c 43 3e 88 3c
       0.09738843 -0.0454101 0.016993588 0.016631251
0002d0 b2 35 b6 bb fe 7c 00 3b 7d 9f 75 bc 68 54 f7 3b
       -0.0055606 0.001960575 -0.014991638 0.007547904
0002e0 e0 74 84 3d ae 57 c1 ba d6 b7 76 3d e7 5b cc 3d
       0.06467605 -0.0014750862 0.060233913 0.099784665
0002f0 9d e8 c0 3d a0 85 86 3d fb 30 62 3c cb 3c 80 3c
       0.094193675 0.06568456 0.013805623 0.015653988
000300 f2 be 99 bd 98 a3 be 38 c0 c0 cc bc 1a 3c 3c 3c
       -0.07507123 9.090378e-05 -0.024994254 0.011488939
000310 65 6a b6 3c 28 50 17 bd 9e 4a 37 bc a3 80 86 3d
       0.02226753 -0.036941677 -0.011187224 0.06567504
000320 60 ab ce bc ff b1 0f bd 2e bb b1 bd d4 58 a5 bd
       -0.025228202 -0.03508186 -0.0867828 -0.08073583
000330 e4 25 aa bd f0 0f bc bd 46 22 78 bd fc ce 96 3c
       -0.08308008 -0.09182727 -0.06057956 0.018409245
000340 ad 95 a2 bd 77 c7 38 bd 5d c6 22 bc d0 23 03 3d
       -0.07938705 -0.0451121 -0.009934989 0.032016575
000350 1f f7 8c 3c 95 46 a6 bd 3b 01 82 3d 2a b5 69 bd
       0.01720768 -0.08118931 0.06347891 -0.057057537
000360 9e d3 85 3d 36 a2 83 bb f3 b8 98 3d 3c 1c 1e 3c
       0.065345034 -0.00401714 0.07457151 0.009650286
000370 a2 c8 bb 3c 07 5d 7d bd 4b 45 5e 3d 0a 76 90 3d
       0.022922818 -0.061856296 0.0542653 0.07053764
000380 c6 29 75 bd a4 69 16 3d f1 c5 21 bd ed db 06 bd
       -0.05985429 0.03672184 -0.039495412 -0.03292458
000390 07 5a 61 bd e8 7f 23 bd f3 ac f7 bc ef 7a 0f 3d
       -0.055017497 -0.039916903 -0.030233836 0.035029348
0003a0 32 a2 e3 bc f7 df 90 3d c4 29 88 3a ed 2a 71 3c
       -0.027787302 0.07073968 0.0010388424 0.014719707
0003b0 a5 dc cc bd 94 66 97 3d 6c dc 09 3d cb 05 d8 3c
       -0.10003022 0.07392612 0.033657476 0.02636995
0003c0 39 76 b2 3d 88 0d 2a bd 1a b4 8d bc 45 6c df bd
       0.087139554 -0.04151681 -0.017297793 -0.10909323
0003d0 23 6e be bc 46 6c 00 be 20 be 97 3c 1d 99 83 bb
       -0.023245877 -0.12541303 0.018523276 -0.0040160553
0003e0 fe 19 8e bd 6f 35 bb bb 24 fc 50 3c 48 5e 22 bc
       -0.06938551 -0.005713157 0.0127554275 -0.009910174
0003f0 6a 21 61 3d 4b d8 77 bd 0a 6a f5 3c 36 a8 92 bd
       0.054963507 -0.060509007 0.02995779 -0.0716099

0.model_cnn.layer4.0.bias f4 [128]
000000 5c bf 14 b8 87 56 d2 37 ee 38 ee b7 c2 74 85 b7
       -3.5464167e-05 2.5074243e-05 -2.839832e-05 -1.5909205e-05
000010 4b bd 94 38 65 ee a5 38 e8 6d 8a 38 b6 2d 43 b7
       7.0924485e-05 7.9122176e-05 6.6008244e-05 -1.1633549e-05
000020 42 04 87 b7 59 44 67 38 1a e4 19 38 26 2e de 37
       -1.6095237e-05 5.5138345e-05 3.669048e-05 2.6485952e-05
000030 9a ab f4 38 06 95 96 b7 7a e4 73 37 3a 32 1a 38
       0.0001166679 -1.7950788e-05 1.4537125e-05 3.676324e-05
000040 15 aa 52 b8 a3 4a 3a b9 9f b1 bf 36 64 8b eb b8
       -5.0226303e-05 -0.00017766147 5.7129214e-06 -0.00011231637
000050 8a 75 b0 37 0e 2b 13 b9 86 6d bf b7 dc 91 19 b8
       2.1035568e-05 -0.00014035052 -2.2819975e-05 -3.6613885e-05
000060 66 34 ed 37 96 9e 73 37 7e 34 0d 38 80 c8 23 b7
       2.8277002e-05 1.4520852e-05 3.3665907e-05 -9.76224e-06
000070 79 cd 62 b8 a8 a0 44 b8 f2 5e b8 37 4d c1 32 b8
       -5.407396e-05 -4.6879664e-05 2.1978722e-05 -4.2618532e-05
000080 df 51 7e 34 ae 11 b8 36 ab 5f 2b 38 53 9b 7c b7
       2.3685378e-07 5.4856855e-06 4.0858675e-05 -1.5056535e-05
000090 1d 30 c6 37 5a 7d 71 37 9b 1e b6 38 81 19 e7 34
       2.3625844e-05 1.4393905e-05 8.684137e-05 4.304566e-07
0000a0 cc f3 2c b8 1e c0 09 38 ba 23 05 38 6f 27 28 38
       -4.123505e-05 3.284227e-05 3.1742944e-05 4.0091047e-05
0000b0 07 eb 1b 38 e0 7b 95 b6 ef 10 a0 b7 e4 5e 1e b7
       3.7173766e-05 -4.454967e-06 -1.9081372e-05 -9.439627e-06
0000c0 94 5e 21 38 2a 04 a6 b7 5c 22 d3 b6 76 a7 b8 37
       3.8473474e-05 -1.9790681e-05 -6.29229e-06 2.201249e-05
0000d0 4f 67 96 b7 78 e5 39 b7 c3 0a 5e 34 f3 de 57 37
       -1.79295e-05 -1.1080287e-05 2.0679276e-07 1.2866908e-05
0000e0 6f b0 8d 37 e5 00 39 38 64 00 bd b7 aa b8 03 37
       1.6890668e-05 4.410827e-05 -2.2530738e-05 7.851204e-06
0000f0 85 b1 4b b3 73 df 02 38 93 c9 09 38 aa 8c 9f 36
       -4.7426074e-08 3.120252e-05 3.2851076e-05 4.7549447e-06
000100 e1 6f 1e 38 f9 66 d6 36 45 eb 91 38 8c ab da 37
       3.777433e-05 6.3896846e-06 6.957961e-05 2.6067508e-05
000110 62 f5 1e b9 b4 39 97 b6 83 36 31 b7 23 e1 ad b7
       -0.00015159466 -4.506868e-06 -1.0562714e-05 -2.0728045e-05
000120 94 b0 c4 33 23 b3 33 b8 a0 a2 5e 38 4e 08 72 36
       9.1590806e-08 -4.284376e-05 5.308038e-05 3.6065644e-06
000130 d6 9f 72 b8 9f 4a 68 37 05 b3 17 38 21 80 d6 b7
       -5.7846155e-05 1.3845652e-05 3.616793e-05 -2.5570453e-05
000140 06 de 23 b8 b3 26 99 38 83 4f 96 b7 bd b4 4f b7
       -3.9069004e-05 7.302817e-05 -1.7918419e-05 -1.2380243e-05
000150 f8 90 90 b8 49 02 2d b8 9b fb 38 b7 5a ab 0b 37
       -6.8934576e-05 -4.1248542e-05 -1.1025836e-05 8.3249415e-06
000160 be d3 43 b8 c5 b3 58 b7 3c 3a e0 b7 0d 4a 80 37
       -4.6688823e-05 -1.2916459e-05 -2.6729998e-05 1.5293272e-05
000170 7b 4e 4e 39 25 ac 88 38 11 e4 2c b7 a1 db 10 38
       0.00019674927 6.51705e-05 -1.03051e-05 3.453682e-05
000180 bc 91 a7 b6 0d a1 08 b9 7f 1f a2 36 5b 0a af b8
       -4.9939536e-06 -0.00013029967 4.831643e-06 -8.346579e-05
000190 59 b8 01 37 64 03 72 b7 7f 5b 4b b6 6d 54 0f b7
       7.731921e-06 -1.44251135e-05 -3.0302615e-06 -8.543121e-06
0001a0 f0 5c 06 b8 2f a6 af 37 c8 00 15 37 f5 6e 0f b8
       -3.2034644e-05 2.0939011e-05 8.881274e-06 -3.4197194e-05
0001b0 fd ff 87 37 f0 63 46 38 9d 0b 0c 38 6d 48 1b b8
       1.6212458e-05 4.7299953e-05 3.3389417e-05 -3.702233e-05
0001c0 67 a8 1e b6 73 32 03 38 c8 46 a8 b6 cd 67 d1 38
       -2.3641858e-06 3.127982e-05 -5.01503e-06 9.985231e-05
0001d0 fe 96 73 37 18 22 ba b8 3f ec b6 37 ec 4c ff b7
       1.4519084e-05 -8.8755216e-05 2.1806101e-05 -3.0434188e-05
0001e0 d2 2a 02 b8 a0 1d 9e b8 b3 44 82 38 7f 29 c4 36
       -3.1034295e-05 -7.539545e-05 6.211679e-05 5.846086e-06
0001f0 de d0 be b8 d0 62 38 37 d9 da 80 b9 43 1d 84 36
       -9.0988106e-05 1.0990261e-05 -0.00024577117 3.937313e-06
