checkpoint/cnn_features_1d_0930-122637/62-0.4071-best_model.pth (torch, 940543 bytes, 30 tensors)

0.model_cnn.layer1.0.weight f4 [16, 1, 15]
0	0xbe19115a	-0.14948025
1	0x3ddf2c90	0.108971715
2	0xbe22817c	-0.15869707
3	0x3e37f498	0.17964399
4	0x3ce41ba0	0.027845204
5	0xbe1bef2e	-0.15227959
6	0x3e86ac14	0.2630316
7	0xbe61dc2e	-0.22056648
8	0xbd894fb1	-0.06704653
9	0x3e862402	0.26199347
10	0x3e51f7d6	0.20504698
11	0xbe47cd8a	-0.19512
12	0x3e177108	0.14789212
13	0xbe149801	-0.1451111
14	0xbe69fb1f	-0.22849701
15	0x3cdd330c	0.02700188
16	0x3d52c195	0.051454145
17	0x3e2def21	0.16985752
18	0x3e29d0b9	0.16583528
19	0xbc826cf2	-0.01592109
20	0x3da203fe	0.07910918
21	0x3e33f322	0.17573217
22	0xbd80f3c8	-0.062964976
23	0xbda1a999	-0.07893676
24	0x3e3b2196	0.18274531
25	0x3e1807e4	0.1484676
26	0x3d2258a4	0.039635316
27	0x3c381a65	0.011236762
28	0xbe391b31	-0.18076779
29	0xbe560c94	-0.20903236
30	0x3e4f68fd	0.20254894
31	0x3e57a663	0.21059565
32	0x3e835592	0.25651222
33	0xbe760fdb	-0.24029486
34	0x3e6f6821	0.23379566
35	0xbd73e7dc	-0.05954729
36	0x3e1ecd67	0.15508042
37	0xbe08a8b4	-0.13345605
38	0xbb05aa36	-0.0020395643
39	0x3db27e8b	0.087155424
40	0xbda99357	-0.08280056
41	0xbe1a55a9	-0.1507174
42	0x3dfb2f18	0.12264842
43	0x3e855141	0.26038554
44	0xbdc3c64c	-0.095593065
45	0xbe1af2c1	-0.15131666
46	0xbe378bc6	-0.17924413
47	0xbe6ce0ab	-0.23132579
48	0x3e5f5a74	0.21811849
49	0x3e73e6a1	0.23818447
50	0x3e3a7103	0.18207173
51	0xbe4628e9	-0.19351543
52	0xbe52cf57	-0.20586906
53	0xbe152722	-0.14565709
54	0x3e23e772	0.16006258
55	0x3e024291	0.12720706
56	0x3e40b1d9	0.18817843
57	0xbe5fd53a	-0.21858683
58	0x3e8def66	0.2772171
59	0xbe7f2b7b	-0.2491893
60	0x3d21d9c3	0.039514314
61	0xbc4f6829	-0.012659111
62	0x3dc6e73c	0.09712073
63	0xbe17f0ab	-0.14837901
64	0x3e154b79	0.14579572
65	0xbc79b918	-0.015241884
66	0x3e145ebf	0.14489268
67	0x3de55af3	0.11198988
68	0x3da4200c	0.08013925
69	0xbcb7a5f9	-0.02241801
70	0x3ccddd6e	0.02513
71	0xbe69576e	-0.22787258
72	0xbe23c189	-0.15991797
73	0x3dbada85	0.091237105
74	0xbe2039a2	-0.15646985
75	0xbe2a8bc6	-0.16654882
76	0xbd03c25d	-0.03216778
77	0x3ba1b943	0.004935415
78	0xbc886f96	-0.01665477
79	0x3e707dcc	0.23485488
80	0x3e09a9fb	0.13443749
81	0xbe6a2979	-0.22867383
82	0x3dd2d647	0.102947764
83	0x3e840f77	0.2579305
84	0x3e096202	0.13416293
85	0xbe503a76	-0.20334801
86	0x3d61399c	0.05498658
87	0x3deec07e	0.11657809
88	0x3c90e7c3	0.017688638
89	0xbdaa801b	-0.083252154
90	0x3e2bcf4a	0.16778293
91	0x3e02a5e9	0.12758602
92	0x3e3e0d4d	0.18559761
93	0xbe92967b	-0.28630432
94	0x3cde060a	0.027102489
95	0xbd2ff79e	-0.042960756
96	0x3e12d621	0.14339496
97	0xbc1fd361	-0.0097549865
98	0xbd9bf626	-0.076153085
99	0x3de9408b	0.11389264
100	0x3cfb24fd	0.030657286
101	0x3df5e8b1	0.12007273
102	0x3e33e812	0.17568997
103	0x3be52902	0.006993414
104	0x3d7cb5da	0.061696865
105	0xbdb45b1a	-0.08806439
106	0x3e3a4f49	0.18194307
107	0xbe187172	-0.14887026
108	0x3e33584b	0.1751415
109	0x3e2d777c	0.16940111
110	0x3de12192	0.10992731
111	0x3cad0025	0.021118233
112	0xbd0d0961	-0.034432773
113	0xbe4a9323	-0.1978269
114	0xbe4e9dcc	-0.20177382
115	0x3e880912	0.2656942
116	0xbc0afe4a	-0.008483479
117	0xbe71163d	-0.2354364
118	0xbd1ad628	-0.03780189
119	0x3b312d79	0.002703516
120	0xbe0c2d3b	-0.13689129
121	0x3e3bd4ba	0.18342867
122	0xba6b9cb9	-0.0008987892
123	0x3e05da07	0.13071452
124	0xbe620ec0	-0.22075939
125	0xbd26e0f9	-0.040741894
126	0x3d1e0cdc	0.038586482
127	0x3e4c0fcb	0.199279
128	0x3d13da22	0.0360967
129	0xbd8129f6	-0.063068315
130	0x3d609ba2	0.054835923
131	0x3e7af754	0.2450841
132	0x3d75a78a	0.05997423
133	0xbe2eddc4	-0.17076784
134	0x3e026ee8	0.1273762
135	0xbe675bc8	-0.22593606
136	0x3d614854	0.055000618
137	0x3de6ec19	0.11275501
138	0x3d67fa62	0.056635268
139	0x3dadb360	0.08481479
140	0xbda86b45	-0.08223585
141	0x3dcd0177	0.10010045
142	0xbe01b3ae	-0.12666199
143	0xbea9d102	-0.33167273
144	0x3dc5d02d	0.09658847
145	0xbd5dc3f8	-0.05414197
146	0x3d8faada	0.07015009
147	0x3da8c413	0.08240523
148	0x3cde0b66	0.027105045
149	0x3e5ca6cb	0.21548001
150	0xbd542492	-0.05179269
151	0xbdb3a4ca	-0.087716654
152	0xbe724b78	-0.23661602
153	0xbe74d543	-0.23909478
154	0xbdfe5f89	-0.12420566
155	0xbe931f9f	-0.28735062
156	0x3cc63006	0.024192821
157	0xbea4e3ca	-0.3220504
158	0xbe6a98a0	-0.22909784
159	0xbe6281bf	-0.22119807
160	0xbd82c89c	-0.063859195
161	0xbe82f5de	-0.25578207
162	0xbd451711	-0.0481177
163	0x3d8bec4a	0.06832178
164	0x3cdf0022	0.027221743
165	0xbe16179d	-0.14657445
166	0xbe5146b0	-0.20437121
167	0xbdd3f1de	-0.10348867
168	0x3de76953	0.11299386
169	0x3d802fb1	0.062590964
170	0xbd840aa4	-0.06447342
171	0xbe410c32	-0.18852308
172	0xbd92d8e7	-0.07170277
173	0x3e857018	0.26062083
174	0x3de83112	0.113374844
175	0xbe84666e	-0.25859398
176	0x3e364f64	0.17803723
177	0xbe59f186	-0.2128354
178	0xbd5bbb6b	-0.053645533
179	0x3dcfa0bc	0.101380795
180	0xbe2bf72a	-0.16793504
181	0xbe079a89	-0.13242544
182	0x3d309802	0.043113716
183	0x3e651996	0.22373042
184	0x3e881690	0.26579714
185	0x3e04c874	0.12967092
186	0xb88009e5	-6.1053586e-05
187	0x3e0ee75f	0.13955449
188	0xbad2bbe0	-0.001607772
189	0x3e40e265	0.18836363
190	0xbe1f1d6a	-0.15538564
191	0xbe3b65ee	-0.18300602
192	0xbd8261df	-0.06366324
193	0x3e17068f	0.14748596
194	0x3e9056f1	0.2819133
195	0x3e5f8f2d	0.21831961
196	0xbe659140	-0.2241869
197	0xbe6ce73a	-0.23135081
198	0x3e4a39e9	0.19748653
199	0xbd6dde1c	-0.058073148
200	0x3e1c0439	0.15235986
201	0x3d113b2e	0.03545683
202	0xbde2f171	-0.110812075
203	0x3dfe69ef	0.12422549
204	0xbd43efc8	-0.047836095
205	0x3e040493	0.1289237
206	0xbe808583	-0.2510186
207	0xbd8f262e	-0.06989704
208	0xbe4a8011	-0.19775416
209	0x3e85a64a	0.2610343
210	0x3d05a88f	0.032631453
211	0xbe5210c4	-0.20514208
212	0xbca09724	-0.01960332
213	0x3e6de2ba	0.2323102
214	0xbe593061	-0.21209861
215	0x3e143288	0.14472401
216	0x3d83d06e	0.06436239
217	0xbe33259f	-0.1749482
218	0xbd401d68	-0.046903044
219	0xbe201577	-0.15633188
220	0x3e066103	0.13122945
221	0xbc86361f	-0.016383229
222	0xbe71036b	-0.2353646
223	0x3e041c87	0.12901507
224	0xbe41b4a1	-0.1891656
225	0x3e4649e4	0.19364125
226	0xbd222151	-0.039582554
227	0xbe40e107	-0.18835841
228	0x3d2c28d5	0.042031128
229	0xbda2742d	-0.07932315
230	0x3e6d2a40	0.23160648
231	0xbe272c42	-0.16325477
232	0xbcbf1aa6	-0.023328137
233	0xbe6c8c78	-0.2310046
234	0xbcc28202	-0.023743633
235	0xbe54a7de	-0.20767161
236	0xbdb97f4e	-0.090574846
237	0xbe69bae3	-0.22825198
238	0xbe97afa4	-0.2962619
239	0x3df1d642	0.118084446

0.model_cnn.layer1.0.bias f4 [16]
0	0xbae2fe67	-0.001731825
1	0x3bd4dd29	0.006496091
2	0x3a58d70b	0.000827179
3	0x3b7d23b9	0.0038626029
4	0xbba5c097	-0.005058359
5	0xba279d8c	-0.0006394021
6	0xba811b35	-0.0009850027
7	0xba1a0888	-0.0005875905
8	0xbbc6a04e	-0.0060615903
9	0xbaf402bb	-0.0018616536
10	0x3b3b7cc7	0.0028608309
11	0xbbbc39e1	-0.0057442044
12	0xbb00b181	-0.001963705
13	0x39d29eb8	0.00040172576
14	0x3a902565	0.0010997473
15	0x3a7294d4	0.00092537445

0.model_cnn.layer1.1.weight f4 [16]
0	0x3f8c23aa	1.0948384
1	0x3f807db2	1.0038359
2	0x3f7be19c	0.9839113
3	0x3f86f367	1.054303
4	0x3f806ef4	1.003386
5	0x3f79ba42	0.9754983
6	0x3f766949	0.962544
7	0x3f806665	1.0031248
8	0x3f83435c	1.0254931
9	0x3f81c540	1.0138321
10	0x3f8076ab	1.0036215
11	0x3f848d7e	1.035568
12	0x3f81f955	1.0154215
13	0x3f729de7	0.9477219
14	0x3f7e8685	0.9942401
15	0x3f7981af	0.97463506

0.model_cnn.layer1.1.bias f4 [16]
0	0x3c7bd632	0.015370892
1	0x3b13a930	0.0022531264
2	0xbcde76a7	-0.027156187
3	0xbcec6f33	-0.028861618
4	0xbcd94f9b	-0.026527217
5	0xbc27eb1c	-0.010248926
6	0xbd45b685	-0.048269767
7	0x3c85a18d	0.016312385
8	0xbd129c76	-0.035793744
9	0xbd2db0a7	-0.042404797
10	0x3bf050b1	0.007333838
11	0xbd370f05	-0.044692058
12	0xbd91b29b	-0.071141444
13	0x3b715fd4	0.00368308
14	0x3cce2cc5	0.025167832
15	0x3cdb6446	0.026781213

0.model_cnn.layer1.1.running_mean f4 [16]
0	0xba4a1f90	-0.00077103917
1	0xbc4c4eb4	-0.012469936
2	0xbccd1a0b	-0.025036832
3	0x3ba53ce3	0.0050426587
4	0xbb1bcbef	-0.0023772677
5	0xbcc6994f	-0.024243025
6	0xbcfea81f	-0.031086026
7	0xba181cd9	-0.00058026385
8	0xbd07898a	-0.03309015
9	0xbca20dbc	-0.01978194
10	0x3dcc8d5b	0.09987899
11	0x3c07463d	0.008256492
12	0xbd3b55c3	-0.045736086
13	0x3c6f8f65	0.01462159
14	0x3cfc932a	0.030831892
15	0x3d8401dc	0.06445667

0.model_cnn.layer1.1.running_var f4 [16]
0	0x3cc13fde	0.023590025
1	0x3bf78675	0.0075538703
2	0x3d67a118	0.056550115
3	0x3cd35640	0.025797963
4	0x3b563abd	0.003268882
5	0x3cdd41aa	0.02700885
6	0x3d1fd34f	0.03901988
7	0x3c096681	0.008386255
8	0x3ca0f95c	0.019650154
9	0x3d4be499	0.049778555
10	0x3d7c7aa7	0.061640408
11	0x3ce95971	0.028485032
12	0x3cf0a9f4	0.029377915
13	0x3d46a686	0.048498653
14	0x3b9bbdff	0.004752874
15	0x3d2e2160	0.042512298

0.model_cnn.layer2.0.weight f4 [32, 16, 3]
0	0x3e08b296	0.13349375
1	0xbd0dc4f1	-0.034611646
2	0xbe2ed304	-0.17072684
3	0xb99f76c9	-0.00030415345
4	0x3cc4e214	0.024033584
5	0xbdd55f9e	-0.10418628
6	0xbdab7206	-0.083713576
7	0x3d328db4	0.04359217
8	0xbde17d89	-0.11010272
9	0x3dd47ba2	0.103751436
10	0xbd89cbd9	-0.06728334
11	0xbd9281de	-0.071536765
12	0xbd942b7f	-0.07234859
13	0xbdd2c27b	-0.102910005
14	0x3cdd0088	0.026977792
15	0x3d7480e7	0.059693243
16	0xbd874019	-0.066040225
17	0x3dacc497	0.08435934
18	0xbcefa979	-0.029255616
19	0xbd31eb3f	-0.04343724
20	0xbe08210f	-0.13293861
21	0x3d4a55cc	0.04939823
22	0x3d815c99	0.0631649
23	0x3e42b1db	0.19013159
24	0x3d960be7	0.07326489
25	0x3de15ebb	0.110043965
26	0xbdf97a2c	-0.121815056
27	0x3d0944bb	0.033512812
28	0x3dbb779c	0.09153673
29	0xbcc4f52a	-0.024042685
30	0x3da54e71	0.08071602
31	0xbd319622	-0.04335607
32	0xbde4c77e	-0.111708626
33	0xbdd76b5d	-0.10518525
34	0x3de374c2	0.11106254
35	0x3b25fe00	0.0025328398
36	0xbd860f9b	-0.06545945
37	0x3e07b2e1	0.1325183
38	0xbdd96d61	-0.106165655
39	0x3dd05bb8	0.10173744
40	0x3e1ab0bd	0.15106483
41	0x3df7f2cb	0.12106856
42	0xbc090d63	-0.008365008
43	0x3e0c2497	0.13685833
44	0x3d7c4b65	0.06159534
45	0x3d2cbe26	0.042173527
46	0x3b9b8a3c	0.0047467034
47	0x3c0f4cee	0.008746369
48	0x3d364815	0.044502337
49	0x3d68c920	0.056832433
50	0x3e0960f3	0.1341589
51	0xbd630d1d	-0.055432428
52	0xb790fca2	-1.7283779e-05
53	0xbe0b63f0	-0.13612342
54	0xbd751433	-0.059833717
55	0x3e23dc9a	0.16002122
56	0xbb43cb24	-0.002987572
57	0xbdd17e68	-0.10229188
58	0xbdbe93a4	-0.09305504
59	0x3ddf8ad4	0.10915151
60	0xbd4c2a80	-0.04984522
61	0x3e0f2341	0.13978292
62	0x3deed232	0.11661185
63	0xbdae3a94	-0.08507267
64	0x3d5e4cce	0.054272465
65	0x3d05031e	0.032473676
66	0xbdf2ceff	-0.118558876
67	0xbcf6b399	-0.030114936
68	0x3c81d10c	0.015846752
69	0x3dd0b712	0.10191168
70	0xbc22adda	-0.009929145
71	0x3ddb39c5	0.10704378
72	0xbe24566b	-0.16048591
73	0xbde17988	-0.11009508
74	0xbdf8d80c	-0.12150583
75	0x3e2eb06e	0.1705949
76	0x3d85bff2	0.06530751
77	0x3b794443	0.0038035072
78	0xbdfa3fed	-0.12219224
79	0xbdeada24	-0.11467388
80	0xbd0642dc	-0.032778606
81	0x3e29ab25	0.16569193
82	0x3cf440fa	0.02981614
83	0xbd041d21	-0.032254342
84	0xbe09cc99	-0.13456954
85	0xbdb119c0	-0.086474895
86	0xbe0329f0	-0.12808967
87	0x3c854066	0.01626606
88	0x3cc5557a	0.02408861
89	0xbdc06873	-0.09394922
90	0xbd9591c4	-0.07303193
91	0xbcca8c1a	-0.024725009
92	0xbd94fd9a	-0.07274933
93	0xbdec64aa	-0.11542638
94	0x3c09f003	0.00841904
95	0xbdf137fc	-0.11778256
96	0xbb5ffffa	-0.0034179674
97	0x3e06f7e3	0.13180499
98	0xbdb4b54b	-0.088236414
99	0x3d535c41	0.051601652
100	0x3ccaa69f	0.024737654
101	0xbde838cf	-0.113389604
102	0x3e0251f4	0.12726575
103	0x3d50cc41	0.05097604
104	0x3da7b2af	0.08188378
105	0x3d3aa0fe	0.04556369
106	0x3db98b7f	0.0905981
107	0xbd5b986c	-0.053612158
108	0x3cb9d6d9	0.022685455
109	0xbde5a6b6	-0.11213438
110	0x3e202a8c	0.1564123
111	0xbe1ab10a	-0.15106598
112	0x3e1d567f	0.15365027
113	0x3d32e59e	0.04367601
114	0xbbcd6344	-0.006267937
115	0x3e08c418	0.13356054
116	0xbd6a97e4	-0.05727376
117	0xbd4d32c1	-0.05009723
118	0x3d688ae2	0.056773074
119	0xbc2fa3fa	-0.010720247
120	0x3d355045	0.044266004
121	0xbdfd3975	-0.12364475
122	0x3cd56f83	0.02605415
123	0xbd95dafb	-0.07317158
124	0xbd92d7ad	-0.07170043
125	0xbdc9fb2e	-0.09862362
126	0x3d7465ef	0.059667524
127	0xbc9acbce	-0.01889601
128	0xbd9db1ed	-0.07699952
129	0xbc971238	-0.018441305
130	0x3e00fb09	0.12595762
131	0x3e0613bb	0.13093464
132	0xbd839025	-0.06423978
133	0xbdae7984	-0.08519271
134	0xbc071332	-0.008244323
135	0x3e04f720	0.12984896
136	0x3ce45894	0.027874269
137	0x3dbcbd12	0.0921575
138	0xbdec44be	-0.11536549
139	0xbdc08295	-0.093999065
140	0x3dabab69	0.08382303
141	0x3dbf67d7	0.09345978
142	0x3d9e7814	0.07737747
143	0xbc8495da	-0.016184736
144	0x3d6a830a	0.057253875
145	0xbd6ca56e	-0.057774954
146	0xbd909b07	-0.07060819
147	0xbe1cfed8	-0.1533159
148	0x3d2a0662	0.041509993
149	0xbd8e668a	-0.069531515
150	0x3dac7fd1	0.084228165
151	0x3dd2c795	0.102919735
152	0xbd7394ac	-0.059467956
153	0xbe007328	-0.12543929
154	0x3da786fd	0.08180044
155	0xbe27102e	-0.16314766
156	0x3e239849	0.15976061
157	0xbdbc843c	-0.09204909
158	0x3d86d7a0	0.06584096
159	0x3da3f769	0.08006174
160	0xbd19f3d5	-0.037586052
161	0xbdb55d64	-0.088557035
162	0x3cffe0ed	0.031235183
163	0x3c0d07a4	0.008607779
164	0xbdda29f9	-0.10652537
165	0x3db7e321	0.08978868
166	0x3bce8933	0.0063029765
167	0xbd98971e	-0.07450698
168	0x3ce6cfe1	0.028175296
169	0x3cf67bba	0.030088294
170	0xbdc402aa	-0.09570821
171	0x3c87518f	0.016518382
172	0xbd8e10ef	-0.069368236
173	0xbe476d33	-0.1947525
174	0x3de64246	0.112431094
175	0xbdb6d9b5	-0.08928243
176	0xbd682894	-0.056679323
177	0x3db36de8	0.08761197
178	0x3d0e28d2	0.034706898
179	0x3d3309e1	0.043710593
180	0x3d9b306f	0.07577597
181	0xbd8f3a56	-0.069935486
182	0xbb9bc2b9	-0.0047534374
183	0x3cf391ba	0.029732574
184	0xbdc39cdd	-0.09551404
185	0xbe094b6c	-0.13407677
186	0x3d535eba	0.05160401
187	0x3d8d93b7	0.0691294
188	0xb96aa782	-0.0002237838
189	0xbdad0f6b	-0.08450206
190	0xbd6770a8	-0.05650392
191	0x3db9b4ec	0.09067711
192	0xbcd73b91	-0.02627352
193	0x3dc5d216	0.09659211
194	0xbd4656ef	-0.04842275
195	0x3e3c9ff9	0.184204
196	0x3c3b847a	0.011445159
197	0x3d88ade6	0.066737935
198	0xbd05ceba	-0.032667853
199	0x3e127e6c	0.14306039
200	0x3de5914f	0.11209356
201	0x3db2d056	0.08731143
202	0x3b69c53c	0.003567054
203	0xbd7815cb	-0.06056766
204	0x3da24a85	0.0792437
205	0x3bf5ff88	0.0075072683
206	0xbd34b278	-0.044115514
207	0x3db746a9	0.08949024
208	0xbdc85567	-0.09781914
209	0xbda7344f	-0.08164274
210	0x3dea4edb	0.11440822
211	0xbd6d901d	-0.057998765
212	0xbe33d3c0	-0.17561245
213	0xbdc15f4d	-0.09442005
214	0xbc8969ac	-0.016774021
215	0x3d7fdca9	0.062466297
216	0xbddbe25d	-0.10736535
217	0xbe04f5dc	-0.12984413
218	0xbe07a983	-0.13248257
219	0xbe15fba6	-0.14646778
220	0xbe088394	-0.13331443
221	0x3e2e201c	0.17004436
222	0x3db195d3	0.08671155
223	0xbd63117b	-0.055436593
224	0x3d4d211a	0.050080396
225	0xbd9d971e	-0.07694839
226	0xbdecce34	-0.115627676
227	0x3e073901	0.13205339
228	0x3df9690b	0.121782385
229	0xbd4d74e7	-0.050160315
230	0xbc985031	-0.018592926
231	0x3dd29efa	0.102842286
232	0x3d74e563	0.059789073
233	0x3e05130d	0.12995549
234	0xbdada444	-0.08478597
235	0xbe379437	-0.17927633
236	0xbc8c798d	-0.017147804
237	0x3dfa457c	0.12220284
238	0xbdebc97e	-0.11513041
239	0x3e2dd112	0.16974285
240	0xbd886979	-0.06660742
241	0xbc9277dc	-0.017879419
242	0x3c383366	0.011242723
243	0xbddfc16b	-0.109255634
244	0xbd99544f	-0.07486784
245	0x3d416027	0.04721084
246	0x3cdfe7c7	0.0273322
247	0xbd823737	-0.06358188
248	0xbe08bff2	-0.13354471
249	0xbd0f2159	-0.034943912
250	0x3dc5d457	0.09659641
251	0xbc0553e4	-0.008137677
252	0x3ddb5333	0.10709228
253	0xbd17edf1	-0.037092153
254	0x3da36c2b	0.07979616
255	0x3dad6daf	0.08468186

0.model_cnn.layer2.0.bias f4 [32]
0	0x3a8bfc0b	0.0010679973
1	0x38651071	5.4613167e-05
2	0x39ebda59	0.00044985375
3	0xbb160328	-0.0022890065
4	0x397132dd	0.00023002499
5	0xb88c2d54	-6.684163e-05
6	0xb9149e97	-0.00014173459
7	0x3a2ba66e	0.0006547932
8	0x37b922ed	2.2069982e-05
9	0x3a014069	0.00049305573
10	0x398ce63f	0.00026874428
11	0xb927d360	-0.00016005104
12	0xb8c2099f	-9.252433e-05
13	0xb997743b	-0.00028887563
14	0xba01d593	-0.00049527845
15	0x3a8a8f39	0.0010571248
16	0x3a90cc66	0.0011047244
17	0x3ac17a20	0.0014761128
18	0x3acedbcd	0.0015782058
19	0xba3946d1	-0.00070677424
20	0xba327f54	-0.00068091345
21	0xb873ed62	-5.8156795e-05
22	0x3852aa13	5.0226296e-05
23	0xba810b53	-0.0009845294
24	0x388a0f51	6.583206e-05
25	0xb965128a	-0.00021846048
26	0x3938e876	0.00017634206
27	0xb9da90d0	-0.00041688094
28	0x3ab749a9	0.0013983744
29	0x3aaad0c6	0.001303219
30	0x3864ace0	5.452044e-05
31	0xba5e8ef1	-0.0008489928

0.model_cnn.layer2.1.weight f4 [32]
0	0x3f82daea	1.0223057
1	0x3f833490	1.0250416
2	0x3f71b2cf	0.94413465
3	0x3f78dd14	0.9721234
4	0x3f733911	0.9500895
5	0x3f7e1300	0.9924774
6	0x3f7db273	0.99100417
7	0x3f7a8fb3	0.9787552
8	0x3f7cd42a	0.98761237
9	0x3f829d48	1.0204248
10	0x3f713301	0.9421845
11	0x3f7de98c	0.9918449
12	0x3f82e1ac	1.022512
13	0x3f77fb5e	0.9686793
14	0x3f82d287	1.0220498
15	0x3f80196a	1.0007756
16	0x3f87295a	1.0559494
17	0x3f827395	1.0191523
18	0x3f8370ac	1.026876
19	0x3f7d113c	0.9885442
20	0x3f862ffa	1.0483391
21	0x3f8026ba	1.0011818
22	0x3f7a23ee	0.97711074
23	0x3f8025fc	1.0011592
24	0x3f8651b3	1.0493683
25	0x3f860e89	1.0473186
26	0x3f7faaf9	0.9987026
27	0x3f80c1c1	1.0059129
28	0x3f89ad27	1.0755967
29	0x3f80715b	1.0034593
30	0x3f810131	1.0078489
31	0x3f849cbc	1.0360332

0.model_cnn.layer2.1.bias f4 [32]
0	0x3ca833ac	0.020532452
1	0x3cdb3831	0.026760193
2	0xbcdff656	-0.027339142
3	0x3b68462c	0.0035442216
4	0xbd3f8f7c	-0.046767697
5	0xbcd48545	-0.025942454
6	0xbd9ee267	-0.077580266
7	0xbcc53c89	-0.024076717
8	0xba8041f6	-0.0009785283
9	0xbd3d7795	-0.04625662
10	0xbc7bfa5a	-0.015379513
11	0xbd11a76c	-0.035560057
12	0xbcb7d7d8	-0.02244179
13	0xbd1c64ab	-0.038181942
14	0x3ad3f683	0.0016171489
15	0xbc59b6c7	-0.013288206
16	0x3ae6d88f	0.0017612147
17	0x3cfbb7f8	0.030727372
18	0xbd174189	-0.036927734
19	0xbd9e9c5e	-0.077446684
20	0xba82121f	-0.0009923613
21	0xbcb3c8f2	-0.021946404
22	0xbd5f9197	-0.054582205
23	0xbd6a5170	-0.05720657
24	0x3c34b6af	0.011029883
25	0x3cb844d4	0.022493757
26	0xbc9bec4b	-0.019033572
27	0xbd3d20c6	-0.046173833
28	0x3d3ee5d7	0.04660591
29	0x3a2c093a	0.0006562654
30	0xbd4ef713	-0.050528597
31	0x3c3e93dd	0.011631933

0.model_cnn.layer2.1.running_mean f4 [32]
0	0x3c3d7770	0.011564121
1	0xbe5edb38	-0.21763313
2	0x3d1d5fda	0.03842149
3	0xbd063396	-0.03276404
4	0x3cd7822f	0.026307194
5	0xbd5a641e	-0.053318135
6	0x3be13e89	0.00687391
7	0x3c28faa5	0.010313665
8	0xbe225144	-0.15851313
9	0xbcbcab64	-0.023030944
10	0xbdae115e	-0.08499406
11	0x3cd7bcba	0.026335109
12	0xbe747305	-0.23872001
13	0x3dc8bbab	0.0980142
14	0x3e2092ec	0.15681046
15	0xbda9bc98	-0.082879245
16	0xbe429363	-0.19001536
17	0x3d8fbcd6	0.070184395
18	0x3d966fc0	0.07345533
19	0x3e0117ef	0.12606786
20	0xbdc6c660	-0.09705806
21	0x3d8dde89	0.06927211
22	0x3cc32ee4	0.02382607
23	0x3c11e876	0.008905521
24	0xbe9b81e4	-0.30372536
25	0xbd93e924	-0.072222024
26	0xbdef4078	-0.11682218
27	0x3cfea04f	0.0310823
28	0xbe10cd10	-0.14140725
29	0xbdb23ebc	-0.08703372
30	0xbe6199e2	-0.22031358
31	0xbe6160d4	-0.22009593

0.model_cnn.layer2.1.running_var f4 [32]
0	0x3cd40f13	0.025886094
1	0x3e35b18b	0.17743509
2	0x3ddf63e2	0.10907723
3	0x3d0a2221	0.033723954
4	0x3e37319e	0.17890021
5	0x3d358946	0.044320367
6	0x3ceec70b	0.029147645
7	0x3d301af8	0.04299447
8	0x3e17956b	0.14803092
9	0x3ccb0039	0.02478038
10	0x3e17422f	0.14771341
11	0x3d91f96b	0.07127651
12	0x3e8bd69b	0.27312168
13	0x3d182017	0.03713998
14	0x3d406074	0.046966985
15	0x3d8e2696	0.069409534
16	0x3d1b0408	0.03784564
17	0x3cbabcad	0.022795046
18	0x3cd8d0a4	0.026466675
19	0x3d11e237	0.035616126
20	0x3d48de6c	0.049040243
21	0x3d9e34bb	0.07724901
22	0x3cc7d102	0.024391655
23	0x3cecb58b	0.02889516
24	0x3df5f0de	0.120088324
25	0x3d0456c9	0.032309327
26	0x3e315eac	0.1732127
27	0x3cca94e8	0.024729207
28	0x3d9832ae	0.074315414
29	0x3de94825	0.113907136
30	0x3e18c9dc	0.14920753
31	0x3d2a75c6	0.041616224

0.model_cnn.layer3.0.weight f4 [64, 32, 3]
0	0x3ddc2fc5	0.10751299
1	0x3d8ecd00	0.069726944
2	0xbe0e994a	-0.13925663
3	0x3d4af4b0	0.04954976
4	0xbd2bc543	-0.04193617
5	0xbbd91957	-0.006625335
6	0xbd75387c	-0.05986832
7	0x3da7a8d1	0.08186496
8	0xbdb428ef	-0.0879687
9	0xbc0ec4b6	-0.008713892
10	0x3c53380d	0.0128917815
11	0xbd89042a	-0.06690247
12	0xbd1d6a8d	-0.038431693
13	0xbe008219	-0.12549628
14	0xbd101611	-0.035177294
15	0x3d69df0b	0.057097476
16	0xbd2c4006	-0.042053245
17	0x3dfdf271	0.12399758
18	0x3c0cb338	0.008587651
19	0xbacdca1b	-0.0015700491
20	0xbd3ba13e	-0.04580807
21	0xbdf528d8	-0.11970681
22	0x3ca43176	0.020043116
23	0xbc5f3728	-0.01362399
24	0xbcf100b9	-0.02941929
25	0x3da2abfe	0.07942961
26	0xbd1a1e4a	-0.037626542
27	0xbdc2288a	-0.094803885
28	0x3c7d03f4	0.015442837
29	0xbd99f331	-0.07517088
30	0x3d861842	0.065475956
31	0x3e0c0c98	0.13676679
32	0x3da3ab60	0.079916716
33	0xbd9ed93a	-0.077562764
34	0x3d5e4fa1	0.05427516
35	0x3d950599	0.07276458
36	0xbdaa0a02	-0.0830269
37	0x3db9bec8	0.09069592
38	0xbb75a3eb	-0.0037481736
39	0x3d4c3660	0.049856544
40	0xbdb6bd34	-0.089228064
41	0x3d529682	0.051413067
42	0x3b83865a	0.0040138187
43	0xbe051211	-0.12995173
44	0x3deeead8	0.11665887
45	0x3dba59fd	0.09099195
46	0x3d83e969	0.06441004
47	0xbded37cf	-0.1158291
48	0x3c1f9387	0.009739763
49	0x3d96de43	0.07366612
50	0x3dba29b3	0.09089985
51	0xbcd02d10	-0.025412112
52	0xbdf771e9	-0.120822735
53	0xbd8e4d55	-0.06948344
54	0x3d470dd0	0.048597157
55	0x3bd6d79a	0.0065564634
56	0xbd367045	-0.044540662
57	0xbd474f54	-0.048659638
58	0xbdc3d72c	-0.09562525
59	0x3d31d009	0.04341129
60	0x3cad9a1e	0.021191653
61	0x3d9ff3df	0.078101866
62	0xbd64281f	-0.055702325
63	0x3d802fc2	0.06259109
64	0x3d938049	0.07202203
65	0xbc364370	-0.011124477
66	0x3db8f913	0.09031882
67	0xbd5bc665	-0.053656
68	0xbd533765	-0.0515665
69	0x3c340ecd	0.010989857
70	0x3da7b366	0.081885144
71	0x3cd45c12	0.025922809
72	0xbb677117	-0.003531521
73	0x3cc0e244	0.023545392
74	0x3d76657d	0.06015538
75	0x3ae88ff2	0.0017743094
76	0x3cdbefc2	0.026847724
77	0x3d70ff3e	0.058837168
78	0xbd42b5bc	-0.047536597
79	0xbd6ac1c1	-0.057313684
80	0xbdd39f1b	-0.10333081
81	0x3d95e608	0.073192656
82	0x3cffb18a	0.031212587
83	0xbb0b6a07	-0.0021272914
84	0x3d7547f5	0.059883077
85	0x3da12a7b	0.07869431
86	0xbd9d9f88	-0.07696444
87	0xbe0d15d0	-0.13777852
88	0xbd56a835	-0.05240651
89	0xbde48bbd	-0.111594655
90	0xbd9bc5d8	-0.07606095
91	0x3d991e09	0.07476432
92	0xbd55aa20	-0.052164197
93	0xbd1879a9	-0.0372254
94	0x3e09559e	0.13411567
95	0x3d5d4544	0.054021135
96	0x3d440a9c	0.04786168
97	0x3dd42438	0.10358471
98	0x3dda43aa	0.10657437
99	0x3c1d0783	0.00958431
100	0x3dbe8dc6	0.09304385
101	0x3d2d5485	0.042316932
102	0x3cccc33c	0.024995439
103	0x39b158d2	0.00033826247
104	0x3c938a1e	0.018010195
105	0xbb092c90	-0.0020931102
106	0x3d9734c6	0.073831126
107	0x3cefc5a8	0.029269055
108	0xbd6c7eb0	-0.057738006
109	0xbc991bf6	-0.01869009
110	0x3d3e5210	0.04646498
111	0xbdb77c3e	-0.08959244
112	0xbd9fa68e	-0.0779544
113	0x3da4d462	0.08048321
114	0xbe095704	-0.134121
115	0x3d9a8011	0.07543958
116	0xbdfd65b0	-0.12372911
117	0xbdb79b97	-0.08965223
118	0x3de4e453	0.11176362
119	0x3cb39c71	0.021925183
120	0xbdd9e672	-0.10639657
121	0x3e057fac	0.13036984
122	0xbd09c041	-0.033630613
123	0x3d03d46c	0.032185003
124	0x3c9df7c9	0.019283192
125	0x3d77b1da	0.060472347
126	0x3c51e8b4	0.012811828
127	0xbde0f30a	-0.10983856
128	0xbde0f381	-0.10983945
129	0xbdf391e1	-0.118930586
130	0xbd997951	-0.074938424
131	0x3dc37252	0.09543289
132	0xbc114804	-0.0088672675
133	0xbd8d14ab	-0.06888708
134	0xbe11ca62	-0.14237359
135	0x3d9ffa4c	0.07811412
136	0x3decf64b	0.11570414
137	0x3d897e99	0.067136
138	0x3db17e3a	0.08666654
139	0xbd1eb46c	-0.038746282
140	0xbb8f69b7	-0.004376616
141	0xbc05e977	-0.008173338
142	0x3cd21e58	0.025649235
143	0xbd10e7a3	-0.035377156
144	0x3d5f59bb	0.054528933
145	0x3cef0440	0.029176831
146	0xbe1587b2	-0.14602545
147	0xbdc3a3d8	-0.09552735
148	0x3a50f417	0.00079709425
149	0x3ca70b68	0.020391181
150	0x3cde966f	0.027171342
151	0xbc8fb1ec	-0.017540894
152	0xbe093e59	-0.1340269
153	0xbd5a89db	-0.053354125
154	0xbd9de37c	-0.07709405
155	0x3d2b2205	0.04178049
156	0x3d665d23	0.056241166
157	0xbc921b7b	-0.01783537
158	0xbd96405b	-0.073364936
159	0xbdd10d57	-0.102076225
160	0xbb0bc644	-0.0021327892
161	0xbd70612f	-0.05868643
162	0xbdecd27b	-0.115635835
163	0x3da0f806	0.07859807
164	0x3d07eb79	0.03318355
165	0xbd34a3c9	-0.04410151
166	0xbd982970	-0.074297786
167	0xbdd6396d	-0.10460172
168	0x3e085c1f	0.13316391
169	0x3d84c63b	0.06483122
170	0x3cef5197	0.02921371
171	0x3d7c7cc5	0.061642427
172	0xbd122173	-0.03567643
173	0x3dbc78a1	0.09202696
174	0xbd6999d6	-0.057031475
175	0xbd1f28fb	-0.03885744
176	0x3d88656c	0.0665997
177	0x3d66a96d	0.05631392
178	0x3dcc1316	0.09964578
179	0xbce01c61	-0.027357282
180	0xbcf1eefb	-0.0295329
181	0xbd837e13	-0.06420531
182	0xbdc8bce5	-0.09801654
183	0xbd42bc66	-0.047542952
184	0x3d74d631	0.05977458
185	0x3d6fbbc3	0.058528673
186	0xbd3dbf7d	-0.046325196
187	0xbd050a97	-0.032480802
188	0xbdc42438	-0.09577221
189	0x3c5c79a9	0.01345674
190	0xbd8f9f0a	-0.07012756
191	0xbdc7a627	-0.09748488
192	0xbdfdc88f	-0.12391769
193	0xbd5df897	-0.054192152
194	0xbdc901c4	-0.0981479
195	0xbd828124	-0.06372288
196	0xbe632353	-0.22181444
197	0xbd2da2eb	-0.0423917
198	0x3ce839f1	0.028347941
199	0x3c3b409e	0.01142898
200	0xbe0c067b	-0.13674347
201	0x3cea0877	0.02856849
202	0x3d85fe69	0.065426655
203	0x3d255f09	0.040373836
204	0x3dac9ece	0.08428727
205	0xbd367545	-0.04454543
206	0x3dd3129c	0.10306284
207	0xbda0723f	-0.07834291
208	0x3d5e2fdd	0.054244865
209	0xbc438bd2	-0.011935191
210	0xbd45360c	-0.048147246
211	0x3c1714f6	0.009221306
212	0xbd46edbe	-0.048566572
213	0xbd681dde	-0.05666911
214	0x3d44cbc8	0.048045903
215	0xbd9e673d	-0.07734535
216	0x3d93ce35	0.07217065
217	0xbe17edd9	-0.14836825
218	0x3c52b22b	0.012859861
219	0x3c44523b	0.011982496
220	0x3ba1f63a	0.0049426826
221	0x3d47cd4a	0.048779763
222	0xbce6d4b9	-0.028177606
223	0xbd348174	-0.04406877
224	0xb9168a5e	-0.0001435666
225	0xbc96735c	-0.018365555
226	0xbb191060	-0.0023355708
227	0xbcbfd725	-0.023418019
228	0x3b507928	0.0031810496
229	0xbb30e3e7	-0.002699131
230	0xbb80b647	-0.003927979
231	0xbd6579ec	-0.056024477
232	0x3d743379	0.0596194
233	0x3cbec4d9	0.023287224
234	0x3a35b525	0.00069315947
235	0xbc244418	-0.010026
236	0x3dbc47f9	0.09193415
237	0xbce8c575	-0.028414467
238	0x3d52a2b7	0.05142471
239	0xbc982a4e	-0.01857486
240	0xbd7ebf4b	-0.06219415
241	0xbd9fdc11	-0.07805646
242	0x3d920c2c	0.07131228
243	0x3d526aa2	0.051371224
244	0xbd2030c9	-0.039109025
245	0x3d59e2ef	0.053194936
246	0xbd3dd600	-0.046346664
247	0x3c110c73	0.008853066
248	0xbd4d69fe	-0.05014991
249	0xbc8503e9	-0.016237216
250	0xbd90c06e	-0.07067953
251	0x3d3bc8dc	0.04584585
252	0x3a270547	0.0006371331
253	0x3d10062a	0.03516213
254	0xbdbc2682	-0.09187032
255	0xbd645ded	-0.055753637

0.model_cnn.layer3.0.bias f4 [64]
0	0x37afbcb6	2.0949501e-05
1	0x385f58ea	5.325015e-05
2	0x393f536b	0.00018246255
3	0x37d1c290	2.5005342e-05
4	0xb7a9bda4	-2.0234678e-05
5	0x371f9e7e	9.51404e-06
6	0xb7f05837	-2.8651308e-05
7	0xb7cd6406	-2.4484481e-05
8	0x38cc6005	9.745363e-05
9	0x380e87ae	3.39818e-05
10	0xb933ed2c	-0.00017159124
11	0xb98b54ad	-0.00026575234
12	0xb90b6be4	-0.00013296265
13	0x38bcf6c5	9.010503e-05
14	0xb927ffee	-0.00016021702
15	0xb8a42264	-7.826535e-05
16	0x392b94e5	0.00016363298
17	0x385decc9	5.291103e-05
18	0x3a116433	0.0005546242
19	0x38d6fdd7	0.000102515965
20	0xb91ac0e6	-0.00014758445
21	0x3a2e6d16	0.00066538283
22	0xb92f1203	-0.0001669601
23	0xb965f2af	-0.00021929549
24	0xb8110489	-3.4574918e-05
25	0x3891348d	6.923927e-05
26	0xb990bae9	-0.0002760508
27	0x38228786	3.8750026e-05
28	0xb859ad66	-5.189832e-05
29	0xb9818e75	-0.00024710936
30	0xb90f38a3	-0.00013658642
31	0x39419585	0.00018461615
32	0xb8f49db3	-0.000116642004
33	0x394c03c1	0.00019456354
34	0xb8aebff1	-8.3327184e-05
35	0xb99eaff9	-0.00030267218
36	0xb8fb482e	-0.00011982057
37	0xb8e30281	-0.0001082467
38	0xb8ea1efe	-0.00011163762
39	0xb843c1d9	-4.6672158e-05
40	0x38a47d00	7.8434125e-05
41	0x38a54435	7.880518e-05
42	0x38ea13c4	0.00011161671
43	0x3783a0fe	1.5691385e-05
44	0xb888953c	-6.5127824e-05
45	0x395c90fe	0.00021034849
46	0x394b2b20	0.00019375654
47	0xb9a1dbfa	-0.00030872208
48	0x395d9530	0.00021131779
49	0x38f90fb2	0.00011876169
50	0x38cb72d6	9.701184e-05
51	0xb88da395	-6.7538735e-05
52	0xb87175e9	-5.756869e-05
53	0x382e943f	4.1622898e-05
54	0x38974e09	7.214776e-05
55	0x38d92450	0.0001035413
56	0x38bf669b	9.1267015e-05
57	0x392f86b8	0.00016739487
58	0x397c7915	0.000240777
59	0xb9be2557	-0.00036267444
60	0xb7bb927e	-2.2360353e-05
61	0xb7fb44ec	-2.9953626e-05
62	0xb8b3a416	-8.5659485e-05
63	0xb7ed0c59	-2.8258351e-05

0.model_cnn.layer3.1.weight f4 [64]
0	0x3f788eb1	0.9709273
1	0x3f7b7ade	0.98234355
2	0x3f84de33	1.038031
3	0x3f773847	0.9657025
4	0x3f82693b	1.0188364
5	0x3f7850cb	0.9699828
6	0x3f7a26da	0.9771553
7	0x3f738deb	0.95138425
8	0x3f81e8a6	1.0149124
9	0x3f6a6f74	0.91576314
10	0x3f837ab9	1.0271827
11	0x3f80b652	1.005564
12	0x3f814cd6	1.0101573
13	0x3f85ff09	1.0468456
14	0x3f7125c8	0.94198275
15	0x3f7ec3f3	0.99517745
16	0x3f81f141	1.015175
17	0x3f82dca5	1.0223585
18	0x3f820b4e	1.01597
19	0x3f714eb6	0.9426073
20	0x3f860b6a	1.0472233
21	0x3f8837f7	1.0642079
22	0x3f831762	1.0241511
23	0x3f8e0a97	1.1096982
24	0x3f7fd11d	0.99928457
25	0x3f7f92e5	0.9983352
26	0x3f86ecb5	1.0540987
27	0x3f81349f	1.0094184
28	0x3f7a5ba3	0.97796077
29	0x3f7c68e5	0.98597556
30	0x3f8222d8	1.0166883
31	0x3f82940e	1.0201433
32	0x3f823672	1.0172865
33	0x3f7b40bd	0.9814566
34	0x3f820034	1.0156312
35	0x3f81453e	1.0099256
36	0x3f833c8b	1.0252851
37	0x3f8221cb	1.0166563
38	0x3f7e29a3	0.9928228
39	0x3f88a57d	1.0675503
40	0x3f835bf9	1.0262443
41	0x3f7e1d0c	0.9926307
42	0x3f807163	1.0034603
43	0x3f7a14e9	0.97688156
44	0x3f7de4a0	0.9917698
45	0x3f844c72	1.0335829
46	0x3f7923ba	0.9732014
47	0x3f81c763	1.0138973
48	0x3f80b868	1.0056276
49	0x3f7f81b4	0.99807286
50	0x3f8501dd	1.0391194
51	0x3f6e9bb3	0.9320633
52	0x3f7cdf7f	0.9877853
53	0x3f887927	1.0661973
54	0x3f84ff83	1.0390476
55	0x3f845fa9	1.0341693
56	0x3f83282c	1.0246634
57	0x3f7cb91f	0.9871997
58	0x3f7b88dc	0.98255706
59	0x3f84c46a	1.0372441
60	0x3f70c9eb	0.940581
61	0x3f778d77	0.96700233
62	0x3f84e1a5	1.0381361
63	0x3f71707e	0.94312274

0.model_cnn.layer3.1.bias f4 [64]
0	0xbd8d4a8e	-0.06898986
1	0xbd70a806	-0.05875399
2	0x3b609410	0.003426794
3	0xbdc51985	-0.09624008
4	0xbd1dfa9e	-0.038569085
5	0xbd32b210	-0.043626845
6	0xbcaf6226	-0.021409106
7	0xbdc8916d	-0.09793363
8	0xbc78302d	-0.015148205
9	0xbd9c1cb6	-0.07622664
10	0xbdeb3615	-0.11484925
11	0xbba66f67	-0.005079198
12	0xbcb29d18	-0.021803424
13	0x3c877323	0.016534394
14	0xbd478c27	-0.048717644
15	0xbde11ccc	-0.10991821
16	0xbc6c0073	-0.014404404
17	0xbd1957e9	-0.037437353
18	0xbd7eb76a	-0.062186636
19	0xbcd024ca	-0.025408167
20	0xbd2265f2	-0.039648004
21	0xbcb9bb41	-0.022672297
22	0xbb8518b0	-0.004061781
23	0xbdb94fd8	-0.09048432
24	0xbd899ff6	-0.06719963
25	0xbd432b15	-0.047648508
26	0xbd5b857f	-0.05359411
27	0xbd017f15	-0.031615335
28	0xbded8826	-0.11598234
29	0xbd023834	-0.03179188
30	0xbd8ed8fc	-0.0697498
31	0xbc94da65	-0.018170545
32	0xbd30c9a2	-0.043161042
33	0xbd872696	-0.065991566
34	0xbd444e46	-0.04792621
35	0xbd657013	-0.056015085
36	0xbd1b419d	-0.03790437
37	0xbd3666df	-0.0445317
38	0xbd0b0717	-0.03394231
39	0xbd477265	-0.04869308
40	0x3a477af5	0.00076095696
41	0xbd855148	-0.06509644
42	0xbd09cbae	-0.03364151
43	0xbd038c01	-0.03211594
44	0xbd1e8540	-0.038701296
45	0x3d735af2	0.059412904
46	0xbda42dcf	-0.0801655
47	0xbca88b50	-0.020574242
48	0xbc17ca60	-0.009264559
49	0xbd0645c5	-0.03278138
50	0xbc590a45	-0.013247077
51	0xbd0846c5	-0.033270616
52	0xbc5d2345	-0.013497178
53	0xbd90c709	-0.07069213
54	0xbc822045	-0.015884528
55	0xbd0b33fc	-0.033985123
56	0xbd89e896	-0.06733815
57	0xbb8b2a39	-0.0042469767
58	0xbd56fbe0	-0.0524863
59	0x3d15b29a	0.03654728
60	0xbd947f82	-0.07250883
61	0x3c07afd9	0.008281671
62	0xbcb45115	-0.02201132
63	0xbda3ea09	-0.08003623

0.model_cnn.layer3.1.running_mean f4 [64]
0	0x3cac923f	0.02106583
1	0xbdd1107b	-0.102082215
2	0xbeb523a6	-0.3537876
3	0x3e3fe270	0.18738723
4	0x3e75f3c6	0.24018773
5	0xbee70192	-0.45118386
6	0x3d0a5a1f	0.033777352
7	0xba1aeffe	-0.00059103954
8	0x3cd4d3b9	0.025979863
9	0xbf0faaab	-0.56119794
10	0x3e06a9f3	0.13150768
11	0xbf269c38	-0.6508212
12	0xbd42c1f1	-0.04754824
13	0xbef7fafc	-0.48433673
14	0xbe8582d0	-0.26076365
15	0xbdd43341	-0.103613384
16	0x3eaed29e	0.34145063
17	0xbd67c78d	-0.05658679
18	0x3d6af7b5	0.057365138
19	0x3e7cc723	0.2468534
20	0x3db0f5bd	0.08640621
21	0xbe626a7c	-0.22110933
22	0x3e5d115a	0.2158865
23	0xbee44c37	-0.44589397
24	0xbdb30178	-0.087405145
25	0xbc7e27ea	-0.015512446
26	0xbe4f1c27	-0.20225583
27	0x3d3d2ac8	0.046183378
28	0x3e8ef056	0.27917737
29	0x3e4b5566	0.19856796
30	0x3e1f7fa7	0.15576039
31	0x3e3fdd6f	0.18736814
32	0xbd2da8bb	-0.042397242
33	0xbc892140	-0.016739488
34	0x3e297922	0.16550115
35	0x3bc3c24d	0.00597409
36	0xbd489807	-0.04897311
37	0x3e729cc9	0.23692621
38	0x3d68a711	0.056799952
39	0xbe9f7aec	-0.3114847
40	0xbda1bc59	-0.078972526
41	0xbe894054	-0.2680689
42	0x3e176f24	0.1478849
43	0xbdd3f909	-0.10350234
44	0xbeb90194	-0.36134017
45	0xbe2b125c	-0.16706222
46	0x3e331739	0.17489327
47	0xbed31a61	-0.41231063
48	0xbe9eda85	-0.31026092
49	0xbe3dd48b	-0.1853811
50	0xbee9810a	-0.45606261
51	0x3e5bf70c	0.2148096
52	0xbed5cf36	-0.41759652
53	0xbdb58491	-0.08863176
54	0xbf1f071b	-0.6212022
55	0xbed1fd3e	-0.4101352
56	0xbd065943	-0.03279997
57	0x3d6796e2	0.056540377
58	0x3da7dd60	0.08196521
59	0xbf2227fd	-0.6334227
60	0xbdb4d9c7	-0.088306
61	0x3ea42b2c	0.32064188
62	0xbd8f0dc9	-0.06985051
63	0xbe062f7f	-0.13104056

0.model_cnn.layer3.1.running_var f4 [64]
0	0x3e190288	0.14942372
1	0x3e625eb2	0.22106436
2	0x3d96cfcb	0.07363852
3	0x3e8758cd	0.26434937
4	0x3e818dc6	0.25303477
5	0x3f046c01	0.517273
6	0x3dc6db44	0.0970979
7	0x3defaa0d	0.117023565
8	0x3ea9b9ef	0.3314967
9	0x3edf24f4	0.4358288
10	0x3dd026f5	0.101636805
11	0x3f0876d8	0.5330634
12	0x3e1a6138	0.15076149
13	0x3ea09ebd	0.31371108
14	0x3e2e3b51	0.17014815
15	0x3de6f903	0.11277964
16	0x3ddd96aa	0.108197525
17	0x3e42eb42	0.19035056
18	0x3ddeb41e	0.108741984
19	0x3e5b2a00	0.2140274
20	0x3dc2c879	0.095108934
21	0x3d577630	0.052602947
22	0x3e17934f	0.14802288
23	0x3dae6233	0.08514824
24	0x3db52aff	0.088460915
25	0x3daa4f2c	0.08315882
26	0x3de26142	0.11053707
27	0x3df38852	0.118912354
28	0x3e514d62	0.20439675
29	0x3db42c37	0.08797496
30	0x3e025a6e	0.12729809
31	0x3da19fda	0.078918174
32	0x3db2b552	0.0872599
33	0x3dbbfeb7	0.091794424
34	0x3e514caf	0.20439409
35	0x3dd4274d	0.103590585
36	0x3e40fcda	0.18846455
37	0x3e0e83f5	0.13917525
38	0x3dd66595	0.10468594
39	0x3e9212f0	0.28530073
40	0x3eed770c	0.46379888
41	0x3e0955f7	0.13411699
42	0x3e30fd7a	0.17284194
43	0x3e48e3c8	0.19618142
44	0x3d9dcd83	0.07705214
45	0x3e516a00	0.20450592
46	0x3e4abc35	0.19798358
47	0x3f3d6cb6	0.73994005
48	0x3f025de8	0.5092454
49	0x3e3b2cc4	0.18278795
50	0x3e3c76ce	0.18404695
51	0x3f6113d0	0.87920856
52	0x3e252a97	0.16129528
53	0x3e099c89	0.1343862
54	0x3e906e25	0.28209034
55	0x3e88a8c8	0.2669127
56	0x3de9d7a5	0.11418084
57	0x3e3aac87	0.18229876
58	0x3d9f182e	0.07768284
59	0x3e71b963	0.23605876
60	0x3e22bd21	0.1589246
61	0x3d8d2c45	0.06893209
62	0x3dc208e0	0.09474349
63	0x3e65ab14	0.22428542

0.model_cnn.layer4.0.weight f4 [128, 64, 3]
0	0x3c58f99c	0.013243105
1	0x3bf045c6	0.0073325364
2	0xbc8901bd	-0.016724462
3	0xbdf9b40b	-0.121925436
4	0x3d3aec53	0.045635533
5	0xbbea9ea4	-0.0071600247
6	0xbdbe1e7a	-0.09283157
7	0xbd8001d8	-0.06250352
8	0xbd6d77d4	-0.057975605
9	0xbcb54bd7	-0.02213089
10	0x3c817b38	0.015805826
11	0xbd0bd901	-0.034142498
12	0x3d9dcb73	0.077048205
13	0xbd1540d5	-0.03643878
14	0xbd3bf83a	-0.045891024
15	0xbc8cef62	-0.01720399
16	0x3da3d870	0.080002666
17	0x3c16a367	0.009194232
18	0x3d94452e	0.072397575
19	0x3b4d48ca	0.0031323903
20	0x3d749652	0.05971367
21	0xbb9c6d28	-0.0047737546
22	0x3d4d2b28	0.050089985
23	0xbb4b921b	-0.0031062427
24	0x3da49fab	0.08038267
25	0x3d853110	0.065034986
26	0xbc17d4ce	-0.009267045
27	0xbd1e8345	-0.038699407
28	0xbdf11be1	-0.117728956
29	0x3d66d7aa	0.056358017
30	0xbd9899d6	-0.07451217
31	0x3d75b1cc	0.059984013
32	0xbd246ddf	-0.040143844
33	0x3d96cb8b	0.073630415
34	0x3ca693d1	0.020334156
35	0xbc337f20	-0.010955602
36	0xbde55f80	-0.11199856
37	0x3d67f04b	0.056625646
38	0xbcb74aa1	-0.022374453
39	0xbdbb598c	-0.09147939
40	0xbb81ab00	-0.0039571524
41	0x3d6a28dd	0.057167877
42	0x3c9f66ab	0.019458136
43	0x3d95a878	0.073075235
44	0xbc907f23	-0.017638749
45	0xbd1cae73	-0.038252305
46	0x3c944710	0.018100291
47	0x3cbba06c	0.022903644
48	0xbd6f3b68	-0.058406264
49	0x3d500ec2	0.050795324
50	0x3d6967c1	0.056983713
51	0x3d157d9c	0.036496744
52	0x3dae07df	0.08497595
53	0x3cb2e12f	0.021835892
54	0x3dffeda8	0.12496501
55	0xbcf122a5	-0.029435465
56	0x3ca15a48	0.01969637
57	0x3d1aa5c8	0.037755758
58	0x3ca168cb	0.01970329
59	0xbbddc9bf	-0.006768435
60	0x3db8297b	0.08992287
61	0x3de404ae	0.11133705
62	0xbc4c5976	-0.012472501
63	0x3be39e7d	0.0069463835
64	0xbb1b3db8	-0.002368791
65	0x3da0c892	0.07850756
66	0x3c5d26c3	0.013498011
67	0x3aaa9103	0.0013013188
68	0x3d97a1a3	0.07403877
69	0x3d5967c1	0.053077463
70	0xbd8df918	-0.069322765
71	0xbd9b9346	-0.075964496
72	0xbbbcdf14	-0.0057638977
73	0x3c04e103	0.008110288
74	0x3a9b80d9	0.0011863961
75	0x3d8cde29	0.06878311
76	0xbcbefa07	-0.023312582
77	0x3dc14a5b	0.0943801
78	0xbab0b69c	-0.0013482156
79	0x3d377b48	0.044795305
80	0xbd6b2aaf	-0.057413753
81	0x3c5dc6ba	0.01353615
82	0xbd3d03f1	-0.046146337
83	0xbd8809c0	-0.06642485
84	0xb90f93dc	-0.00013692625
85	0xbcf1d79f	-0.029521761
86	0xbd8d379b	-0.068953715
87	0x3d920491	0.07129777
88	0x3d4952da	0.04915128
89	0x3d6309c6	0.055429243
90	0x3dbd3eab	0.092404686
91	0xbc69e5a5	-0.014275943
92	0x3dbb43ef	0.09143817
93	0xbcc3a17e	-0.023880716
94	0x3cd46aca	0.025929827
95	0xbd1fc6de	-0.039008014
96	0xbd21ab12	-0.039469786
97	0x3d223c5b	0.03960834
98	0x3ca8c2d5	0.020600716
99	0xbd491b86	-0.049098514
100	0x3daf3c8a	0.08556469
101	0xbcc56104	-0.024094112
102	0xbd0b1358	-0.033953995
103	0xbca8c0cf	-0.02059975
104	0xbd945c7c	-0.072442025
105	0x3d64a0ce	0.055817418
106	0xbc1cea12	-0.009577291
107	0x3d8b2438	0.067940176
108	0xbe090ff2	-0.13384989
109	0x3c8db3d3	0.017297661
110	0x3ce149bc	0.02750098
111	0x3b5e8df6	0.0033959127
112	0xbc1f4fa5	-0.009723579
113	0x3c92aa88	0.017903581
114	0xbd3c5c7b	-0.045986634
115	0xbdad52d1	-0.084630616
116	0x3c92e5b5	0.017931798
117	0xbd0e9262	-0.03480757
118	0xbbda46bd	-0.0066612647
119	0xbd860aa9	-0.06545002
120	0x3d6a2a7d	0.057169426
121	0x3d5af5f5	0.05345722
122	0xbd33b339	-0.043872092
123	0xbcdbba88	-0.026822343
124	0xbc225e7c	-0.009910222
125	0xbd0b0dc0	-0.03394866
126	0x3d659641	0.056051496
127	0x3b6c6fc8	0.003607737
128	0x3d2bedaa	0.0419747
129	0x3d2024aa	0.039097466
130	0x3c8d96ca	0.017283816
131	0x3d03aa43	0.032144796
132	0x3d1acc52	0.03779251
133	0x3d11b3ce	0.035571866
134	0xbb36ee55	-0.0027913053
135	0x3d1dea58	0.038553566
136	0xbcc38eba	-0.023871768
137	0xbd34c841	-0.04413629
138	0x3d5388f1	0.05164427
139	0xbcf016d4	-0.02930776
140	0x3cecbea1	0.028899493
141	0xbc8a33b3	-0.016870355
142	0x3accc5fc	0.0015622969
143	0x3d979333	0.07401123
144	0xbc7875c0	-0.015164793
145	0x3da5c7cf	0.08094751
146	0x3c101d72	0.008796083
147	0xbdc0b9a3	-0.094104074
148	0x3cbd5fcf	0.023116974
149	0x3c7faf6d	0.01560579
150	0xbcffe8fc	-0.031239025
151	0xbd221cc9	-0.039578233
152	0xbb3515bb	-0.002763136
153	0xbcec2578	-0.02882646
154	0x3d82d17b	0.063876115
155	0xbd849249	-0.06473214
156	0xbd6e0ccc	-0.058117673
157	0x3d7aa56c	0.061192915
158	0x3d1282b6	0.035769187
159	0x3c862d30	0.016378969
160	0xbd93a014	-0.07208267
161	0x3d1ef588	0.038808376
162	0x3d931e8a	0.07183559
163	0x3d3d3fc3	0.046203386
164	0x3dd34fba	0.10317941
165	0x3d3675ed	0.044546057
166	0x3d957205	0.07297138
167	0x3d17c4cd	0.03705292
168	0x3dcb353f	0.09922265
169	0x3d83662a	0.064159706
170	0xbd0ad64b	-0.033895772
171	0xbde3b98d	-0.111193754
172	0xbd3a7c2c	-0.045528576
173	0xbd18bea4	-0.037291184
174	0xbcd8d84d	-0.026470328
175	0x3d1fa050	0.038971245
176	0x3db944ac	0.09046301
177	0xbd66b8e4	-0.05632867
178	0x3c835eb5	0.01603637
179	0x3ca4bb50	0.020108849
180	0xbbc419e0	-0.00598453
181	0x3b8ccee3	0.0042971238
182	0xbc93b9b5	-0.018032888
183	0x3c7c1283	0.015385273
184	0x3d888a29	0.06666977
185	0x3ac53e15	0.0015048409
186	0x3d8c3d14	0.06847587
187	0x3dcfd71c	0.10148451
188	0x3dc38961	0.09547687
189	0x3d81adc1	0.06331969
190	0x3cc18d8b	0.023627063
191	0x3bec12f9	0.00720441
192	0xbd95a418	-0.07306689
193	0xbb40e5ef	-0.0029433926
194	0xbccb2fb0	-0.024803013
195	0x3b943a16	0.004523526
196	0x3ca0bc48	0.01962103
197	0xbd122b0e	-0.03568559
198	0xbc323df6	-0.01087903
199	0x3d88f386	0.066870734
200	0xbcdc906e	-0.026924338
201	0xbcf1d736	-0.029521566
202	0xbdb231e1	-0.0870092
203	0xbd9f3c39	-0.077751584
204	0xbda4a712	-0.08039679
205	0xbdb999e6	-0.09062557
206	0xbd7b8ec5	-0.061415453
207	0x3c5db402	0.013531687
208	0xbda8c6cd	-0.08241043
209	0xbd44436b	-0.047915857
210	0xbc1a19cd	-0.009405565
211	0x3d04f579	0.032460663
212	0x3c9bc988	0.019016996
213	0xbda4fc3d	-0.08055923
214	0x3d89c1f5	0.067264475
215	0xbd6d56c7	-0.057944085
216	0x3d7df97b	0.0620055
217	0xbc0eee61	-0.008723826
218	0x3d8f4577	0.06995671
219	0x3c15816f	0.009125098
220	0x3cc2f7b4	0.023799755
221	0xbd7c4297	-0.061586943
222	0x3d6fded5	0.05856212
223	0x3d9e3a0b	0.077259146
224	0xbd946bd2	-0.072471276
225	0x3d09d82f	0.033653434
226	0xbd39b571	-0.04533905
227	0xbd1773ba	-0.0369756
228	0xbd3a2db4	-0.045453742
229	0xbd12f8d3	-0.03588183
230	0xbcf6bb40	-0.030118585
231	0x3d1d01c5	0.038331766
232	0xbcbbf800	-0.022945404
233	0x3da359fb	0.07976147
234	0x3b2e5212	0.002659921
235	0x3ca45548	0.020060197
236	0xbdccf4bf	-0.10007619
237	0x3da01c61	0.07817913
238	0x3cd47f8b	0.025939723
239	0x3cf43081	0.029808285
240	0x3dabc715	0.08387581
241	0xbd57bcda	-0.052670337
242	0xbcb65503	-0.022257334
243	0xbde8909d	-0.11355708
244	0xbcdbef63	-0.026847547
245	0xbe01810e	-0.12646887
246	0x3cb45d43	0.022017127
247	0x3bb22d7d	0.0054375515
248	0xbd84b303	-0.06479456
249	0xbb81381e	-0.0039434573
250	0x3c6c5f92	0.014427083
251	0xbc2319c2	-0.009954872
252	0x3d4ed976	0.050500356
253	0xbd7f4372	-0.06232018
254	0x3cecec90	0.028921396
255	0xbd92ba15	-0.071643986

0.model_cnn.layer4.0.bias f4 [128]
0	0x38114333	3.4633278e-05
1	0x375adf46	1.30457975e-05
2	0xb8a80b88	-8.013012e-05
3	0x37842542	1.5752976e-05
4	0xb9000bee	-0.00012211475
5	0x367898e3	3.7043872e-06
6	0xb863dfe3	-5.432953e-05
7	0xb8d7ef36	-0.000102965554
8	0x3920bab0	0.00015328336
9	0x3720ab3e	9.576614e-06
10	0xb81427db	-3.5323068e-05
11	0xb899c69c	-7.3326024e-05
12	0x3817446d	3.6064932e-05
13	0xb6dc9613	-6.573982e-06
14	0xb72ba0bf	-1.0229821e-05
15	0xb7cc6bfe	-2.4368983e-05
16	0xb864335c	-5.4407268e-05
17	0xb926c6b0	-0.0001590501
18	0xb7849c93	-1.5808537e-05
19	0x38179ee3	3.614918e-05
20	0x3806251c	3.198265e-05
21	0x38a3a12d	7.802467e-05
22	0x37171ca9	9.006974e-06
23	0x379ef3ba	1.8948562e-05
24	0xb94cd6ff	-0.00019535048
25	0xb6ba2bb3	-5.548319e-06
26	0xb7b0632f	-2.1027021e-05
27	0x379a7692	1.8413444e-05
28	0xb8c59e98	-9.4232324e-05
29	0xb7b208c0	-2.1223328e-05
30	0x3909acd0	0.00013129716
31	0x370554e8	7.9471865e-06
32	0x384cc0ef	4.8817074e-05
33	0xb8416739	-4.611092e-05
34	0x3825fd75	3.9575116e-05
35	0xb7dd5f52	-2.638964e-05
36	0x374f785e	1.2366187e-05
37	0xb832a8d8	-4.2595755e-05
38	0xb95c5cf0	-0.00021015457
39	0xb7d88149	-2.580941e-05
40	0x37c2d46a	2.3225515e-05
41	0xb74340ab	-1.1637962e-05
42	0xb7d61a4e	-2.5523037e-05
43	0xb84d8ddb	-4.9007922e-05
44	0xb898623e	-7.266224e-05
45	0xb87ee938	-6.077552e-05
46	0xb9006d98	-0.00012247858
47	0x37c49313	2.3433508e-05
48	0x380acfdf	3.309536e-05
49	0xb78b8080	-1.6629929e-05
50	0x388a6ca0	6.600586e-05
51	0xb7d11ed6	-2.49291e-05
52	0xb8eabc4d	-0.00011193063
53	0x389342d5	7.021955e-05
54	0xb777104a	-1.472614e-05
55	0x384c0b78	4.864807e-05
56	0x38a1250a	7.683977e-05
57	0xb784752c	-1.5790189e-05
58	0xb8210162	-3.838668e-05
59	0xb79b65bd	-1.8524815e-05
60	0xb6c34a08	-5.8200712e-06
61	0xb60e26a0	-2.1182132e-06
62	0x387aa7ba	5.9760852e-05
63	0x380f0424	3.4097713e-05
64	0xb86defe6	-5.6728626e-05
65	0x37854dda	1.5891088e-05
66	0xb869bda6	-5.5728153e-05
67	0x3878befe	5.9305683e-05
68	0x37e055fc	2.674292e-05
69	0x38a4e5e0	7.862947e-05
70	0xb78febf0	-1.7156795e-05
71	0xb77c770a	-1.5048086e-05
72	0x360cc9de	2.0979128e-06
73	0x383a4a55	4.4415083e-05
74	0xb6d23dd7	-6.265687e-06
75	0xb6c9217f	-5.9941663e-06
76	0x352f1107	6.521736e-07
77	0x3867bcb1	5.5250424e-05
78	0x3696af45	4.4907524e-06
79	0xb7385d17	-1.0988929e-05
80	0xb82487ef	-3.9227245e-05
81	0xb807c341	-3.2368353e-05
82	0xb611e030	-2.1737178e-06
83	0x381d8966	3.755968e-05
84	0xb8490614	-4.7927795e-05
85	0x37db6b13	2.6156695e-05
86	0xb71ffe83	-9.536397e-06
87	0x36c24748	5.789949e-06
88	0x384faae1	4.951179e-05
89	0x37c70249	2.3723713e-05
90	0x387566a8	5.8508158e-05
91	0xb7ad1c9d	-2.0636531e-05
92	0xb80a15de	-3.292213e-05
93	0xb81f6db9	-3.801074e-05
94	0x394feb73	0.0001982877
95	0xb891e2e6	-6.956402e-05
96	0x3788461c	1.624511e-05
97	0x386015da	5.3426113e-05
98	0xb942e3d5	-0.00018586156
99	0x38e3c246	0.0001086039
100	0x36f64214	7.339064e-06
101	0xb76fd6eb	-1.429555e-05
102	0xb8064a0c	-3.201705e-05
103	0x3759381b	1.2947271e-05
104	0xb88ba660	-6.659026e-05
105	0x37d1aee6	2.4996185e-05
106	0xb81b1c44	-3.6981204e-05
107	0x3905c627	0.00012757686
108	0x38da78af	0.00010417529
109	0xb814f57e	-3.5514582e-05
110	0xb973c599	-0.00023247897
111	0x379cb475	1.8680681e-05
112	0x38c3905e	9.325215e-05
113	0x38bbb1d3	8.949977e-05
114	0xb7d1616c	-2.4960107e-05
115	0xb866481b	-5.4903427e-05
116	0x37800c28	1.526445e-05
117	0x360d5efb	2.1065923e-06
118	0x38eae801	0.000112012036
119	0x38cd2813	9.782626e-05
120	0x38eebe56	0.00011384177
121	0x3812de30	3.501604e-05
122	0xb7fd03e1	-3.0161757e-05
123	0x369f13c6	4.740871e-06
124	0xb7d0f456	-2.490931e-05
125	0xb85927f7	-5.1774052e-05
126	0xb919dbc9	-0.00014673093
127	0xb7225947	-9.676739e-06

0.model_cnn.layer4.1.weight f4 [128]
0	0x3f806894	1.0031915
1	0x3f7d2d71	0.98897463
2	0x3f8479e2	1.0349696
3	0x3f7e18a5	0.99256355
4	0x3f81d5ab	1.0143331
5	0x3f82ae2c	1.0209403
6	0x3f7b42d0	0.9814882
7	0x3f858fbb	1.0434488
8	0x3f87a0bb	1.0595926
9	0x3f8dbabe	1.1072614
10	0x3f81e99b	1.0149416
11	0x3f8595bc	1.043632
12	0x3f8123a6	1.0089004
13	0x3f81433c	1.0098643
14	0x3f82890b	1.0198072
15	0x3f65ffea	0.8984362
16	0x3f85cefa	1.0453789
17	0x3f8477c3	1.0349048
18	0x3f7e9f42	0.9946176
19	0x3f82d878	1.0222311
20	0x3f80a158	1.0049238
21	0x3f8533d4	1.0406442
22	0x3f81457d	1.0099331
23	0x3f811014	1.0083032
24	0x3f879b2b	1.0594229
25	0x3f732c6c	0.9498966
26	0x3f7f8bbf	0.9982261
27	0x3f6b03d9	0.91802746
28	0x3f81562c	1.0104423
29	0x3f77f7b0	0.96862316
30	0x3f841171	1.0317823
31	0x3f7f7846	0.997929
32	0x3f81d378	1.014266
33	0x3f83e0f5	1.0303026
34	0x3f72cf1a	0.9484726
35	0x3f7161b6	0.9428972
36	0x3f7afe66	0.9804443
37	0x3f7ed814	0.9954846
38	0x3f87d9b2	1.061331
39	0x3f782323	0.96928614
40	0x3f82f9e6	1.0232513
41	0x3f83278c	1.0246444
42	0x3f774d8a	0.9660269
43	0x3f7fe83b	0.9996373
44	0x3f7ddc21	0.99164015
45	0x3f833b56	1.0252483
46	0x3f879a03	1.0593876
47	0x3f7df94a	0.9920851
48	0x3f85b284	1.0445104
49	0x3f8f4040	1.1191483
50	0x3f871c2f	1.0555476
51	0x3f7faddc	0.99874663
52	0x3f84dbfa	1.0379632
53	0x3f85fba5	1.0467421
54	0x3f845b6d	1.0340401
55	0x3f74f782	0.95690167
56	0x3f8126a7	1.0089921
57	0x3f87fc74	1.0623918
58	0x3f7e1fc0	0.99267197
59	0x3f7fc40a	0.99908507
60	0x3f7509b9	0.9571796
61	0x3f7792b1	0.9670821
62	0x3f86900d	1.0512711
63	0x3f870088	1.0547037
64	0x3f802b93	1.0013298
65	0x3f77a7cf	0.9674043
66	0x3f81521e	1.0103185
67	0x3f68ea8c	0.9098289
68	0x3f777b78	0.96672773
69	0x3f806085	1.0029455
70	0x3f7d9d99	0.990686
71	0x3f8ad150	1.0845127
72	0x3f821088	1.0161295
73	0x3f834518	1.0255461
74	0x3f809ea4	1.0048413
75	0x3f71c7d7	0.94445556
76	0x3f814f55	1.0102335
77	0x3f8fff3c	1.1249766
78	0x3f80532f	1.0025386
79	0x3f80523e	1.0025098
80	0x3f7ef846	0.99597585
81	0x3f7f7c43	0.99798983
82	0x3f826eec	1.0190101
83	0x3f80685f	1.0031852
84	0x3f82e73f	1.0226821
85	0x3f7cf8a7	0.98816913
86	0x3f6e1f02	0.93016064
87	0x3f800c9b	1.0003847
88	0x3f7eb569	0.9949556
89	0x3f7c87df	0.9864482
90	0x3f87b6d1	1.0602666
91	0x3f7dd8a6	0.99158704
92	0x3f829627	1.0202073
93	0x3f84330d	1.032808
94	0x3f814127	1.0098008
95	0x3f83e693	1.0304741
96	0x3f7235d3	0.9461338
97	0x3f86815d	1.0508229
98	0x3f83fdd2	1.0311835
99	0x3f815b81	1.010605
100	0x3f7e46bd	0.9932669
101	0x3f84efc2	1.0385668
102	0x3f76ab92	0.96355546
103	0x3f7ff327	0.99980396
104	0x3f811b56	1.0086467
105	0x3f75e1ae	0.96047485
106	0x3f6b77d0	0.91979694
107	0x3f87911c	1.0591159
108	0x3f8285ef	1.0197123
109	0x3f83047c	1.0235744
110	0x3f8390ef	1.0278605
111	0x3f7ec120	0.99513435
112	0x3f856df4	1.042418
113	0x3f781418	0.9690566
114	0x3f908e50	1.129343
115	0x3f83ae7a	1.0287621
116	0x3f798b35	0.9747804
117	0x3f809e2b	1.0048269
118	0x3f852e54	1.0404763
119	0x3f84679b	1.0344118
120	0x3f83c1fe	1.0293577
121	0x3f830518	1.023593
122	0x3f86ea2a	1.0540211
123	0x3f894bf6	1.0726306
124	0x3f819599	1.0123779
125	0x3f878f7c	1.0590663
126	0x3f800019	1.000003
127	0x3f818ea8	1.012166
