checkpoint/cnn_features_1d_0930-122637/63-0.4231-best_model.pth (torch, 940543 bytes, 30 tensors)

0.model_cnn.layer1.0.weight f4 [16, 1, 15]
000000 3f 09 1f be ba 13 db 3d 42 4f 23 be bc 3f 3a 3e
       -0.15530871 0.10697122 -0.15948203 0.18188375
000010 ca 2b e5 3c b6 38 1e be 32 f7 84 3e 83 d5 64 be
       0.027974982 -0.15451321 0.25969845 -0.22347073
000020 c5 47 8f bd cd 53 84 3e 92 0a 4c 3e 22 ac 48 be
       -0.06996111 0.25845185 0.19925907 -0.19596913
000030 5b 4f 0f 3e ff 2d 1f be 01 ea 6d be 19 69 da 3c
       0.13995115 -0.1554489 -0.23233797 0.026661443
000040 81 a8 5d 3d 56 26 2f 3e 56 ad 2b 3e 56 20 69 bc
       0.054115776 0.17104468 0.16765341 -0.014228901
000050 38 be a2 3d 66 01 35 3e 25 bd 80 bd 80 db a0 bd
       0.079464376 0.17676315 -0.062860765 -0.07854366
000060 bb b5 3a 3e c0 54 17 3e 80 35 24 3d d7 0e 2d 3c
       0.18233387 0.14778423 0.040090084 0.01056262
000070 06 7a 39 be a5 e5 52 be 35 b9 4c 3e 72 f2 56 3e
       -0.18112954 -0.20595415 0.19992526 0.20990923
000080 3a 83 84 3e 4c c6 73 be a6 ab 6f 3e 2a 99 6c bd
       0.25881368 -0.23806113 0.23405322 -0.057763256
000090 65 f4 20 3e 3a 2b 07 be 28 9a 4a 3a 6d e7 b8 3d
       0.15718229 -0.13200083 0.00077286595 0.09028516
0000a0 dd 12 a6 bd 66 88 16 be be 75 01 3e ea 08 89 3e
       -0.08109067 -0.1470047 0.12642571 0.26764613
0000b0 a7 fc b4 bd 18 27 21 be 2d ce 3b be 57 e3 70 be
       -0.08837252 -0.1573757 -0.18340369 -0.23524223
0000c0 28 b3 5a 3e 4b a1 72 3e f6 3c 37 3e 07 8e 45 be
       0.21357405 0.23694341 0.17894349 -0.1929246
0000d0 4a 6f 57 be 50 3b 16 be 6c 34 21 3e ed 6a 01 3e
       -0.21038547 -0.14671063 0.15742654 0.12638445
0000e0 f5 49 3f 3e c7 2a 61 be 4d 9b 8b 3e 34 f9 81 be
       0.18680556 -0.21988975 0.27266923 -0.2538544
0000f0 c6 9a 23 3d 7b 31 0d bc 62 09 d0 3d dd 43 15 be
       0.039942525 -0.008617754 0.1015804 -0.14576669
000100 db f5 14 3e bb ba 2d bc 6b 10 12 3e 66 32 e7 3d
       0.14546911 -0.010603602 0.14264075 0.112889096
000110 70 51 9b 3d 78 c0 cf bc 07 a8 da 3c 37 16 6c be
       0.07583892 -0.025360331 0.02669145 -0.2305535
000120 79 bf 23 be 3a 9c b8 3d db 55 22 be a6 f0 29 be
       -0.1599101 0.09014173 -0.15853064 -0.16595706
000130 30 2f 09 bd 5d 91 7c 3b af 6b 8a bc 46 3e 6f 3e
       -0.033492267 0.0038538792 -0.01689705 0.23363599
000140 e6 7f 07 3e 78 d3 6e be fe 68 d4 3d 5d 01 84 3e
       0.13232383 -0.23322856 0.10371588 0.2578229
000150 5a 48 0a 3e 69 21 4f be b3 41 54 3d 02 69 e9 3d
       0.13504162 -0.20227589 0.05182047 0.11396982
000160 d8 26 8f 3c 4c ce b5 bd 3d fc 2e 3e a2 57 05 3e
       0.017474577 -0.08877239 0.17088409 0.1302171
000170 35 7e 3f 3e d8 95 92 be 1f 4c db 3c 6a 14 3c bd
       0.18700488 -0.28629947 0.026769696 -0.045917906
000180 be 78 0d 3e 10 5e 72 bc c8 81 9f bd 19 2d e3 3d
       0.1381559 -0.014792934 -0.07788426 0.11092586
000190 40 38 ed 3c 3d 80 ef 3d db 98 32 3e a7 59 64 3b
       0.028957486 0.116943814 0.17441122 0.0034843476
0001a0 ca 4d 6a 3d 65 e2 ac bd 3b 5a 41 3e 1a d6 14 be
       0.05720309 -0.08441619 0.18882076 -0.14534798
0001b0 97 06 35 3e d7 b3 2c 3e b7 74 e1 3d 5b 8c 99 3c
       0.17678295 0.16865478 0.1100859 0.018743685
0001c0 bc ab 07 bd a6 4b 4a be 5b 8c 4c be 14 11 89 3e
       -0.033122763 -0.1975542 -0.19975416 0.26770842
0001d0 0c d2 18 bc 39 f0 6d be b4 35 0f bd 24 9c 7f 3b
       -0.009327423 -0.23236169 -0.034963325 0.003900298
0001e0 47 d2 0d be 85 1a 39 3e 1b fc 3b 3a 1c 2c 07 3e
       -0.13849746 0.18076523 0.00071710505 0.1320042
0001f0 58 13 60 be de 0a 1e bd 94 d9 20 3d ec de 4e 3e
       -0.21882379 -0.038584583 0.03927 0.20202225
000200 76 1f 12 3d ed 4f 80 bd 5f 4a 61 3d 20 8c 7a 3e
       0.035674535 -0.06265245 0.055002566 0.24467516
000210 14 a3 72 3d f4 04 2f be 6d b4 fb 3d 7e bd 65 be
       0.059237555 -0.17091733 0.12290273 -0.22435567
000220 ba f2 60 3d a2 19 e8 3d 2e a7 6b 3d f4 23 b1 3d
       0.054918982 0.11333014 0.05753248 0.08649436
000230 14 92 a5 bd 3c 08 cd 3d 8a be 01 be c6 16 ac be
       -0.08084503 0.10011336 -0.12670341 -0.33611125
000240 c3 91 c1 3d 4d 01 65 bd 99 49 8e 3d a5 90 a9 3d
       0.0945163 -0.055909444 0.069476314 0.08279542
000250 1f b4 e4 3c 05 d2 5c 3e 9b bd 51 bd 8d 22 b1 bd
       0.02791792 0.21564491 -0.051206212 -0.08649168
000260 5f 4f 73 be 33 84 79 be 97 a7 fb bd 23 08 93 be
       -0.23760746 -0.24366836 -0.122878246 -0.28717145
000270 bf d6 9a 3c 08 67 a5 be ca b8 6c be 6e 9e 60 be
       0.018901227 -0.3230517 -0.23117366 -0.21935436
000280 29 a6 82 bd 52 0a 82 be 19 9d 3e bd c4 9b 8d 3d
       -0.06379349 -0.253985 -0.04653654 0.069144756
000290 e9 fb da 3c ec 7d 13 be 54 f3 4b be ec f5 d0 bd
       0.026731448 -0.14403504 -0.19917041 -0.10203156
0002a0 66 c2 ec 3d 68 da 8c 3d 58 67 7f bd 61 9e 43 be
       0.11560516 0.06877595 -0.062354416 -0.19103386
0002b0 b0 1d 92 bd 5f 8f 87 3e e9 ce ec 3d ae 6d 82 be
       -0.07134569 0.2647657 0.115629025 -0.25474304
0002c0 03 e8 37 3e f7 4d 54 be 47 e5 49 bd 09 0d d8 3d
       0.17959599 -0.20732866 -0.04929092 0.10549361
0002d0 9f 0e 2b be 09 8c 08 be 7c 15 38 3d 42 a4 64 3e
       -0.16704796 -0.13334669 0.044942364 0.22328284
0002e0 7e 94 88 3e 34 e6 06 3e 2b 9b ec 39 08 c0 0e 3e
       0.2667579 0.13173753 0.00045129037 0.13940442
0002f0 c2 6f 52 bb f1 36 3f 3e 1d c0 22 be 24 19 3f be
       -0.003211007 0.18673302 -0.15893598 -0.18661934
000300 94 22 8b bd 14 c4 13 3e 2b 52 8f 3e a7 ea 5f 3e
       -0.06793705 0.14430267 0.27992377 0.21866857
000310 bb 3d 61 be 2d c0 6a be 2c 86 4b 3e 88 c2 6e bd
       -0.21996205 -0.22924872 0.19875401 -0.05829099
000320 eb 65 19 3e 5f 2c 1c 3d 1f 80 dd bd 5c 95 02 3e
       0.14980285 0.038128253 -0.10815453 0.12752289
000330 4e c0 3d bd c3 26 04 3e f5 f1 81 be 0d d3 89 bd
       -0.046325974 0.12905411 -0.2537991 -0.06729708
000340 05 c2 49 be 28 71 87 3e 8c 9a 06 3d 86 14 52 be
       -0.19702919 0.2645352 0.03286223 -0.20515642
000350 de b2 a0 bc cb 00 6f 3e 9b 2c 59 be 72 de 15 3e
       -0.01961654 0.23340146 -0.21208422 0.14635637
000360 07 84 86 3d 43 c6 2f be 17 49 30 bd 45 f3 1a be
       0.06568151 -0.17165475 -0.043038454 -0.15131862
000370 a6 bd 0d 3e 63 3b 35 bc f5 1f 6f be 07 de 04 3e
       0.13841876 -0.011061522 -0.23352034 0.12975322
000380 5b 0f 40 be d0 d9 45 3e 0b 0b 28 bd 43 37 43 be
       -0.18755858 0.1932137 -0.041026156 -0.1906405
000390 40 9e 24 3d 09 66 a5 bd 7a 7a 69 3e f4 cd 29 be
       0.04018998 -0.08076102 0.22800627 -0.16582471
0003a0 33 33 c8 bc 65 44 6e be 56 fb c4 bc 88 9d 58 be
       -0.024438476 -0.23268278 -0.024045628 -0.21153843
0003b0 30 5c b8 bd 54 d8 68 be 13 ff 97 be 27 71 ee 3d
       -0.09001958 -0.22738773 -0.29686794 0.11642676

0.model_cnn.layer1.0.bias f4 [16]
000000 2a 0e 89 bb 76 e4 d9 39 2c f2 06 ba 66 6a f1 3b
       -0.0041825967 0.00041559682 -0.0005147781 0.00736742
000010 6a 2a eb 39 c2 f7 97 3a ba 21 a6 3a 93 3f 44 3b
       0.00044854294 0.0011594223 0.0012674846 0.002994512
000020 06 63 c2 bb ca de 7c bb c0 1b e5 39 f1 69 0e bb
       -0.0059322147 -0.003858494 0.0004369896 -0.0021730626
000030 1c 54 32 bb af 45 f0 b8 bb f5 08 ba a5 86 ed 3a
       -0.0027210778 -0.000114570714 -0.0005224605 0.0018121792

0.model_cnn.layer1.1.weight f4 [16]
000000 32 66 8b 3f a1 41 80 3f 45 79 7c 3f 90 4a 86 3f
       1.0890563 1.0020028 0.9862254 1.0491505
000010 5e a2 80 3f 79 15 7a 3f 3d 83 75 3f e2 a3 80 3f
       1.004955 0.97689015 0.9590338 1.0050013
000020 d8 37 83 3f d4 16 82 3f ac 82 80 3f 81 c4 84 3f
       1.0251417 1.0163217 1.0039878 1.0372468
000030 90 23 82 3f 37 6d 72 3f 65 cc 7e 3f 07 8b 79 3f
       1.0167103 0.946979 0.9953063 0.97477764

0.model_cnn.layer1.1.bias f4 [16]
000000 0f a0 83 3c 1e d1 61 3b e5 cd c6 bc 2f 27 f1 bc
       0.016067533 0.003445692 -0.0242681 -0.02943763
000010 13 4b c7 bc de 04 03 bc 5d 9a 55 bd 42 74 88 3c
       -0.02432779 -0.007996766 -0.052149165 0.016656999
000020 25 9d 0d bd df 53 2c bd b7 60 e3 3b 2d ed 38 bd
       -0.034573693 -0.042072173 0.0069390195 -0.045148063
000030 36 77 95 bd 2b c6 28 3b 98 89 dd 3c 2f cc e8 3c
       -0.07298128 0.0025752883 0.027043149 0.028417675

0.model_cnn.layer1.1.running_mean f4 [16]
000000 c2 20 49 ba e6 bc 88 bc 26 31 da bc 67 68 f8 3b
       -0.0007672423 -0.016691636 -0.026634764 0.007580805
000010 9d 31 8f 3b 43 1c c3 bc 97 f6 e9 bc 40 23 29 3a
       0.004369928 -0.023817187 -0.028559966 0.0006452091
000020 4e b1 0e bd 4e 2c 9e bc 2f a8 c9 3d 1d 7d 0f 3c
       -0.03483706 -0.019308235 0.098465316 0.008757857
000030 a1 d2 3b bd ad e6 60 3c 4a 93 ed 3c 74 76 82 3d
       -0.04585517 0.013726872 0.029000897 0.063702494

0.model_cnn.layer1.1.running_var f4 [16]
000000 5d 8c cf 3c fd f9 fb 3b 77 78 67 3d 49 6b da 3c
       0.025335485 0.007689713 0.05651137 0.026662486
000010 10 6e 5c 3b dc e9 dc 3c 10 44 21 3d eb 5e 03 3c
       0.0033634938 0.026966982 0.03937155 0.008018236
000020 c6 35 a4 3c 1b a9 4a 3d c5 79 7e 3d 39 58 e1 3c
       0.020045172 0.049477678 0.062127847 0.027507888
000030 24 82 ef 3c 1a f6 42 3d f6 a8 97 3b f9 42 2f 3d
       0.02923686 0.047597982 0.004628296 0.04278848

0.model_cnn.layer2.0.weight f4 [32, 16, 3]
000000 66 ef 0b 3e 38 7b 11 bd ad 62 2c be 70 23 4c 3b
       0.13665542 -0.0355179 -0.16834517 0.0031149052
000010 9e ca e0 3c 5a 4a d2 bd be 57 a8 bd 02 f6 3e 3d
       0.027440365 -0.10268088 -0.082198605 0.04662133
000020 ab 7c d6 bd f6 7d cf 3d 56 52 88 bd cb 0e 98 bd
       -0.10472997 0.10131447 -0.06656329 -0.074246965
000030 a7 50 90 bd e4 fd cf bd 73 ec 02 3d 42 b7 79 3d
       -0.07046633 -0.10155848 0.031963777 0.060965784
000040 f5 64 85 bd 44 db af 3d fe e8 e1 bc 77 47 1d bd
       -0.06513397 0.085867435 -0.02757692 -0.038398232
000050 8d 20 04 be f7 ee 52 3d c7 62 81 3d 26 72 43 3e
       -0.12903042 0.051497426 0.063176684 0.19086513
000060 2d 0c 9e 3d 75 9b e6 3d 5a 0e f7 bd 60 be 0b 3d
       0.07717166 0.1126012 -0.12063284 0.034117103
000070 79 df bf 3d 04 53 c2 bc 22 90 a0 3d 58 84 3b bd
       0.09368796 -0.023721226 0.07839991 -0.04578051
000080 dc 30 e9 bd 3b d8 da bd b5 1d e3 3d 75 86 34 ba
       -0.11386272 -0.10685774 0.110896505 -0.0006886491
000090 a0 67 82 bd 8b 62 0b 3e 10 97 d4 bd dd 57 d3 3d
       -0.06367421 0.1361181 -0.103803754 0.10319493
0000a0 ef eb 1d 3e 8d dc f7 3d aa b8 43 bc 83 e4 0b 3e
       0.15422033 0.121026136 -0.011945883 0.13661389
0000b0 83 c4 71 3d 88 1a 27 3d 2a d7 6d 3b 16 d0 c0 3b
       0.0590253 0.040796787 0.0036291578 0.005884181
0000c0 09 2a 39 3d 1f c9 65 3d 1d 04 0d 3e c7 3f 52 bd
       0.045206103 0.056100007 0.137711 -0.051330354
0000d0 46 6b 9f 3b 2c 74 08 be a3 b1 60 bd 77 b9 2b 3e
       0.004865083 -0.13325566 -0.054856908 0.16769968
0000e0 0a f3 2d 3b 13 b4 d3 bd 36 fc bd bd 02 70 e0 3d
       0.0026542568 -0.10337081 -0.09276621 0.10958864
0000f0 14 ff 4a bd f0 cb 0f 3e 85 de ee 3d 7e c8 ae bd
       -0.049559668 0.1404264 0.11663536 -0.085343346
000100 38 76 59 3d 0c 55 03 3d aa a1 ec bd 80 47 9e bc
       0.053091258 0.03206353 -0.115542725 -0.019321203
000110 34 71 be 3c cd ee d9 3d 52 3c 39 bc ed c1 df 3d
       0.023247339 0.10641251 -0.011305885 0.1092566
000120 85 1d 20 be 09 81 df bd e1 7c f3 bd a3 09 33 3e
       -0.15636261 -0.109132834 -0.11889053 0.17484145
000130 5e 8a 88 3d 42 3d 2f 3b 90 db ff bd 54 e0 f1 bd
       0.066670164 0.0026739393 -0.1249305 -0.11810365
000140 bc e0 12 bd 46 a4 25 3e b7 46 c4 3c ab 7f 0f bd
       -0.035858855 0.16175947 0.0239595 -0.035033863
000150 57 da 07 be ec 28 b4 bd 75 37 04 be 8e 59 85 3c
       -0.13266884 -0.08796868 -0.1291178 0.016278055
000160 d5 2a c3 3c 3b 6c c2 bd 51 83 96 bd 54 00 ec bc
       0.023824135 -0.094932996 -0.07349265 -0.02880875
000170 5b 68 a0 bd d4 64 ec bd 55 e5 e9 3b 5f 3e fa bd
       -0.07832404 -0.11542669 0.007137934 -0.122189276
000180 3b 13 2e bb a5 11 04 3e 5c b8 b1 bd 13 ba 52 3d
       -0.0026561755 0.12897356 -0.08677742 0.051446985
000190 e2 bc b7 3c ba 0d eb bd 1b 9b 02 3e e5 5d 4e 3d
       0.022428934 -0.114772275 0.1275448 0.050382514
0001a0 fa 15 a9 3d 55 f6 2c 3d e5 50 b2 3d 0f e7 61 bd
       0.08256145 0.042227108 0.08706836 -0.055151995
0001b0 80 0c ab 3c 2d 1e e9 bd 14 f3 21 3e 50 44 1a be
       0.020879984 -0.11382709 0.15815383 -0.15065122
0001c0 74 29 1b 3e be 23 33 3d 0e 83 b0 bb 21 e0 08 3e
       0.15152532 0.04373526 -0.0053867167 0.13366748
0001d0 95 c5 68 bd ed fa 54 bd 2a 08 69 3d a8 8e 3d bc
       -0.056829054 -0.051997114 0.05689255 -0.011569656
0001e0 e2 a6 34 3d 93 bf fa bd 10 f0 ab 3c 82 9d 9a bd
       0.044104464 -0.12243571 0.020988494 -0.075495735
0001f0 ab 6d 99 bd fc cf cc bd 43 98 7b 3d b9 79 8a bc
       -0.07491621 -0.10000607 0.061424505 -0.016903745
000200 d6 24 9a bd 9f 73 8c bc a2 2a 02 3e ae 65 04 3e
       -0.07526557 -0.017144976 0.12711576 0.12929413
000210 8f 88 87 bd da 92 b4 bd 75 90 13 bc 0e 17 05 3e
       -0.06617843 -0.08817072 -0.009006609 0.12997076
000220 29 8e f6 3c 2b d3 c3 3d 85 cb ee bd 1e 9f bb bd
       0.030097084 0.095617615 -0.11659912 -0.091612086
000230 63 8c b2 3d 15 ae bf 3d 65 ea 9c 3d 13 b7 3c bc
       0.08718183 0.093593754 0.07661895 -0.011518258
000240 3f 05 6a 3d 41 d7 67 bd fc c7 93 bd 01 af 1c be
       0.05713391 -0.056601766 -0.07215878 -0.15301134
000250 48 51 26 3d 46 de 90 bd af 2e b0 3d b8 c3 d5 3d
       0.04060486 -0.07073645 0.08602654 0.10437721
000260 b1 44 7a bd d5 e5 ff bd 57 60 a7 3d 15 aa 27 be
       -0.061100665 -0.12495009 0.08172672 -0.16373475
000270 c2 2b 25 3e ec 91 b6 bd 75 37 85 3d 7d 3c a1 3d
       0.16129974 -0.08914551 0.06504718 0.07872865
000280 36 e2 15 bd a4 d1 b4 bd 04 79 08 3d 40 0a 36 3c
       -0.036592685 -0.08829048 0.033318534 0.011110842
000290 4d 72 dd bd a1 c0 b4 3d 45 3f 95 3b aa 1b 99 bd
       -0.10812817 0.088258035 0.0045546615 -0.074759796
0002a0 42 78 ee 3c 6a e9 e7 3c fe 6e c4 bd b5 98 87 3c
       0.029110078 0.028309543 -0.095914826 0.016552309
0002b0 b9 33 92 bd 8d 71 4a be af 05 e7 3d fb 77 b6 bd
       -0.071387716 -0.19769879 0.11280381 -0.08909603
0002c0 dc 82 68 bd c8 74 b2 3d b8 6f 09 3d e7 80 39 3d
       -0.056765422 0.087136805 0.03355381 0.045288946
0002d0 67 08 98 3d 19 23 91 bd 2e 54 c5 bb 08 09 03 3d
       0.074234776 -0.070867725 -0.006021998 0.031991035
0002e0 3c a8 ca bd 97 2a 04 be d2 ce 5a 3d 36 81 88 3d
       -0.098953694 -0.12906872 0.053419895 0.0666527
0002f0 e5 4b 9b ba 82 6f a9 bd a1 74 67 bd e2 3d b9 3d
       -0.001184818 -0.082732216 -0.05650771 0.09045006
000300 07 27 fb bc df 42 c8 3d b2 6d 55 bd ec de 39 3e
       -0.030658258 0.0977838 -0.052106567 0.18151444
000310 62 bc 26 3c b8 8e 88 3d 1a b7 04 bd f1 45 13 3e
       0.01017675 0.066678464 -0.03240118 0.1438215
000320 f5 0a e1 3d ef 33 ac 3d 59 26 41 3b 5d 2d 74 bd
       0.10988418 0.08408343 0.002947232 -0.059613574
000330 8c 0d a7 3d f5 8e cf 3b 38 b3 36 bd c8 8c b9 3d
       0.08156881 0.0063341805 -0.04460451 0.09060055
000340 da ba d1 bd 79 99 ad bd d1 c6 e9 3d 02 08 6c bd
       -0.10240717 -0.08476538 0.11414874 -0.057624824
000350 69 43 34 be cc 41 c3 bd 9d 7a 80 bc dc 91 7b 3d
       -0.1760384 -0.09534034 -0.015683467 0.0614184
000360 c8 15 dd bd 03 70 05 be a7 f1 09 be 60 67 1b be
       -0.1079517 -0.1303101 -0.1347109 -0.15176153
000370 81 26 0f be a0 6d 2c 3e 5b f7 b2 3d 17 fe 60 bd
       -0.13979532 0.16838694 0.087385856 -0.05492982
000380 1d 55 4f 3d 84 20 9e bd bb ff eb bd 3f 7f 06 3e
       0.05061828 -0.077210456 -0.11523386 0.13134478
000390 0c c0 f7 3d 99 cd 57 bd b3 04 a6 bc c8 f6 cc 3d
       0.12097177 -0.052686308 -0.020265913 0.10008007
0003a0 39 15 78 3d 07 68 0a 3e e9 41 b7 bd 5b ea 36 be
       0.060567115 0.13516246 -0.08948118 -0.17862837
0003b0 38 c2 50 bc 93 ec f7 3d f9 e9 ea bd a0 36 30 3e
       -0.012741618 0.1210567 -0.11470408 0.17208338
0003c0 80 4a 80 bd cf ac 6c bc 44 5b f0 3b f1 76 dd bd
       -0.0626421 -0.014445498 0.0073350985 -0.10813702
0003d0 36 02 9c bd f6 06 33 3d 63 d1 e9 3c 75 32 88 bd
       -0.07617609 0.04370781 0.028542226 -0.06650249
0003e0 ac ce 0c be 3d 3b 05 bd 0b 2e c8 3d f8 a9 1a bc
       -0.13750714 -0.032527197 0.09774407 -0.009439938
0003f0 ce 83 de 3d ff fc 12 bd c0 73 a2 3d 17 48 ab 3d
       0.108649835 -0.035885807 0.07932234 0.083633594

0.model_cnn.layer2.0.bias f4 [32]
000000 d9 05 09 39 b9 da 6a 39 4f 7a 47 39 51 05 cd 3a
       0.00013067517 0.0002239746 0.00019023682 0.0015641843
000010 bf 14 2b ba 76 75 80 3a 06 5d 35 ba b3 d8 cf 39
       -0.0006526224 0.0009800631 -0.00069184636 0.0003964357
000020 a1 fa a3 39 64 64 81 ba df e7 3f 3a f1 a6 67 b9
       0.00031276516 -0.0009871838 0.0007320623 -0.00022092067
000030 4d 40 b7 3a e2 ba 51 39 ec 9f c3 39 6a b0 21 39
       0.0013980955 0.00020001412 0.0003731245 0.00015419876
000040 96 cf 03 3a ab e7 dd ba 99 f0 90 ba 4e fb 26 ba
       0.0005028186 -0.0016930004 -0.0011058032 -0.0006369845
000050 d6 e5 f1 ba b2 7a 2c ba e3 14 24 ba 79 00 04 3a
       -0.0018455337 -0.00065795623 -0.0006259216 0.0005035471
000060 e6 6c b7 ba 94 01 a6 ba ae fe c9 38 af d2 d2 39
       -0.0013994246 -0.0012665265 9.631865e-05 0.00040211293
000070 df fd c3 3a 3c 30 32 39 7d 45 bc b8 3d 89 10 bb
       0.0014952979 0.00016993372 -8.977482e-05 -0.0022054457

0.model_cnn.layer2.1.weight f4 [32]
000000 9a fe 82 3f 03 67 83 3f 68 75 71 3f d7 df 78 3f
       1.0233948 1.0265812 0.9431977 0.9721655
000010 f3 50 73 3f 20 41 7e 3f 21 0d 7d 3f b8 56 7a 3f
       0.95045394 0.9931812 0.9884816 0.9778857
000020 0d 44 7d 3f f4 e8 82 3f 6a 31 71 3f 08 67 7d 3f
       0.9893196 1.0227342 0.94216025 0.9898534
000030 55 ee 82 3f 2b 3d 78 3f 71 69 83 3f ac d4 80 3f
       1.0228983 0.96968335 1.0266553 1.0064902
000040 e2 0f 87 3f f7 95 82 3f 63 8a 83 3f 23 33 7c 3f
       1.0551722 1.0202016 1.0276607 0.9851553
000050 47 53 86 3f e2 4c 7f 3f 74 fb 79 3f cd 55 80 3f
       1.0494164 0.9972669 0.9764931 1.0026184
000060 ef d4 86 3f 72 b7 85 3f 70 75 7f 3f 7e 8e 80 3f
       1.0533732 1.0446608 0.9978857 1.0043485
000070 d0 dc 89 3f bf 5a 80 3f bb fc 80 3f ed c5 84 3f
       1.0770512 1.0027694 1.0077127 1.0372902

0.model_cnn.layer2.1.bias f4 [32]
000000 d9 a8 ab 3c 9f 7e d8 3c 58 bb f8 bc de d8 9f 3a
       0.020954536 0.026427565 -0.03036277 0.0012195369
000010 e4 9b 42 bd 46 6f cd bc e0 fc 9f bd 7e 1f b4 bc
       -0.04751195 -0.025077473 -0.07811904 -0.021987673
000020 12 23 d6 ba cc b7 1d bd 29 56 5a bc d6 fb 12 bd
       -0.0016337356 -0.03850536 -0.013326206 -0.0358847
000030 cb 96 c7 bc 2a 3c 24 bd 66 83 70 3b 71 85 71 bc
       -0.024363896 -0.04009644 0.0036699413 -0.014741288
000040 ac 6a 00 3b a1 86 e2 3c 9b 3b 15 bd 4b df a5 bd
       0.0019594831 0.027652087 -0.036433797 -0.080992304
000050 7f fb 1e bb 36 07 d7 bc 2c d4 5f bd 1c 20 6b bd
       -0.002425879 -0.026248556 -0.054645702 -0.05740367
000060 ec 47 0f 3c 3e 4b a6 3c bc 80 a5 bc 4c 5b 41 bd
       0.008745175 0.02029955 -0.020202987 -0.047206208
000070 8c f0 33 3d 45 fa 44 3a 7f 88 5c bd 63 7d 4a 3c
       0.043930575 0.00075140997 -0.05384111 0.012358996

0.model_cnn.layer2.1.running_mean f4 [32]
000000 16 f1 56 3c 36 e7 5c be 78 d7 1f 3d b9 64 00 bd
       0.013119003 -0.21572575 0.039023846 -0.031346057
000010 5e b0 ce 3c cf 77 51 bd 68 c2 14 3c 12 78 10 3c
       0.025230583 -0.05113965 0.009079553 0.0088176895
000020 8e 4c 21 be e9 d8 e7 bc f3 a8 b6 bd bb 2f ba 3c
       -0.1575186 -0.028301673 -0.08918943 0.022727838
000030 d8 21 6f be 98 d6 c2 3d e4 76 20 3e d7 89 a6 bd
       -0.23352754 0.09513587 0.15670353 -0.081317596
000040 1e 8d 49 be 26 28 73 3d 7a a7 99 3d 62 61 fd 3d
       -0.19682738 0.05936446 0.07502647 0.1237209
000050 ba fb c5 bd 86 36 8f 3d 81 26 b0 3c a9 68 7a 3c
       -0.09667154 0.069928214 0.021502735 0.015283742
000060 b2 77 9c be ff a0 9c bd 80 26 f4 bd 72 cc 00 3d
       -0.3056007 -0.07647895 -0.11921406 0.031444974
000070 ba 46 0e be a6 54 cf bd b8 67 61 be 12 e8 5e be
       -0.13894168 -0.10123567 -0.22012222 -0.21768215

0.model_cnn.layer2.1.running_var f4 [32]
000000 26 e9 a9 3c 7c 42 2c 3e fc bd e2 3d 69 25 08 3d
       0.020741057 0.16822237 0.11071393 0.033238802
000010 80 57 32 3e 9b 1e 3d 3d e5 43 fd 3c 83 00 23 3d
       0.17416191 0.046171766 0.030916164 0.03979541
000020 d6 e5 14 3e 0a f3 b1 3c 84 d3 11 3e b4 25 9a 3d
       0.145408 0.021722335 0.14240843 0.075267226
000030 33 8d 8f 3e b4 c8 14 3d 32 4e 43 3d 78 39 87 3d
       0.28037414 0.036324218 0.047681995 0.06602758
000040 c4 1f 1d 3d 70 39 dc 3c c0 c1 d7 3c 9d 77 12 3d
       0.038360372 0.026882857 0.026337504 0.035758603
000050 15 12 49 3d 64 f5 9b 3d f3 d1 c6 3c 0c e1 d9 3c
       0.04908951 0.07615164 0.024270033 0.026596569
000060 74 1d e8 3d e9 c0 06 3d 52 e3 2a 3e 7c 12 cc 3c
       0.11333743 0.032898817 0.16688278 0.024911158
000070 61 63 99 3d 31 33 0c 3e 64 0d 1b 3e d1 c2 1c 3d
       0.07489658 0.13691403 0.15141827 0.03827173

0.model_cnn.layer3.0.weight f4 [64, 32, 3]
000000 8a a3 e3 3d db 2d 87 3d 49 7b 10 be 9a 04 45 3d
       0.11115177 0.06600543 -0.1410953 0.04810009
000010 92 14 30 bd 44 a8 f7 bb e7 90 75 bd e3 9e a4 3d
       -0.042988367 -0.0075579006 -0.059952643 0.08038118
000020 8f 15 b3 bd b6 9c 18 bc ad 75 6d 3c ee 88 90 bd
       -0.08744346 -0.009314707 0.014493388 -0.07057367
000030 a1 2d 20 bd 4c 26 03 be bc a8 11 bd f9 f5 69 3d
       -0.039106015 -0.12807578 -0.03556131 0.057119343
000040 c9 54 13 bd 14 30 00 3e af 03 09 3c 02 c5 33 bb
       -0.03596953 0.1251834 0.008362695 -0.0027430658
000050 b9 3c 3e bd 67 f8 f4 bd 7a 57 9b 3c e7 cb 5d bc
       -0.04644463 -0.119614415 0.01896261 -0.013537384
000060 d1 85 f5 bc 62 41 a0 3d 12 92 19 bd 2e 34 c7 bd
       -0.029971035 0.07824971 -0.03749282 -0.09726749
000070 d6 8b 83 3c e0 c3 a0 bd f8 92 85 3d 6d 8b 0d 3e
       0.01605789 -0.0784986 0.06522173 0.13822718
000080 4c 35 a6 3d d0 8d a1 bd a7 7f 5f 3d 24 64 96 3d
       0.08115634 -0.07888377 0.054565098 0.07343319
000090 e8 da b1 bd e8 4c b9 3d 09 58 85 bb 61 7a 51 3d
       -0.08684331 0.09047872 -0.0040693325 0.0511421
0000a0 e9 b9 b6 bd 88 8f 52 3d 35 ae 55 3b 29 99 03 be
       -0.08922178 0.051406413 0.0032605056 -0.12851395
0000b0 39 87 f0 3d 57 27 b9 3d 1f dd 83 3d c8 40 ed bd
       0.11744542 0.090407066 0.0643866 -0.11584622
0000c0 24 4e 17 3c 0c 26 9c 3d ba fa b8 3d c4 d9 d1 bc
       0.009234939 0.07624444 0.09032197 -0.025616534
0000d0 fd 48 fa bd 82 79 8c bd 63 a6 47 3d 8f 5d de 3b
       -0.12220953 -0.06859113 0.048742663 0.0067860554
0000e0 72 d3 2e bd da 99 49 bd d3 f9 c6 bd 74 7e 24 3d
       -0.04268212 -0.04921899 -0.09715619 0.040159658
0000f0 b6 bb ba 3c 7f 88 9d 3d 0c 84 6b bd 02 0a 7b 3d
       0.022794586 0.0769205 -0.057498977 0.06128884
000100 54 0c 8b 3d 07 19 2f bc bb 17 b8 3d 0f bb 59 bd
       0.06789461 -0.010687119 0.08988901 -0.05315691
000110 be bd 53 bd 7f b7 29 3c e1 21 a8 3d 4a 67 cc 3c
       -0.051694624 0.01035869 0.08209587 0.024951596
000120 05 e4 22 bb 49 7b ac 3c 2c 6e 6f 3d 5e ab b0 3b
       -0.0024855149 0.02105488 0.058454677 0.0053915223
000130 1f f4 e9 3c 71 43 7a 3d a0 fe 4b bd f0 1d 68 bd
       0.028558789 0.061099473 -0.049803376 -0.056669176
000140 70 d0 d1 bd 17 88 97 3d 22 2f 05 3d 7e 49 fa ba
       -0.102448344 0.07399004 0.032515652 -0.0019095389
000150 2e 85 80 3d 25 5d a4 3d a4 61 9c bd 45 e2 0a be
       0.06275402 0.080255784 -0.07635811 -0.13562877
000160 6f 78 47 bd 78 c2 e1 bd 0c 97 9e bd 39 32 96 3d
       -0.04869884 -0.1102342 -0.07743654 0.07333798
000170 9b 74 5a bd aa 1e 18 bd 14 89 06 3e 61 62 5a 3d
       -0.05333386 -0.03713862 0.13138229 0.053316478
000180 31 d4 39 3d d2 fa d3 3d b2 4d d4 3d 06 29 1d 3c
       0.045368377 0.103505746 0.10366382 0.0095923
000190 69 14 c2 3d 35 a4 32 3d 69 d5 d0 3c 3a dc ab 3a
       0.09476549 0.04361363 0.025492387 0.0013111897
0001a0 95 90 95 3c f4 eb 34 bb ac da 94 3d 31 b2 f2 3c
       0.018257419 -0.002760646 0.07268271 0.029625984
0001b0 27 12 6c bd 88 2a 89 bc 89 2f 45 3d 6e 5c b4 bd
       -0.0576345 -0.016743913 0.048141036 -0.08806692
0001c0 20 42 9a bd f0 a9 a8 3d c5 c0 07 be 2a fe 9f 3d
       -0.075321436 0.08235538 -0.1325713 0.0781215
0001d0 8f fc f9 bd 2d fb b6 bd 2f 3c e6 3d 8b ef cb 3c
       -0.12206375 -0.08934627 0.11241948 0.024894496
0001e0 a4 29 d6 bd ed b8 02 3e 35 d5 04 bd 48 b6 f4 3c
       -0.10457161 0.12765856 -0.032429893 0.029872075
0001f0 40 9c a1 3c fb c2 76 3d 26 31 60 3c f3 db df bd
       0.019727826 0.06024454 0.013683593 -0.10930624
000200 d2 c9 de bd 37 00 f7 bd 62 a1 9d bd 3b 0d c2 3d
       -0.10878338 -0.12060588 -0.07696797 0.0947518
000210 23 19 33 bc c3 5d 92 bd b6 5d 14 be ae b5 a1 3d
       -0.010931286 -0.0714679 -0.14488873 0.07895981
000220 c7 49 ed 3d 1d 62 8f 3d 19 bc b6 3d 57 f8 14 bd
       0.115863375 0.070011355 0.089225955 -0.036369648
000230 26 bc ff ba 1d e9 21 bc f2 67 af 3c 30 e1 1b bd
       -0.0019511029 -0.009882239 0.02141187 -0.038056552
000240 82 f4 68 3d 86 74 05 3d ee 9f 12 be 77 e8 c3 bd
       0.056873806 0.03258183 -0.14318821 -0.095658235
000250 1a fc 07 39 0a 11 9f 3c b3 5e e4 3c e6 93 96 bc
       0.00012968518 0.019417305 0.027877187 -0.01838107
000260 3d 7b 07 be b9 4a 5c bd f4 f0 99 bd 78 a7 30 3d
       -0.13230605 -0.0537822 -0.07516661 0.04312846
000270 38 f8 66 3d 73 61 a2 bc 99 10 98 bd 6b 0b d3 bd
       0.056389064 -0.019821858 -0.07425041 -0.10304912
000280 ac d6 b1 ba cd 3e 77 bd ad 4b eb bd 0e 80 a1 3d
       -0.0013568006 -0.060362626 -0.114890434 0.078857526
000290 52 f4 0d 3d d5 fe 2c bd 04 ff 95 bd b3 33 d1 bd
       0.03465683 -0.042235214 -0.07324031 -0.10214939
0002a0 fe 3c 09 3e e3 37 88 3d 75 79 ea 3c f4 52 80 3d
       0.13402173 0.066512845 0.028622368 0.06265822
0002b0 95 d3 0d bd 62 35 c0 3d aa d5 77 bd a7 15 26 bd
       -0.03462561 0.09385182 -0.0605065 -0.040547993
0002c0 a8 43 86 3d 25 c2 70 3d 0a e0 d4 3d d0 3a d5 bc
       0.06555873 0.0587789 0.103942946 -0.02602902
0002d0 9b 5e f0 bc 09 95 82 bd 6e db c9 bd 31 c9 4c bd
       -0.029341986 -0.063760825 -0.09856306 -0.04999656
0002e0 b0 ca 70 3d 70 06 71 3d 06 fe 45 bd 64 cd 12 bd
       0.058787048 0.05884403 -0.04833796 -0.035840407
0002f0 a7 04 c8 bd 0d 38 7c 3c ac 49 90 bd 28 f7 c3 bd
       -0.09766512 0.015394223 -0.07045302 -0.09568626
000300 9f 06 04 be a1 07 6d bd 00 28 ca bd 1d 31 80 bd
       -0.12893151 -0.057868604 -0.09870911 -0.062593676
000310 cd 03 67 be 36 9d 3a bd 98 e0 bf 3c 1a c5 e6 3b
       -0.22560044 -0.045560084 0.023422524 0.0070425393
000320 85 ae 10 be 08 26 e9 3c d8 2e 7f 3d 46 2e 19 3d
       -0.14129074 0.028460518 0.062300533 0.037397645
000330 83 ca a3 3d 39 ae 59 bd 0f 00 c7 3d 74 f3 a6 bd
       0.079976104 -0.053144667 0.09716808 -0.08151904
000340 3f b0 4d 3d 0f db a1 bc a0 7c 59 bd f8 ff 91 3a
       0.05021691 -0.019757776 -0.053097367 0.0011138907
000350 4f c9 4d bd 76 90 84 bd bb 26 2e 3d 25 ed a3 bd
       -0.05024081 -0.06472866 0.042517405 -0.08004216
000360 f0 f8 9b 3d c6 0f 12 be e3 ff 87 3c 60 28 eb 3b
       0.076158404 -0.1426383 0.016601508 0.007176444
000370 72 15 aa 3b 89 60 44 3d 73 ef ff bc 38 db 43 bd
       0.0051905448 0.047943626 -0.031242108 -0.047816485
000380 41 fb 07 bc ad 44 80 bc e2 5c cb 3a e0 38 a8 bc
       -0.00829965 -0.015657747 0.0015515352 -0.020534933
000390 bc 26 e8 3b 5a 9d 6e 3b a0 f5 3b 3b ce fc 83 bd
       0.0070846956 0.0036409707 0.002868034 -0.06444703
0003a0 82 66 62 3d 33 5f ac 3c ef f6 f6 ba 52 0e 62 bc
       0.05527354 0.021041488 -0.0018841902 -0.01379736
0003b0 b0 03 b1 3d c1 9f dd bc af 2c 6e 3d 70 74 8b bc
       0.086432815 -0.027053716 0.058148082 -0.017023295
0003c0 ab 30 88 bd 60 d0 a7 bd 7b a3 85 3d 34 91 51 3d
       -0.06649908 -0.08194041 0.06525322 0.051163867
0003d0 83 ec 15 bd ad 53 60 3d e2 f6 4e bd 7c 0a c3 3b
       -0.03660251 0.0547673 -0.050528415 0.0059521776
0003e0 af a8 59 bd be b8 bf bc c1 a6 9c bd 02 9c 28 3d
       -0.053139385 -0.023403522 -0.07648993 0.041164406
0003f0 c6 f1 82 3b 4e 4c 0d 3d 2a 05 c1 bd 77 70 76 bd
       0.003996107 0.034496598 -0.09424813 -0.06016585

0.model_cnn.layer3.0.bias f4 [64]
000000 e5 df 98 b8 04 14 29 b9 d4 77 4c 39 b7 21 5d 38
       -7.2896284e-05 -0.00016124552 0.00019499596 5.2721905e-05
000010 eb b6 29 b9 24 a4 f2 b8 b1 7f 35 b9 b7 16 09 38
       -0.00016185238 -0.00011570033 -0.00017309074 3.26845e-05
000020 cb 4f 84 b8 be b7 4c b8 15 59 2c b9 ff 22 26 b9
       -6.309113e-05 -4.8808513e-05 -0.00016436384 -0.0001584403
000030 57 03 a8 b7 ca 5f 4e b9 f9 19 20 b9 d7 53 b3 39
       -2.0028716e-05 -0.00019681375 -0.00015268465 0.00034204006
000040 e5 e4 6d b6 c3 1b a4 b7 fa db 23 39 0a d5 91 b9
       -3.5448986e-06 -1.9563251e-05 0.00015626839 -0.00027815282
000050 f5 fb 06 3a 6a 3d 8e b9 cb c8 06 37 d1 f9 9c ba
       0.0005149239 -0.00027130108 8.033773e-06 -0.0011976307
000060 63 a5 23 38 f0 55 51 b8 0d 90 0a b9 d2 93 08 b8
       3.9016257e-05 -4.990952e-05 -0.00013214369 -3.2562595e-05
000070 82 e4 95 38 c4 38 c0 37 41 7a 2b 39 53 24 21 ba
       7.1474366e-05 2.2914617e-05 0.00016353374 -0.00061470753
000080 9d 7d 2c b8 82 7d 92 39 b5 4b e9 38 21 9c 80 b9
       -4.1124982e-05 0.000279408 0.00011124407 -0.00024530388
000090 8e 0b 08 b9 f6 02 a9 b8 d4 1c 11 ba 02 8b c2 38
       -0.00012974275 -8.0590995e-05 -0.0005535607 9.276533e-05
0000a0 da c7 d9 b8 d6 7c 20 b9 34 f2 10 b9 66 82 5a 39
       -0.000103845916 -0.00015305294 -0.00013823138 0.00020838677
0000b0 d0 55 33 39 20 d9 cd 38 47 39 95 38 24 63 07 b9
       0.00017102738 9.8156044e-05 7.1155424e-05 -0.00012911536
0000c0 50 ff ca 37 39 5f eb 38 5d 88 d2 38 6f b0 92 b8
       2.4199166e-05 0.0001122341 0.0001003898 -6.994686e-05
0000d0 2c 67 88 b8 6e be 06 39 8a 25 d1 37 68 c5 3e 39
       -6.5042026e-05 0.00012850176 2.4932222e-05 0.00018193352
0000e0 32 07 e1 b8 d1 be 7e b9 70 f5 64 b9 80 47 37 b7
       -0.00010730176 -0.00024294412 -0.00021835207 -1.0924297e-05
0000f0 e9 25 86 b8 a5 2a 12 39 ec cd ad 39 06 0c 90 38
       -6.396679e-05 0.00013939531 0.00033150555 6.8686946e-05

0.model_cnn.layer3.1.weight f4 [64]
000000 5b 91 78 3f 25 7c 7b 3f df 70 84 3f 43 09 77 3f
       0.97096795 0.98236305 1.0346946 0.9649851
000010 97 4f 82 3f 47 a5 77 3f 6d 86 79 3f bb fd 73 3f
       1.0180539 0.9673657 0.9747074 0.95309037
000020 cf ec 81 3f 6d 9b 6a 3f fc 68 83 3f f6 ac 80 3f
       1.0150393 0.9164341 1.0266414 1.0052783
000030 17 92 81 3f b3 03 86 3f ce c1 70 3f 65 57 7f 3f
       1.0122708 1.0469879 0.9404572 0.9974273
000040 ce f1 81 3f d0 7a 82 3f d7 54 82 3f 80 66 71 3f
       1.0151918 1.0193729 1.0182141 0.9429703
000050 71 54 86 3f 33 89 87 3f 4b 9d 83 3f 1c 17 8e 3f
       1.049452 1.0588745 1.0282377 1.1100802
000060 27 3c 80 3f a8 02 80 3f 4d f4 86 3f b7 e8 80 3f
       1.0018357 1.0000811 1.0543305 1.0071019
000070 95 73 7a 3f 10 8c 7c 3f d9 dc 81 3f ad ff 81 3f
       0.97832614 0.9865122 1.0145522 1.0156151
000080 6b 03 82 3f a3 ee 7a 3f 3f 41 82 3f a4 00 81 3f
       1.0157293 0.9802038 1.0176162 1.007832
000090 5e 32 83 3f e9 2c 82 3f 5c e1 7f 3f 07 fc 87 3f
       1.0249746 1.0169955 0.99953246 1.0623788
0000a0 6e 45 83 3f 22 09 7e 3f 52 75 80 3f 12 b0 79 3f
       1.0255563 0.99232686 1.0035803 0.97534287
0000b0 c3 90 7d 3f 44 a6 84 3f c6 12 7a 3f aa 2f 82 3f
       0.99049014 1.036324 0.97684896 1.0170796
0000c0 67 b3 80 3f 7d 41 80 3f d6 c8 84 3f 41 9d 6f 3f
       1.0054749 1.0019985 1.037379 0.93599325
0000d0 17 09 7d 3f e8 4b 88 3f 3d 86 85 3f 9b 87 84 3f
       0.98841995 1.0648165 1.0431591 1.0353884
0000e0 94 08 83 3f 8d f1 7b 3f 0f 58 7b 3f 43 98 84 3f
       1.0236993 0.9841545 0.9818124 1.0358967
0000f0 61 85 70 3f 74 8f 76 3f 34 2f 84 3f ee 28 71 3f
       0.9395352 0.9631264 1.0326905 0.9420308

0.model_cnn.layer3.1.bias f4 [64]
000000 82 8a 8d bd 02 f2 72 bd 79 93 b9 3b 9f 69 ca bd
       -0.06911184 -0.059312828 0.005663332 -0.09883427
000010 ec 9e 24 bd a8 71 40 bd 38 87 c4 bc dc 5c ce bd
       -0.040190622 -0.04698339 -0.023990259 -0.10076305
000020 a1 05 89 bc 27 6d 9a bd 5d c3 f5 bd 61 a2 e2 bb
       -0.016726317 -0.075403504 -0.12000153 -0.0069163297
000030 a0 dd 94 bc dc 2a 8f 3c 2a d2 4b bd 6a 0a dd bd
       -0.018172085 0.017476492 -0.049760975 -0.10793002
000040 d6 35 4d bc 2f 04 36 bd 31 41 82 bd 88 35 d9 bc
       -0.0125250425 -0.044437584 -0.063600905 -0.026514784
000050 30 7d 2d bd b0 a2 b4 bc 6a ff 70 bb ad 0a b9 bd
       -0.042355716 -0.022050232 -0.0036773332 -0.09035239
000060 63 fb 7c bd b2 46 36 bd 9f e2 62 bd 6f b9 0d bd
       -0.06176318 -0.044501014 -0.055391904 -0.03460067
000070 27 ef f5 bd 27 95 03 bd 36 38 8f bd 2e ee af bc
       -0.12008505 -0.032124665 -0.06993143 -0.021475878
000080 21 d9 39 bd 9d 25 79 bd 22 9f 46 bd 18 39 6c bd
       -0.045373086 -0.060826886 -0.048491605 -0.057671636
000090 96 27 1b bd cd b5 3e bd ad e4 0a bd f5 54 5c bd
       -0.03787955 -0.046560097 -0.03390949 -0.05379196
0000a0 84 66 03 bb 2e 0e 81 bd 70 05 0d bd 9e a3 03 bd
       -0.0020050118 -0.06301533 -0.034429014 -0.03213846
0000b0 2c 68 1a bd 05 84 81 3d b1 1f a5 bd bd 95 b9 bc
       -0.037697002 0.06324009 -0.08062685 -0.022654409
0000c0 f4 cd 2c bc d1 23 fe bc b2 5f 87 bc 6f b1 01 bd
       -0.01054715 -0.031022938 -0.016525123 -0.031663354
0000d0 2d 76 a4 bc bf 95 8d bd 9e 98 81 bc 8b 15 11 bd
       -0.020075882 -0.069133274 -0.015819844 -0.035420936
0000e0 61 91 8f bd f1 2c d7 bb b2 49 5d bd 7e c8 15 3d
       -0.07010151 -0.0065666367 -0.05402536 0.036568157
0000f0 b4 8e 8e bd cf a1 0d 3c 30 51 cc bc 10 31 a6 bd
       -0.06960812 0.008644535 -0.024941057 -0.08114827

0.model_cnn.layer3.1.running_mean f4 [64]
000000 d5 c5 dc 3c a4 69 e3 bd 12 f4 c3 be 16 a1 46 3e
       0.026949802 -0.11104134 -0.38272148 0.19397387
000010 1c ea 74 3e b9 e4 eb be 2d 23 15 3d 03 ce a8 3c
       0.2391743 -0.4607294 0.0364105 0.020606047
000020 8b 74 a3 3d c7 30 10 bf 6d 20 ef 3d 64 d1 24 bf
       0.07981213 -0.5632443 0.116761066 -0.64382005
000030 85 d4 49 bd 90 1a f1 be 4d 5a 8e be 37 86 dc bd
       -0.04927494 -0.47090578 -0.2780327 -0.10767787
000040 04 af ae 3e c0 a0 31 bd a3 d6 6d 3d 50 f5 7c 3e
       0.341179 -0.043366194 0.05806602 0.24702954
000050 ca 1f e2 3d 29 17 66 be 50 86 66 3e df 3c df be
       0.110412195 -0.22469772 0.22512174 -0.43601128
000060 3a 5c b3 bd 73 38 d6 bb 7e 43 59 be 50 93 4d 3d
       -0.08757825 -0.006537491 -0.21217152 0.050189316
000070 87 18 8d 3e 50 3c 5e 3e 0d c4 23 3e 9a a2 32 3e
       0.27557775 0.21702695 0.15992756 0.1744484
000080 0f 71 f6 bb 73 a5 17 bd 44 06 36 3e 6b c9 a5 3b
       -0.007520802 -0.03702302 0.17775828 0.0050594113
000090 9c 34 db bc b0 f9 86 3e 5f 5f 50 3d dc 39 ad be
       -0.026758485 0.2636237 0.050872203 -0.33833206
0000a0 ff 02 bb bd 4f 27 97 be d0 12 27 3e 57 69 e2 bd
       -0.09131431 -0.29522178 0.1631577 -0.11055248
0000b0 d6 71 c0 be f1 1a 22 be 43 d5 27 3e 9f d4 cc be
       -0.3758685 -0.1583059 0.16389947 -0.40005967
0000c0 d8 32 98 be 11 4b 3b be 5a 8a e3 be d5 9f 4b 3e
       -0.2972629 -0.18290354 -0.4444149 0.1988519
0000d0 1b 94 d1 be 88 77 9d bd f5 29 17 bf 44 af cc be
       -0.40933308 -0.076888144 -0.59048396 -0.39977467
0000e0 5b c2 ae bc 2c e8 38 3d 34 39 af 3d ff 53 24 bf
       -0.02133291 0.04514329 0.085558325 -0.6419067
0000f0 e2 c8 9d bd 43 6e 9f 3e d7 f6 6f bd 5e c4 10 be
       -0.07704331 0.3113881 -0.058585014 -0.14137408

0.model_cnn.layer3.1.running_var f4 [64]
000000 81 3f 20 3e 9c af 69 3e 54 b6 e6 3d cc 14 84 3e
       0.15649225 0.22820896 0.11265245 0.25797117
000010 a8 93 87 3e ff 49 13 3f 1c dc b4 3d cd e1 06 3e
       0.2647984 0.57534784 0.08831045 0.13172074
000020 af 9c 85 3e d8 26 de 3e 20 c9 dd 3d 66 4f 0f 3f
       0.26096103 0.4338901 0.10829377 0.5598053
000030 76 51 1a 3e 7d 6f 9b 3e 3e 58 36 3e 98 c3 e9 3d
       0.15070137 0.30358496 0.17807099 0.1141426
000040 5d e3 f6 3d 96 36 30 3e fc 57 f8 3d 64 8a 69 3e
       0.12055085 0.17208323 0.12126157 0.22806698
000050 9f 48 b4 3d c4 af 6f 3d e6 20 0e 3e 88 7e 93 3d
       0.08802914 0.058517233 0.13879737 0.07201868
000060 3e 2c b9 3d 8c b8 b3 3d 3b b6 fc 3d a3 8b 0b 3e
       0.09041642 0.08775434 0.12339445 0.13627486
000070 09 6a 37 3e 2a 22 b3 3d 0c 69 fd 3d c4 6b a8 3d
       0.17911543 0.08746751 0.12373552 0.0822368
000080 5d c3 f1 3d 33 06 e8 3d 91 bd 44 3e a8 05 d6 3d
       0.11804841 0.113293074 0.19212939 0.104502976
000090 e1 4e 3b 3e 6f c7 fc 3d 9c c9 d1 3d d9 07 a3 3e
       0.18291809 0.123427264 0.10243532 0.31841925
0000a0 d8 69 f0 3e 27 30 27 3e 70 c5 22 3e 32 c8 4e 3e
       0.46955752 0.16326962 0.15895629 0.20193556
0000b0 41 d2 cc 3d 48 0f 46 3e 50 42 25 3e 17 df 2d 3f
       0.1000104 0.19341767 0.16138577 0.67918533
0000c0 2f 45 04 3f b3 47 29 3e b2 a5 22 3e 0e 22 5c 3f
       0.51668066 0.16531257 0.1588352 0.85989463
0000d0 4e dd 1d 3e ef 87 11 3e 91 55 8a 3e 62 d2 78 3e
       0.15416452 0.14212011 0.27018407 0.24299005
0000e0 d9 4c e0 3d 67 09 55 3e 9f 8d a3 3d 45 31 70 3e
       0.109521575 0.20804368 0.079859965 0.23456295
0000f0 3a 47 35 3e 0e 44 9a 3d 22 59 df 3d 80 2e 68 3e
       0.17702952 0.07532512 0.109056726 0.22673988

0.model_cnn.layer4.0.weight f4 [128, 64, 3]
000000 0c 2f 23 3c 70 0a 03 3c db e0 8d bc ab 41 f7 bd
       0.009959947 0.007998094 -0.017319134 -0.12073072
000010 37 3d 46 3d 2c f9 b7 bb 7e d8 c1 bd d9 16 88 bd
       0.048398223 -0.0056144204 -0.09465121 -0.06644983
000020 40 61 68 bd be f5 a8 bc bc 3e 97 3c 26 9d 0f bd
       -0.05673337 -0.020624992 0.018462531 -0.035061978
000030 ae 54 a0 3d 1a 64 04 bd 5f e7 47 bd 75 85 8f bc
       0.07828651 -0.032322027 -0.048804637 -0.017519692
000040 6c 5a a3 3d fc 93 2a 3c ee 36 98 3d 63 4c 46 3b
       0.07976231 0.010411259 0.07432352 0.0030257932
000050 60 b3 5c 3d d1 ca b9 bb ae f2 54 3d bd a8 05 ba
       0.053882003 -0.0056699296 0.05198925 -0.00050986913
000060 bb 34 a6 3d 40 36 81 3d 40 37 23 bc bd d3 20 bd
       0.08115526 0.063091755 -0.009961903 -0.03926443
000070 7e ca f4 bd d8 00 65 3d 9a be 93 bd 5e 5a 78 3d
       -0.11952685 0.055909008 -0.07214089 0.060633056
000080 ae 43 17 bd 53 da 93 3d a7 a4 a3 3c 3f b8 40 bc
       -0.03692978 0.072193764 0.019975973 -0.011762678
000090 5a 4e e8 bd 4c 41 63 3d 9e 1d cc bc 60 c0 b7 bd
       -0.113430694 0.055482194 -0.024916466 -0.089722395
0000a0 46 cb 79 3a 9b 98 76 3d 76 c2 ad 3c 07 74 96 3d
       0.00095288863 0.06020413 0.02121089 0.07346349
0000b0 a9 30 a3 bc 7e 88 20 bd b9 e0 95 3c 22 2d bb 3c
       -0.019920664 -0.03919267 0.018295633 0.02284867
0000c0 c0 5f 75 bd 7b 7c 47 3d 63 8a 54 3d 7f 2d 18 3d
       -0.059905767 0.0487027 0.05188979 0.037152763
0000d0 a0 7a c0 3d 44 7c a8 3c 48 09 02 3e ba 16 eb bc
       0.09398389 0.020567067 0.12698853 -0.02869736
0000e0 03 72 b7 3c bf 6a 20 3d ba 49 b0 3c 7c 93 fd bb
       0.022393232 0.0391643 0.02151953 -0.007738529
0000f0 ed b0 b7 3d b3 61 e4 3d ac bb 21 bc 60 5a 13 3c
       0.08969293 0.11151447 -0.009871405 0.008993715
000100 a9 5d 93 bb b9 f3 9c 3d 0b cf 68 3c 60 21 0f ba
       -0.004497249 0.07663674 0.014209519 -0.00054599904
000110 12 e8 98 3d 65 3f 4b 3d f5 86 95 bd f8 d7 97 bd
       0.07466139 0.049621005 -0.07301132 -0.0741424
000120 e0 2d b7 bb 77 95 08 3c 0b 80 66 3b 22 c9 96 3d
       -0.0055901855 0.008336416 0.0035171534 0.07362582
000130 31 c9 b9 bc be 4b c1 3d 8d b1 38 bb ac 2c 3d 3d
       -0.022678943 0.09438275 -0.0028182 0.04618518
000140 f4 99 70 bd 29 24 84 3c 2d c1 42 bd 33 0c 91 bd
       -0.05874057 0.016130524 -0.047547508 -0.07082405
000150 98 c6 38 3b e5 3b ec bc 47 41 8e bd f2 3f 9d 3d
       0.0028194543 -0.028837154 -0.069460444 0.07678212
000160 a2 41 59 3d d7 76 58 3d bd a9 bd 3d 63 2c 81 bc
       0.053041108 0.05284771 0.09260891 -0.015768236
000170 06 49 b8 3d d4 24 c7 bc 0a 33 ef 3c 1d 0d 1c bd
       0.08998303 -0.024309553 0.029199142 -0.038098443
000180 cc 58 1f bd fb 7c 13 3d 04 ff b8 3c 73 f3 49 bd
       -0.038903043 0.036007863 0.022582538 -0.049304437
000190 b5 ef af 3d 28 80 b9 bc dc 22 0d bd 25 e6 b0 bc
       0.08590642 -0.022644117 -0.034457073 -0.021594116
0001a0 3f c2 98 bd bc 46 67 3d b4 9f 42 bc 93 a8 86 3d
       -0.074589245 0.056463942 -0.0118788965 0.06575122
0001b0 df 56 08 be 01 e9 88 3c 5d 58 cf 3c 5a 9d 99 3b
       -0.13314389 0.016712667 0.02531069 0.004687947
0001c0 12 b1 78 bc f3 e5 71 3c 01 2c 31 bd dd 6a af bd
       -0.015178936 0.014764297 -0.043254856 -0.085653044
0001d0 9f 7d 8a 3c 68 0f 0d bd 1b 47 4a bc 2a df 80 bd
       0.016905604 -0.03443852 -0.012346054 -0.06292565
0001e0 ba 10 67 3d 9d e4 58 3d c6 62 32 bd 1c 24 c6 bc
       0.056412436 0.052952398 -0.04355123 -0.02418714
0001f0 8b b2 1d bc e8 63 0c bd 8a 08 75 3d 4d bd 90 3b
       -0.0096250875 -0.034274966 0.059822597 0.0044170977
000200 82 d5 2b 3d eb bf 27 3d db 80 8f 3c d4 8a 16 3d
       0.041951664 0.04095451 0.017517498 0.03675349
000210 1d 09 1e 3d 8f 54 13 3d a7 26 ea ba 94 18 25 3d
       0.03858291 0.035969313 -0.0017864302 0.040306643
000220 0a 64 fa bc e8 7d 55 bd 83 e3 63 3d 1e c0 bd bc
       -0.03056528 -0.052122027 0.055636894 -0.023162898
000230 ba ec fd 3c 76 99 93 bc 46 2a bf b8 5c a6 96 3d
       0.03099667 -0.018017512 -9.115464e-05 0.07355949
000240 fc 3d 71 bc bf 11 a6 3d ad 9d 10 3c 0b 2c be bd
       -0.014724251 0.081088535 0.008826655 -0.09285744
000250 1f 45 d1 3c 5d a9 90 3c 3d 75 f6 bc db 7b 2b bd
       0.025545655 0.017658884 -0.0300852 -0.041866165
000260 20 ef 8c bb a9 e2 dc bc 6b 2c 82 3d 85 3f 87 bd
       -0.004300967 -0.026963549 0.06356128 -0.06603912
000270 69 a1 66 bd 5c a5 90 3d 3a 91 1a 3d 76 b4 a9 3c
       -0.056306276 0.0706279 0.037736155 0.020715933
000280 a1 04 8a bd 7d c7 11 3d d1 04 96 3d 3f 66 38 3d
       -0.06739164 0.035590637 0.073251374 0.045019384
000290 e7 4b cd 3d 6b da 3a 3d 07 24 97 3d 66 8b 17 3d
       0.10024243 0.045618456 0.073799185 0.036998175
0002a0 9d f0 ce 3d fe 70 78 3d 0a 7d 0c bd 77 ff e0 bd
       0.10104487 0.060654633 -0.034298934 -0.10986226
0002b0 6a 00 2f bd b0 49 10 bd e9 4a c0 bc 8c 68 33 3d
       -0.042725004 -0.035226524 -0.02347322 0.043800876
0002c0 8c e1 b5 3d 5b d0 7a bd a9 51 79 3c db 0f c4 3c
       0.0888091 -0.06123386 0.015217223 0.023933342
0002d0 83 b1 10 bb f3 89 c1 3b da c3 8d bc a6 62 99 3c
       -0.0022078461 0.0059063374 -0.017305303 0.018723797
0002e0 ae 0b 85 3d 84 2d 37 3b a3 10 8b 3d ba 1f ca 3d
       0.06496368 0.0027950713 0.067902826 0.098693326
0002f0 3e 2e bd 3d fb 18 82 3d 31 cb d6 3c b6 e5 f1 3b
       0.092373356 0.06352421 0.026219936 0.00738212
000300 c4 b1 94 bd c8 5c 19 3a 65 1e c7 bc c2 35 51 3b
       -0.072604686 0.00058503123 -0.024306485 0.0031922911
000310 66 b4 9e 3c 1c 44 11 bd 6b 70 3e bc f0 f7 87 3d
       0.01937313 -0.035465345 -0.011623482 0.06639087
000320 fe e7 e2 bc fc 38 f0 bc 3e 96 b0 bd 9c ee 9e bd
       -0.027698513 -0.029324047 -0.086224064 -0.07760355
000330 d3 52 a3 bd 87 f9 b9 bd ae 1e 7b bd ae 40 4b 3c
       -0.07974782 -0.09080797 -0.061308555 0.012405558
000340 e9 e3 a8 bd c7 a0 48 bd 9a 53 19 bc fe 85 02 3d
       -0.082465954 -0.048981454 -0.009358311 0.031866066
000350 9b 47 98 3c 8a cc a4 bd 07 7d 89 3d 20 ea 6b bd
       0.018588832 -0.08046825 0.067133 -0.057596326
000360 ec 11 77 3d c9 cd 0d bc 26 5b 8f 3d e5 5f e9 3b
       0.060319826 -0.00865502 0.06999807 0.007122027
000370 eb 7a bb 3c 73 84 80 bd 03 a1 74 3d 35 3a 9f 3d
       0.02288576 -0.06275263 0.059723865 0.07774774
000380 d6 ad 99 bd 8c 11 05 3d a3 e2 3c bd af e2 17 bd
       -0.0750386 0.032487437 -0.046114575 -0.037081417
000390 3c 0c 33 bd b9 ab 10 bd 93 90 f9 bc 63 ac 1b 3d
       -0.04371284 -0.035320017 -0.030464446 0.038006198
0003a0 0d 97 bb bc 00 47 a2 3d e7 89 80 3b bc bb af 3c
       -0.022899175 0.079236984 0.0039226892 0.021451823
0003b0 aa 5b cb bd 60 a3 a0 3d 75 39 d3 3c 9b fd f7 3c
       -0.09929593 0.07843661 0.025784234 0.030272296
0003c0 5f f0 ac 3d 31 3a 59 bd 01 68 bb bc 82 6e eb bd
       0.08444285 -0.05303401 -0.022876741 -0.11495687
0003d0 5a 74 d1 bc 4b cd 04 be 0d db b6 3c 35 14 f2 3b
       -0.025568176 -0.12968938 0.022321248 0.007387663
0003e0 c3 4c 85 bd 0e b9 6b bb 04 e9 77 3c 40 5c 1e bc
       -0.06508782 -0.0035968455 0.015131239 -0.009665549
0003f0 e1 a3 4b 3d 9c aa 82 bd 86 0e ee 3c 0e ef 91 bd
       0.049716834 -0.063801974 0.02905966 -0.07125674

0.model_cnn.layer4.0.bias f4 [128]
000000 9f 73 14 b8 92 fe 4d 37 52 de 1b b8 38 d6 fc b5
       -3.539363e-05 1.2278224e-05 -3.716193e-05 -1.8837809e-06
000010 ec 26 62 37 79 51 63 b8 19 d4 be b7 68 01 64 b8
       1.3479712e-05 -5.4196895e-05 -2.274853e-05 -5.4360746e-05
000020 52 52 5c b6 15 91 ec b7 b4 fa 80 b6 c5 59 e3 38
       -3.2830471e-06 -2.8200951e-05 -3.843883e-06 0.000108409244
000030 86 f0 18 39 d8 f0 88 36 62 c8 de b7 6e 1e b1 b7
       0.00014585452 4.0811537e-06 -2.6557773e-05 -2.1114214e-05
000040 d2 fc 03 b9 e9 36 b3 b8 d4 00 94 b7 65 d7 02 39
       -0.00012587316 -8.545613e-05 -1.764336e-05 0.00012478007
000050 fe d8 da b6 55 0d 8c 37 d1 cb 82 b8 f2 a3 91 34
       -6.5221675e-06 1.6695509e-05 -6.236847e-05 2.712764e-07
000060 55 7f 09 b9 d4 49 1a b7 17 10 cc b6 c9 bc ca b7
       -0.00013112773 -9.196305e-06 -6.081547e-06 -2.4168186e-05
000070 3d 1a ac b8 c8 f5 2a 37 8f 73 98 38 55 4d 31 b5
       -8.2064864e-05 1.0190015e-05 7.269449e-05 -6.605017e-07
000080 8a fe 2e b8 c7 39 f8 b8 cf 42 0b b8 ec 9f 91 38
       -4.172189e-05 -0.000118363234 -3.3202403e-05 6.9439266e-05
000090 e4 7f c5 37 6f 0b 7f 37 a8 3e 7a b8 07 03 05 b7
       2.3543784e-05 1.52018465e-05 -5.9662998e-05 -7.928123e-06
0000a0 fd fd 2c b9 5b c9 00 36 cf 94 5e b7 7f 05 d7 b8
       -0.00016497816 1.919069e-06 -1.3266878e-05 -0.000102530226
0000b0 5f e9 22 37 92 51 8e 38 e3 fa ba 38 ed ec 22 37
       9.710288e-06 6.786281e-05 8.9159024e-05 9.711116e-06
0000c0 a7 43 ac 38 75 01 ed 35 ea 52 c1 38 69 cd 92 37
       8.2142e-05 1.76583e-06 9.218401e-05 1.7500208e-05
0000d0 fe 0f 8f b8 03 f3 a9 b8 93 62 03 38 52 98 a3 b7
       -6.82175e-05 -8.1038124e-05 3.132464e-05 -1.9502044e-05
0000e0 fa 4a 1e b9 ac 7c 73 b8 05 43 62 36 d1 0e 7b 38
       -0.00015095985 -5.8051824e-05 3.3715635e-06 5.9856862e-05
0000f0 e7 24 71 b8 b1 16 bf 38 05 c8 73 38 88 62 65 38
       -5.7493246e-05 9.111816e-05 5.8121997e-05 5.468962e-05
000100 25 d4 81 b6 f4 42 6c b8 f1 5e a9 b8 cd 65 58 38
       -3.8691965e-06 -5.632914e-05 -8.076232e-05 5.1593222e-05
000110 c5 9e a1 38 1b 0d ac 38 21 f1 8f b8 75 59 8c b8
       7.7066514e-05 8.20404e-05 -6.863685e-05 -6.692383e-05
000120 01 ea a8 b7 7b 90 79 b7 db cb 87 36 2e 9e 2a b6
       -2.0136127e-05 -1.4875196e-05 4.0470454e-06 -2.5424047e-06
000130 6a 3c 80 b8 04 1c 94 b6 6f 74 da 37 a7 5b 2a b8
       -6.1147686e-05 -4.414005e-06 2.6041844e-05 -4.0616516e-05
000140 7a 60 1c 38 d9 b0 b4 b7 ed 0c 92 b9 11 39 82 38
       3.728315e-05 -2.1540023e-05 -0.0002785692 6.2095125e-05
000150 d2 8a 73 b7 b6 7a c3 38 6b ee 7b 36 1d 62 ce 36
       -1.451625e-05 9.321181e-05 3.7540692e-06 6.1507003e-06
000160 59 0c 42 b9 a8 f0 d9 b7 a1 d2 c3 37 d1 55 0a 38
       -0.00018505882 -2.598048e-05 2.3343893e-05 3.2981687e-05
000170 38 3b eb b8 79 a7 51 38 77 33 81 39 15 6d 24 39
       -0.000112167036 4.9985454e-05 0.00024643142 0.00015680895
000180 cb 45 5e 37 7a 77 b5 b8 5c c5 36 39 76 6f 05 38
       1.3248481e-05 -8.653007e-05 0.00017430395 3.1813477e-05
000190 ae 7d f7 35 b0 ff 86 b8 bb bd 45 38 f2 7f 56 b8
       1.8439512e-06 -6.4372434e-05 4.714516e-05 -5.1140734e-05
0001a0 c8 e5 3f 38 96 40 bc b6 dd 20 1f b7 4c 4c 08 39
       4.575195e-05 -5.6103554e-06 -9.48479e-06 0.00012998394
0001b0 1a 9d 14 38 c1 ec 29 b7 86 32 2a 39 1f fb 46 38
       3.5432262e-05 -1.01283085e-05 0.00016231285 4.7440753e-05
0001c0 4b 74 99 39 32 8a 0b b8 f6 92 ba b5 7b 7f 77 38
       0.0002926908 -3.3268887e-05 -1.3900851e-06 5.9008114e-05
0001d0 28 49 6e b8 78 1c 89 b7 97 12 46 b8 ad ec c4 b8
       -5.6811754e-05 -1.634493e-05 -4.722419e-05 -9.3900926e-05
0001e0 1b 1f 19 b9 c2 5a c9 38 bc 15 a0 37 2a 10 e0 38
       -0.00014602805 9.601332e-05 1.9083607e-05 0.00010684163
0001f0 64 e1 90 38 5e 73 5b b9 fe 19 c7 38 44 8e 3e b7
       6.908437e-05 -0.00020928445 9.493901e-05 -1.1358006e-05
