checkpoint/cnn_features_1d_0930-122637/64-0.4327-best_model.pth (torch, 940543 bytes, 30 tensors)

0.model_cnn.layer1.0.weight f4 [16, 1, 15]
000000 8b 15 21 be a7 5d d9 3d f9 4d 23 be 25 54 3a 3e
       -0.15730874 0.10613566 -0.15947713 0.18196161
000010 d0 49 05 3d 45 4b 1c be e0 f2 84 3e 92 6f 63 be
       0.032541096 -0.15263088 0.2596655 -0.2221053
000020 5e 0e 90 bd a8 19 85 3e b4 a8 4f 3e 3e 79 44 be
       -0.0703399 0.25996137 0.20279199 -0.19186875
000030 88 e6 15 3e 95 1c 1a be 9b 8a 66 be a1 f7 d1 3c
       0.14638722 -0.15049966 -0.22513811 0.025630774
000040 c5 73 69 3d fd d6 2d 3e 80 20 2c 3e 75 5a 20 bc
       0.056995172 0.16976543 0.16809273 -0.009787192
000050 c6 99 a5 3d 77 78 33 3e a0 3e 84 bd 4e 7c a8 bd
       0.080859706 0.17526422 -0.06457257 -0.08226834
000060 f0 e7 38 3e 0c 65 17 3e 18 f7 24 3d 1d 89 28 3c
       0.18057227 0.1478464 0.04027471 0.010286597
000070 9f cc 3a be 5b 75 54 be d5 07 4b 3e 19 05 58 3e
       -0.18242119 -0.20747893 0.19827206 0.21095695
000080 e3 0d 84 3e 5b a2 72 be 7e e9 72 3e 46 eb 63 bd
       0.25791845 -0.23694746 0.23721883 -0.055644296
000090 cf 45 22 3e 5c f2 07 be 7f 75 f4 3a 5b 1e b8 3d
       0.15846942 -0.13276047 0.0018650739 0.08990165
0000a0 5b 07 aa bd 58 7a 18 be d0 49 ff 3d 98 97 89 3e
       -0.08302184 -0.1489042 0.124652505 0.2687347
0000b0 60 74 b2 bd af 96 22 be 6f 86 41 be 55 e2 72 be
       -0.08713603 -0.15877794 -0.18898939 -0.23719151
0000c0 de dc 56 3e 41 43 6f 3e 9e cf 32 3e c3 be 4a be
       0.20982692 0.23365499 0.17462012 -0.19799332
0000d0 ff 2b 5d be fc a2 17 be a6 6d 1d 3e 12 ba 01 3e
       -0.21598814 -0.14808267 0.15373859 0.12668636
0000e0 25 fc 3e 3e cf 8f 61 be 84 4a 8b 3e e9 43 83 be
       0.18650873 -0.22027515 0.27205288 -0.2563775
0000f0 26 b1 1f 3d 92 d6 14 bc 99 cf d6 3d 63 27 12 be
       0.0389873 -0.009084361 0.10488815 -0.14272837
000100 6b 00 16 3e 68 39 9f bb a1 a9 13 3e f8 73 ea 3d
       0.14648597 -0.0048591383 0.14420177 0.114479005
000110 f0 0d a6 3d 62 76 ba bc 12 c2 cc 3c c5 1e 6a be
       0.08108127 -0.022761527 0.024994884 -0.228633
000120 c3 0e 23 be dd 1b ba 3d 2e 1b 23 be a1 6e 2a be
       -0.159236 0.09087346 -0.15928337 -0.16643764
000130 1b f2 1e bd 33 0f 83 3b 8c 39 8f bc 9f 9e 6b 3e
       -0.03880511 0.0039996146 -0.017483495 0.23009728
000140 aa 0d 05 3e 84 b5 70 be 2d 90 d5 3d 51 a7 84 3e
       0.12993494 -0.23506743 0.1042789 0.25908902
000150 1b 66 0b 3e 54 b0 4f be ef df 47 3d d3 52 e1 3d
       0.13613169 -0.20282108 0.048797544 0.110021256
000160 d8 24 53 3c bb 8c bd bd d3 09 2c 3e 91 58 04 3e
       0.012887202 -0.09255358 0.16800623 0.1292441
000170 84 c1 3f 3e eb 6c 93 be 7f 2c 01 3d 33 44 39 bd
       0.18726164 -0.28794035 0.031536575 -0.045231055
000180 44 19 0e 3e 61 17 77 bc 89 fa a0 bd db ef e5 3d
       0.13876826 -0.015081258 -0.07860286 0.112273894
000190 51 d4 00 3d c0 17 f2 3d 25 10 35 3e 6f c4 c3 3b
       0.03145248 0.11820936 0.1768194 0.0059743444
0001a0 7b 31 7c 3d 06 3f b4 bd a2 9c 3e 3e 56 62 16 be
       0.061570626 -0.08801083 0.18614438 -0.1468595
0001b0 7e dd 31 3e b7 bc 28 3e d8 3e da 3d 95 d5 4c 3c
       0.17369649 0.16478239 0.10656518 0.012502094
0001c0 f0 38 14 bd 40 dd 4e be b7 e2 4e be f6 bb 88 3e
       -0.036187112 -0.20201588 -0.20203672 0.26705903
0001d0 eb c2 3f bc f9 b6 6f be 05 0e 16 bd 54 21 4d ba
       -0.011704187 -0.23409642 -0.036634464 -0.00078250957
0001e0 b2 b3 0b be ed e0 3a 3e 4c 91 7c 3b 7c b3 07 3e
       -0.13642767 0.18249865 0.0038538752 0.13252062
0001f0 5c ea 5c be 99 17 13 bd b4 3a 35 3d ea 9f 51 3e
       -0.21573776 -0.035911176 0.044245437 0.20471159
000200 b0 89 12 3d b9 83 7a bd 42 d0 62 3d 81 40 7c 3e
       0.03577584 -0.061160777 0.05537439 0.24633981
000210 78 4b 79 3d fb f1 2b be 3c 49 fc 3d da b9 66 be
       0.06086299 -0.16791527 0.12318656 -0.22531834
000220 77 fc 4f 3d 90 73 e3 3d 10 8b 58 3d 45 a5 ad 3d
       0.05077788 0.11106026 0.052866995 0.08478788
000230 ae c4 b3 bd c8 7f c4 3d 82 e8 05 be 9e 62 af be
       -0.08777748 0.09594685 -0.13076976 -0.34254926
000240 38 97 bc 3d 0f 3f 72 bd 05 c6 88 3d d9 61 a3 3d
       0.0920853 -0.05914217 0.06678394 0.07977647
000250 51 82 d5 3c 8e 05 5c 3e 93 ab 54 bd 6c 67 b0 bd
       0.026063116 0.21486494 -0.05192144 -0.08613476
000260 88 bf 72 be cb 52 79 be cf cc fe bd ec 83 93 be
       -0.23705876 -0.2434799 -0.12441408 -0.28811586
000270 ba e7 83 3c df 5b a4 be 18 f2 6b be 30 85 64 be
       0.016101707 -0.32101342 -0.2304157 -0.22316432
000280 cd b7 80 bd a5 39 81 be f3 a1 36 bd eb 5d 8d 3d
       -0.06285057 -0.25239292 -0.04458804 0.06902679
000290 4c a5 db 3c 2c fc 0f be f1 08 4a be 34 44 d2 bd
       0.026812218 -0.1406104 -0.19729973 -0.10266915
0002a0 dc 41 ed 3d 3b a8 8c 3d 3b 86 82 bd 82 41 42 be
       0.11584827 0.06868025 -0.06373259 -0.18970302
0002b0 f2 c4 91 bd 8e ee 87 3e 7e c4 f1 3d 8a 4c 82 be
       -0.071176425 0.2654919 0.11805056 -0.2544902
0002c0 4b 81 38 3e 70 da 54 be 10 89 4f bd a6 0b da 3d
       0.18018071 -0.20786452 -0.050667822 0.10646753
0002d0 19 62 2b be fd 2f 06 be 19 b4 38 3d 12 33 63 3e
       -0.1673664 -0.13104244 0.04509363 0.2218745
0002e0 7c 39 89 3e 7e 65 07 3e b6 cd e2 3a b4 81 0f 3e
       0.2680167 0.1322231 0.0017303738 0.14014322
0002f0 70 c8 bc ba 23 0b 44 3e c5 3f 20 be b7 9a 3d be
       -0.0014402997 0.19144873 -0.15649326 -0.1851605
000300 18 6e 8d bd 62 24 10 3e e7 f1 8e 3e 41 d3 62 3e
       -0.06905764 0.14076379 0.27918932 0.221509
000310 37 30 62 be 04 29 6c be 39 18 48 3e d3 21 7f bd
       -0.22088705 -0.23062521 0.1954049 -0.062288117
000320 0b 44 14 3e 11 cc 0a 3d ff d8 e2 bd c0 50 05 3e
       0.14479081 0.03388602 -0.11076545 0.13019085
000330 b9 fa 3e bd 80 18 06 3e 62 03 83 be e8 60 8e bd
       -0.046625827 0.13095284 -0.25588518 -0.06952077
000340 6d 4a 4b be 1a 71 85 3e cf 7b 02 3d 23 e8 55 be
       -0.1985261 0.26062852 0.031856354 -0.20889334
000350 e3 1b bf bc bd 0f 6c 3e be fc 5b be 7e ca 11 3e
       -0.023328727 0.23052879 -0.21483132 0.14237401
000360 90 2b 81 3d 17 3a 31 be de 95 3d bd 81 72 1d be
       0.06307137 -0.17307316 -0.046285503 -0.15375711
000370 cf ae 0b 3e 6a 2c 80 bc 70 23 72 be 94 ae 02 3e
       0.13640903 -0.015646178 -0.23646331 0.12761909
000380 d5 22 43 be 06 81 46 3e 7d e5 22 bd fd 8b 43 be
       -0.19056256 0.19385156 -0.03976964 -0.1909637
000390 95 94 25 3d 8c 98 a5 bd f2 37 6a 3e 7a ba 29 be
       0.040424902 -0.08085737 0.22872904 -0.16575041
0003a0 86 3b c5 bc 48 35 6f be 78 69 af bc 3b 56 56 be
       -0.024076235 -0.23360169 -0.021412596 -0.20931332
0003b0 c1 27 b0 bd ff 42 68 be 9e 78 97 be 34 2d ef 3d
       -0.086013325 -0.22681807 -0.2958421 0.11678544

0.model_cnn.layer1.0.bias f4 [16]
000000 c1 30 5e bb f4 f4 b0 ba 95 08 11 bb 1f 07 e8 3b
       -0.0033903571 -0.0013500736 -0.002213036 0.007080927
000010 47 d1 a0 3a e1 e4 92 3a 7b 61 b0 ba 94 be 6f 3b
       0.0012269401 0.0011207127 -0.0013456786 0.00365821
000020 53 90 98 bb 7a 13 13 b7 02 27 9f ba 60 73 00 3b
       -0.0046558767 -8.7664175e-06 -0.0012142363 0.001960002
000030 10 fb 2b bb ce 81 93 39 5f 53 82 bb 03 13 8c 3b
       -0.0026242174 0.00028134737 -0.0039772238 0.0042747273

0.model_cnn.layer1.1.weight f4 [16]
000000 7b f1 8a 3f 45 3f 80 3f 6b df 7c 3f d6 42 86 3f
       1.0854944 1.0019308 0.9877841 1.0489147
000010 d3 00 81 3f 5e 52 7a 3f c8 fd 75 3f bd 45 80 3f
       1.0078377 0.9778193 0.96090364 1.0021282
000020 ee 81 83 3f 0b 32 82 3f 9f 50 80 3f d0 20 85 3f
       1.0274026 1.0171522 1.0024604 1.0400639
000030 33 ff 81 3f 92 5e 71 3f a8 f5 7e 3f 49 85 79 3f
       1.0156006 0.9428493 0.9959359 0.97469

0.model_cnn.layer1.1.bias f4 [16]
000000 c9 c0 87 3c bc de 6e 3b fe 24 bf bc b1 91 fd bc
       0.01657142 0.0036448678 -0.023333069 -0.03095326
000010 d7 c7 9e bc 22 58 18 bc f5 b1 50 bd 5f f4 73 3c
       -0.0193824 -0.009298356 -0.050950963 0.014889806
000020 4d 51 05 bd 8e 44 2a bd 64 92 a1 3b 85 f9 3a bd
       -0.032548238 -0.041569285 0.004930781 -0.045648117
000030 5a 5e 95 bd 96 f9 58 3a 11 3a dd 3c ba 6b dc 3c
       -0.07293387 0.00082769373 0.027005227 0.026906837

0.model_cnn.layer1.1.running_mean f4 [16]
000000 b6 6d 32 bb 4c 11 ab bc af e5 eb bc 11 58 31 3c
       -0.0027226037 -0.020882271 -0.028796045 0.010824219
000010 59 bb 95 3b d8 96 ae bc 5c 7a e9 bc 2a 67 66 3b
       0.0045694527 -0.021312162 -0.028500728 0.0035156705
000020 f2 7f 12 bd a5 eb 83 bc 47 63 c5 3d dc 43 48 3c
       -0.03576655 -0.016103575 0.09638076 0.01222321
000030 46 0a 3d bd 28 6d 5a 3c f6 d0 d7 3c f5 2c 86 3d
       -0.046152376 0.013331689 0.026344758 0.065515436

0.model_cnn.layer1.1.running_var f4 [16]
000000 85 46 d6 3c c3 1a fe 3b c2 3c 65 3d aa 66 e9 3c
       0.026156673 0.007754655 0.055966146 0.028491337
000010 2f 76 5f 3b b7 6b dd 3c df 98 20 3d 39 a8 07 3c
       0.0034097543 0.027028902 0.03920829 0.0082798535
000020 04 75 a3 3c 66 03 4c 3d 9b 31 80 3d 38 ab d8 3c
       0.019953258 0.04980793 0.062594615 0.026448831
000030 ee d6 ee 3c a3 42 47 3d dd 3e 9d 3b 64 1c 30 3d
       0.02915522 0.048647534 0.0047987537 0.042995825

0.model_cnn.layer2.0.weight f4 [32, 16, 3]
000000 f3 53 0b 3e fd ff 06 bd db 5e 2d be 4e f3 59 3a
       0.13606243 -0.032958973 -0.16930716 0.0008314148
000010 9f 14 c0 3c fe 29 de bd 7a c4 aa bd 1e 76 3b 3d
       0.023447333 -0.10847853 -0.08338256 0.045766942
000020 e6 04 e2 bd f9 b9 ce 3d 33 42 87 bd d2 65 9f bd
       -0.110360906 0.10094065 -0.066044234 -0.077830926
000030 b9 d7 98 bd 63 96 d4 bd d0 a5 e7 3c 29 47 68 3d
       -0.07463021 -0.103802465 0.028277308 0.05670849
000040 de 07 85 bd 9b 36 ae 3d 70 08 e4 bc 23 65 1c bd
       -0.06495641 0.08506509 -0.027836055 -0.03818239
000050 90 41 08 be 06 8f 47 3d fb e3 75 3d de a7 3e 3e
       -0.1330626 0.048720382 0.060031872 0.18618724
000060 c6 88 9b 3d d5 10 df 3d 92 8e f6 bd ac b7 09 3d
       0.07594447 0.10891882 -0.12038912 0.03362243
000070 7a 26 be 3d b7 f4 e7 bc cb 5f a7 3d c3 d6 2d bd
       0.092846826 -0.028314931 0.08172568 -0.04244114
000080 18 ec e1 bd b8 b6 d5 bd a0 2e ee 3d 08 84 62 3b
       -0.110313594 -0.104352415 0.11629987 0.003456356
000090 db 4e 8a bd 18 f4 07 3e 09 54 df bd a0 b0 d2 3d
       -0.06753322 0.13276708 -0.109047 0.10287595
0000a0 b9 45 19 3e af 0e fe 3d c8 a5 f2 bb c7 61 0b 3e
       0.14968003 0.124051444 -0.0074050166 0.13611518
0000b0 3b 99 7f 3d 1c d4 2d 3d 9f a1 de 3b 86 75 26 3c
       0.06240199 0.04243861 0.006794169 0.010159856
0000c0 3e eb 24 3d 90 9b 65 3d f8 12 0e 3e a3 c4 5e bd
       0.040263407 0.05605656 0.13874424 -0.054386746
0000d0 dd a7 c9 3a 13 ee 0a be 08 7c 61 bd ac 4d 2b 3e
       0.001538511 -0.1356738 -0.055049926 0.16728848
0000e0 c0 af b5 3a 80 3a d9 bd 1c d2 bc bd a7 0d e5 3d
       0.0013861582 -0.10606861 -0.09219763 0.111842446
0000f0 79 63 4d bd 7b cb 0d 3e db cc ea 3d e9 ea b1 bd
       -0.050143693 0.13847153 0.11464854 -0.08687384
000100 09 8f 50 3d 11 1d f6 3c c9 16 ec bd cf e3 93 bc
       0.05091766 0.030043157 -0.115277834 -0.018052964
000110 fd c4 bc 3c 52 41 d5 3d 9d 28 48 bc 9a be de 3d
       0.02304315 0.104128495 -0.012216714 0.10876198
000120 e3 85 21 be 0d c5 df bd e7 67 f6 bd 53 3b 35 3e
       -0.1577373 -0.10926256 -0.120315365 0.17698412
000130 28 5b 8a 3d 19 b2 89 3b f2 1d 00 be 3e 55 f2 bd
       0.06755668 0.004202139 -0.12511423 -0.11832665
000140 e5 df 14 bd 00 2a 24 3e 27 8c 9e 3c e4 bc 14 bd
       -0.036346335 0.16031647 0.01935394 -0.036312953
000150 d0 10 09 be fc a1 b9 bd 29 d1 06 be b2 ea 85 3c
       -0.1338532 -0.09064099 -0.13165726 0.016347263
000160 a0 50 ab 3c 42 00 c7 bd 37 b4 93 bd 2b a9 ee bc
       0.020912468 -0.09716846 -0.07212108 -0.0291334
000170 67 70 a3 bd de 04 e8 bd 86 50 00 3c 42 3b fc bd
       -0.079804234 -0.11329053 0.007831698 -0.1231599
000180 f0 3c 8d bb 64 18 09 3e f9 be b1 bd e5 e3 40 3d
       -0.004310243 0.1338821 -0.08679003 0.047092337
000190 5d 78 a2 3c 2e cd f3 bd 79 c5 00 3e f6 4c 4b 3d
       0.019832784 -0.11904369 0.1257533 0.049633943
0001a0 c9 7c a6 3d df 80 2d 3d 4f 13 b3 3d 18 50 72 bd
       0.0812927 0.04235923 0.08743917 -0.059158415
0001b0 75 c8 8f 3c b5 bf f5 bd a0 7c 1f 3e 08 fa 1c be
       0.01755164 -0.11999456 0.15574884 -0.15329754
0001c0 d4 78 17 3e 82 34 2f 3d f6 1e f0 bb 9c e9 08 3e
       0.14792186 0.042774685 -0.0073279096 0.13370365
0001d0 2e d0 6c bd 59 a9 4c bd 6c 9b 6d 3d 98 0a a4 bc
       -0.057815723 -0.04996619 0.05800955 -0.020024583
0001e0 3d 11 2d 3d a9 79 fc bd 2f 3f 99 3c 3d 89 a0 bd
       0.042252768 -0.12327892 0.018706886 -0.07838676
0001f0 71 86 89 bd 76 fe c6 bd 20 94 84 3d 7e 74 68 bc
       -0.06715096 -0.09716503 0.06473565 -0.01418793
000200 4b 88 93 bd bc a0 55 bc 5b 66 04 3e 4c 8c 07 3e
       -0.0720373 -0.01303881 0.1292967 0.13237113
000210 9a 0d 8f bd 4a 7e b7 bd 3a 30 7c bc 39 7d 04 3e
       -0.06985016 -0.089596346 -0.0153923575 0.12938394
000220 48 42 d2 3c a2 24 c9 3d f7 e5 ea bd 66 f0 b8 bd
       0.025666371 0.0982144 -0.114696436 -0.09030227
000230 4a 1b b8 3d b1 64 bf 3d 4f b0 a0 3d 3a b5 2a bc
       0.0898958 0.09345377 0.07846128 -0.010419184
000240 b4 b4 68 3d aa a7 68 bd 77 3b 8d bd 82 4f 1b be
       0.056812957 -0.056800522 -0.06896108 -0.15167049
000250 6a 7c 2c 3d 55 61 8b bd a8 64 b3 3d 74 a2 dc 3d
       0.042110838 -0.06805674 0.08759433 0.10773173
000260 4c 6d 71 bd c7 50 00 be 7f 81 a2 3d 34 86 26 be
       -0.058942124 -0.12530814 0.07934856 -0.16262132
000270 b0 8c 29 3e 6e 07 aa bd 40 bb 8a 3d 0e ae a5 3d
       0.16557574 -0.08302198 0.06773996 0.08089839
000280 68 ad 0c bd bd 33 b5 bd 2d 6b 0d 3d 71 14 6d 3c
       -0.03434506 -0.08847759 0.03452604 0.014470206
000290 79 f9 d6 bd df 45 b2 3d 87 4b a0 3b 4e 2f 90 bd
       -0.10496802 0.08704733 0.004891816 -0.07040273
0002a0 e9 0a 0a 3d cb de 06 3d 68 9d c2 bd af 21 88 3c
       0.03370181 0.032927316 -0.09502679 0.016617624
0002b0 15 88 90 bd 31 99 4a be 20 7f e7 3d 40 11 b6 bd
       -0.070572056 -0.19785 0.11303544 -0.08890009
0002c0 5d a1 67 bd fc 8a b8 3d d7 43 01 3d 24 33 38 3d
       -0.056550372 0.09010884 0.031558838 0.044970647
0002d0 c0 70 9b 3d f3 93 8d bd 10 40 33 bb a3 62 02 3d
       0.07589865 -0.06912985 -0.0027351417 0.03183235
0002e0 00 1d ce bd f2 4c f6 bd 14 e9 5e 3d 53 b7 85 3d
       -0.10064125 -0.12026395 0.0544215 0.06529107
0002f0 2e a7 42 3a 3d f3 a9 bd ae 30 66 bd 44 00 be 3d
       0.00074254244 -0.08298347 -0.05619877 0.092773944
000300 52 76 d6 bc 94 b4 c8 3d f6 da 4f bd 22 9e 3b 3e
       -0.026179466 0.098000675 -0.050745927 0.18322042
000310 2b b2 2c 3c fc 6f 88 3d 58 1b 06 bd e9 66 13 3e
       0.010540525 0.06661984 -0.03274092 0.14394726
000320 b9 7f df 3d e0 ea b5 3d bf d9 b1 3b 09 3c 75 bd
       0.10913033 0.088826895 0.0054275687 -0.059871707
000330 eb c8 a4 3d 17 b0 c5 3b 66 6b 34 bd f6 c0 b9 3d
       0.080461346 0.0060329544 -0.044047736 0.090700075
000340 67 d3 d1 bd b2 ba a9 bd bd 95 e9 3d f8 cc 6d bd
       -0.102454 -0.082875624 0.114055134 -0.0580568
000350 67 03 36 be 44 53 bf bd ff d3 80 bc 04 00 7e 3d
       -0.17774735 -0.093420535 -0.015726088 0.062011734
000360 a9 ac d9 bd 01 17 09 be 12 cf 07 be c3 d4 19 be
       -0.106286354 -0.13387682 -0.13262585 -0.15022568
000370 94 ed 11 be f8 40 2f 3e 24 15 b3 3d 75 23 61 bd
       -0.14250785 0.17114627 0.08744267 -0.054965455
000380 19 3c 4f 3d 6a ba 9d bd 82 1e e6 bd b9 3d 09 3e
       0.050594423 -0.07701571 -0.11236288 0.13402452
000390 a6 93 f8 3d 42 68 5a bd c0 cb a5 bc 0a 7e cc 3d
       0.12137537 -0.053322084 -0.020238757 0.099849775
0003a0 b4 4d 85 3d b9 8b 06 3e 0d 5f b8 bd 90 9e 34 be
       0.06508961 0.13139237 -0.090025045 -0.17638612
0003b0 4e 16 6a bc 43 87 f7 3d 49 2b ed bd a3 26 2b 3e
       -0.014287544 0.12086346 -0.115805216 0.16713957
0003c0 43 9a 68 bd dd ba 6b bc 5c 98 00 3c 61 6f e3 bd
       -0.05678774 -0.014387813 0.007848825 -0.11105228
0003d0 27 67 a6 bd 52 52 21 3d f0 5d df 3c 82 2e 98 bd
       -0.081251435 0.039385147 0.027266473 -0.07430746
0003e0 47 a8 13 be 82 89 03 bd 8c 57 c6 3d 48 e1 54 bc
       -0.14419661 -0.03211356 0.09684667 -0.012993164
0003f0 94 08 d9 3d 33 c8 13 bd 51 43 a3 3d 6c bd ab 3d
       0.10597339 -0.036079597 0.07971824 0.08385739

0.model_cnn.layer2.0.bias f4 [32]
000000 c4 c6 81 ba cc 7b 81 39 d6 09 8a b8 22 bb 0a b8
       -0.0009901156 0.00024697033 -6.582185e-05 -3.3076045e-05
000010 5a eb 9b 39 f0 f8 e2 b8 d5 86 49 38 35 45 d3 37
       0.00029739254 -0.00010822888 4.8047707e-05 2.5185387e-05
000020 10 c5 9c 39 9d 70 77 ba 6b ee 38 b8 37 97 88 ba
       0.00029901462 -0.0009439083 -4.4091063e-05 -0.0010421042
000030 c5 80 91 ba 35 53 0e 3a ad 90 5a 3a 86 48 33 3a
       -0.0011100998 0.0005429269 0.00083375984 0.0006839115
000040 0b 21 01 3a 73 ea 24 3b 5f 40 28 ba ff d1 08 b8
       0.0004925883 0.0025164157 -0.00064182834 -3.26205e-05
000050 98 f5 a0 3a 62 5a a5 38 f6 4b 04 b9 72 58 bb 39
       0.0012280224 7.884648e-05 -0.00012616799 0.00035733316
000060 a4 b9 15 3a 66 8f 3b ba 05 58 52 b9 69 71 ee 3a
       0.00057115615 -0.0007154852 -0.0002005995 0.0018191758
000070 01 2e 4e 39 f7 94 4a ba c4 8c 53 3a 9e 95 58 ba
       0.00019662829 -0.0007727886 0.0008069987 -0.0008262041

0.model_cnn.layer2.1.weight f4 [32]
000000 dc d4 82 3f 79 91 83 3f 26 c0 71 3f 98 2d 79 3f
       1.022121 1.027877 0.9443382 0.97335196
000010 3f 3c 73 3f 59 ed 7d 3f 97 3a 7c 3f 1d 74 7a 3f
       0.95013803 0.9919029 0.985269 0.97833425
000020 84 94 7d 3f 8c 05 83 3f a6 00 70 3f 6a 44 7d 3f
       0.9905474 1.0236068 0.9375099 0.98932517
000030 41 f5 82 3f 10 d7 77 3f d2 5d 83 3f f6 04 81 3f
       1.0231096 0.96812534 1.0263007 1.0079639
000040 8b 10 87 3f 0a 0d 83 3f ab 73 83 3f cb 42 7c 3f
       1.0551924 1.0238354 1.0269674 0.9853942
000050 47 38 86 3f 4b b4 7e 3f 45 00 7b 3f ca 61 80 3f
       1.0485924 0.99493855 0.98047286 1.0029843
000060 94 56 87 3f 1e 05 86 3f bd 1d 7f 3f 82 41 80 3f
       1.0573297 1.0470312 0.9965475 1.0019991
000070 aa 41 8a 3f 48 51 80 3f 77 da 80 3f 42 c6 84 3f
       1.0801289 1.0024805 1.006667 1.0373003

0.model_cnn.layer2.1.bias f4 [32]
000000 84 da 98 3c 88 93 e5 3c b7 b9 08 bd ea b6 0b 3b
       0.018658884 0.02802445 -0.033380236 0.0021318742
000010 c8 67 44 bd 67 ae e2 bc 0f 6f a7 bd 48 39 a5 bc
       -0.047950536 -0.027671052 -0.081754796 -0.020168915
000020 0b b7 9a ba 19 ac 1f bd 42 d1 88 bc 69 bb 11 bd
       -0.0011803819 -0.038982484 -0.016701344 -0.03557912
000030 09 d4 dc bc 09 91 33 bd 37 94 d0 3b 3c ba 8b bc
       -0.026956575 -0.04383949 0.006365325 -0.017056577
000040 53 7b 65 3b ff 37 03 3d d5 b5 0f bd 80 b6 a4 bd
       0.0035016134 0.032035824 -0.035085518 -0.080426216
000050 03 32 d5 bb 57 3b f8 bc 51 21 60 bd 86 1c 72 bd
       -0.006506206 -0.030301733 -0.054719273 -0.059109233
000060 00 18 ee 3b b5 e1 a2 3c 34 9c af bc 25 97 49 bd
       0.0072660446 0.019883016 -0.021436788 -0.04921641
000070 87 56 35 3d a9 5c 30 ba a5 56 78 bd 49 3a 43 3c
       0.044271972 -0.00067276746 -0.060629506 0.011915752

0.model_cnn.layer2.1.running_mean f4 [32]
000000 00 a5 47 3c 33 eb 5f be 73 a8 1e 3d 27 fd d4 bc
       0.012185335 -0.21867065 0.038734864 -0.025999619
000010 d3 46 ac 3c 89 1a 4c bd 21 ba 4a 3c 6b a4 1b 3b
       0.021029865 -0.049829993 0.012373478 0.0023749124
000020 a6 13 26 be 89 53 e2 bc 56 ea b3 bd 19 4e 87 3c
       -0.16218433 -0.027627723 -0.087849304 0.016516732
000030 e0 ea 74 be 1e a7 b8 3d 15 f9 27 3e 4b 85 b8 bd
       -0.23917723 0.0901625 0.16403611 -0.090097986
000040 73 e7 46 be 5e 31 7c 3d 67 d8 89 3d b0 8f f2 3d
       -0.19424228 0.061570518 0.067307286 0.118438125
000050 a1 98 d2 bd fc 18 8e 3d e7 49 bd 3c 1d f5 5f 3c
       -0.10283018 0.06938359 0.023106528 0.013669279
000060 07 4a 9e be 72 aa 9b bd 26 90 fe bd b3 29 20 3d
       -0.30915853 -0.07600869 -0.12429838 0.039102267
000070 01 ca 05 be 3d 78 d5 bd 0d 16 68 be 83 88 62 be
       -0.1306534 -0.10423324 -0.22664662 -0.22122388

0.model_cnn.layer2.1.running_var f4 [32]
000000 d6 66 c8 3c b8 2f 24 3e 38 73 e0 3d 38 f2 00 3d
       0.024463098 0.16033828 0.10959476 0.031480998
000010 99 c2 30 3e f9 9d 45 3d 4d 9e 0a 3d f5 92 37 3d
       0.17261733 0.048246358 0.033842374 0.044817884
000020 c8 46 1c 3e 1f 51 a8 3c f6 b7 16 3e d9 4e ac 3d
       0.15261376 0.020546494 0.14718613 0.084134765
000030 2f bc 8b 3e 46 6c 0c 3d 3c 8e 4e 3d 49 d9 8c 3d
       0.2729201 0.034282945 0.050428614 0.06877381
000040 9f f3 21 3d 86 bd d6 3c 45 45 d0 3c 9e b5 12 3d
       0.039538976 0.026213419 0.025423655 0.035817735
000050 2d b1 69 3d cb 5d 98 3d 1f 53 c8 3c 53 e6 c8 3c
       0.057053734 0.074397646 0.024453698 0.02452389
000060 9a 17 ef 3d db e7 20 3d 7c 1d 2d 3e 55 e6 d1 3c
       0.116744235 0.039283615 0.16905779 0.025622526
000070 6a 6f 95 3d e2 ce 0b 3e d0 fa 1d 3e d2 79 29 3d
       0.07296641 0.13653138 0.15427709 0.041375943

0.model_cnn.layer3.0.weight f4 [64, 32, 3]
000000 b1 4b e7 3d 4f 1b 83 3d 19 ba 11 be 00 24 49 3d
       0.11293734 0.06401693 -0.14231147 0.049106598
000010 af e5 37 bd b1 19 cc bb 90 f0 78 bd ce 25 a7 3d
       -0.044896778 -0.0062286486 -0.060776293 0.081615075
000020 4d 12 b8 bd 25 eb 22 bc ba 6f 88 3c bd 41 93 bd
       -0.089878656 -0.009943758 0.016654838 -0.07190273
000030 59 b7 28 bd 15 5d 09 be dc 50 26 bd 63 2c 61 3d
       -0.04119048 -0.13414414 -0.040604457 0.05497397
000040 92 de 07 bd d8 66 04 3e 32 14 b1 3b f3 8e 58 39
       -0.033171244 0.12929857 0.005404019 0.00020652618
000050 5c c8 43 bd 43 bb fe bd 6e a6 7d 3c 7e e3 85 bc
       -0.0477985 -0.12438061 0.015481574 -0.016343828
000060 38 30 f2 bc f5 59 9e 3d e9 73 17 bd ab ae c3 bd
       -0.029564008 0.07732002 -0.036975775 -0.095548
000070 d3 6d 71 3c f0 e5 a6 bd e1 cf 82 3d cc d3 0b 3e
       0.014735657 -0.08149326 0.06387306 0.13655013
000080 84 99 9e 3d 8c 43 9b bd 48 1c 64 3d 40 bf 99 3d
       0.077441245 -0.07581243 0.055691034 0.07507181
000090 be cc b0 bd 7e 54 b7 3d 35 b7 bd bb 92 ab 44 3d
       -0.086328015 0.089516625 -0.0057896622 0.048015185
0000a0 c6 63 c0 bd 6c 32 4a 3d 52 be b8 ba b0 00 02 be
       -0.0939403 0.049364492 -0.0014094806 -0.12695575
0000b0 51 b3 f0 3d 5e c3 b8 3d 7d 29 7e 3d 36 40 f5 bd
       0.11752952 0.09021638 0.062051285 -0.11975138
0000c0 c8 5c c4 3b cf de 9b 3d 82 f3 b7 3d c7 41 bd bc
       0.0059925057 0.07610857 0.08981992 -0.023102654
0000d0 63 58 01 be 87 c0 90 bd 73 4b 46 3d 2f 71 c5 ba
       -0.12631373 -0.07067972 0.048411798 -0.0015063639
0000e0 08 ab 34 bd 74 41 5c bd 19 a5 cf bd 3b 01 10 3d
       -0.04410842 -0.05377336 -0.10138912 0.035157423
0000f0 a8 ca 95 3c 5b 9f 90 3d 70 e4 7d bd bd 0f 74 3d
       0.01828511 0.07061645 -0.061985433 0.05958532
000100 08 a0 8c 3d ad 5e 3e bc 4c 38 b1 3d a5 62 59 bd
       0.06866461 -0.011619252 0.08653316 -0.05307259
000110 ff df 59 bd 41 0b 1d 3c b6 08 a1 3d 44 87 b3 3c
       -0.053192135 0.009585203 0.078629896 0.021915086
000120 dd c8 64 bb c8 85 b6 3c 82 a3 73 3d 94 58 19 3c
       -0.0034909763 0.022280589 0.059482105 0.009359498
000130 9d 2b e5 3c 6a 17 6a 3d 9d dc 35 bd 6d 0f 5a bd
       0.027974898 0.057151236 -0.044399846 -0.053237367
000140 85 0f cf bd ec 88 8f 3d 34 00 f8 3c e4 53 5f bb
       -0.10110382 0.07008538 0.030273534 -0.0034077102
000150 11 9f 83 3d 02 07 a9 3d 9f 95 9b bd 6a 1f 0c be
       0.06426824 0.0825329 -0.07596897 -0.13683859
000160 de e0 45 bd d8 06 de bd 65 6e 9f bd 79 6f 93 3d
       -0.048310153 -0.10841149 -0.07784728 0.07198996
000170 f4 db 66 bd d4 c2 1b bd ff 41 07 3e 63 76 59 3d
       -0.056362107 -0.0380276 0.1320877 0.053091418
000180 6c 7f 25 3d 1e a4 d1 3d b2 9d d8 3d f4 51 16 3c
       0.040404722 0.10236381 0.10576953 0.009174813
000190 48 f8 bc 3d 5c a0 20 3d 02 b9 ce 3c 8c f2 9c 3a
       0.092270434 0.03921543 0.025234703 0.001197414
0001a0 c8 dd a6 3c 6f 38 19 bb c9 c2 96 3d 68 e3 e4 3c
       0.020369425 -0.0023379584 0.07361371 0.027940467
0001b0 24 72 68 bd ee 41 8d bc ef 6f 3b 3d 71 3b b6 bd
       -0.056749478 -0.017243352 0.045761045 -0.08898056
0001c0 3b b3 9f bd 13 a2 a7 3d 52 fa 0a be f2 d1 9c 3d
       -0.077978574 0.0818521 -0.13572052 0.076572314
0001d0 4a 00 fb bd 41 51 b8 bd 56 e5 e2 3d 31 73 be 3c
       -0.122559145 -0.08999873 0.110788986 0.023248287
0001e0 a3 b9 cf bd d8 02 03 3e 89 f6 03 bd a9 88 f4 3c
       -0.10142829 0.12794054 -0.032217536 0.02985032
0001f0 f6 05 a6 3c 6f 0c 6e 3d c1 04 6d 3c 65 fb da bd
       0.020266514 0.058117326 0.014466465 -0.10692481
000200 f8 32 dd bd 01 81 f3 bd 0b 51 9d bd 54 33 c4 3d
       -0.10800737 -0.1188984 -0.07681473 0.095801026
000210 7c 7a e6 bb 9c 60 97 bd fb e1 16 be 3a 1b a1 3d
       -0.0070336442 -0.07391474 -0.14734642 0.07866521
000220 75 da e5 3d 70 0e 8a 3d 2f 34 b1 3d 71 03 27 bd
       0.11223308 0.06741035 0.08652531 -0.040774766
000230 33 9f d2 ba 69 d3 0c bc c1 1c 8e 3c 43 8e 1a bd
       -0.0016069174 -0.008595326 0.017347695 -0.037733328
000240 68 2c 74 3d ae cc ff 3c 9b e4 0e be d6 e3 be bd
       0.05961266 0.031225529 -0.13954394 -0.093208
000250 5a d0 f6 3a fa 39 a7 3c 70 94 ed 3c e3 36 94 bc
       0.0018830404 0.020413388 0.029001445 -0.018092578
000260 95 5a 0a be ad a3 54 bd 59 d2 9b bd 31 91 29 3d
       -0.13511117 -0.051913906 -0.0760848 0.04139823
000270 25 68 5a 3d cd e8 ab bc e4 a2 9a bd 48 67 d7 bd
       0.053321976 -0.020985032 -0.075506 -0.10517746
000280 59 3a 5f bb 4f 67 81 bd 18 0b f4 bd 96 f5 a0 3d
       -0.0034061878 -0.06318533 -0.119161785 0.07859342
000290 c0 ce 07 3d 9d 20 24 bd 1e c5 93 bd e5 c4 d5 bd
       0.033156157 -0.040070165 -0.072153315 -0.10437945
0002a0 b4 ef 08 3e b7 b5 83 3d dd 96 e4 3c a7 ca 71 3d
       0.1337269 0.06431144 0.027903968 0.059031155
0002b0 eb 75 06 bd 63 8f c2 3d 5c 9d 73 bd ed 42 23 bd
       -0.0328273 0.09500005 -0.05947624 -0.039858747
0002c0 1e a2 87 3d 0a 4d 75 3d 61 8d d8 3d 5f 20 dd bc
       0.06622718 0.059887923 0.10573841 -0.026992975
0002d0 42 ec dd bc 4e 58 8b bd 2e fb ca bd 75 b1 4a bd
       -0.027090196 -0.06803952 -0.0991119 -0.049485642
0002e0 8d 91 77 3d 27 7c 7a 3d 26 51 49 bd 89 79 18 bd
       0.060441542 0.061153557 -0.049149655 -0.03722528
0002f0 d6 a5 c7 bd b0 e4 87 3c 1f c6 96 bd 2c 87 c8 bd
       -0.097484276 0.016588539 -0.07362007 -0.09791407
000300 ae 64 04 be 1e 3b 6c bd 37 41 c7 bd 4d 58 7f bd
       -0.12929031 -0.057673566 -0.097292356 -0.06234007
000310 27 27 67 be 4f 11 3e bd bd df b7 3c a5 51 ff 3b
       -0.22573529 -0.046403226 0.022445554 0.007791715
000320 3b 0f 0b be c6 48 e2 3c 5c b1 81 3d c1 f6 1b 3d
       -0.13580029 0.027622592 0.06332657 0.03807712
000330 62 66 a3 3d 72 c3 59 bd de 29 c7 3d ee 98 a5 bd
       0.07978512 -0.053164907 0.097247824 -0.0808581
000340 6d f0 58 3d 9c 31 94 bc 84 76 5b bd 93 dd 0c 3b
       0.052963663 -0.018090062 -0.053579822 0.0021494373
000350 ae f0 48 bd 5c 94 84 bd 06 57 35 3d 6c 12 a0 bd
       -0.049057655 -0.0647361 0.044272445 -0.07816014
000360 16 7a 9c 3d ef e1 12 be 61 7a 63 3c 07 8e b4 3b
       0.076404735 -0.14344 0.013884158 0.005510095
000370 8b fb 0e 3c 50 bd 4a 3d 6c ca fd bc cc 8f 39 bd
       0.008726965 0.04949695 -0.030980311 -0.04530315
000380 12 8d f9 bb 6e ba 84 bc 6d 22 96 3a e2 47 b1 bc
       -0.007615694 -0.016202178 0.0011454351 -0.021640722
000390 cb 13 11 3c 0e 3a 06 3b 8e e3 0a 3a 0c 03 84 bd
       0.008854817 0.002048138 0.00052981905 -0.06445894
0003a0 67 ba 64 3d 60 56 be 3c 77 79 23 ba c7 4b 54 bc
       0.05584183 0.023234546 -0.0006236056 -0.01295752
0003b0 0a 9d b3 3d 44 ef e2 bc 92 7f 63 3d 9a af 9c bc
       0.08770187 -0.027701981 0.055541582 -0.019126702
0003c0 24 6d 83 bd 82 1b a6 bd 0e 24 8a 3d 37 5e 57 3d
       -0.06417301 -0.081107154 0.06745158 0.052580085
0003d0 11 3a 0f bd 16 11 62 3d 83 31 47 bd 0d 6c 0a 3c
       -0.034967486 0.055192076 -0.048631202 0.008448613
0003e0 48 88 53 bd b5 cf c3 bc df 54 9b bd 27 72 24 3d
       -0.05164364 -0.023902753 -0.07584547 0.040147927
0003f0 92 23 8e 3a e6 ac 16 3d ef 51 c7 bd 67 f3 7a bd
       0.0010844341 0.036785983 -0.097324245 -0.061267283

0.model_cnn.layer3.0.bias f4 [64]
000000 86 4a 41 b9 7c 3d 57 b7 22 46 d8 37 4a 39 40 38
       -0.00018433676 -1.2829314e-05 2.5781865e-05 4.582972e-05
000010 55 5a 83 38 82 df 15 38 0b 9a 45 38 92 4c 9b 39
       6.2633924e-05 3.5732526e-05 4.7111924e-05 0.00029620953
000020 c5 98 fd b8 ff a8 01 b8 56 9e af b9 1d 8d 43 37
       -0.00012092436 -3.0913387e-05 -0.0003349657 1.1655761e-05
000030 b6 97 7b 38 4f 6e 9e b9 7e 55 ba 38 ca e9 1c b9
       5.9984355e-05 -0.00030218295 8.885095e-05 -0.00014964413
000040 4d 2c c3 b8 56 3c b1 b7 0a 56 bd b9 9a 1a a1 b8
       -9.306576e-05 -2.112814e-05 -0.00036112993 -7.682033e-05
000050 f0 97 ee b8 d3 96 35 b9 93 9d 5d 38 70 28 15 3a
       -0.00011377025 -0.00017317692 5.283726e-05 0.00056899246
000060 98 22 a2 38 6b 77 fa 37 a1 82 2a 37 b8 6a de 38
       7.7312056e-05 2.985793e-05 1.0163204e-05 0.00010605663
000070 69 18 88 b8 58 70 a4 38 5d b2 6b b8 99 11 83 b9
       -6.489532e-05 7.841055e-05 -5.619448e-05 -0.00024999378
000080 e3 ec 8d 38 8e 76 67 38 e7 74 d2 38 dc a5 81 36
       6.7675275e-05 5.5185104e-05 0.00010035355 3.863808e-06
000090 83 d7 a6 b9 e9 cf 35 b9 fe 47 47 39 cf b2 11 b7
       -0.00031822556 -0.00017338958 0.00019004938 -8.684306e-06
0000a0 a6 4f 2f 39 03 02 8a 39 52 e9 82 b8 59 c0 ee 38
       0.00016718972 0.0002632291 -6.242342e-05 0.00011384552
0000b0 6e 0e 0c b8 89 42 b7 b8 11 f7 de 38 05 51 9e 39
       -3.339204e-05 -8.738513e-05 0.000106318046 0.00030196473
0000c0 3a 5f a7 b8 ea 79 e3 37 7f 55 8d 38 06 f3 5e b7
       -7.980918e-05 2.711728e-05 6.739329e-05 -1.3288814e-05
0000d0 61 cb f9 38 12 88 8d b8 96 67 d0 b7 12 2a 03 37
       0.000119111275 -6.748749e-05 -2.4843768e-05 7.818004e-06
0000e0 4a f9 e9 b8 16 c2 3f b9 66 eb 88 39 69 b4 81 b7
       -0.000111567395 -0.00018287482 0.00026115327 -1.5462008e-05
0000f0 6f d7 6a b8 b2 7f bd b8 2f 1d 29 b9 ba b4 a7 38
       -5.5990586e-05 -9.0360074e-05 -0.00016127968 7.9968435e-05

0.model_cnn.layer3.1.weight f4 [64]
000000 d1 d4 78 3f e6 84 7b 3f 3d 5b 84 3f 21 11 77 3f
       0.9719973 0.9824966 1.0340344 0.9651051
000010 a4 2b 82 3f f7 76 77 3f 02 6c 79 3f e4 58 74 3f
       1.0169568 0.966659 0.9743043 0.95448136
000020 ce fd 81 3f 68 d0 6a 3f bc 46 83 3f eb a0 80 3f
       1.015558 0.9172425 1.0255961 1.0049108
000030 12 76 81 3f 63 03 86 3f 82 9d 70 3f 31 89 7f 3f
       1.0114157 1.0469784 0.9399034 0.9981871
000040 6a db 81 3f b4 28 82 3f 09 89 82 3f 68 8d 71 3f
       1.0145085 1.0168672 1.019807 0.94356394
000050 ed 19 86 3f f5 3a 87 3f 99 e4 83 3f 46 3f 8e 3f
       1.0476662 1.0564867 1.0304137 1.111306
000060 4b ff 7f 3f 89 d6 7f 3f d6 cc 86 3f 01 8a 80 3f
       0.9999892 0.9993673 1.0531261 1.0042115
000070 21 f3 7a 3f a6 f4 7c 3f c3 8c 82 3f ab d3 81 3f
       0.98027235 0.98810804 1.0199207 1.0142721
000080 b4 a9 81 3f 0f 79 7b 3f b4 45 82 3f 64 01 81 3f
       1.0129914 0.98231596 1.0177522 1.0078549
000090 30 39 83 3f 52 0f 82 3f 5a 54 80 3f 38 7e 88 3f
       1.0251827 1.0160925 1.0025742 1.0663519
0000a0 dc 70 83 3f de 6b 7d 3f 69 58 80 3f 0f 55 79 3f
       1.0268817 0.9899272 1.0026981 0.97395414
0000b0 c7 e9 7c 3f e8 24 85 3f 37 d1 79 3f cc 02 83 3f
       0.98794216 1.0401888 0.9758486 1.0235229
0000c0 1a ba 80 3f 5d 14 80 3f 85 09 85 3f 22 f7 6e 3f
       1.0056794 1.0006214 1.039353 0.93345845
0000d0 c5 7b 7c 3f 8c c6 87 3f 14 1e 86 3f 98 cc 84 3f
       0.9862636 1.0607467 1.0477929 1.0374937
0000e0 95 eb 82 3f 30 ee 7a 3f bf c6 7b 3f 89 c7 84 3f
       1.0228144 0.98019695 0.9835014 1.0373393
0000f0 fa 5e 70 3f 11 74 77 3f 0e 58 84 3f 2b 57 71 3f
       0.9389492 0.9666148 1.0339372 0.9427363

0.model_cnn.layer3.1.bias f4 [64]
000000 42 1a 93 bd f7 48 6f bd 96 60 ce 3b 97 af c7 bd
       -0.07182743 -0.058419194 0.006298135 -0.09750288
000010 1c 57 29 bd 0a 69 41 bd 4c f9 c1 bc 5a 88 d0 bd
       -0.04134284 -0.047219314 -0.023678444 -0.10182257
000020 37 da 88 bc 0f ac 9c bd 2d 89 fd bd d7 44 0b bc
       -0.016705615 -0.07650005 -0.1237968 -0.008500299
000030 f8 cc 8c bc 71 3c a2 3c 19 64 3a bd b4 60 e3 bd
       -0.01718758 0.019804211 -0.045505617 -0.11102429
000040 c2 c8 8f bc ee 62 40 bd fa d9 85 bd 68 fc d9 bc
       -0.017551783 -0.046969347 -0.06535716 -0.026609614
000050 4c 06 3b bd e5 ad d5 bc a8 74 b8 bb bb ec bd bd
       -0.045660302 -0.026083896 -0.005629141 -0.092736684
000060 93 64 7f bd 71 64 3a bd ae d6 6a bd a2 58 1b bd
       -0.062351774 -0.045505945 -0.05733364 -0.037926324
000070 39 09 f2 bd 7b d5 de bc 46 b4 82 bd a3 76 99 bc
       -0.11818165 -0.027201405 -0.06382041 -0.018733328
000080 47 03 3e bd a2 5d 70 bd 58 31 54 bd 17 33 67 bd
       -0.046389844 -0.058683045 -0.05180487 -0.056445207
000090 5d a3 16 bd 1b dd 45 bd 33 22 13 bd 4e 59 58 bd
       -0.03677689 -0.048306566 -0.035921287 -0.052819543
0000a0 9d fd 39 bb 80 79 85 bd ee 34 11 bd bf 56 ec bc
       -0.0028379925 -0.06517315 -0.03545087 -0.028849958
0000b0 20 81 2a bd e9 86 85 3d 37 23 a6 bd 48 fe aa bc
       -0.04162705 0.06519873 -0.081121854 -0.020873204
0000c0 4f 3c 36 bc 82 3f f8 bc fa 44 98 bc 3f d2 03 bd
       -0.011122777 -0.03030372 -0.018587578 -0.03218293
0000d0 71 62 bd bc e6 c7 8d bd 78 0d 88 bc ee 7e 07 bd
       -0.02311823 -0.06922893 -0.016607985 -0.033080034
0000e0 60 96 9d bd 6b 11 4e bc 67 ce 50 bd 46 d8 20 3d
       -0.076946974 -0.012577395 -0.05097809 0.039268754
0000f0 24 fc 87 bd ec 38 11 3c ae 76 da bc 71 19 a9 bd
       -0.06639889 0.008863669 -0.026667919 -0.08256806

0.model_cnn.layer3.1.running_mean f4 [64]
000000 b0 47 1a 3c a4 a1 fc bd 2d f0 c9 be 0f cf 3f 3e
       0.009416506 -0.12335518 -0.39441052 0.1873133
000010 2a 2c 63 3e ce df f0 be 7a 63 9e 3c 7d 67 a4 3c
       0.22184816 -0.4704575 0.019334543 0.020068878
000020 f1 40 ab 3d 04 be 12 bf 69 3a cc 3d 4d a3 20 bf
       0.08361996 -0.5732119 0.09972078 -0.6274918
000030 29 5d 49 bd 47 18 e8 be fe 24 99 be 5a a9 cb bd
       -0.04916111 -0.45331022 -0.29911035 -0.099444106
000040 1f cb ac 3e 68 34 83 bd f1 53 64 3d c9 96 7f 3e
       0.3374872 -0.0640648 0.055744115 0.24959864
000050 29 27 df 3d 09 5a 71 be 86 2f 73 3e c0 e0 da be
       0.10896141 -0.23569502 0.23748598 -0.42749596
000060 7e 47 6e bd 3f 5d f4 3c 12 f5 5c be ec 98 4e 3d
       -0.05817365 0.02982962 -0.21577862 0.050438806
000070 3f 9f 81 3e 38 cb 4e 3e 24 13 3d 3e 39 b2 36 3e
       0.25316808 0.2019471 0.18464333 0.17841424
000080 87 35 03 bd 20 94 ea bc 7c 2c 35 3e b7 51 2c bc
       -0.03203347 -0.028635085 0.1769275 -0.010517529
000090 ce 14 ac bc 79 29 8f 3e 09 80 0e 3d cc a8 ad be
       -0.021006014 0.2796133 0.034790073 -0.33917844
0000a0 35 d6 d4 bd dd 91 a4 be 6b d6 29 3e e6 9e db bd
       -0.10392419 -0.32142535 0.165857 -0.10723667
0000b0 86 93 cb be 23 e4 09 be bf 73 1d 3e 14 88 bc be
       -0.3976099 -0.13465934 0.15376185 -0.3682257
0000c0 ad 90 8f be 99 23 49 be af 28 d3 be 8b 46 44 3e
       -0.28040066 -0.19642486 -0.41241977 0.19167535
0000d0 d3 57 d4 be cd 01 90 bd 5f 76 0e bf f7 40 c5 be
       -0.41473255 -0.070315935 -0.5564937 -0.38526127
0000e0 c3 25 94 bc f4 c7 af 3c d6 52 c3 3d 54 cf 25 bf
       -0.018084412 0.02145765 0.09537284 -0.6476948
0000f0 a9 61 b8 bd 34 fd 9b 3e fa 22 3e bd 94 fe 13 be
       -0.09003002 0.30466616 -0.046420075 -0.14452583

0.model_cnn.layer3.1.running_var f4 [64]
000000 75 99 0f 3e c4 d3 6f 3e 9b f1 f0 3d 19 d1 7f 3e
       0.14023383 0.23420626 0.117648326 0.24982108
000010 4d 41 83 3e 0f 82 1c 3f 24 e6 b2 3d 2e 18 e8 3d
       0.25635758 0.61135954 0.08735302 0.11332737
000020 b5 95 7b 3e 39 76 e8 3e 58 16 da 3d 32 19 0c 3f
       0.24568827 0.45402697 0.10648793 0.54725945
000030 5f 8f 15 3e f0 7a 96 3e dd b5 49 3e 2a eb ed 3d
       0.14605473 0.2939067 0.19698282 0.116171196
000040 c3 45 e4 3d cf 6a 71 3e 55 08 fd 3d 8b 33 65 3e
       0.111461185 0.235759 0.12355105 0.22382943
000050 07 07 d8 3d f4 91 8b 3d cb e9 14 3e 38 62 8c 3d
       0.10548215 0.06814948 0.1454231 0.06854671
000060 bc 36 b8 3d f6 7e d0 3d 6b ff f9 3d 3b cb 15 3e
       0.08994815 0.10180466 0.1220692 0.14628308
000070 da 13 20 3e e1 ff ae 3d 25 4d f7 3d b6 f9 a1 3d
       0.15632573 0.08544899 0.12075261 0.07908957
000080 a8 d7 d0 3d 72 86 b9 3d 54 45 47 3e 44 11 d6 3d
       0.10197383 0.090588465 0.1946004 0.10452512
000090 e2 a1 3d 3e 07 cb 07 3e 05 e9 bc 3d f1 e7 a3 3e
       0.18518785 0.13261043 0.092241324 0.32012895
0000a0 ad ff e7 3e cb b8 28 3e a4 59 24 3e b4 79 5c 3e
       0.45312253 0.16476743 0.1604982 0.21530801
0000b0 4e 25 01 3e 04 00 37 3e ad d7 0d 3e 45 85 0e 3f
       0.12611887 0.178711 0.13851805 0.55672103
0000c0 5c e2 04 3f cf 26 27 3e 6d 57 f1 3d f4 bb 62 3f
       0.51907897 0.16323398 0.11784253 0.88568044
0000d0 8e 84 21 3e a2 42 0f 3e 12 8a 79 3e 0a d1 5c 3e
       0.15773222 0.13990262 0.24369076 0.21564117
0000e0 c1 d5 e8 3d 92 ea 8a 3e eb 5c ad 3d c6 f8 62 3e
       0.11368895 0.27132088 0.08464988 0.22165212
0000f0 11 60 33 3e 43 2a 83 3d f6 4e e3 3d cb e2 5a 3e
       0.17517115 0.06404545 0.11099045 0.21375577

0.model_cnn.layer4.0.weight f4 [128, 64, 3]
000000 be 18 e3 3b f3 df c0 3b a3 09 72 bc d8 bf fc bd
       0.0069304397 0.005886072 -0.014772805 -0.12341279
000010 dd 10 4c 3d 4e 5f 23 bb dd c5 c0 bd c3 ca 85 bd
       0.04982077 -0.0024928632 -0.094127394 -0.06532814
000020 d0 5b 5e bd 38 d1 b5 bc 89 2d 9c 3c f3 af 0f bd
       -0.054286778 -0.02219449 0.019064682 -0.035079908
000030 4e a0 9e 3d 50 36 00 bd 24 c1 3f bd a8 89 92 bc
       0.077454194 -0.031301796 -0.046815053 -0.017887905
000040 44 94 a6 3d 65 b0 44 3c 28 f7 9a 3d a1 72 87 3b
       0.08133748 0.012004946 0.075666726 0.004133538
000050 80 2f 5f 3d a3 74 c6 bb 61 b3 48 3d 74 8f 59 3a
       0.05448866 -0.0060563846 0.048999194 0.0008299269
000060 65 b7 a8 3d a5 f2 81 3d 96 b2 06 bc 63 f3 23 bd
       0.08238105 0.06345109 -0.008221289 -0.040027034
000070 d9 22 f2 bd b1 be 68 3d e2 f8 90 bd 4c 61 6b 3d
       -0.11823053 0.056822482 -0.07078721 0.057465836
000080 45 9b 1d bd 61 7b 94 3d bd 37 a1 3c aa 26 29 bc
       -0.038478155 0.07250095 0.019679898 -0.01032416
000090 9d c7 dc bd 66 cc 57 3d 6f a1 bb bc b8 8f bb bd
       -0.10780261 0.052685164 -0.022904126 -0.091582716
0000a0 6e 32 e1 ba 24 c4 6c 3d 44 b1 a7 3c 6f 8e 94 3d
       -0.0017181167 0.05780424 0.020470269 0.072537296
0000b0 74 8f a9 bc 19 e3 2f bd 45 48 9f 3c ce c2 c2 3c
       -0.020698287 -0.042941187 0.01944364 0.02377453
0000c0 49 04 7e bd 9d 39 50 3d 80 2d 4d 3d 42 ad fe 3c
       -0.062015805 0.050836194 0.05009222 0.031088475
0000d0 e1 eb c0 3d f8 28 ad 3c 92 99 ff 3d 28 48 f1 bc
       0.0941999 0.0211377 0.12480463 -0.029453352
0000e0 6c f6 9b 3c b6 21 15 3d 75 ef 9c 3c 12 2e d9 bb
       0.019038402 0.036409102 0.01915715 -0.0066278065
0000f0 51 03 b5 3d 1f aa e6 3d 4e 9a 20 bc 7b 70 22 3c
       0.08838523 0.11262917 -0.009802414 0.009914513
000100 0a 66 d0 ba 22 57 9a 3d 9b d7 83 3c 63 f3 f7 3a
       -0.0015899551 0.075361505 0.01609402 0.0018917139
000110 9b 99 9b 3d a8 6c 46 3d 2c 1c 98 bd ee 9c 9b bd
       0.07597657 0.048443466 -0.07427248 -0.07598291
000120 f5 4f 31 bc da fa 22 3c 1d ca 11 3c 36 7e 99 3d
       -0.010822286 0.009947503 0.008898285 0.07494776
000130 c0 72 ba bc 8a 98 c1 3d 3a 4a 8b bb 33 85 47 3d
       -0.022759795 0.09452923 -0.004250792 0.048711013
000140 01 d9 69 bd 55 6b 6e 3c 94 ea 46 bd 8e ec 8f bd
       -0.057091717 0.014551957 -0.048563555 -0.07027541
000150 27 1f d2 3a 28 bf f3 bc 14 7e 8d bd 95 58 9c 3d
       0.0016031013 -0.029754236 -0.06908813 0.07634083
000160 90 80 67 3d 60 aa 67 3d d3 65 be 3d bb db 3e bc
       0.05651909 0.056558967 0.09296765 -0.0116490675
000170 0a b2 bc 3d 41 a1 c0 bc 08 e2 05 3d c5 2d 21 bd
       0.09213646 -0.023514392 0.032686263 -0.03935029
000180 6b 5a 23 bd 56 f6 12 3d f3 ec bf 3c f1 37 4b bd
       -0.03988115 0.035879456 0.023428416 -0.049613897
000190 5b cf b0 3d ba 8f aa bc 23 78 0e bd c1 c7 a1 bc
       0.086333 -0.020820487 -0.03478254 -0.01974857
0001a0 eb 43 98 bd 69 7c 69 3d 76 eb 2e bc e1 85 89 3d
       -0.07434829 0.057003412 -0.010676255 0.067149885
0001b0 83 45 09 be 4c 5a 75 3c d6 24 be 3c 80 b3 16 3c
       -0.13405423 0.014975142 0.023210924 0.00919807
0001c0 3a 7b 4a bc c8 1b 86 3c 90 87 2e bd c6 67 b0 bd
       -0.012358481 0.016370669 -0.04260975 -0.08613543
0001d0 15 a6 8e 3c 3a 57 18 bd eb b3 5f bc 40 67 83 bd
       0.017413178 -0.03719256 -0.013653736 -0.06416178
0001e0 8e d2 6a 3d 0e 4f 5e 3d fa 8d 2d bd 75 75 ab bc
       0.057329707 0.05427461 -0.042371728 -0.020930031
0001f0 b8 ba 2e bc 2d cb 03 bd 7e 34 77 3d d2 9f 35 3b
       -0.010664634 -0.032176185 0.060352795 0.0027713669
000200 da 2b 27 3d b7 84 25 3d f0 5f 80 3c cb 7d 0a 3d
       0.040813304 0.04040977 0.015670747 0.03381137
000210 a3 1d 1f 3d d4 59 15 3d 0b 46 88 b9 8a 5e 24 3d
       0.038846623 0.03646262 -0.00025992127 0.040129222
000220 4d 63 0a bd 11 fa 57 bd 8b 1d 54 3d 26 98 b2 bc
       -0.033786107 -0.052728716 0.051785987 -0.021801066
000230 02 47 ea 3c 3e a0 86 bc 85 c1 c9 3a 31 d7 98 3d
       0.028598312 -0.016433831 0.0015392756 0.074629195
000240 b8 87 71 bc 74 6b a6 3d ec 94 17 3c e0 d3 c0 bd
       -0.0147418305 0.08125964 0.009251814 -0.09415412
000250 a8 57 a5 3c 49 9f 95 3c 36 c7 f3 bc 6e 9c 48 bd
       0.0201834 0.01826443 -0.029758077 -0.048977308
000260 82 47 32 bb c6 a5 e1 bc 51 5f 82 3d 95 79 86 bd
       -0.0027203267 -0.027544867 0.063658364 -0.06566159
000270 fd 5c 69 bd db 19 85 3d 79 4c ff 3c 37 71 79 3c
       -0.056973446 0.06499072 0.031164395 0.015224746
000280 94 80 88 bd 4f f9 15 3d ef cc 98 3d 6f ab 3a 3d
       -0.06665149 0.036614712 0.07460963 0.045573648
000290 b5 4c cd 3d ad 22 38 3d 22 e2 92 3d 07 d7 1b 3d
       0.10024396 0.044954944 0.07172038 0.038046863
0002a0 e4 9e d1 3d 42 b2 81 3d a4 e1 0e bd 48 79 de bd
       0.10235384 0.06332828 -0.034883156 -0.10862976
0002b0 de d1 2a bd 89 66 0e bd b6 ee ab bc 79 01 35 3d
       -0.04170405 -0.034765754 -0.02098785 0.044190858
0002c0 7c 95 bf 3d 38 b8 88 bd 81 0b 2c 3c ed 6f e1 3c
       0.09354684 -0.06675762 0.01050079 0.02751919
0002d0 ae c4 85 bb f1 cd 90 3b e4 5b 87 bc b5 ca 9e 3c
       -0.004082284 0.0044190814 -0.016523309 0.019383768
0002e0 88 1b 86 3d 7b 43 95 3b 59 d0 8f 3d dd e0 cb 3d
       0.0654822 0.0045551634 0.07022161 0.09954999
0002f0 eb 46 bf 3d 25 2d 7a 3d 54 7d d4 3c 6a a9 f8 3b
       0.093396984 0.06107821 0.025938667 0.007588555
000300 ba d2 96 bd 54 b4 91 3b c8 98 d3 bc 6c 65 00 3b
       -0.07364412 0.0044465456 -0.025829688 0.0019591702
000310 03 19 a1 3c c9 ba 1a bd 31 02 54 bc b6 3d 83 3d
       0.019665247 -0.03777579 -0.012939976 0.06408255
000320 c7 68 e9 bc d8 5d fc bc 2b 8d b0 bd b6 38 a2 bd
       -0.028492345 -0.030806467 -0.08620676 -0.07920973
000330 63 ed a5 bd bb 1a bd bd ce e4 7c bd fe 05 66 3c
       -0.081019185 -0.09233614 -0.061741643 0.014039515
000340 ef 94 a6 bd 38 82 45 bd bb 62 21 bc 3f 48 f9 3c
       -0.081338756 -0.04821989 -0.009850199 0.030429957
000350 ad 86 94 3c 1c 63 ab bd 52 3d 84 3d 5c 97 70 bd
       0.018130625 -0.08368513 0.064570084 -0.058738098
000360 1d c5 7b 3d ab 60 db bb eb a0 93 3d f0 a2 df 3b
       0.06146728 -0.0066948733 0.07208427 0.0068248436
000370 cf 23 bc 3c 20 4e 7f bd 66 f7 72 3d 54 2b 99 3d
       0.022966294 -0.062330365 0.05931797 0.07478967
000380 64 c6 9a bd 07 f0 08 3d e6 34 39 bd 5c 86 14 bd
       -0.07557371 0.033432033 -0.045216464 -0.036260948
000390 71 09 36 bd b0 27 2b bd cb c7 04 bd 69 28 13 3d
       -0.044442598 -0.041785896 -0.0324171 0.03592721
0003a0 1c 26 95 bc f9 4d 9b 3d c6 a3 6b 3b a4 fc a4 3c
       -0.018206649 0.075832315 0.003595577 0.02014
0003b0 cb c5 d0 bd 0d 71 9d 3d fa 1b c7 3c d1 7c eb 3c
       -0.10193976 0.07687578 0.024305332 0.02874604
0003c0 17 e1 ab 3d 5b e4 57 bd cd 74 b9 bc a4 c1 ec bd
       0.08392542 -0.05270801 -0.022638703 -0.115603715
0003d0 61 4e b5 bc 12 f9 05 be b1 37 ab 3c 56 34 fe 3b
       -0.0221321 -0.13083294 0.02090058 0.007757704
0003e0 b1 9a 8b bd de dc 6d bb fb 83 82 3c f1 e2 34 bc
       -0.068166144 -0.0036294977 0.015932074 -0.011040435
0003f0 e2 31 52 3d b8 d1 77 bd d5 98 e6 3c f1 fb 92 bd
       0.051317103 -0.060502738 0.028149048 -0.0717696

0.model_cnn.layer4.0.bias f4 [128]
000000 7a 04 72 38 bc 3c 47 b8 9e ed 3f 38 cd e4 eb b7
       5.7701465e-05 -4.750186e-05 4.5759247e-05 -2.8120727e-05
000010 87 a5 a1 b8 ec 4e bd 38 81 ae 15 b7 c6 c3 91 b9
       -7.70791e-05 9.0269226e-05 -8.921722e-06 -0.00027802418
000020 33 19 eb 37 bc 01 f1 37 bd 27 da b7 2b bf 54 b8
       2.8025917e-05 2.8730246e-05 -2.600613e-05 -5.0722778e-05
000030 87 8a c9 b8 47 b4 65 b8 1a 2f cb 37 19 f8 e2 b7
       -9.6102296e-05 -5.476575e-05 2.422142e-05 -2.7056829e-05
000040 9f 26 55 39 ff 38 2e 39 8c ef 49 b8 1c 0b cb b8
       0.0002032765 0.00016615166 -4.814523e-05 -9.6818636e-05
000050 72 2c bb 37 58 f2 87 39 e3 cf 41 b7 f7 7d 2b b8
       2.2312834e-05 0.00025929767 -1.1552099e-05 -4.088689e-05
000060 b5 b8 01 39 d6 9d ea 37 6f 48 75 34 fa 82 30 37
       0.00012371207 2.7968472e-05 2.2843754e-07 1.0520913e-05
000070 a6 5b 35 b9 2f 01 67 b7 cd d3 c6 b8 3f 27 92 b7
       -0.00017295647 -1.37689485e-05 -9.480827e-05 -1.7422832e-05
000080 75 a9 9a b6 02 a8 8f b8 98 09 17 38 85 06 e3 38
       -4.609285e-06 -6.850065e-05 3.601014e-05 0.00010825418
000090 53 37 26 37 61 16 98 b4 ae a7 d1 b8 9a 36 af 35
       9.907252e-06 -2.832849e-07 -9.9971294e-05 1.3054407e-06
0000a0 b6 c3 57 38 67 ac ce 37 da be fe 36 bf 68 e5 37
       5.1442265e-05 2.4637395e-05 7.592008e-06 2.7347704e-05
0000b0 46 30 fb 37 88 2e 90 b7 bf b8 af b8 f8 22 a4 b8
       2.994401e-05 -1.7187805e-05 -8.379062e-05 -7.826643e-05
0000c0 2f 5e 79 38 9e 6d cf b7 c0 5e 7e b8 25 e0 d1 36
       5.945394e-05 -2.4727367e-05 -6.0646562e-05 6.2547792e-06
0000d0 67 6e 92 36 6f f4 d1 b8 71 da 0a 38 03 b2 a1 b7
       4.3639916e-06 -0.00010011426 3.3105203e-05 -1.9275589e-05
0000e0 e1 3e 00 38 05 6c 8c b7 fd f8 ed 37 34 3c 35 b8
       3.057614e-05 -1.6739601e-05 2.8368546e-05 -4.320983e-05
0000f0 14 aa a0 b8 51 0e a2 38 91 94 42 b7 01 a2 7b b8
       -7.661074e-05 7.7274286e-05 -1.1597892e-05 -5.999394e-05
000100 9d ba 02 b9 28 15 91 b6 fa fa 15 b8 ea d5 50 b6
       -0.00012467285 -4.3237997e-06 -3.575811e-05 -3.111893e-06
000110 65 6a 9a 37 d8 21 f7 b6 e3 02 f5 37 8f a3 9b b8
       1.8407774e-05 -7.3651136e-06 2.920762e-05 -7.421441e-05
000120 fe 52 9b b8 ee f9 9e 38 e5 76 1f b8 d3 c7 a7 b5
       -7.4064345e-05 7.58058e-05 -3.8019283e-05 -1.2500626e-06
000130 52 4a 8a b6 2a 77 34 b8 d4 5a f4 b6 06 ca 39 b9
       -4.1213725e-06 -4.3026324e-05 -7.2823404e-06 -0.00017718234
000140 74 ac c0 37 ee 6f 91 b8 d6 f0 a9 b8 3e 74 87 b7
       2.2968488e-05 -6.934987e-05 -8.103407e-05 -1.6147384e-05
000150 e3 b5 61 b8 7d bb 94 b8 3a fd 19 b7 c4 80 82 36
       -5.3813576e-05 -7.092112e-05 -9.17847e-06 3.889292e-06
000160 9d c5 66 b8 1f 2d d2 b7 c9 a0 bb b6 4b 67 20 b8
       -5.5020315e-05 -2.5054962e-05 -5.591752e-06 -3.824317e-05
000170 33 3f cf b6 12 3a 5b b8 8e 21 19 39 7b 07 b2 b7
       -6.176438e-06 -5.226775e-05 0.00014603717 -2.1222737e-05
000180 1d e6 c9 36 7c 1b dc 38 00 b1 ba 37 79 25 11 39
       6.0170555e-06 0.00010495537 2.225535e-05 0.00013842237
000190 85 eb 33 b7 c7 c5 08 38 c0 7e 2a 37 c1 6d c4 36
       -1.0724068e-05 3.260912e-05 1.0162301e-05 5.854032e-06
0001a0 3e e1 8a b8 92 01 f2 36 87 1b 8a b7 df a3 36 b9
       -6.6223074e-05 7.212345e-06 -1.64637e-05 -0.0001741792
0001b0 9d 8c d2 b8 09 ca f8 b7 b6 8c e3 38 6b cf c2 35
       -0.000100397716 -2.9657984e-05 0.00010850413 1.4514493e-06
0001c0 54 55 9c b5 13 0f 83 b7 4b 7b 69 38 a6 a4 d3 b8
       -1.164774e-06 -1.5623436e-05 5.5666354e-05 -0.00010091932
0001d0 47 ec 9f 36 b7 cd a1 b8 e1 6a 45 b8 7d cd bc 37
       4.7660756e-06 -7.7153956e-05 -4.7068e-05 2.2507034e-05
0001e0 ba 81 73 38 e6 b7 0e 39 94 6b 5a b8 7d 62 20 b8
       5.8056532e-05 0.00013610683 -5.207544e-05 -3.8238697e-05
0001f0 0d a6 04 b6 d1 8d bd 38 be 3b d8 b8 8b 82 ad 38
       -1.9766187e-06 9.038638e-05 -0.000103108105 8.273598e-05
