checkpoint/cnn_features_1d_0930-122637/65-0.4455-best_model.pth (torch, 940543 bytes, 30 tensors)

0.model_cnn.layer1.0.weight f4 [16, 1, 15]
00000000: 8585 20be b2ba d83d ba82 26be fa7a 383e
00000010: 8168 fa3c a2b3 1cbe c1e4 843e be51 63be
00000020: 0e50 8bbd f680 853e 8e8e 4e3e f6b3 46be
00000030: 7d59 1a3e 08de 16be 032b 66be 4bf8 d63c
00000040: 1cd9 753d 8e52 2e3e abb3 2b3e 2046 39bc
00000050: de69 a83d 2978 323e b496 84bd 1e4c a4bd
00000060: 9b03 3a3e dea7 173e e6d0 233d 7fbd 323c
00000070: 9443 3abe 0592 52be 7047 4b3e a3c5 573e
00000080: 2f90 823e 2f41 76be 1ffb 713e f13e 54bd
00000090: 7b76 233e b6f4 07be 1cb9 c93a 4313 ba3d
000000a0: 4f66 aabd b7bc 18be 3b51 ff3d 9cc3 893e
000000b0: 5238 b1bd 53a3 22be 792d 3dbe 40c9 6fbe
000000c0: f6f5 5a3e afe9 703e a229 343e 8d94 49be
000000d0: 74ad 5bbe 6834 12be 3f71 1e3e ed47 033e
000000e0: 2b35 3f3e 05df 5fbe 767d 8c3e 01de 81be
000000f0: 04fe 1f3d f423 21bc 4a57 d33d f8d8 12be
00000100: bb91 153e f866 e7bb 682e 133e 483c eb3d
00000110: fc39 a43d 612b d5bc 5a95 c33c 63b9 6abe
00000120: 857e 23be eb3d ba3d 8737 24be 6a7b 2dbe
00000130: df10 23bd 7469 e4ba c122 93bc e9b9 693e
00000140: d4cc 033e e3ba 71be f4ba d83d b1d8 823e
00000150: f6ab 073e 467f 52be 70df 423d 160b dd3d
00000160: 3c8a 283c 6652 c3bd 50a3 293e 5847 063e
00000170: 29d1 3f3e 293d 94be 71db ff3c 604d 29bd
00000180: 1d55 0f3e 6ae2 4cbc fc24 9fbd 71a6 eb3d
00000190: 2da7 023d cbb7 f63d 36b6 353e 1793 e73b
000001a0: e206 723d 7c8a b0bd 584a 3f3e df76 14be
000001b0: b342 343e a2a4 2a3e e2bd d93d b1b0 913c
000001c0: 9d00 06bd 9328 4cbe 8c99 49be 13d9 8b3e
000001d0: 7f15 d6bb 4900 6bbe 97a7 06bd 14e8 a43a
000001e0: c4a0 0bbe f859 3b3e 7ebb 5a3b 8fec 083e
000001f0: c5a5 5dbe 366e 12bd 868d 2e3d cf91 4f3e
00000200: 83ff 083d ad7d 78bd f751 663d 014f 7d3e
00000210: efff 763d a8c1 2bbe 0a04 fe3d 9118 66be
00000220: fdb6 563d 86d2 e43d e2fe 513d 8faa a83d
00000230: 0676 b3bd 12af c63d ec82 07be 12ba afbe
00000240: a4bb c03d 7f94 7abd 4b44 863d 627c 9f3d
00000250: 8f4c d33c e75b 5d3e 72bb 53bd 714f bbbd
00000260: cd72 75be 0b95 7abe 4725 fcbd a322 92be
00000270: 2b90 893c 9501 a3be 4d3f 6abe a946 67be
00000280: cba0 80bd f5ec 80be 0837 38bd 6a75 8c3d
00000290: b60e cf3c bde3 11be f167 47be a4c7 d3bd
000002a0: ae0e ec3d 1433 8c3d e397 85bd f844 42be
000002b0: beed 91bd 8a96 873e 092a ec3d a689 83be
000002c0: 363a 383e 7da9 55be 039c 4cbd 2cad d83d
000002d0: 6434 2bbe b155 04be c289 3a3d 82bb 613e
000002e0: 3250 893e 9640 073e 7c82 d33a 761d 0f3e
000002f0: 05e4 9cba 546c 473e 37f6 1dbe 9225 3bbe
00000300: 633f 8abd 7af4 113e c219 903e 0e1b 5f3e
00000310: 566f 5fbe 4d26 6dbe b5ab 493e a601 7bbd
00000320: 4815 163e 9e84 0e3d 83f5 e6bd 9e64 043e
00000330: c050 37bd 2374 0b3e 9810 82be c523 88bd
00000340: f42a 4abe 2471 863e 65aa 043d 1711 54be
00000350: ea9c a1bc 0ce5 6e3e d9fa 59be a3e5 163e
00000360: 45a4 883d 9a9b 2cbe 8eb9 3abd 9443 1cbe
00000370: 0cb7 0b3e edf0 63bc ba3e 70be 51c1 043e
00000380: 10f9 40be 22fa 493e e8a7 1abd d9d4 41be
00000390: a92d 233d 2f1b a6bd 077f 693e f681 28be
000003a0: d63d c7bc 9e62 6fbe ea8e 89bc 90ef 51be
000003b0: 1a77 a9bd 97a2 64be 278d 95be 3479 f53d
-0.15675934 0.10582484 -0.16260806 0.18015662 0.03056741 -0.153029 0.25955775 -0.22199151
-0.068023786 0.26074952 0.20171568 -0.19404587 0.150732 -0.14733136 -0.22477345 0.026241442
0.060021505 0.1702368 0.16767757 -0.011308223 0.082233176 0.1742865 -0.06474057 -0.08022331
0.18165438 0.1481013 0.039994143 0.010909437 -0.18189842 -0.20563515 0.1985147 0.21071486
0.25500628 -0.24048303 0.23630951 -0.051817838 0.15963165 -0.13276944 0.001539025 0.09085705
-0.08320295 -0.14915739 0.12466665 0.2690705 -0.0865332 -0.15882616 -0.18474378 -0.23416615
0.21382889 0.23526643 0.17594007 -0.19685574 -0.21452886 -0.14277804 0.15472887 0.12820406
0.18672626 -0.21862419 0.2743947 -0.25364688 0.039060608 -0.009835232 0.103193834 -0.1434058
0.14606373 -0.0070618354 0.14373171 0.11486107 0.08018872 -0.026021661 0.023874927 -0.22922282
-0.15966232 0.09093841 -0.16036807 -0.1694161 -0.03981101 -0.0017426447 -0.017960908 0.22824825
0.12871104 -0.23606448 0.105825335 0.25555947 0.13249192 -0.20556363 0.047576368 0.1079313
0.010286864 -0.09537201 0.16566205 0.13113153 0.18732132 -0.28952911 0.031232568 -0.041333556
0.13997312 -0.012505153 -0.07770726 0.115063556 0.031897712 0.120467745 0.17745289 0.007067095
0.059088595 -0.08620164 0.18680704 -0.1449847 0.17603569 0.16664365 0.106319204 0.017784448
-0.03271543 -0.19937353 -0.1968748 0.27314052 -0.0065333243 -0.22949328 -0.03287467 0.0012581372
-0.13635546 0.18296039 0.0033375914 0.1337149 -0.21645267 -0.035749637 0.042615436 0.20270465
0.0334468 -0.06066673 0.05623051 0.24737169 0.06030267 -0.16773093 0.12403114 -0.22470309
0.052420605 0.11172967 0.051268466 0.082356565 -0.087627456 0.09701361 -0.13233536 -0.34321648
0.094107896 -0.061176773 0.065559946 0.07787396 0.025793342 0.21617089 -0.051692434 -0.091460116
-0.23969574 -0.24470918 -0.123117976 -0.2854205 0.016792377 -0.31837144 -0.2287571 -0.22585548
-0.06280669 -0.25180784 -0.044974357 0.068583325 0.02527557 -0.14247032 -0.19473244 -0.10340813
0.115262374 0.0684568 -0.06523111 -0.18971622 -0.07125424 0.2648204 0.11531455 -0.25690955
0.17990956 -0.20865436 -0.049953472 0.10579905 -0.16719204 -0.12923314 0.045541532 0.22044185
0.26818997 0.13208231 0.001613691 0.13976082 -0.0011969811 0.19474918 -0.15425955 -0.1827605
-0.06750371 0.14253417 0.28144652 0.21787664 -0.21819815 -0.23159142 0.19694407 -0.06128087
0.14656556 0.034794442 -0.112772964 0.12929007 -0.044754744 0.13618521 -0.25403285 -0.066474475
-0.19742948 0.26258194 0.032389063 -0.20709644 -0.019728143 0.23329562 -0.21287097 0.14736037
0.06671957 -0.16856232 -0.045587115 -0.15260154 0.13644046 -0.013912422 -0.23461428 0.1296437
-0.1884501 0.19724324 -0.037757784 -0.18928851 0.039838467 -0.081106536 0.22802363 -0.16455826
-0.024321478 -0.23377463 -0.01679178 -0.20501542 -0.0827467 -0.22327648 -0.29209253 0.11986008

0.model_cnn.layer1.0.bias f4 [16]
00000000: b1b7 c7ba 9541 983a 7698 26bb c206 e43b
00000010: fa46 473b 9540 9c39 f773 37bb cfd9 8a3b
00000020: 8fd2 943a beff 8d39 dac7 b0ba 4605 743b
00000030: 5491 09bb 8ed3 59b9 b3b9 f2ba bc35 4fb9
-0.001523724 0.0011616225 -0.0025420464 0.0069588134 0.0030407296 0.00029802756 -0.0027992704 0.0042373906
0.0011354255 0.00027084159 -0.0013487295 0.0037234589 -0.0020991163 -0.00020773543 -0.0018518477 -0.00019761076

0.model_cnn.layer1.1.weight f4 [16]
00000000: 1940 8b3f 5841 803f e17c 7c3f 4626 863f
00000010: f9da 803f 53fa 793f 23f0 753f 2b96 803f
00000020: 0988 833f 652f 823f c978 803f 7be4 843f
00000030: 02f6 813f ee5c 713f 1943 7f3f 0815 793f
1.0878936 1.0019941 0.9862805 1.048043 1.0066825 0.9764759 0.96069545 1.0045828
1.027589 1.0170714 1.0036861 1.0382227 1.0153201 0.94282424 0.9971176 0.97297716

0.model_cnn.layer1.1.bias f4 [16]
00000000: 92b1 963c 9c47 813b 6813 d1bc 14a6 0fbd
00000010: e9a5 8cbc b10f 5cbc 30b5 4fbd ed27 7b3c
00000020: 8e16 02bd c025 34bd 190c da3b 11ec 42bd
00000030: 08e3 95bd 5b8d 213b b60a e63c 0aef c43c
0.018395219 0.003945304 -0.025521949 -0.035070494 -0.017168956 -0.0134314755 -0.050709903 0.015329343
-0.03175979 -0.043981314 0.006654274 -0.04758841 -0.073186934 0.0024650905 0.02808128 0.024039764

0.model_cnn.layer1.1.running_mean f4 [16]
00000000: 3786 cbba 9bc5 a5bc f68b f8bc 3a81 2f3c
00000010: cecc d73b b6e4 acbc d269 02bd 127d 8e3b
00000020: 5c2a 03bd 68e1 5abc cac3 c33d ba3e 803c
00000030: 4c54 3fbd 3549 5b3c 6c00 cf3c 79d1 803d
-0.001552767 -0.020235827 -0.030340176 0.010711962 0.006585694 -0.021105152 -0.0318392 0.0043484056
-0.03202282 -0.013359405 0.09558828 0.01565491 -0.04671125 0.013384153 0.025268756 0.06289954

0.model_cnn.layer1.1.running_var f4 [16]
00000000: 0dd2 d63c a2a9 fe3b 9ced 653d f59e e93c
00000010: f2ae 603b 7c7c e13c c88c 1d3d 205a 063c
00000020: 0c56 a23c aca8 4c3d fb05 803d 3497 db3c
00000030: b1aa f03c 26ae 443d 94a7 993b ca3d 323d
0.026223207 0.0077716867 0.056134805 0.02851818 0.0034283963 0.02752518 0.038464338 0.008200198
0.019816421 0.049965546 0.06251141 0.026805498 0.029378267 0.048017643 0.0046891663 0.043515958

0.model_cnn.layer2.0.weight f4 [32, 16, 3]
00000000: dca1 0a3e 8282 0cbd 8ed1 2cbe 799f e1b9
00000010: de89 b63c 01ad e0bd 4c47 aebd 75ff 363d
00000020: 7c28 e4bd d2ba cd3d 53ba 85bd 8dbc 9fbd
00000030: 0f18 9cbd d7ac d4bd 5a4a d03c 98d4 5d3d
00000040: 79d7 84bd f939 ac3d da5a edbc 0ff9 1abd
00000050: 54a3 09be 76c5 483d 9d4e 713d 89d3 3e3e
00000060: 92b4 9a3d 2599 db3d 0b52 f8bd fe7f 0b3d
00000070: adad bf3d 9c59 eabc f37f a83d 5c04 2bbd
00000080: ecdc e0bd 48b6 d7bd 1ba8 ea3d 492f 7f3b
00000090: 1de3 8dbd 38ff 073e dd34 e3bd 9b04 d33d
000000a0: 1ea3 163e 06ae 013e 9d62 d9bb 53c4 0a3e
000000b0: dec8 7d3d d52b 2c3d d83f e93b 44ca 343c
000000c0: 7c52 263d 5961 573d 6064 0d3e 8243 65bd
000000d0: 67b5 b3ba 3dbe 0abe 2cdb 63bd 2f1b 273e
000000e0: 3bd8 d23a 2045 dabd 005a c5bd 611d e43d
000000f0: 357d 48bd a847 0d3e 7d95 ed3d 3343 adbd
00000100: e761 513d 3843 e73c d1ce ebbd b831 b8bc
00000110: 88f1 b63c 090c cf3d d1ae 31bc 79be de3d
00000120: d144 24be 4b44 dbbd 5f96 f4bd 369c 353e
00000130: 6432 8d3d 64be 473b 820f 01be f62a f3bd
00000140: 6ea1 18bd 5031 2a3e a721 ac3c 8829 3abd
00000150: 03b6 07be b1ba babd 4bd8 07be abf8 863c
00000160: 669f a13c e606 d0bd 9cd7 93bd a63e f8bc
00000170: 97a2 a5bd fa37 e7bd 9ddd f63b 446c 00be
00000180: 3ac6 99bb d850 0b3e d4de abbd 80c6 2f3d
00000190: f557 9d3c a1c5 f8bd 5aa9 fd3d 0948 403d
000001a0: ae8c a13d 7e91 1f3d c0e6 b63d 3f1a 6dbd
000001b0: b345 8b3c 31db fabd 5328 1e3e 6dce 1fbe
000001c0: 7436 173e f915 2e3d 1dfd e9bb 0bde 093e
000001d0: 4803 6cbd 251e 65bd 1574 663d 25bd babc
000001e0: 90ac 373d d734 f6bd 1a68 843c 84ea a1bd
000001f0: c8d6 80bd b27d cdbd e879 873d dbbb 50bc
00000200: 57f3 8fbd 661d 13bc 0c7b 063e 38ed 043e
00000210: a006 9abd f61e bebd 059a 9fbc 3250 043e
00000220: a6c7 883c d9b1 d73d ac1c eebd 3213 babd
00000230: 12bc b73d b9d2 be3d 318d a53d cb3e 13bc
00000240: 5915 6c3d 028f 67bd 20f3 93bd adb7 1abe
00000250: f241 303d 39b3 87bd 63c7 b23d 316e e03d
00000260: 9b5f 6abd d4eb fbbd 8baf a73d cea1 24be
00000270: 43c9 2a3e 39f9 adbd 4afd 8b3d a584 a53d
00000280: 0e52 09bd 574e b1bd eeff 083d 747d 833c
00000290: ab18 d7bd f89e b53d dcb1 f23b 05fa 8dbd
000002a0: e537 093d 888b 033d b5a3 c4bd e8a5 8a3c
000002b0: b794 8abd ff1c 47be 7b1a e63d 21a7 b7bd
000002c0: 271a 6bbd 6cca b23d 4ae4 003d be18 373d
000002d0: dfd3 9e3d 1bb8 88bd b65f 45ba 4015 f23c
000002e0: ebf3 c2bd e2d0 f1bd ca21 5a3d bc82 8a3d
000002f0: 0424 4f3b 1c74 afbd b19d 67bd 283b bc3d
00000300: 0d46 01bd 1289 cd3d cfb8 53bd a02d 3c3e
00000310: 9c2a 443c 2b0e 8c3d 6915 0abd 8c7d 183e
00000320: e251 e43d cc29 ba3d 3fa5 993b 6616 75bd
00000330: 6e69 a03d 5ec3 013c 8afc 40bd f51c c53d
00000340: 7233 d2bd 09a6 acbd 90ef e63d 1a2c 5ebd
00000350: a9d1 31be 58e7 bebd 9937 7ebc ee3c 803d
00000360: 51a7 d3bd e84a 03be 316c 00be 044f 18be
00000370: f92c 0ebe 53d0 303e 3855 b03d 002b 67bd
00000380: 88fa 483d 0028 97bd edd3 e6bd 0f63 073e
00000390: 8bd2 003e 62c5 54bd 0613 9fbc e78e c93d
000003a0: 701f 893d 9cb9 083e 46c3 b9bd 116b 39be
000003b0: 0c8e 79bc 2026 f43d 1fb4 f5bd 1829 2c3e
000003c0: d404 78bd ae48 11bc dc23 273c 77dc e3bd
000003d0: 3322 9bbd 62ab 333d e021 e33c 448b 96bd
000003e0: 51de 0ebe a5b3 e4bc 80dd cc3d 8246 54bc
000003f0: 70d9 dc3d 23d3 18bd bdb8 a13d bbdb af3d
0.13538307 -0.03430415 -0.16876814 -0.0004303416 0.022282537 -0.10970498 -0.085096925 0.044677217
-0.11140534 0.10045399 -0.06529679 -0.07799635 -0.07621776 -0.10384529 0.025426079 0.054157823
-0.06486411 0.08409495 -0.028973985 -0.037835177 -0.13441211 0.04901644 0.058912862 0.18635382
0.07553972 0.107225694 -0.121250235 0.03405761 0.09359298 -0.028607182 0.082275294 -0.041752204
-0.109796375 -0.10532814 0.11457845 0.0038938096 -0.06928084 0.13280952 -0.11094067 0.10303613
0.14710662 0.12664041 -0.00663407 0.13551454 0.06195914 0.04203399 0.0071182065 0.011034552
0.040606007 0.052583072 0.13807821 -0.055972584 -0.0013710678 -0.13549133 -0.05562894 0.16318963
0.001608617 -0.10657716 -0.09636307 0.11138416 -0.04894753 0.13796866 0.11600778 -0.08460083
0.051118758 0.028230295 -0.115140565 -0.022484645 0.022331968 0.101097174 -0.010844902 0.108761735
-0.16041876 -0.10706385 -0.119427435 0.17735371 0.06894377 0.0030478472 -0.12603572 -0.118734285
-0.037263326 0.16620374 0.02101214 -0.045449764 -0.13253026 -0.0911764 -0.13266103 0.016475996
0.019729327 -0.10157566 -0.072188586 -0.03030331 -0.08087652 -0.112899736 0.0075337426 -0.125413
-0.00469282 0.13605058 -0.083921105 0.042913914 0.01920698 -0.1214707 0.12385817 0.046943698
0.07888161 0.03895711 0.08930731 -0.05788636 0.017001009 -0.12248839 0.1544507 -0.15606089
0.14766866 0.042501424 -0.007140769 0.13463609 -0.057620317 -0.05593695 0.05626305 -0.02279527
0.044842303 -0.12021797 0.01616292 -0.079060584 -0.06290966 -0.1003374 0.06615049 -0.012740101
-0.07028835 -0.008979177 0.13132876 0.12981117 -0.07520795 -0.09283249 -0.019482622 0.12921217
0.016696762 0.105319686 -0.116265625 -0.090856925 0.089714184 0.09317536 0.08083571 -0.008987139
0.057637546 -0.056532867 -0.07224107 -0.15109129 0.04303164 -0.06625981 0.08729436 0.10958517
-0.057220083 -0.1230084 0.08187779 -0.16077349 0.16678338 -0.08494801 0.068354204 0.080819406
-0.03352552 -0.0865752 0.0334472 0.016051032 -0.10502752 0.088682115 0.0074064564 -0.06932453
0.03350057 0.03211549 -0.09601537 0.016924813 -0.06766646 -0.19444655 0.112355195 -0.08967424
-0.057397988 0.08730015 0.031467713 0.04470133 0.07755255 -0.0667574 -0.00075292157 0.029551148
-0.0951918 -0.11807419 0.05325488 0.06763217 0.003160716 -0.08567068 -0.05654687 0.09190971
-0.031560946 0.1003591 -0.05168992 0.1837678 0.0119730495 0.0683864 -0.033711825 0.14891642
0.111484304 0.09090003 0.0046888883 -0.059835814 0.07832609 0.007920114 -0.04711584 0.09624664
-0.10263719 -0.08430106 0.11276162 -0.054241277 -0.17365135 -0.09321469 -0.015516185 0.062616214
-0.103346474 -0.12821543 -0.12541272 -0.14873892 -0.13884343 0.1726697 0.08610004 -0.056437492
0.04906705 -0.07380676 -0.112708904 0.13221382 0.12580316 -0.05194605 -0.01941825 0.098417096
0.06695449 0.13352054 -0.090704486 -0.18107249 -0.0152316205 0.11921334 -0.11997246 0.16812551
-0.06055148 -0.008867426 0.010201421 -0.11126035 -0.07574882 0.043864615 0.027726114 -0.073507816
-0.13951994 -0.027917692 0.10003185 -0.0129562635 0.107836604 -0.03731073 0.07896564 0.08586832

0.model_cnn.layer2.0.bias f4 [32]
00000000: 931d 36bb ae41 ac39 8076 afb9 fbca f0b9
00000010: 8699 ab39 a08f e93a b9a2 3d3a d6dd a738
00000020: 4f93 d5b8 e275 1e3a 4225 8039 1778 1cb9
00000030: 3b70 7d3a fcd6 fb39 d0e6 3e39 0088 ddb9
00000040: d223 e2b9 6e09 213b 4e7a 74ba 89b0 a739
00000050: f814 5039 fc6c 8239 02c0 fab9 7645 b5ba
00000060: e17c 4a3a 0e28 beba 307d b5b9 f0f8 5bba
00000070: ef69 7cba 55d2 273a 185f 4a3a 02fe 11ba
-0.0027788624 0.00032855332 -0.0003346689 -0.000459276 0.00032730045 0.0017819293 0.00072340254 8.004501e-05
-0.0001018407 0.00060447876 0.00024441822 -0.00014922056 0.0009667908 0.00048034627 0.00018205796 -0.00042253733
-0.00043132767 0.002457227 -0.0009326086 0.0003198425 0.00019844237 0.00024876732 -0.00047826773 -0.0013829905
0.0007724297 -0.0014507787 -0.00034616282 -0.00083912816 -0.00096288224 0.00064018863 0.00077198585 -0.0005569161

0.model_cnn.layer2.1.weight f4 [32]
00000000: 1073 823f d689 833f ae5f 713f 4b1a 793f
00000010: ba77 733f e086 7e3f 830f 7c3f 2f32 7a3f
00000020: 563d 7d3f 68f3 823f 4b2c 6f3f 94d2 7c3f
00000030: 65fc 823f a99f 773f f26d 833f 9774 813f
00000040: 03ea 863f 60f4 823f 1a85 833f 331a 7c3f
00000050: 40ad 863f 42fa 7e3f 2198 7a3f 596f 803f
00000060: a58a 873f e84c 863f fc27 7f3f d645 803f
00000070: 71e6 8a3f 5c7d 803f 70fa 803f d7a8 843f
1.0191364 1.0276439 0.9428662 0.97305745 0.95104563 0.9942455 0.9846117 0.97732824
0.98921716 1.0230532 0.9342696 0.98758817 1.0233275 0.96728 1.0267928 1.0113705
1.0540165 1.0230827 1.0274994 0.98477477 1.0521622 0.99600613 0.9788838 1.0033981
1.0589186 1.049222 0.99670386 1.0021312 1.0851575 1.0038257 1.0076427 1.0364026

0.model_cnn.layer2.1.bias f4 [32]
00000000: fc7b 7f3c ca85 d13c 6706 13bd 50a5 223b
00000010: e983 3fbd 1ae4 e7bc 590a aabd c402 c4bc
00000020: acca 17bb 68bf 35bd 4755 88bc ad3a 22bd
00000030: 2255 e6bc dea0 3abd 0eeb 423b 1699 82bc
00000040: 0efe 753a f55b d83c 0451 08bd c6dd a1bd
00000050: d9de b6bb a372 dcbc a06f 63bd 28e1 7abd
00000060: 4b2a 8f3b 125d 933c cb8e aabc 8d66 4bbd
00000070: 7090 423d 48d5 e639 1fb8 70bd cc6f ff3b
0.015593525 0.02557649 -0.035894778 0.0024817772 -0.04675666 -0.02830701 -0.08302755 -0.0239271
-0.0023161573 -0.044371992 -0.016642226 -0.03960674 -0.028116766 -0.04556357 0.0029742154 -0.015942138
0.00093838654 0.026411036 -0.033280388 -0.07903628 -0.0055807647 -0.026910132 -0.055526376 -0.061249882
0.0043690554 0.017988715 -0.020820042 -0.049658347 0.047501028 0.00044027925 -0.05876934 0.0077953096

0.model_cnn.layer2.1.running_mean f4 [32]
00000000: ef85 eb3b ea7c 65be 8e78 0a3d d34b a9bc
00000010: b7ed be3c 68ee 46bd 0bf6 733c 9385 523c
00000020: 6fda 23be c47b cdbc d2d2 a9bd 76c1 433c
00000030: d437 7dbe 19f5 b63d ad75 203e 37db b4bd
00000040: 0976 4bbe 6429 7f3d 6721 713d cf82 e83d
00000050: 5508 d2bd 65db 923d 6f46 d83c 9b72 9a3c
00000060: 3779 9ebe 3e33 97bd 9ef3 00be 39b6 303d
00000070: bf3a 08be f9bc cdbd 61de 64be 7adc 61be
0.007187597 -0.22410932 0.033806376 -0.020666039 0.02330671 -0.048567206 0.014890204 0.012849229
-0.16001295 -0.02508343 -0.08292164 0.01194798 -0.24728328 0.089334674 0.1566989 -0.088308744
-0.19869246 0.062295333 0.058869746 0.11353075 -0.102554955 0.071707524 0.026400773 0.018853476
-0.30951855 -0.073828205 -0.12592933 0.04314253 -0.1330366 -0.10045809 -0.22350456 -0.22056761

0.model_cnn.layer2.1.running_var f4 [32]
00000000: ebb8 e23c 1593 2e3e cece d43d 84fd f53c
00000010: f5eb 2e3e 8207 4b3d d69c 043d 382f 403d
00000020: cb56 1b3e e862 9c3c 11cf 123e 4e3d b53d
00000030: 2b2b 9a3e bd46 173d d9ca 4b3d 112a 7e3d
00000040: 70a1 1d3d b2d7 cf3c 11fe cd3c 77a1 0b3d
00000050: f131 6c3d cfbc 9e3d 3152 cc3c 3e81 c73c
00000060: eae1 ef3d de32 163d 5627 273e 489a d53c
00000070: 6c36 973d 296f 113e 13ed 203e 5da9 443d
0.027676066 0.17048295 0.10391007 0.030028112 0.17082198 0.049567707 0.032376133 0.04692003
0.15169828 0.01909013 0.14336802 0.088495836 0.3011106 0.036932696 0.049753997 0.062051836
0.038484037 0.025371406 0.025145562 0.03408953 0.057664815 0.07750856 0.024941536 0.02435362
0.117130116 0.036669604 0.16323599 0.026074544 0.07383427 0.1420256 0.15715437 0.04801308

0.model_cnn.layer3.0.weight f4 [64, 32, 3]
00000000: afc0 ed3d 8b3f 793d 311d 11be 655b 513d
00000010: beab 2ebd a2ed 55bb 8f06 79bd ce20 a43d
00000020: 61da bcbd 5a0b 0cbc ffbc 6d3c a8b0 99bd
00000030: 5bd0 2bbd c8a9 09be 34e3 27bd ea04 663d
00000040: ed68 f5bc b82b 063e c096 b83b 14a9 f63a
00000050: 1290 42bd 641d 01be b5b2 8c3c 63ea 80bc
00000060: 2cc1 02bd e6d0 993d aad1 12bd 51a3 c4bd
00000070: 32cc 8e3c 634f a8bd 48db 813d 6f8f 0c3e
00000080: 655e 9f3d 80e7 9cbd 15d5 643d 3121 953d
00000090: 5420 bbbd 447d b53d 01fa 0abc e19e 3e3d
000000a0: 2152 c2bd 9134 473d 6627 3bbb 4caa fdbd
000000b0: 618a f63d 861d b63d df1c 843d 7323 f9bd
000000c0: 25f8 c13b ed85 9d3d 1686 b03d 74a4 bbbc
000000d0: 59a8 00be 00de 91bd b7a6 3d3d 4961 88bb
000000e0: fd7a 38bd efde 5abd 77e4 d0bd da90 0c3d
000000f0: dfd2 903c e015 8f3d 684a 79bd c8e0 713d
00000100: 443a 9b3d ebd3 3abc fa07 b23d 24ef 56bd
00000110: 0999 5abd 9afd 133c e70b a03d 8fc9 af3c
00000120: a0f8 2cbb 0f25 b53c 994e 7e3d b8c2 303c
00000130: 45eb d43c 06b1 713d 94fe 3ebd 96cd 51bd
00000140: c0ce cabd 618d 873d 3529 023d 5e33 40bb
00000150: 2fa6 863d 1db9 a93d 40ee a3bd b1a2 0ebe
00000160: 0347 47bd fd13 debd e598 a1bd 42bb 943d
00000170: 9033 6abd 415f 1ebd 0a02 053e d53e 583d
00000180: e213 0f3d d396 d73d 3a9a d83d 4150 643c
00000190: fbe3 bc3d 1eb1 1d3d 678c bd3c 623f 883b
000001a0: 6590 893c 75aa 9fb8 ee3d 8a3d 6436 e93c
000001b0: 5bf4 65bd 1de7 80bc f68e 333d 1254 aebd
000001c0: 0e5b a3bd 1f2a ac3d 7417 09be 0b58 a23d
000001d0: 3c3e fcbd d876 b9bd c5f5 e03d 2aad be3c
000001e0: 9ca7 c7bd ae7c 023e 434b 02bd 948d fa3c
000001f0: eb26 a13c ec72 663d ac94 793c 3e17 d8bd
00000200: 5d52 dbbd 59aa fcbd a254 a1bd cc78 be3d
00000210: e285 96bb 1141 96bd 8629 17be 9108 a03d
00000220: 04a8 e53d e4dd 8f3d 0ed9 b53d 2f1a 2abd
00000230: 1653 5a3b ad39 0dbc 2e30 6c3c ee3f 1bbd
00000240: 3434 823d 01c8 fd3c 0bd6 08be 6f82 c3bd
00000250: f39d 1abb 8512 813c 0017 eb3c b6d9 8ebc
00000260: 5803 0abe ff03 51bd 13b5 9fbd d558 303d
00000270: d069 5e3d abda a4bc 456f 98bd cf5f d6bd
00000280: 44c8 1aba cc46 96bd b7b3 f1bd faf9 a03d
00000290: a9be 0f3d c372 23bd 6b25 94bd b591 d7bd
000002a0: 1926 0d3e ff6b 7f3d efa9 103d 2c86 783d
000002b0: a9a9 02bd ac94 c93d aae1 77bd 4413 2ebd
000002c0: 8648 803d c5c5 753d 5cc0 d53d f2d3 d0bc
000002d0: e965 babc dc42 90bd 811e c5bd 7d55 4abd
000002e0: 1eca 763d dc43 743d 7647 46bd 83ed 17bd
000002f0: d306 c7bd 488a a73c 4ff5 92bd 5c92 c4bd
00000300: b274 05be 9315 66bd 576e c5bd 54f2 6fbd
00000310: 85a6 60be 92f8 32bd 0819 b53c 8fff 3a3c
00000320: aed8 09be 0d3a e33c 8db8 823d 109b 2c3d
00000330: a1b6 a53d af20 4fbd 1106 c93d 109b a6bd
00000340: edc0 5d3d 6cb0 4bbc edc0 56bd bda7 e13b
00000350: 77ae 43bd 1612 77bd d4f8 3d3d 2978 a2bd
00000360: 7a86 9d3d 8a5b 14be a9fd 3f3c b29d 0b3c
00000370: e836 4d3b 8537 593d fedd f8bc 1b4d 3abd
00000380: 860b d8bb 7366 a1bc f90f f4ba 49e7 c3bc
00000390: fc1f 223c 33b7 2637 e27d f8ba 7f5c 84bd
000003a0: 36cd 643d 8bc6 b33c ab55 97ba 4412 57bc
000003b0: 4ec1 b93d deb6 e9bc a961 653d 3783 a9bc
000003c0: 2f5e 80bd 82e6 9dbd 04cd 943d 7fcd 5a3d
000003d0: 6938 0ebd e7f0 5b3d dd5f 44bd 0bd8 323c
000003e0: d9da 56bd efdc bfbc 6e7b 9abd 6a1b 2a3d
000003f0: 6625 6f3b a813 0b3d bc29 c2bd 19f7 76bd
0.11609017 0.060851615 -0.14171292 0.05111255 -0.042644255 -0.003264286 -0.06079727 0.080140695
-0.0922134 -0.008547628 0.014510392 -0.07504398 -0.04194675 -0.13443673 -0.040988162 0.05615703
-0.02995726 0.13102615 0.005633205 0.00188187 -0.047500677 -0.12608868 0.017175058 -0.015736764
-0.031922504 0.07510547 -0.035844482 -0.09601463 0.017431352 -0.08218267 0.06340653 0.1372659
0.07781676 -0.076613426 0.055867273 0.072817214 -0.091370255 0.08861783 -0.008482457 0.046538237
-0.09488321 0.048634116 -0.002855742 -0.12385997 0.120381124 0.0889235 0.06450819 -0.121649645
0.0059194737 0.0769156 0.08619325 -0.022905566 -0.1256422 -0.07122421 0.04630157 -0.004161988
-0.045039166 -0.053435262 -0.10199826 0.03431783 0.017678676 0.06986594 -0.060861975 0.05905226
0.07579473 -0.011403064 0.08692928 -0.052474156 -0.053368602 0.009032631 0.0781477 0.021458415
-0.002639331 0.022112397 0.062086675 0.010788612 0.025991092 0.059006713 -0.046629503 -0.051221453
-0.09902716 0.06618763 0.03177758 -0.0029327492 0.06574666 0.08287261 -0.08004427 -0.1392925
-0.048651706 -0.10843656 -0.078904904 0.07262279 -0.05717808 -0.03866506 0.12989059 0.052794296
0.03493107 0.10526814 0.105762914 0.01393515 0.09223171 0.03849899 0.023138238 0.0041579464
0.016792485 -7.613461e-05 0.067500934 0.028468318 -0.05614124 -0.015735203 0.04383751 -0.08512129
-0.07976352 0.084064715 -0.13387853 0.07926949 -0.12316558 -0.09055871 0.10984377 0.02327593
-0.09748766 0.12742874 -0.031810056 0.030585088 0.019671878 0.05626194 0.0152332 -0.10551308
-0.10709069 -0.12337179 -0.078774706 0.09300384 -0.004593597 -0.07336629 -0.14761934 0.07814134
0.11213687 0.07024744 0.088792905 -0.041528877 0.0033313683 -0.008619708 0.014415784 -0.037902765
0.06357613 0.030979158 -0.13362901 -0.095463626 -0.002359268 0.015755901 0.02869749 -0.017437797
-0.13477838 -0.0510292 -0.07798209 0.043053467 0.05430013 -0.0201238 -0.07443098 -0.10467493
-0.00059044757 -0.07337722 -0.11801856 0.07860179 0.035093937 -0.039904367 -0.072336994 -0.10525838
0.13784064 0.062358852 0.03531831 0.06067483 -0.03190008 0.0984281 -0.060517944 -0.042498842
0.06263833 0.06000306 0.1043708 -0.025491688 -0.022753673 -0.070440024 -0.09624959 -0.049397934
0.060251348 0.05963503 -0.048407994 -0.037091743 -0.097180985 0.02045168 -0.07175695 -0.09598228
-0.13032797 -0.05617292 -0.09640186 -0.05858071 -0.21938522 -0.043694086 0.022106662 0.011413469
-0.13461563 0.027737642 0.063828565 0.042140067 0.08091474 -0.05056828 0.0981561 -0.081350446
0.054139066 -0.012432199 -0.052430082 0.006886451 -0.047773805 -0.060319982 0.04637988 -0.07933075
0.07691665 -0.14488044 0.011718192 0.008521484 0.0031313244 0.053031463 -0.030379292 -0.04548369
-0.0065931706 -0.019702172 -0.0018620483 -0.023913996 0.009895321 9.937025e-06 -0.0018958414 -0.06462955
0.055859767 0.021945259 -0.0011545917 -0.013126913 0.09070073 -0.02852958 0.05600134 -0.02069245
-0.06267964 -0.077099815 0.07265666 0.053418633 -0.034721766 0.05369654 -0.047942985 0.0109157665
-0.052454803 -0.023420779 -0.075430736 0.04153005 0.0036490797 0.033954293 -0.094806165 -0.060294244

0.model_cnn.layer3.0.bias f4 [64]
00000000: ee93 2fb9 a243 3036 137e 4838 e09f 6c38
00000010: 5959 ce36 7f22 49b8 b8b5 3939 2cba 6638
00000020: dc41 3038 3770 5738 81c1 1639 e78c b7b9
00000030: 4fb0 7a39 32cf efb6 abf5 3ab7 d857 9639
00000040: b519 8db9 7640 7338 faff 47b9 db3d 10b9
00000050: 652b f3b8 c1cf 413a c7ec 0937 2f64 57b9
00000060: 1be6 1c39 9e14 c2b9 4b62 a739 fba5 b338
00000070: a243 c5b8 fc77 a2b7 464b 18b9 904d dd38
00000080: 38f9 f2b8 304e 1738 6dae 57b7 fabf c6b9
00000090: 4378 5439 24b0 00b9 b099 d8b8 f1f4 1e39
000000a0: 7f58 80b8 ebcf 6ab8 5e0a 1c39 1458 e1b8
000000b0: df8f d536 a758 1c38 385c 8db8 83ed d9b8
000000c0: a823 9db9 1777 40b7 acf3 8bb8 d1cf 0938
000000d0: 1339 b338 dff1 6039 8353 04b9 9a2a 3bb9
000000e0: 45ed 0db7 75c5 fcb6 2f8d 9bb9 4f3b 9539
000000f0: aa19 0db8 22c9 6939 1397 35b8 6ffb b038
-0.00016744409 2.6265411e-06 4.780113e-05 5.641568e-05 6.14968e-06 -4.795426e-05 0.0001771067 5.500966e-05
4.2023006e-05 5.1364503e-05 0.000143772 -0.0003500946 0.00023907538 -7.1468758e-06 -1.1143663e-05 0.00028675678
-0.0002691277 5.799575e-05 -0.00019073478 -0.00013755953 -0.00011595226 0.00073933235 8.220965e-06 -0.00020541319
0.0001496304 -0.00037017924 0.00031925956 8.5663014e-05 -9.4062896e-05 -1.9367777e-05 -0.00014523891 0.00010552548
-0.0001158588 3.6074023e-05 -1.285561e-05 -0.00037908537 0.00020262696 -0.00012272649 -0.00010328309 0.00015159302
-6.119999e-05 -5.5983586e-05 0.00014881181 -0.00010745242 6.3646435e-06 3.7275862e-05 -6.740581e-05 -0.00010391606
-0.0002997194 -1.147182e-05 -6.673424e-05 3.285689e-05 8.546016e-05 0.00021452409 -0.00012619612 -0.0001784958
-8.4594985e-06 -7.5331723e-06 -0.00029669094 0.00028463683 -3.364092e-05 0.0002229554 -4.329446e-05 8.439167e-05

0.model_cnn.layer3.1.weight f4 [64]
00000000: c633 793f ff82 7b3f 8681 843f a70b 773f
00000010: 5109 823f 520f 783f 615d 793f 308d 743f
00000020: 0cc7 813f 56cf 6a3f 175d 833f 726c 803f
00000030: dddc 803f ed3c 853f 7a1b 703f f02b 803f
00000040: a1dc 813f 4b14 823f b1aa 823f 8ad1 713f
00000050: 6039 863f 66f0 873f bc87 843f 5d87 8e3f
00000060: 19ac 7e3f b3fa 7e3f 74c0 863f b7f1 803f
00000070: 9210 7b3f a4a0 7d3f 4f64 823f 333d 823f
00000080: fcb4 813f 13b9 7b3f 3d08 823f 18c5 803f
00000090: 4a3c 833f 0e48 823f 3aa4 803f 09f7 883f
000000a0: 2ba6 833f 375c 7e3f fd34 803f a265 793f
000000b0: 48c9 7c3f de19 853f 8b88 793f 4470 833f
000000c0: 3b79 803f 30eb 7f3f 0236 843f c010 6e3f
000000d0: 3dcc 7b3f 17e5 873f 2f75 863f f89d 843f
000000e0: d5e8 823f 6090 7a3f 6e46 7c3f 7000 853f
000000f0: d545 6f3f e5fd 773f 7477 843f 8030 713f
0.97344625 0.9824676 1.0352027 0.96502155 1.0159093 0.96898377 0.9740811 0.95527935
1.0138869 0.9172262 1.0262784 1.0033095 1.0067402 1.0409218 0.93791926 1.0013409
1.0145456 1.0162443 1.0208341 0.94460356 1.048626 1.0620239 1.0353923 1.113506
0.9948135 0.99601287 1.0527482 1.0073766 0.9807216 0.99073243 1.0186862 1.0174927
1.0133357 0.98329276 1.0158764 1.0060148 1.0252774 1.0178239 1.0050118 1.0700389
1.0285085 0.9935946 1.0016171 0.97420704 0.9874463 1.0398519 0.97473973 1.0268636
1.0036997 0.9996824 1.0328982 0.9299431 0.9835852 1.0616788 1.0504512 1.0360708
1.0227305 0.9787655 0.9854497 1.0390759 0.9346593 0.9687179 1.0348954 0.9421463

0.model_cnn.layer3.1.bias f4 [64]
00000000: a85c 90bd b5a0 66bd 8047 1f3c b946 ccbd
00000010: 4468 2abd 3e33 42bd c6b0 ccbc 3f8d cebd
00000020: 3dfc 98bc 3906 a3bd 37a1 fabd 253b 20bc
00000030: 2b06 a1bc 1976 a53c 0107 42bd f15b e7bd
00000040: 5556 a3bc 258d 45bd fdb1 88bd d435 e7bc
00000050: cff9 3bbd 4496 cabc 26db b6bb 7549 bcbd
00000060: 60ec 85bd 62d4 4cbd de4a 65bd 95ae 25bd
00000070: a9bd f5bd ae4e d8bc 4e67 81bd 080b 80bc
00000080: 0e17 43bd 4dfa 6ebd 339d 56bd d6ba 62bd
00000090: 33e1 1bbd 157a 41bd cf0c 12bd a1a5 4ebd
000000a0: ea43 5ebb da71 70bd b101 1dbd bcd4 f7bc
000000b0: 0801 2fbd 915b 7b3d 1cc0 a7bd 83fc 99bc
000000c0: e938 4bbc 706a 0bbd 4fc8 c4bc 48e4 0cbd
000000d0: 23e8 d9bc 8c9b 88bd 509b 96bc 2a4f 11bd
000000e0: 86a0 9ebd f0f2 67bc 5b60 56bd 4f5b 2a3d
000000f0: bc3f 8bbd 7d5f 633c 5dbf eabc 977c acbd
-0.07048923 -0.056305606 0.009721637 -0.09974427 -0.04160334 -0.04741215 -0.024986636 -0.10085534
-0.018674964 -0.07960171 -0.122377805 -0.009779726 -0.019656261 0.020197915 -0.04736996 -0.11296833
-0.019938627 -0.04823031 -0.066745736 -0.02822391 -0.045892533 -0.024729855 -0.0055803237 -0.09193698
-0.065392256 -0.05000723 -0.055979602 -0.040449698 -0.119990654 -0.026404705 -0.06318532 -0.01563026
-0.04762941 -0.058344174 -0.05239601 -0.055353962 -0.038056564 -0.047235567 -0.035656746 -0.050450925
-0.0033914992 -0.058702327 -0.03833169 -0.030252807 -0.042725593 0.06136662 -0.08190939 -0.018797165
-0.012403705 -0.034037054 -0.024021296 -0.034397393 -0.02659995 -0.06670293 -0.018384606 -0.035475887
-0.07745461 -0.014157042 -0.052337985 0.041590985 -0.06799266 0.013877747 -0.028655702 -0.08422201

0.model_cnn.layer3.1.running_mean f4 [64]
00000000: f9e2 cabb 68a6 fdbd 52f8 bfbe 237d 313e
00000010: 90fb 543e 1ad0 f3be ef60 2b3c 6f49 d03c
00000020: b6ec a43d 1ec1 17bf d83a ca3d d665 21bf
00000030: 82e2 b3bd 1815 eebe 2a37 9bbe 7f06 d8bd
00000040: b36f a43e 3bbf c2bd 6cdc 673d 48b8 803e
00000050: a9b4 f03d 31c4 77be 3958 813e f72b d9be
00000060: 9db1 b1bd ae49 0d3d f26e 65be 6289 263d
00000070: 1fa3 753e 7d3b 4c3e 7c39 3a3e 56b6 393e
00000080: 732e f9bc 6dc4 febc c64f 283e 467a c4bb
00000090: cce0 70bc 9aa6 983e 7e75 c43c 5b8c 9fbe
000000a0: c610 e2bd 3a9e a7be 7015 263e ea89 e1bd
000000b0: db13 d4be 1cbc 12be f0ae 1f3e ab1b b5be
000000c0: 4af8 95be 0405 54be 1ae0 d8be 8a6c 5b3e
000000d0: faf7 dbbe c838 99bd 7d97 08bf 0071 bcbe
000000e0: 1046 edbc 514f 423c 0493 b23d 08c6 20bf
000000f0: 6ddb bbbd d8c9 953e 5c50 82bd 1264 05be
-0.006191608 -0.12385255 -0.3749414 0.17332892 0.20799088 -0.47619706 0.0104601225 0.02542564
0.080529615 -0.5927905 0.09874505 -0.63046014 -0.08783437 -0.46500468 -0.30315524 -0.10548114
0.3211647 -0.095091306 0.056606695 0.25140595 0.11753208 -0.24195935 0.2526262 -0.42416355
-0.08676455 0.034494095 -0.22405604 0.040658362 0.23988007 0.19944568 0.18185991 0.18135962
-0.030417657 -0.031099522 0.16436681 -0.0059960214 -0.014702033 0.29814607 0.023981806 -0.3116177
-0.110383555 -0.32737905 0.16219115 -0.11012633 -0.414214 -0.1432957 0.15594077 -0.3537267
-0.29290992 -0.20705038 -0.42358476 0.21428123 -0.4296263 -0.07481533 -0.5335615 -0.36804962
-0.028964072 0.011859731 0.08719447 -0.6280217 -0.091727115 0.29255557 -0.063629836 -0.13026455

0.model_cnn.layer3.1.running_var f4 [64]
00000000: 1223 0d3e d892 763e 3ec2 b63d f687 443e
00000010: dc3a 863e 568f 243f 0be7 9b3d a624 e33d
00000020: ce54 733e 9280 f63e 49de e43d 474b 113f
00000030: 7395 283e 896b a23e 6946 413e 1597 e73d
00000040: f0c0 fa3d 42f6 8c3e 7198 e93d eac6 463e
00000050: 1dbc ac3d d69f 933d 7910 0b3e 098f a53d
00000060: 0bcb dd3d 3a6c c23d 04fe 073e b813 113e
00000070: 40a9 2a3e d7ba bb3d 6540 e83d f4d6 a13d
00000080: a093 d33d b59a b13d 6931 463e 5416 de3d
00000090: 22bd 353e 07b0 033e 14e2 b53d c89e 903e
000000a0: 9d66 fd3e 77ef 0e3e bff2 273e 5d68 4e3e
000000b0: 05e0 1e3e d1b3 803e 6104 0b3e 4af0 103f
000000c0: e278 0e3f c962 343e f19a 0f3e f873 743f
000000d0: 0665 2c3e b23e 0f3e 0d47 5a3e 1f49 563e
000000e0: 0a3f ff3d 007a 7d3e 920a b53d f703 453e
000000f0: ce98 423e e198 853d 165e 083e a03a 763e
0.1378291 0.24079454 0.089237675 0.1919249 0.2621678 0.64281213 0.07612427 0.110909745
0.23762819 0.48144966 0.1117521 0.5675549 0.1646326 0.31722668 0.18874516 0.113081135
0.12243831 0.2753163 0.11406029 0.19411817 0.08434317 0.07208221 0.13580503 0.080839224
0.10829743 0.09493299 0.13280493 0.14167678 0.16666126 0.09166496 0.11340407 0.07902327
0.103308916 0.08672086 0.19354786 0.108441025 0.1774793 0.12860118 0.088810116 0.2824614
0.4949235 0.13958536 0.16401194 0.20156999 0.15515144 0.2513719 0.13575889 0.5661665
0.556532 0.17615809 0.14023949 0.95489454 0.16835412 0.1398876 0.21316166 0.20926331
0.124631956 0.2475357 0.08839907 0.19239794 0.19003603 0.065233 0.13317141 0.24045801

0.model_cnn.layer4.0.weight f4 [128, 64, 3]
00000000: ca33 103c 3ba3 9c3b 5e80 28bc 038a fabd
00000010: 3507 573d b0b1 c3bb f19c b8bd 6429 79bd
00000020: 40be 5abd 0b36 b2bc 2aa2 933c 6f71 0ebd
00000030: 4219 a03d 86e5 05bd dd87 3fbd 0ccd 8ebc
00000040: f9ca a73d f8b4 5b3c 5cdd 9f3d 7758 f33b
00000050: 3ac9 663d 1d8b a7bb a8bf 543d 57a9 643b
00000060: e178 a93d 19cf 813d 5db5 edbb ddb3 22bd
00000070: efc8 eebd a62f 6e3d 5ad9 8cbd f5ea 6b3d
00000080: 0477 20bd 39e9 973d d02e a83c 281d 14bc
00000090: ec60 cfbd 3ec7 523d 4e04 9cbc 8c00 bbbd
000000a0: 20de 01bc 3f66 593d 0870 a73c 049d 9b3d
000000b0: e9c2 aabc 116f 35bd ef89 ae3c 04a5 de3c
000000c0: 68cc 83bd 518d 543d 9034 4d3d a3ed fd3c
000000d0: 21f9 b93d dd99 993c 69e9 fe3d f117 f2bc
000000e0: 9cff 903c 3112 183d 5afb b33c 890c aabb
000000f0: eda1 b53d 8517 eb3d df4d 12bc 938b 563c
00000100: 4f76 1bba 43ea 973d 0bb0 8d3c f326 573b
00000110: 259b 9d3d 9045 4b3d 16e3 96bd 1351 96bd
00000120: af70 21bc e07c 8b3c ede1 003c 24aa a43d
00000130: 065f c5bc f021 c23d cb09 c1bb f884 4c3d
00000140: f115 82bd 2cd2 573c f91b 44bd d802 8dbd
00000150: 12a5 653a 9bc6 febc c528 98bd 5cf7 963d
00000160: 91f1 6d3d 8818 6b3d 7172 c13d 662b 12bc
00000170: 5544 bd3d 50a9 a1bc 1d8a 083d 67a9 1dbd
00000180: d385 39bd e250 133d a8c3 b43c a336 45bd
00000190: 6c07 b23d 92b9 9bbc 566e 12bd f19a 9dbc
000001a0: ea45 98bd e2ce 603d f330 07bc b242 883d
000001b0: 9e4e 09be c60f 7f3c 514b b43c f825 1e3c
000001c0: 395e 46bc a2bf 8f3c 5cfc 2ebd 9b72 b3bd
000001d0: e91c 893c d90d 20bd c9ac 6ebc 25ab 88bd
000001e0: 3136 773d 1f1a 613d cbf9 2bbd 1203 a3bc
000001f0: 0094 00bc 05d7 f1bc f6db 773d 0e8e 3db9
00000200: a7d2 203d ba8d 283d d8e7 7b3c 0ba9 063d
00000210: 7184 203d baad 143d 74d8 9fb9 2d8d 2a3d
00000220: 1b66 06bd 76e8 4ebd 5004 4a3d c250 d1bc
00000230: 67af c13c ae06 79bc e01b 2f3b da70 9a3d
00000240: f13b 71bc a9fb a53d bdd3 1a3c 2c4f bdbd
00000250: 9bd8 8e3c fc47 813c d92b 0fbd 27a0 56bd
00000260: 6fa6 5cba 285b e8bc 61f1 813d da20 87bd
00000270: 295d 66bd ba76 7c3d dcaa e03c e990 173c
00000280: 2929 8cbd fc5f 103d bb6e 953d 5601 353d
00000290: 4235 cf3d d0f4 353d 0387 933d d4f6 183d
000002a0: 004b d23d 97f2 823d 5acb 19bd 0bfd dcbd
000002b0: 1d15 27bd dbe7 06bd b498 58bc 7f17 3a3d
000002c0: 6f5d c53d 5825 8bbd fa6d 2c3c e4a1 fd3c
000002d0: 0dfd 77bb 2a71 ee3b 7add 9bbc a32c 8e3c
000002e0: 9bb7 843d 39ab 0c3c 6f0f 933d 697b ca3d
000002f0: 5328 c43d 7b56 793d abc4 d53c 3819 4d3b
00000300: 804f 91bd 6ecf 9e3b 17bb c0bc 45a9 e23a
00000310: 6dd5 ae3c f5b7 13bd f93f 53bc 8070 833d
00000320: f1b4 ccbc 3f75 e8bc e6e3 b2bd 1e53 9ebd
00000330: 2a57 a6bd 8d87 b9bd e303 76bd afe9 5b3c
00000340: a20c aabd e620 4dbd c9ac 2bbc 1837 003d
00000350: 28a7 9e3c 9a87 b2bd a378 863d b4b2 6abd
00000360: 21b2 783d c216 11bc 97f2 8f3d 8e74 d73b
00000370: b7d0 b43c 77b5 81bd 374b 723d fad1 983d
00000380: 1983 96bd 90af 073d ee7a 3abd 7c60 1cbd
00000390: 131a 28bd a983 30bd 43f7 02bd 5fa9 1f3d
000003a0: 9e68 9cbc 2e8f 973d b65d a03b d9c6 aa3c
000003b0: 5cc5 cdbd 690f a23d 2619 e53c 98df 073d
000003c0: 49f8 ae3d d9a7 5abd aa93 babc 0025 f0bd
000003d0: deac a4bc cbaf 05be 22a5 c13c bc11 ed3b
000003e0: 1c7a 92bd 7374 8bbb 3ab2 793c c4c0 1dbc
000003f0: 9cc2 543d 3100 6ebd 76cf d93c a0a9 91bd
0.00880141 0.004780201 -0.010284511 -0.12233355 0.052497108 -0.0059721097 -0.09014309 -0.06083049
-0.053404093 -0.021754285 0.018021662 -0.034776147 0.078173175 -0.032689594 -0.04676043 -0.017431758
0.08193011 0.0134098455 0.07805893 0.0074263173 0.05634425 -0.005113019 0.05194059 0.0034890973
0.08275009 0.06338329 -0.007254286 -0.039722312 -0.11659419 0.05815091 -0.06877394 0.05759712
-0.039176002 0.074175306 0.020530134 -0.0090401545 -0.10125908 0.051459543 -0.019045021 -0.09130964
-0.007926494 0.053076025 0.020439163 0.07598308 -0.020844894 -0.044295374 0.021306006 0.027178295
-0.06435472 0.051892582 0.050098956 0.030997103 0.09080721 0.018750126 0.12446863 -0.029552432
0.017700009 0.037126724 0.02197044 -0.0051894826 0.088687755 0.11479095 -0.008929699 0.0130948005
-0.000593041 0.07417729 0.017295858 0.0032829612 0.07695607 0.049626887 -0.07367532 -0.073396824
-0.009853526 0.017027318 0.007866365 0.08040264 -0.024093162 0.09479129 -0.00589106 0.049931496
-0.06351841 0.0131726675 -0.04787824 -0.06885308 0.0008760254 -0.031100562 -0.07429651 0.07371399
0.058091704 0.05739644 0.09445656 -0.00892148 0.09241549 -0.019734055 0.03333484 -0.038491633
-0.04529364 0.035965808 0.022065952 -0.04814781 0.08692822 -0.019009385 -0.035749756 -0.01923892
-0.0743521 0.0548848 -0.0082514165 0.06653346 -0.13408896 0.0155677255 0.02200857 0.009652607
-0.012107425 0.017547432 -0.042721137 -0.08762094 0.016737418 -0.039075706 -0.014567562 -0.06673268
0.060354415 0.05495655 -0.041986268 -0.019898925 -0.007847786 -0.029521475 0.060512505 -0.00018077364
0.039263394 0.041150786 0.0153751 0.032876056 0.039188806 0.03629849 -0.00030488113 0.041638542
-0.03281222 -0.05051466 0.04932052 -0.025551204 0.023643209 -0.0151993465 0.0026719496 0.07541056
-0.014723764 0.08104641 0.009449896 -0.092436165 0.01743727 0.015781395 -0.034953926 -0.052398827
-0.00084171345 -0.02836378 0.063448675 -0.06598063 -0.05624119 0.061636664 0.027425222 0.009250858
-0.06843788 0.035247788 0.07296511 0.044190727 0.1011758 0.044422925 0.07203486 0.03734477
0.10268211 0.063939266 -0.037547447 -0.107904516 -0.04079162 -0.03293596 -0.013220001 0.045432564
0.09636962 -0.06794232 0.010524267 0.030960985 -0.003784004 0.007276674 -0.019026507 0.017355269
0.064803325 0.008585745 0.07180678 0.0988682 0.09578004 0.06087349 0.026094755 0.003129555
-0.070952415 0.004846505 -0.023526711 0.0017292878 0.021342004 -0.036064107 -0.01289367 0.06417942
-0.024988623 -0.02837622 -0.087348744 -0.07730697 -0.08122094 -0.090590574 -0.0600623 0.013422414
-0.08303191 -0.050080203 -0.010478207 0.03130254 0.019366816 -0.0871727 0.065659784 -0.05729933
0.060716752 -0.008855524 0.07028692 0.0065751737 0.02207218 -0.0633344 0.05915376 0.07461925
-0.07349224 0.033126414 -0.04552739 -0.038177952 -0.04104049 -0.04309431 -0.03197409 0.038979884
-0.019092854 0.07400356 0.0048939837 0.020846771 -0.10047409 0.079130955 0.027966093 0.03317222
0.085434504 -0.05338273 -0.02277549 -0.11725807 -0.02010196 -0.13055341 0.023638312 0.00723478
-0.07152197 -0.004255825 0.015240246 -0.009628478 0.051943406 -0.05810565 0.026588183 -0.071124315

0.model_cnn.layer4.0.bias f4 [128]
00000000: b8df 82b8 6b72 46b8 38c0 7238 908c 76b6
00000010: d6cc ea37 5e22 dbb8 dd5c 99b6 50e8 d9b8
00000020: 2459 1838 9496 b137 e412 d837 5643 38b7
00000030: 264d d1b8 4fad 8ab6 8a88 f137 99c5 7db7
00000040: 5fcc bf37 4632 3e39 28e7 74b8 36fc 64b6
00000050: fea3 a0b6 a7ad 21b9 dafc 5eb6 e151 01b7
00000060: 780c d338 3a1b 75b6 66bb 8fb8 47d3 1437
00000070: 5d43 c638 d33e e037 7249 afb6 ab3c 9238
00000080: 8fd6 9fb8 03e5 4638 cc2c 28b8 b28f 1f37
00000090: bea6 97b7 aa56 3a38 7206 c138 61f3 ecb5
000000a0: 39f5 0137 1452 44b8 f874 82b7 c28c 3a38
000000b0: 8c03 7437 1277 4d38 06b6 8eb7 c43d 8a38
000000c0: 0ac4 dbb7 eb92 8cb7 3da1 0039 8cd9 cdb7
000000d0: 6977 1438 1243 a038 dc0a 9737 8558 b236
000000e0: 53d6 fdb6 ce36 b4b8 4d9d e1b6 6bc9 e3b6
000000f0: d9ca c438 b5d6 04b7 1826 52b6 c1bb bdb6
00000100: 881d 3238 c33c 2238 4bf7 8eb8 32cc 7eb6
00000110: fadf 0a37 2fb9 ddb8 1196 42b8 983c 5a37
00000120: ebf7 33b8 27e7 7137 5b25 c037 7b31 3db7
00000130: ecb7 32b7 8864 6437 1bf2 7bb8 8a7a fab8
00000140: 6e00 0d38 6762 ad38 829c 3535 de7b 0bb8
00000150: 5f8b f738 d7a7 d636 c9d8 adb7 aa55 a5b7
00000160: 5a32 a538 70a9 4c38 e3de cd37 bb2b 64b7
00000170: 10c6 c7b7 b7e5 1238 1ff8 8138 b5f6 8537
00000180: 67d7 db36 ba2e 3ab8 3e46 88b8 64eb 31b8
00000190: e20e c1b7 3abd 09b8 0f86 05b8 6960 a137
000001a0: 409c acb8 7788 3ab7 83f4 b3b7 ed6c 72b7
000001b0: 3900 6438 5269 86b7 00bb 62b8 ddd2 68b8
000001c0: 0c95 acb8 94c9 f7b7 5269 8ab7 a922 2a37
000001d0: 443d 4ab7 01af 9c38 945a a938 c3c2 e5b7
000001e0: 2df0 b538 9f47 0db6 64ef fbb8 583c 48b8
000001f0: bc70 8937 f03d 61b8 ddeb e836 1f4a ceb8
-6.240554e-05 -4.731344e-05 5.7876314e-05 -3.6738675e-06 2.7990358e-05 -0.00010449135 -4.570566e-06 -0.00010390638
3.6322643e-05 2.1170163e-05 2.5758003e-05 -1.09829325e-05 -9.9802666e-05 -4.1328963e-06 2.879302e-05 -1.5125982e-05
2.2864142e-05 0.0001813854 -5.8389414e-05 -3.4121454e-06 -4.787463e-06 -0.00015418847 -3.3227757e-06 -7.708063e-06
0.000100635865 -3.6523693e-06 -6.853677e-05 8.870679e-06 9.453923e-05 2.6732136e-05 -5.2239566e-06 6.973123e-05
-7.6216755e-05 4.7420162e-05 -4.009604e-05 9.510595e-06 -1.8078248e-05 4.4426568e-05 9.204158e-05 -1.7654203e-06
7.7460945e-06 -4.6806483e-05 -1.5551675e-05 4.4476947e-05 1.4544359e-05 4.89867e-05 -1.701248e-05 6.5918575e-05
-2.6198122e-05 -1.6757715e-05 0.00012267097 -2.4539208e-05 3.539716e-05 7.641887e-05 1.800566e-05 5.3151184e-06
-7.564938e-06 -8.593277e-05 -6.7238348e-06 -6.7885753e-06 9.3837916e-05 -7.9178035e-06 -3.1314612e-06 -5.6544964e-06
4.246601e-05 3.86804e-05 -6.8171496e-05 -3.7967807e-06 8.27759e-06 -0.00010572594 -4.6392965e-05 1.3007921e-05
-4.2907817e-05 1.4418539e-05 2.2905579e-05 -1.1276798e-05 -1.0652449e-05 1.3613266e-05 -6.006854e-05 -0.000119437536
3.361742e-05 8.267612e-05 6.7655503e-07 -3.3255543e-05 0.00011803838 6.397236e-06 -2.0724156e-05 -1.9709423e-05
7.877192e-05 4.879519e-05 2.4541694e-05 -1.3600041e-05 -2.3814879e-05 3.502305e-05 6.1974155e-05 1.5969717e-05
6.5517847e-06 -4.4389373e-05 -6.498069e-05 -4.2419313e-05 -2.3014323e-05 -3.2839576e-05 -3.1834523e-05 1.923759e-05
-8.230703e-05 -1.1118237e-05 -2.1452322e-05 -1.4449685e-05 5.4359643e-05 -1.6023088e-05 -5.4056756e-05 -5.5509492e-05
-8.229361e-05 -2.9538562e-05 -1.6499926e-05 1.014086e-05 -1.2054403e-05 7.471257e-05 8.0754195e-05 -2.738962e-05
8.675489e-05 -2.1052326e-06 -0.00012013203 -4.7739915e-05 1.6384169e-05 -5.3701864e-05 6.941597e-06 -9.8366516e-05

0.model_cnn.layer4.1.weight f4 [128]
00000000: 82ce 803f 2d2c 7d3f 925f 843f e5bf 7e3f
00000010: d4ff 813f 64ea 823f d82f 7b3f a46e 853f
00000020: e2a8 863f b633 8e3f cbe4 803f fe99 853f
00000030: f9b9 803f 800b 813f 8396 823f 8c25 653f
00000040: 6bef 853f ce8b 843f 68f1 7e3f 241e 833f
00000050: 02e7 803f 15b9 853f 1b25 813f 28b1 823f
00000060: a6e4 873f 6738 733f 2cfd 7e3f b5a7 693f
00000070: 904c 813f 2f51 773f 9a81 843f 8830 7f3f
00000080: fec9 813f e4d1 833f 5ec9 713f 8387 703f
00000090: 47e9 793f bb2b 7f3f bf75 883f 6717 773f
000000a0: 9c23 833f 0acb 833f 6bad 763f d075 7f3f
000000b0: 24f8 7d3f 2955 833f 9113 883f b30d 7e3f
000000c0: 2ea2 853f ae18 903f 0b6f 873f 1be0 7f3f
000000d0: 32e9 843f 7ead 853f 95bf 843f 56af 743f
000000e0: 131c 813f 9685 873f ca7d 7e3f 21cc 7e3f
000000f0: e4e1 753f 6336 773f b905 873f 22fe 863f
00000100: 1453 803f 449a 783f 33c1 803f 288b 673f
00000110: 55aa 773f f594 803f 9ade 7d3f a35a 8b3f
00000120: 6d13 823f e678 833f 3936 803f 186c 703f
00000130: 873b 813f 36b1 903f cf77 803f 0233 803f
00000140: 9898 7f3f 121a 7f3f 945f 823f c15f 803f
00000150: c651 833f 3996 7d3f 10ed 6c3f c619 803f
00000160: 7629 7f3f aa84 7c3f 41d3 873f 20d0 7c3f
00000170: 2105 833f d739 843f 6d62 813f 9e12 843f
00000180: cb68 713f 45c5 863f 361d 843f 237d 813f
00000190: 3d72 7f3f e532 853f 8248 753f 8be8 7f3f
000001a0: 531b 813f 785d 753f 87cb 6a3f 8df0 873f
000001b0: 3144 823f 9133 833f 65d0 833f ac14 7e3f
000001c0: 9688 853f 47ab 773f 28de 903f 9652 843f
000001d0: ce7c 783f c5b8 803f 3d8f 843f ab67 843f
000001e0: aac1 823f af55 833f 2500 873f c40e 8a3f
000001f0: 5392 813f 1b57 873f 7b37 803f c69e 813f
1.0063021 0.9889553 1.0341666 0.9951156 1.0156198 1.022778 0.9811988 1.042439
1.0520289 1.1109531 1.0069822 1.043762 1.0056754 1.0081635 1.0202183 0.89510417
1.046369 1.0355165 0.99587107 1.0243573 1.0070498 1.0447108 1.0089449 1.0210314
1.0616653 0.9500794 0.9960506 0.91271526 1.010149 0.9660825 1.0352051 0.9968343
1.0139768 1.0298429 0.94447887 0.93956774 0.9762158 0.996761 1.0660933 0.96520084
1.0245242 1.0296338 0.96358365 0.9978914 0.9920676 1.0260364 1.0630971 0.99239653
1.0440118 1.1257532 1.0580763 0.9995133 1.0383666 1.0443571 1.0370966 0.9558004
1.0086693 1.0587642 0.9941069 0.99530226 0.96047807 0.9656736 1.0548621 1.0546305
1.0025353 0.9711039 1.005896 0.9044671 0.9674428 1.0045458 0.9916779 1.0887035
1.0162178 1.027127 1.0016547 0.9391494 1.0096291 1.130408 1.0036563 1.0015566
0.99842215 0.99649155 1.0185418 1.0029222 1.025933 0.99057347 0.9254923 1.0007865
0.9967264 0.9863993 1.0611345 0.98755074 1.023594 1.0330151 1.0108162 1.0318182
0.94300526 1.0528952 1.0321414 1.0116314 0.9978369 1.0406157 0.95813763 0.9996421
1.0086464 0.95845747 0.9171681 1.0620285 1.017706 1.0250112 1.0297972 0.9925029
1.0432308 0.96745723 1.1317797 1.0337703 0.97065437 1.0056387 1.0356213 1.0344137
1.0215352 1.0260524 1.0546919 1.0785756 1.012278 1.0573457 1.0016931 1.0126579

0.model_cnn.layer4.1.bias f4 [128]
00000000: 2f19 bdbd 5757 8abd 0817 dfbd 69af 86bd
00000010: 7cf2 89bd 9b58 83bd dc44 9dbd d2c7 a1bd
00000020: 41dc aabd f367 34bd fdf0 d7bc 1f8f 4ebd
00000030: 8e90 7d3a e4d6 41bc a3f9 1abd 4ea4 01be
00000040: d4e5 9cbd 700c afbd 8148 7dbd 1950 26bd
00000050: f9a6 c2bd b6f0 c2bd 288c aa39 3b1a 94bd
00000060: ac35 63bd 064e 91bd 103b 8bbd e42f cfbd
00000070: 4fdb 8f3b 3e00 eabd 130f 66bd 4595 16bd
00000080: 1552 e8bd 61a4 5dbd eba6 7fbd 910d dabd
00000090: 1bc6 44bd e4b2 d6bc 3e96 07bd 3a72 6ebd
000000a0: 4ee5 b6bd 4513 54be 701b bdbd a570 c3bc
000000b0: 239b a0bd a441 1ebe 554c 88bd 8f0a 07bd
000000c0: 4082 07be 2563 983d 849f 36bd 14f1 5bbd
000000d0: ba74 76bd 4804 04bd 7db8 8fbd 84fc 92bd
000000e0: 037a 28bd 5ac2 00be ff58 03bd e4ba 53be
000000f0: 9be1 afbd a27a 6dbd 35e8 f0bb fa86 27bd
00000100: f055 f6bc d5d6 ffbd 53d1 34bd 5726 dcbd
00000110: 1629 b2bc d23c 22be 7572 b7bc c8d0 f2bc
00000120: 69ac 8dbd b100 57bd be40 7f39 c887 e9bd
00000130: 6a6c 873b 41b8 ee3d a518 85bd 4657 8bbc
00000140: 9e37 2cbd e5a3 2ebd 573d 4fbd 5c4d b1bd
00000150: ab3e 23bd 2892 34bd a2c1 dfbd d314 19bc
00000160: 9969 c0bd 7b18 a1bd d1e6 80bc 1363 d6bd
00000170: 9783 a9bd 0cfe 92bc 8a20 a2bd 4290 3cbd
00000180: 8b0c 8cbd 0f7f 83bd c6b9 25be e930 c3bc
00000190: eff7 4bbd 51bf 35bd d73d e5bd 08b9 53bd
000001a0: 6430 febd 02a3 65bd 10a2 cebd 42a2 73bd
000001b0: bbfe 47bd a320 abbd 0db3 cbbd 5cc5 e1bd
000001c0: b94a a6bd be78 4bbd e422 4f3d 66d3 2bbd
000001d0: bd86 82bd 6eff bfbc 73d5 8cbd f993 1cbe
000001e0: ef9d efbc 084e 6cbd 64e7 92bc 2cc2 413d
000001f0: 86a8 8ebd be1a 30bd 0095 b5bd 1501 c5bd
-0.09233319 -0.0675494 -0.10893065 -0.065764256 -0.06735703 -0.064133845 -0.076791495 -0.07899441
-0.08342791 -0.044044446 -0.02636003 -0.05042946 0.00096727244 -0.011831019 -0.03783573 -0.12660334
-0.07661024 -0.08547294 -0.061836723 -0.04060373 -0.09504504 -0.09518568 0.0003252935 -0.072315656
-0.055471107 -0.0709496 -0.06798375 -0.10116556 0.0043901573 -0.114258274 -0.05616672 -0.03676345
-0.11343781 -0.054111842 -0.062415045 -0.10647119 -0.04804049 -0.026208349 -0.033102266 -0.058214404
-0.08930455 -0.20710476 -0.09233749 -0.023857424 -0.0784209 -0.15454727 -0.06655184 -0.032969054
-0.1323328 0.07440785 -0.04458572 -0.053696707 -0.060169913 -0.032230645 -0.0701761 -0.0717707
-0.041131984 -0.12574139 -0.032067295 -0.20676762 -0.08587953 -0.05797828 -0.0073519 -0.040900208
-0.030070275 -0.12492148 -0.04414494 -0.107495 -0.021748107 -0.15843514 -0.022393445 -0.02964057
-0.0691765 -0.052490894 0.00024342813 -0.11402851 0.004132797 0.116562374 -0.06498841 -0.017009389
-0.04204523 -0.04263677 -0.050595608 -0.08657333 -0.039854687 -0.044084698 -0.109256044 -0.009343344
-0.09395141 -0.078659974 -0.015735062 -0.10468116 -0.08277052 -0.017943405 -0.079163626 -0.046036012
-0.0683833 -0.06420719 -0.16184148 -0.023827033 -0.049796995 -0.044371907 -0.11193436 -0.05169013
-0.124115735 -0.05606366 -0.10089505 -0.059480913 -0.048826914 -0.08355834 -0.099462606 -0.110239714
-0.08119721 -0.049675696 0.050570384 -0.041949652 -0.063733555 -0.023437228 -0.0687665 -0.15290822
-0.029250113 -0.057691604 -0.017932601 0.047304317 -0.06965737 -0.042994253 -0.0886631 -0.09619347
