checkpoint/cnn_features_1d_0930-122637/68-0.4840-best_model.pth (torch, 940543 bytes, 30 tensors)

0.model_cnn.layer1.0.weight f4 [16, 1, 15]
000000 db 08 19 be 0e 93 d4 3d 1a 41 27 be d4 c6 38 3e
       -0.14944784 0.10379611 -0.16333428 0.18044597
000010 33 ce 0f 3d 21 fc 1e be 0f 26 87 3e 9d 62 60 be
       0.035108756 -0.15525867 0.26396224 -0.21912618
000020 0e c0 8f bd 87 7f 86 3e 0f 58 4a 3e 4d ee 48 be
       -0.070190534 0.2626917 0.19760154 -0.19622155
000030 98 d8 19 3e 70 6b 17 be 15 1d 71 be 25 6b cb 3c
       0.1502403 -0.14787078 -0.2354625 0.024831364
000040 42 4c 4a 3d 19 11 2c 3e 76 43 24 3e bf a6 35 bc
       0.04938913 0.16803397 0.1604136 -0.011087119
000050 f3 08 aa 3d a8 d6 33 3e 90 49 91 bd 75 42 b8 bd
       0.08302488 0.17562354 -0.07094109 -0.08997051
000060 20 ad 37 3e 10 78 14 3e a1 fe 1d 3d e7 f3 ea 3b
       0.17937136 0.14498925 0.03857291 0.0071701887
000070 15 1d 43 be 65 d6 61 be 42 76 49 3e 48 75 5c 3e
       -0.19054063 -0.22054441 0.19674018 0.21529114
000080 c1 7e 81 3e d8 d7 76 be 57 7e 70 3e 26 3e 57 bd
       0.25292018 -0.24105775 0.23485695 -0.052549504
000090 df 35 26 3e 52 f3 01 be 21 8b 2c 3b 7f 61 c8 3d
       0.16231488 -0.12690476 0.0026328044 0.09784221
0000a0 9f 92 b7 bd 8e 11 19 be eb 3d 00 3e b3 ce 8a 3e
       -0.08963513 -0.14948103 0.1252362 0.27110824
0000b0 88 83 a5 bd be ab 1f be b3 73 40 be 46 1f 72 be
       -0.08081728 -0.15592858 -0.18794136 -0.23644742
0000c0 4d a8 5a 3e 42 0a 72 3e a8 e9 31 3e f3 cc 4f be
       0.21353264 0.23636726 0.17374289 -0.20293026
0000d0 0d d1 58 be 22 77 16 be f7 d4 1a 3e f9 cc 00 3e
       -0.21173497 -0.14693883 0.15120302 0.12578191
0000e0 0d 5c 40 3e 95 37 61 be 63 c3 8b 3e e5 8e 83 be
       0.18785115 -0.21993859 0.27297506 -0.25694957
0000f0 da 4e 1f 3d 19 79 60 bc a3 5a d5 3d 35 a3 13 be
       0.038893558 -0.013700747 0.10417678 -0.14417727
000100 90 1a 14 3e 78 9d 2e bc 1c 54 0a 3e d0 96 ec 3d
       0.14463258 -0.010657661 0.13508648 0.11552203
000110 c0 c6 93 3d b9 f3 08 bd 76 38 a5 3c 33 ad 73 be
       0.07215643 -0.033435557 0.020168524 -0.23796539
000120 cf 14 2a be 97 2f ba 3d ca ad 22 be 04 2b 2b be
       -0.166095 0.09091108 -0.15886608 -0.16715628
000130 a9 74 0a bd 47 f3 9a ba 46 6c 79 bc 7e e7 6e 3e
       -0.033802662 -0.001182177 -0.015223568 0.23330495
000140 ed b9 07 3e ee d8 71 be 87 ce d7 3d e5 d8 81 3e
       0.13254519 -0.23617908 0.10537439 0.2536079
000150 39 96 07 3e 03 8a 53 be 61 cd 55 3d af b8 e4 3d
       0.13240899 -0.20658116 0.052197818 0.11168038
000160 64 5d 31 3c 25 d8 b7 bd 3e 20 29 3e 54 e8 03 3e
       0.010825489 -0.08976773 0.16516206 0.12881595
000170 e9 fb 43 3e 0c d0 94 be 79 d8 e8 3c 34 43 32 bd
       0.19139065 -0.29064977 0.028423535 -0.04352112
000180 2d 22 16 3e b8 4e 7a bc 8f fc 93 bd 52 41 e5 3d
       0.14661475 -0.015277557 -0.07225906 0.111940995
000190 c8 53 13 3d 81 5e fa 3d 09 6a 35 3e 0d 5d 44 3c
       0.035968572 0.122250564 0.1771623 0.011985076
0001a0 ce 4e 4d 3d 39 f1 ac bd ce c4 40 3e ae d0 12 be
       0.050123982 -0.08444447 0.18825075 -0.14337417
0001b0 fb e4 32 3e 38 5a 27 3e c8 31 e1 3d b5 7c c4 3c
       0.17470162 0.1634301 0.10995823 0.023985246
0001c0 48 63 00 bd d1 e5 51 be 94 5e 4d be e2 fd 89 3e
       -0.031344682 -0.20497824 -0.2005561 0.2695151
0001d0 b8 c6 4a bb a7 fb 71 be 89 c0 26 bd b0 35 d9 3b
       -0.00309412 -0.23631154 -0.04071096 0.0066287145
0001e0 2c 9d 0a be 72 85 3c 3e 4b c4 c4 3b 3a df 0c 3e
       -0.13536519 0.1841028 0.0060048453 0.13757029
0001f0 1f 42 60 be 15 a2 14 bd 50 41 31 3d de 9e 52 3e
       -0.21900223 -0.036287386 0.043275177 0.20568416
000200 fc aa 12 3d c1 df 80 bd ff e5 5c 3d ad 8c 7a 3e
       0.035807595 -0.06292678 0.05393028 0.24467726
000210 fd 7f 71 3d 80 5a 2f be 6e e2 f5 3d ed c0 64 be
       0.05895995 -0.17124367 0.12006079 -0.2233922
000220 28 38 72 3d 40 f6 ea 3d 17 78 5c 3d 81 b6 aa 3d
       0.059135586 0.1147275 0.053825464 0.08335591
000230 59 89 a0 bd 2a b4 c6 3d 1a 50 09 be af 4e ab be
       -0.07838697 0.09702332 -0.13409463 -0.33458468
000240 b2 4b c9 3d 6a b9 88 bd c8 3d 80 3d 1e 27 a0 3d
       0.09828891 -0.0667599 0.06261784 0.07819961
000250 80 af 04 3d ae 3b 64 3e e9 41 5a bd 4b 28 b0 bd
       0.032393932 0.22288391 -0.053285513 -0.08601435
000260 d0 64 6f be 31 44 6f be 5a b6 f6 bd 99 4a 8f be
       -0.233783 -0.23365857 -0.120464996 -0.279866
000270 58 11 8d 3c c0 13 a8 be c4 b4 6b be a1 37 6d be
       0.017220184 -0.32827568 -0.23018175 -0.23165752
000280 d9 ee 84 bd ab e9 82 be 1e 9b 39 bd 58 96 8b 3d
       -0.06490869 -0.255689 -0.045313947 0.06815785
000290 8c 87 f3 3c d7 41 11 be c3 f1 51 be 21 b1 d6 bd
       0.02972772 -0.14185272 -0.20502381 -0.104830034
0002a0 98 cc d4 3d 8d 59 5d 3d 76 aa 92 bd fb d8 43 be
       0.10390586 0.05404048 -0.07161419 -0.1912574
0002b0 d5 d9 92 bd 1d 3a 8a 3e ae 60 ed 3d c1 bd 7f be
       -0.071704544 0.26997462 0.11590706 -0.24974729
0002c0 b3 60 3e 3e e9 12 55 be c2 3b 37 bd dd 83 d9 3d
       0.18591575 -0.20807995 -0.044734724 0.10620854
0002d0 6a 57 2c be 2a 09 04 be 1c 4a 44 3d 7b 3c 62 3e
       -0.16830221 -0.12894121 0.04792224 0.22093384
0002e0 8f 5f 89 3e f3 2c 09 3e bb 3e d9 3a f3 de 0f 3e
       0.26830718 0.13396053 0.0016574481 0.14049892
0002f0 d3 c5 0c 3b bc 05 49 3e 9a dd 11 be a4 f4 33 be
       0.0021480217 0.19631094 -0.1424469 -0.17573792
000300 9a fe 70 bd 72 c6 18 3e d1 c8 91 3e 15 8d 6c 3e
       -0.058836557 0.14919451 0.28473523 0.23100694
000310 15 5a 52 be 2d d2 66 be 07 8f 4b 3e 41 1c 79 bd
       -0.20542176 -0.22541113 0.1987878 -0.06081796
000320 07 6b 18 3e d7 97 29 3d 77 fa e9 bd d2 b7 f9 3d
       0.14884578 0.04140457 -0.114247255 0.12193264
000330 37 53 4d bd a7 a4 04 3e 33 80 82 be 76 bc 8e bd
       -0.050128188 0.12953435 -0.25488433 -0.0696954
000340 a5 22 48 be a7 2f 87 3e 57 68 04 3d 62 73 4f be
       -0.19544466 0.26403543 0.03232607 -0.20258859
000350 15 ad c3 bb af 2d 72 3e 16 ee 5b be 9c 68 14 3e
       -0.0059715607 0.2365024 -0.21477541 0.1449303
000360 85 fc 9f 3d da eb 27 be 73 32 49 bd 2b fb 1d be
       0.07811836 -0.16398564 -0.049120378 -0.15427844
000370 01 31 0d 3e 57 ee 74 bc b4 08 70 be 59 b1 0c 3e
       0.13788225 -0.014949403 -0.2344082 0.13739528
000380 db 9b 3c be 3e 56 48 3e d7 91 0f bd 0e 57 43 be
       -0.18418829 0.19564149 -0.035051193 -0.19076177
000390 66 c6 2e 3d 87 53 9f bd 9c 86 6a 3e 1a 7a 2a be
       0.042669676 -0.077796035 0.22902912 -0.1664814
0003a0 ce 3b d2 bc 0b d7 6d be 55 45 83 bc 34 97 4e be
       -0.025663283 -0.23226564 -0.016024271 -0.20174867
0003b0 38 d6 a7 bd 2f f2 68 be e3 bd 98 be 8d f0 f0 3d
       -0.08195156 -0.22748636 -0.29832372 0.117646314

0.model_cnn.layer1.0.bias f4 [16]
000000 c7 3d 9f bb 4f f4 2c ba 35 be a1 39 ee 59 4e 3b
       -0.0048596594 -0.0006597684 0.00030850028 0.0031486708
000010 8e 4c 2b 3a e2 d6 64 bb 8d f5 d8 38 3b c1 9c b9
       0.000653454 -0.003491812 0.0001034542 -0.00029898607
000020 8b b8 d2 bb ae 18 34 3b 75 d7 17 3b ef 6a ba bb
       -0.0064306906 0.002748053 0.0023169194 -0.005689017
000030 21 87 e9 b8 9d 14 e9 b9 44 20 52 bc fc a5 96 b9
       -0.000111354755 -0.0004445658 -0.012825076 -0.00028733897

0.model_cnn.layer1.1.weight f4 [16]
000000 b8 3f 8c 3f ee 72 80 3f d2 b3 7c 3f 1b c6 86 3f
       1.0956945 1.0035074 0.98711884 1.0529207
000010 a0 49 80 3f 61 a7 79 3f cd 90 75 3f fa 00 81 3f
       1.0022469 0.97521025 0.95924073 1.0078423
000020 96 a1 83 3f 17 dd 81 3f 34 38 80 3f 46 24 85 3f
       1.0283687 1.0145596 1.0017152 1.0401695
000030 3a cf 81 3f ac 3d 71 3f 23 a2 7e 3f 01 29 79 3f
       1.0141366 0.9423473 0.9946615 0.9732819

0.model_cnn.layer1.1.bias f4 [16]
000000 79 6f 7e 3c 6b b0 b9 3b 2d 6d a9 bc f4 f5 07 bd
       0.015529507 0.0056667826 -0.020681942 -0.033193544
000010 e6 ea 9a bc e1 b7 b7 bc a8 5c 52 bd 96 17 7f 3c
       -0.018910836 -0.022426547 -0.051357895 0.015569588
000020 82 1a 0c bd b4 ba 58 bd 76 ca a2 3b 47 84 44 bd
       -0.034204967 -0.05291243 0.004967983 -0.047977712
000030 3b 6d 97 bd 9f 51 9e bb 69 09 df 3c a9 93 fb 3c
       -0.07393881 -0.0048315073 0.027226167 0.030710058

0.model_cnn.layer1.1.running_mean f4 [16]
000000 3a aa 3e bb d7 7a 91 bc bd aa e6 bc 2b 0d 07 3c
       -0.0029093162 -0.01775877 -0.028157586 0.008242886
000010 05 d3 b9 3b b9 b1 da bc 69 79 f9 bc ae e4 76 b9
       0.0056709074 -0.026696073 -0.0304534 -0.00023545578
000020 8f 7d 11 bd 98 06 39 bc 2a 5c cb 3d 02 75 d1 3b
       -0.035520133 -0.011293076 0.09929688 0.0063921222
000030 b1 e2 3f bd 6c 25 56 3c 31 84 53 3c a2 99 78 3d
       -0.04684705 0.0130704455 0.012909935 0.06069339

0.model_cnn.layer1.1.running_var f4 [16]
000000 b1 dc c6 3c 50 1b e1 3b c1 97 63 3d 99 f5 e2 3c
       0.024275156 0.006869711 0.055564646 0.027705
000010 95 94 58 3b ab 02 e5 3c 5a b2 1d 3d 7f b9 04 3c
       0.0033047546 0.027955374 0.038500167 0.008100866
000020 74 56 a0 3c 18 9b 49 3d 86 2d 7e 3d 45 11 df 3c
       0.019572474 0.049220175 0.062055133 0.027229914
000030 c9 fd f5 3c 0b e7 56 3d 02 2a 84 3b 3e 4d 31 3d
       0.03002824 0.052466433 0.004033328 0.043286555

0.model_cnn.layer2.0.weight f4 [32, 16, 3]
000000 e6 2f 09 3e 36 a0 0e bd 9b c2 30 be 74 4f cd ba
       0.13397178 -0.034820758 -0.17261736 -0.0015663938
000010 55 ba bd 3c 9b b9 e2 bd 9b 32 b1 bd 1f 22 36 3d
       0.02316014 -0.11070558 -0.0865223 0.044466134
000020 f9 0a e0 bd c1 85 ca 3d 93 35 8c bd 29 d6 a6 bd
       -0.10939593 0.09888793 -0.06846156 -0.081463166
000030 28 c2 9d bd ce 44 da bd 07 ef d7 3c fd 6e 52 3d
       -0.07703048 -0.10657655 0.026359094 0.051375378
000040 c5 61 8c bd 51 53 a9 3d 1e c3 02 bd c3 0b 30 bd
       -0.068545856 0.082678445 -0.03192436 -0.042979967
000050 b7 1a 09 be 7e 7a 55 3d a9 8b 75 3d a6 b0 3d 3e
       -0.13389097 0.05211877 0.059947643 0.18524417
000060 99 98 92 3d 24 ef d8 3d 37 4f 01 be 1f 9f 00 3d
       0.07158012 0.105924875 -0.12627874 0.03140175
000070 ba 1b bc 3d 06 d0 00 bd 87 f8 a9 3d 51 3c 27 bd
       0.09184976 -0.031448387 0.08299356 -0.040829007
000080 ac ad de bd 4d 81 d8 bd 13 c6 dd 3d 16 24 63 3b
       -0.10872969 -0.10571537 0.10828795 0.003465896
000090 19 a5 8b bd c4 57 06 3e 34 92 ed bd 87 e6 cf 3d
       -0.06818599 0.13119417 -0.11600152 0.101513915
0000a0 c7 6e 13 3e d3 ea ee 3d a6 62 fd bb 19 23 0c 3e
       0.14397727 0.11665883 -0.007732707 0.13685264
0000b0 e1 85 79 3d e8 c8 29 3d 90 39 a8 3b 96 2d 3e 3c
       0.060918692 0.041451365 0.005133815 0.011607548
0000c0 e4 f2 38 3d 60 06 4e 3d 81 ce 19 3e 95 34 50 bd
       0.045153514 0.05029905 0.15020181 -0.050831396
0000d0 27 87 71 bb e8 5d 0b be c9 5c 50 bd e4 3e 2a 3e
       -0.0036854239 -0.13610041 -0.050869737 0.16625553
0000e0 0b 17 a8 3b 2a 19 d3 bd 48 99 c4 bd 13 7d e7 3d
       0.0051297 -0.10307534 -0.095995486 0.11303153
0000f0 a7 5f 40 bd 4e d8 0c 3e 11 13 f3 3d dd ae aa bd
       -0.04696622 0.13754389 0.11868871 -0.08334134
000100 0d 89 5c 3d 0c 62 e1 3c 78 7c e4 bd 64 fc a1 bc
       0.05384164 0.027512573 -0.11156553 -0.01977367
000110 4e 78 bf 3c 23 4a d7 3d db 60 ec bb 63 d7 d9 3d
       0.023372795 0.10512187 -0.0072136945 0.10636785
000120 7a 9e 25 be bb a1 d6 bd e3 03 ea bd 83 35 36 3e
       -0.16173735 -0.104800664 -0.114265226 0.1779385
000130 d6 a4 8d 3d 60 da 1f 3c 97 c4 05 be d1 e4 fa bd
       0.069162056 0.0097566545 -0.13063274 -0.122506745
000140 c6 a4 2d bd 04 66 2c 3e 31 54 c9 3c e9 bb 69 bd
       -0.04239347 0.16835791 0.024576278 -0.05706397
000150 38 e2 08 be be 9b b2 bd fc d4 06 be d7 91 bb 3c
       -0.13367546 -0.08721112 -0.13167185 0.02289669
000160 e7 13 04 3d c7 ff cb bd 0b 6b 95 bd 67 58 0e bd
       0.032245543 -0.09960895 -0.072958075 -0.034752276
000170 b0 03 b7 bd 20 f9 e3 bd cd a1 18 3c bb a8 05 be
       -0.0893625 -0.11131501 0.00931592 -0.13052647
000180 32 f7 2b 38 ed 02 0a 3e b8 e3 bf bd 17 f3 35 3d
       4.0999796e-05 0.13477679 -0.09369606 0.04442128
000190 65 9f 87 3c 1c e7 02 be cc 01 ff 3d 14 70 37 3d
       0.016555497 -0.12783474 0.124515146 0.04478462
0001a0 70 40 a1 3d ea 43 ef 3c 66 62 b1 3d e1 47 61 bd
       0.078736186 0.029207189 0.08661346 -0.05500019
0001b0 91 4d ad 3c dd 84 f2 bd f1 96 29 3e 09 3d 20 be
       0.02115515 -0.11841748 0.16561486 -0.15648283
0001c0 2b 7c 16 3e 8f cf 3f 3d 69 ef c5 bb 78 78 03 3e
       0.14695804 0.046828803 -0.006040503 0.12838924
0001d0 f1 4c 81 bd 69 19 76 bd 7b 77 6a 3d 1a ba 34 bc
       -0.063135035 -0.060082827 0.05724285 -0.011030698
0001e0 75 fd 33 3d 8a c5 ff bd 7d 54 42 3b 67 2f 96 bd
       0.043942887 -0.124888495 0.002965241 -0.0733326
0001f0 7d 14 81 bd 94 9e af bd 53 2b 8b 3d e0 98 48 bc
       -0.06302736 -0.08575168 0.06795373 -0.0122434795
000200 06 44 8e bd f3 e5 42 bc 4b 5d 09 3e 54 f5 fc 3d
       -0.06946568 -0.0118956445 0.13414495 0.1235148
000210 68 f2 94 bd 8c 63 a8 bd b6 81 dc bb 5d 67 05 3e
       -0.07272798 -0.08222112 -0.00672933 0.13027711
000220 02 ae bb 3c 9e 6b d0 3d e3 ec e7 bd 93 eb be bd
       0.022910122 0.10176776 -0.113244794 -0.09322276
000230 01 75 af 3d b4 b4 c0 3d 98 f8 ad 3d e2 6f 80 bc
       0.085672386 0.094094664 0.08494681 -0.01567835
000240 73 66 6a 3d 02 de 78 bd 57 8a 85 bd cd 27 19 be
       0.05722661 -0.0607586 -0.06520527 -0.14956589
000250 71 1a 36 3d 3c f5 7e bd 8b 92 b9 3d 05 fd f0 3d
       0.04445881 -0.062245592 0.09061154 0.1176701
000260 4a ee 60 bd a3 7e fd bd 3f ee b0 3d 13 72 27 be
       -0.05491475 -0.1237767 0.08639192 -0.1635211
000270 37 d4 2f 3e 46 71 ab bd 85 1b 91 3d 98 1f ac 3d
       0.17170797 -0.083712146 0.07085327 0.084044635
000280 a8 5a e1 bc 9b 86 b4 bd 40 20 0f 3d 88 4a af 3c
       -0.027509049 -0.088147365 0.034942865 0.021397844
000290 83 ac cb bd 58 77 ba 3d e1 f8 fb 3b c0 8c 8e bd
       -0.099450134 0.09104794 0.007689581 -0.0696044
0002a0 1c 94 fe 3c 52 96 1d 3d 25 d1 ab bd 44 7b cf 3c
       0.031076483 0.038473435 -0.083895005 0.025327332
0002b0 07 ce 6f bd 24 12 43 be ca d3 e3 3d bd 11 bb bd
       -0.058546092 -0.19049889 0.1112438 -0.09134243
0002c0 46 5a 72 bd 83 fa ce 3d ca 3e 09 3d 1d 36 39 3d
       -0.059168123 0.10106375 0.033507146 0.045217622
0002d0 9c 36 a5 3d e8 42 7b bd da cf 31 bb 89 82 01 3d
       0.080670565 -0.061343104 -0.0027131946 0.03161863
0002e0 82 e5 c8 bd ee ae c7 bd 05 30 55 3d 21 46 86 3d
       -0.098094 -0.09750162 0.052047748 0.06556345
0002f0 25 1c 75 3b 8b 74 ae bd af 43 6e bd 3a 42 b6 3d
       0.0037400809 -0.085183226 -0.058170017 0.088993505
000300 ba 17 02 bd f0 78 f2 3d 5c 83 4e bd 70 7c 3c 3e
       -0.03176091 0.11839473 -0.050418243 0.18406844
000310 4a a3 44 3c f4 b0 7b 3d 74 2f 14 bd 53 c7 17 3e
       0.012001822 0.061448053 -0.036178067 0.1482213
000320 93 3f db 3d 9e b7 b1 3d 53 57 b7 3b c3 1d 71 bd
       0.10705485 0.086776 0.0055951267 -0.058866274
000330 b5 f9 ad 3d bc 51 06 3c ac a4 38 bd de 5b bb 3d
       0.084948935 0.008198198 -0.04507892 0.09148382
000340 29 c7 d1 bd c5 9e 97 bd 06 8a e2 3d 61 03 6c bd
       -0.10243065 -0.0740333 0.11061482 -0.05762041
000350 7a f5 3c be 64 78 bc bd 73 0a 9d bc 4d 55 77 3d
       -0.18453017 -0.0920265 -0.019170022 0.060384084
000360 1f 5e d9 bd 7e d7 11 be de 20 08 be 9c e6 28 be
       -0.10613655 -0.1424236 -0.13293788 -0.1649422
000370 9c f6 1a be 1c 49 2d 3e b6 c4 b7 3d f6 8b 58 bd
       -0.15133137 0.1692242 0.089730665 -0.052867852
000380 93 0a 57 3d fe 31 7f bd 61 a5 e5 bd 7e 6a 1a 3e
       0.05250032 -0.062303536 -0.11213184 0.15079686
000390 ee c8 f6 3d 74 29 50 bd 1b ea 84 bc 6a e3 c4 3d
       0.12050043 -0.050820783 -0.016224911 0.09613688
0003a0 7d de 8d 3d ef bd 0d 3e 28 55 ba bd b1 6f 38 be
       0.06927202 0.13841985 -0.090982735 -0.18011357
0003b0 9c 32 8e bc 8b 56 f2 3d 3f a7 e9 bd 16 de 35 3e
       -0.017358117 0.11832913 -0.11408853 0.177605
0003c0 9e 06 7f bd 98 1a 0f 3b 57 97 4a 3c 4b f1 d6 bd
       -0.06226217 0.002183592 0.012365184 -0.10495242
0003d0 55 19 89 bd 5b e7 60 3d 06 80 e6 3c 7f 47 8a bd
       -0.06694285 0.054908138 0.028137218 -0.06751918
0003e0 a5 0d 0a be a1 cc 03 bd 69 c4 c0 3d 1c 2a 69 bc
       -0.13481767 -0.03217757 0.09412462 -0.014231231
0003f0 1d ef dc 3d a2 a2 01 bd e9 29 a7 3d f1 42 bd 3d
       0.10787795 -0.03164924 0.081622906 0.09241284

0.model_cnn.layer2.0.bias f4 [32]
000000 1d ad 15 ba ca f6 2c 3a 84 cf 04 ba 1a c6 11 3b
       -0.0005709695 0.0006598054 -0.00050663226 0.0022243322
000010 00 62 7a 39 5b 29 ba 38 ea e6 9c ba 0b 47 81 39
       0.00023878366 8.876874e-05 -0.0011970673 0.00024657728
000020 ab 44 87 b9 f1 cf 26 3b c3 ef d1 b9 38 a0 51 37
       -0.00025800368 0.0025453533 -0.00040042223 1.2494675e-05
000030 a5 98 96 ba 81 34 ab ba 9b 71 40 39 fc a7 f9 b9
       -0.0011489583 -0.0013061912 0.00018352868 -0.0004761814
000040 61 51 d5 39 6d 4f 34 3b c1 d4 23 3a c4 0d 33 3a
       0.00040687158 0.0027513162 0.00062496593 0.00068303593
000050 49 a5 17 bb 53 89 ba 39 bc 3d c2 38 fd ae e2 b9
       -0.002313929 0.00035579 9.26214e-05 -0.00043236456
000060 23 3c f6 3a d0 42 54 3a 3e 76 3c 39 ad 0c 08 bb
       0.0018786233 0.0008097114 0.00017973126 -0.0020759508
000070 b3 6a 16 3a 7c 34 9d b9 c9 4a 96 b9 0b 4c 8c 38
       0.00057379453 -0.00029984477 -0.0002866595 6.689884e-05

0.model_cnn.layer2.1.weight f4 [32]
000000 78 5c 82 3f 9d ed 83 3f 42 1a 71 3f a3 d1 78 3f
       1.0184469 1.0306889 0.9418069 0.9719488
000010 30 8f 72 3f 57 81 7d 3f 7b 8a 7c 3f 13 fe 78 3f
       0.94749737 0.9902548 0.98648804 0.97262686
000020 88 04 7f 3f 78 34 83 3f d5 9c 6e 3f b8 bd 7d 3f
       0.9961629 1.0250387 0.93208057 0.9911761
000030 e6 a6 82 3f 35 91 77 3f 0b e6 83 3f a7 03 80 3f
       1.0207183 0.96705943 1.0304579 1.0001115
000040 5f 6d 87 3f 63 e2 82 3f 7f d4 82 3f 2a c9 7d 3f
       1.0580252 1.0225338 1.0221099 0.99135077
000050 2b e2 86 3f d8 92 7f 3f 5b c6 7b 3f 7b 3a 80 3f
       1.0537771 0.9983344 0.9834954 1.0017847
000060 0b be 86 3f 6d f3 85 3f 12 23 7f 3f fa 07 81 3f
       1.0526747 1.0464913 0.9966289 1.0080559
000070 c9 32 8b 3f 70 34 80 3f 49 bb 80 3f fa cf 84 3f
       1.0874873 1.0016003 1.0057155 1.037597

0.model_cnn.layer2.1.bias f4 [32]
000000 08 62 e2 3b 3d ee d4 3c 0f 78 1d bd ec 51 ec 3b
       0.006908659 0.025992507 -0.038444575 0.0072119143
000010 83 ad 53 bd 69 da 1c bd fe ed ad bd dd f9 d7 bc
       -0.051679146 -0.03829423 -0.08492659 -0.026364261
000020 32 5b 17 39 ec 14 1d bd 27 75 62 bc 51 4b 0c bd
       0.00014434455 -0.03835003 -0.013821877 -0.034251515
000030 ac 9e 03 bd 76 40 57 bd 25 57 99 ba c5 5d d9 bc
       -0.032133743 -0.05255171 -0.0011698945 -0.02653397
000040 01 a6 28 bc ad 17 9a 3c 98 3c 0d bd ef a2 97 bd
       -0.010293485 0.018810118 -0.034481615 -0.07404124
000050 9c 40 96 bb 82 e1 0d bd cc e7 58 bd fc a5 7e bd
       -0.0045853388 -0.03463889 -0.052955434 -0.062170014
000060 9e 39 39 bb 25 46 98 3c 4a 3a b7 bc 47 c5 1b bd
       -0.0028263102 0.018588135 -0.022366662 -0.038029935
000070 3c 2b 51 3d b5 83 f8 b9 0c 45 8b bd 02 ef 58 3b
       0.051066622 -0.00047400375 -0.06800279 0.0033101444

0.model_cnn.layer2.1.running_mean f4 [32]
000000 a0 67 8e bb 02 99 69 be ab 4a 0f 3d 90 b5 33 bc
       -0.004345849 -0.22812274 0.03498332 -0.010968581
000010 f9 82 0f 3d 0f dd 31 bd 2e 90 a4 3b 27 4a b7 3c
       0.035037015 -0.04342371 0.0050220704 0.022374226
000020 b3 b9 16 be 4c 1f a0 bc 16 54 aa bd 06 ec 97 3c
       -0.14719276 -0.019546174 -0.08316819 0.018545162
000030 de 84 80 be ac a9 d5 3d e9 d9 25 3e dc 9f 89 bd
       -0.2510137 0.10432753 0.16196407 -0.06719944
000040 d1 ca 3d be ce fb 89 3d 5a 26 82 3d 80 03 eb 3d
       -0.185344 0.06737481 0.06354971 0.11475277
000050 e8 6b bc bd a2 26 73 3d c0 e6 99 3c 45 8a 2f 3c
       -0.09200269 0.059363015 0.018786788 0.010714118
000060 e4 db a0 be e2 cb bb bd 0f c8 f4 bd a5 77 14 3d
       -0.31417763 -0.09169747 -0.11952221 0.036246914
000070 bc f8 09 be 22 ed c6 bd 36 4a 61 be 68 a8 64 be
       -0.13473791 -0.09713198 -0.22000965 -0.22329867

0.model_cnn.layer2.1.running_var f4 [32]
000000 64 13 ff 3c f1 68 25 3e 8b ca d7 3d d2 41 ea 3c
       0.031137176 0.16153313 0.10536679 0.028595839
000010 02 93 27 3e 29 d0 40 3d 35 44 cf 3c 24 fe 3d 3d
       0.16364673 0.047073517 0.025301078 0.046384946
000020 dd 2a ef 3d cb 1a 93 3c 5b ea 22 3e eb a1 8b 3d
       0.116780974 0.017957112 0.15909712 0.06817993
000030 37 8e b4 3e 77 bc 13 3d 0b 85 46 3d 90 14 72 3d
       0.3526475 0.036068406 0.048466723 0.05910164
000040 db f9 1f 3d 5a 7c cc 3c e8 bf f4 3c 1e 67 0b 3d
       0.03905664 0.02496164 0.029876664 0.034033887
000050 f0 94 2f 3d bf 5b a0 3d 07 4c db 3c e1 41 cb 3c
       0.042866647 0.07829999 0.026769651 0.024811687
000060 22 1e 08 3e 52 1f 36 3d 56 8e 23 3e 07 70 dd 3c
       0.13292745 0.044463463 0.15972266 0.027030958
000070 96 ab 8b 3d dd 62 0f 3e d0 40 21 3e fe 9e 5c 3d
       0.06819837 0.14002557 0.1574738 0.053862564

0.model_cnn.layer3.0.weight f4 [64, 32, 3]
000000 3d 4c 05 3e 9a 8d 66 3d 96 2e 0d be 14 23 7e 3d
       0.13017364 0.056287386 -0.13787302 0.06204517
000010 93 e2 07 bd 4f c0 81 bb ca a6 5f bd 23 39 9d 3d
       -0.033175062 -0.0039596925 -0.05460242 0.076769136
000020 41 3c ba bd a9 91 40 bb 8f 68 3d 3c 78 8c 90 bd
       -0.09093524 -0.0029383695 0.011560573 -0.07058042
000030 38 f2 10 bd 9a 1c 05 be 87 42 37 bd ff 39 89 3d
       -0.035387248 -0.12999192 -0.04474118 0.06700515
000040 1d 60 09 bd 9a 25 03 3e 24 28 3e 3c 93 48 28 bc
       -0.033538926 0.12807313 0.01160625 -0.010271209
000050 6e bc 71 bd 29 0c 04 be b1 2e 5c 3c e7 8d 9d bc
       -0.05901759 -0.12895264 0.0134388665 -0.019232703
000060 83 8b 04 bd af ca b7 3d 73 e4 ce bc 49 66 cd bd
       -0.03235961 0.08974206 -0.025255417 -0.10029275
000070 b9 75 b1 3c 4b 10 9f bd a5 30 8c 3d 6f 8e 11 3e
       0.02166258 -0.077667795 0.06845216 0.1421449
000080 d5 1a 9d 3d cf 06 a0 bd 70 eb 4e 3d e8 91 8e 3d
       0.076711334 -0.07813799 0.0505175 0.06961423
000090 df b2 bb bd 13 29 c7 3d c6 c8 a5 ba a0 f9 42 3d
       -0.09164976 0.09724631 -0.0012648336 0.047601342
0000a0 2e e7 c5 bd 61 43 46 3d 7a c2 32 3b d7 02 02 be
       -0.09663235 0.0484041 0.0027276562 -0.12696396
0000b0 ca d5 ec 3d 83 44 c0 3d db cd 8f 3d e5 3e d8 bd
       0.115642145 0.093880676 0.07021686 -0.10558871
0000c0 28 10 5b 3c 31 62 99 3d 8b ff a7 3d 16 46 d3 bc
       0.013370551 0.07489432 0.08203038 -0.025790256
0000d0 59 76 f8 bd ac 93 87 bd 7c ff 1a 3d 8c a8 8f 3b
       -0.12131948 -0.06619963 0.037841305 0.004384106
0000e0 27 ab 37 bd ba 85 3a bd 9e 46 d1 bd 32 87 18 3d
       -0.044840958 -0.045537688 -0.10218547 0.037238307
0000f0 8a 22 93 3c 2f 0b b2 3d 0f dc 58 bd 71 f4 84 3d
       0.017960805 0.08693539 -0.05294424 0.06491936
000100 a0 11 a0 3d 0d b8 b8 bc d3 fb af 3d 01 58 6e bd
       0.07815862 -0.0225487 0.085929535 -0.058189396
000110 e6 04 45 bd 16 d9 06 3b 55 d7 a0 3d 66 2f 87 3c
       -0.048100375 0.002057617 0.07853571 0.016502094
000120 a0 b3 cb 3b 27 78 a5 3c 86 77 8a 3d 0c 9a d1 3c
       0.0062164813 0.020198895 0.067610785 0.02558615
000130 0d 74 62 3c e9 9b 84 3d f3 f1 33 bd 48 d5 45 bd
       0.013821614 0.0647505 -0.043931913 -0.048299104
000140 43 3f c6 bd e1 79 90 3d c9 ef 02 3d 03 58 1d bc
       -0.09680035 0.070544966 0.03196696 -0.009603503
000150 73 48 90 3d a5 37 b3 3d d6 a7 96 bd 28 76 08 be
       0.070450686 0.08750848 -0.07356231 -0.13326323
000160 f5 fc 32 bd 55 07 e1 bd 29 ee 9b bd 9f b8 a5 3d
       -0.04369827 -0.109877266 -0.07613785 0.08091854
000170 5d 17 57 bd 0f db 0b bd b8 9f 08 3e df bf 70 3d
       -0.052512515 -0.034144457 0.13342178 0.058776733
000180 84 ee 22 3d f8 8d de 3d 7a 3e db 3d 28 73 18 3c
       0.039778247 0.10866922 0.10705276 0.009304799
000190 b2 d2 b8 3d 77 7a 20 3d 7e d9 cf 3c 8b 3a 95 3b
       0.09024562 0.03917929 0.025372263 0.004554098
0001a0 78 22 6b 3c ac d4 b0 ba 5a 49 89 3d 7d 89 aa 3c
       0.01435148 -0.0013491116 0.06703444 0.020817513
0001b0 3e ff 53 bd fc 1b 3a bc 0a 98 34 3d 1b 82 bd bd
       -0.05175709 -0.011359211 0.04409031 -0.09253331
0001c0 21 52 95 bd 36 53 a2 3d ed f4 09 be 38 40 b5 3d
       -0.072910555 0.079260275 -0.13472338 0.088501394
0001d0 70 39 09 be 6f b6 b4 bd 1e 8a ec 3d 78 98 6e 3c
       -0.13400817 -0.08823859 0.11549781 0.014562719
0001e0 33 e0 cb bd 70 b9 02 3e 2d 4a 07 bd 74 41 b7 3c
       -0.09954872 0.12766051 -0.033029724 0.022370078
0001f0 c3 72 8f 3c 13 c0 66 3d 54 11 6e 3c 16 5e df bd
       0.017510777 0.05633552 0.014530499 -0.10906617
000200 9d be dc bd 0a 3d fa bd 11 bf 9b bd 61 29 b4 3d
       -0.10778544 -0.122186735 -0.076048024 0.08796955
000210 96 62 d2 b9 ff 80 9b bd 0b 14 12 be 88 8c 9b 3d
       -0.00040127774 -0.075929634 -0.14265458 0.075951636
000220 5e 8e ef 3d ff 58 7b 3d 9b 84 a8 3d f8 3a 0c bd
       0.11697076 0.06136417 0.082284175 -0.034235924
000230 f2 ff a1 ba a5 8d 24 3b 05 a8 68 3c a4 96 13 bd
       -0.0012359603 0.002510884 0.014200215 -0.036032334
000240 4f 95 71 3d 5f a3 f8 3c 05 54 0d be cc 38 b8 bd
       0.058980282 0.030351339 -0.13801582 -0.08995208
000250 50 38 f0 bb 53 78 88 3c 14 80 b0 3c 68 f6 9e bc
       -0.0073309317 0.016658938 0.021545447 -0.019404605
000260 df 66 0e be 0f 59 2d bd be a1 9d bd eb 98 21 3d
       -0.1390643 -0.04232126 -0.076968655 0.039452475
000270 4f cf 32 3d fc 50 b7 bc b5 d1 ac bd 2a ea c9 bd
       0.043654736 -0.022377484 -0.08438436 -0.098591164
000280 c9 ac 82 3a 07 c9 90 bd 67 85 00 be f2 92 b5 3d
       0.0009969707 -0.07069593 -0.12550889 0.08865918
000290 b0 eb ba 3c e3 6e 16 bd 50 12 87 bd 3f fa e7 bd
       0.022817463 -0.036726844 -0.0659529 -0.113270275
0002a0 36 66 08 3e d4 69 8f 3d 84 38 cc 3c 0b ec 5f 3d
       0.1332024 0.07002607 0.024929293 0.054668467
0002b0 87 a7 1f bd d2 3f b9 3d 00 4f 5d bd 9a b9 22 bd
       -0.038978126 0.09045376 -0.05403042 -0.039727785
0002c0 34 a7 85 3d f6 18 6c 3d 4d 20 d9 3d 73 c3 fa bc
       0.06526032 0.057640992 0.10601864 -0.030610776
0002d0 11 64 02 bd 9a 3f 83 bd b5 74 c9 bd dd 57 50 bd
       -0.031833712 -0.064086154 -0.09836713 -0.050865043
0002e0 f6 3c 87 3d a4 72 96 3d 04 93 2b bd d1 0c 11 bd
       0.06603424 0.07346085 -0.041888252 -0.035412613
0002f0 d0 ad be bd 69 3f 90 3c c6 10 96 bd cf b8 c1 bd
       -0.09310496 0.017608361 -0.07327418 -0.094590776
000300 90 55 09 be 92 1c 63 bd e1 d4 be bd 6a 7c 83 bd
       -0.13411546 -0.05544717 -0.09317947 -0.064202145
000310 f3 ff 64 be d7 aa 41 bd 9b 4d 9c 3c ab 7b 1f 3c
       -0.22363262 -0.047282066 0.019079974 0.009734075
000320 48 8b 08 be 78 8e de 3c 39 55 83 3d c4 dd 2b 3d
       -0.13334382 0.027167544 0.06412739 0.04195954
000330 fe 70 a3 3d 2b 35 51 bd 0c d1 bd 3d 09 c4 a9 bd
       0.07980536 -0.051076096 0.09268388 -0.08289344
000340 5b 34 49 3d 89 2d 71 bc 42 87 6b bd 44 32 91 3a
       0.049122196 -0.014720329 -0.05750204 0.0011077602
000350 1d 18 58 bd da 49 81 bd 58 16 35 3d 6c 20 a6 bd
       -0.05275737 -0.06312914 0.04421076 -0.08111653
000360 0d db 99 3d e4 73 16 be 5f b6 38 3c 56 18 ab 3b
       0.07512484 -0.14692646 0.011273949 0.005221407
000370 a6 46 f0 bb 7e 37 4f 3d ff 97 02 bd ef 45 40 bd
       -0.0073326407 0.05059003 -0.031883236 -0.046941694
000380 5f 1b 42 bc 64 24 9c bc ac 7c bf 39 a4 a3 b3 bc
       -0.011847346 -0.019060321 0.00036523247 -0.021928616
000390 60 38 3d 3c 81 c5 6f 39 0c 87 e2 3a c1 7b 87 bd
       0.011549085 0.00022866392 0.0017282679 -0.06615401
0003a0 36 96 62 3d 0d 7f af 3c fb ca 94 39 55 63 16 bc
       0.055319034 0.021422887 0.00028379992 -0.009178956
0003b0 99 cf b4 3d 0e 66 05 bd 01 92 71 3d f1 2f 85 bc
       0.088286586 -0.03256803 0.05897713 -0.016258212
0003c0 50 85 8f bd cf c6 9d bd 97 ac 8d 3d 12 1c 45 3d
       -0.07007849 -0.07703935 0.069176845 0.048122473
0003d0 c1 06 30 bd 2a 2d 63 3d dd 93 51 bd b3 a1 32 3c
       -0.04297519 0.055462994 -0.051166404 0.01090281
0003e0 a7 9e 62 bd b4 d1 c1 bc 10 26 9a bd fa d7 17 3d
       -0.055327084 -0.023659565 -0.07526791 0.037071206
0003f0 15 a4 48 bb 6e bc f4 3c c7 a7 c7 bd be ad 7e bd
       -0.0030615379 0.029875007 -0.09748798 -0.062177412

0.model_cnn.layer3.0.bias f4 [64]
000000 17 82 3e b7 38 a3 09 39 04 5d 36 39 c5 b5 18 39
       -1.1355171e-05 0.00013126142 0.00017391524 0.00014563564
000010 e6 84 10 38 eb ef 4b b6 1e 76 ce b8 b9 d3 97 38
       3.4456047e-05 -3.0389008e-06 -9.8448465e-05 7.2396775e-05
000020 33 d5 9a b8 50 c4 99 38 e3 b7 86 38 7d b2 89 b9
       -7.383004e-05 7.3321746e-05 6.4238695e-05 -0.0002626366
000030 70 15 21 39 87 37 1a 38 3c 72 83 b8 6d 14 5f 39
       0.00015362143 3.6768175e-05 -6.2678446e-05 0.00021274546
000040 de bf a8 37 16 5a 89 36 39 f6 20 b9 f7 bd 02 39
       2.0116506e-05 4.0934056e-06 -0.00015350514 0.00012468534
000050 1d 73 fe b8 8b 8a c4 b8 20 b2 29 b9 e9 a3 a9 39
       -0.00012133105 -9.371814e-05 -0.00016183453 0.00032356314
000060 15 76 62 b9 34 c6 21 b9 24 a7 f7 b8 5f ca c7 b8
       -0.00021597029 -0.00015427993 -0.0001180901 -9.526754e-05
000070 98 ad 3d b8 3d f4 30 39 ea 7a 7b b9 6d cf 64 b9
       -4.5222783e-05 0.00016875654 -0.00023983014 -0.00021821047
000080 eb 3b 4e 39 e0 5d 12 39 d3 8c b6 b9 ed 27 d7 b7
       0.00019668012 0.00013958616 -0.00034818667 -2.564859e-05
000090 da bc 43 b8 b5 73 3e 38 bd f4 95 b7 4c 9a a8 39
       -4.6667505e-05 4.540729e-05 -1.787615e-05 0.00032158417
0000a0 6a 6e f4 b7 45 13 e3 b8 c0 a3 a8 39 dd 29 e4 b8
       -2.9138482e-05 -0.00010827793 0.0003216546 -0.00010879685
0000b0 70 8c 0a 37 2e ac 05 b8 a4 ae 8f b8 7b 4c cb b9
       8.258139e-06 -3.1870026e-05 -6.851301e-05 -0.0003877616
0000c0 4b 68 49 b7 82 4e af 38 48 c2 c1 b8 cc 34 fb 36
       -1.2004816e-05 8.3592735e-05 -9.239145e-05 7.4865293e-06
0000d0 ad 4d 3e b9 62 67 db b6 56 b6 5a b8 4a 28 f1 b7
       -0.00018148748 -6.538744e-06 -5.2145064e-05 -2.87482e-05
0000e0 8b 4f 47 39 99 94 a6 b8 df be 01 b8 dd d5 13 b9
       0.00019007751 -7.943175e-05 -3.093376e-05 -0.00014098683
0000f0 41 ad 46 b7 ff eb 22 b9 62 31 9f b9 48 76 58 38
       -1.18420585e-05 -0.0001553744 -0.00030363636 5.160857e-05

0.model_cnn.layer3.1.weight f4 [64]
000000 42 b9 79 3f 9a 05 7c 3f ce 34 84 3f 77 55 76 3f
       0.97548306 0.9844605 1.0328615 0.9622416
000010 29 21 82 3f ad 7c 78 3f e6 ef 78 3f 1c f7 72 3f
       1.016637 0.9706524 0.97241056 0.9490831
000020 8b 08 81 3f aa 19 6b 3f dc 72 83 3f cb 72 80 3f
       1.0080732 0.91836035 1.0269427 1.0035032
000030 a9 eb 81 3f bf e1 85 3f 37 f6 70 3f 21 d7 7f 3f
       1.0150043 1.0459517 0.94125694 0.99937636
000040 a3 d2 82 3f f3 a4 82 3f b2 eb 82 3f e9 bd 73 3f
       1.0220531 1.0206589 1.0228179 0.95211655
000050 f3 59 86 3f de 3c 89 3f fc 7d 84 3f 3a bb 8d 3f
       1.04962 1.07217 1.0350947 1.1072762
000060 bc aa 80 3f 77 ce 7e 3f 75 19 87 3f 2f 3d 81 3f
       1.0052104 0.9953379 1.0554644 1.0096797
000070 06 34 7a 3f 2e c3 7d 3f f9 cd 81 3f cb c6 81 3f
       0.9773563 0.99125946 1.0140983 1.0138792
000080 ee 03 81 3f 9a e4 7b 3f fc 11 82 3f 5c 59 81 3f
       1.0079324 0.98395693 1.0161738 1.0105395
000090 8d 4e 83 3f 23 46 81 3f 48 6d 81 3f e2 37 88 3f
       1.0258347 1.0099529 1.0111475 1.0642054
0000a0 a5 a2 83 3f 57 1b 7f 3f a8 b4 80 3f 93 b6 79 3f
       1.028401 0.9965109 1.0055132 0.9754421
0000b0 76 60 7d 3f 70 7a 84 3f 14 ca 78 3f ba 68 83 3f
       0.9897531 1.0349865 0.97183347 1.0266335
0000c0 41 7f 80 3f d3 93 7f 3f a1 be 83 3f c5 c8 6c 3f
       1.0038835 0.99834937 1.029255 0.9249385
0000d0 a4 3a 7b 3f 95 ed 88 3f d9 71 86 3f 5a 2f 85 3f
       0.98136353 1.0697504 1.0503494 1.0405076
0000e0 83 da 82 3f 18 f7 79 3f 87 a5 79 3f d1 5f 84 3f
       1.0222934 0.9764266 0.975182 1.0341741
0000f0 9e ed 6e 3f 42 ee 77 3f aa f2 84 3f 7b 67 6f 3f
       0.93331325 0.9684793 1.0386555 0.93517274

0.model_cnn.layer3.1.bias f4 [64]
000000 4b a5 87 bd c6 9f 82 bd ca a3 06 3c bb 67 d4 bd
       -0.06623324 -0.063781306 0.008217761 -0.103713475
000010 7c aa 38 bd 47 c4 52 bd e2 dc eb bc 05 3e d2 bd
       -0.04508446 -0.051456716 -0.028791849 -0.102657355
000020 a4 69 97 bc b2 0d a7 bd 8b 7a 05 be 95 7d 4b bc
       -0.01848299 -0.08156909 -0.13035028 -0.012420078
000030 f1 7a bf bc 7c ed 8c 3c ea f3 35 bd 50 80 00 be
       -0.023374053 0.017203085 -0.044422068 -0.12548947
000040 82 a8 40 bc be 88 47 bd 08 1e 90 bd f6 79 c8 bc
       -0.011758925 -0.048714392 -0.07036978 -0.024472218
000050 6d d1 34 bd 63 ea a7 bc 48 3b 88 bb 9a 33 bc bd
       -0.044145036 -0.020497506 -0.0041574575 -0.0918953
000060 fc 9c 8a bd 4b c0 56 bd 7a 49 5f bd c0 23 10 bd
       -0.06768224 -0.05242948 -0.054513432 -0.035190344
000070 02 5d 07 be 50 8e fa bc ad 4e 78 bd 45 a2 c7 bb
       -0.13219073 -0.030585438 -0.060621906 -0.006092342
000080 6a 03 3d bd fe 33 6c bd 57 3e 3b bd 78 c4 61 bd
       -0.046145834 -0.05766677 -0.04571375 -0.055119008
000090 22 24 35 bd f4 1d 5f bd df db 03 bd 88 3b 62 bd
       -0.044223912 -0.054471925 -0.032192107 -0.055232555
0000a0 ff 63 16 bc cf 1c 5e bd df 65 0d bd d5 41 dc bc
       -0.009179114 -0.054226693 -0.03452098 -0.02688686
0000b0 aa cc 3e bd e9 51 7d 3d 8d 85 ab bd b3 4a c5 bc
       -0.0465819 0.061845694 -0.08375082 -0.02408347
0000c0 10 70 41 bc e1 fc 0a bd 88 a0 eb bc 99 4d 19 bd
       -0.011806503 -0.03393257 -0.02876307 -0.03742752
0000d0 3f b0 1c bc 77 ad 91 bd e7 97 8c bc 0f 95 19 bd
       -0.009563505 -0.07113164 -0.017162276 -0.03749567
0000e0 fb 47 a8 bd fd 44 4a bc 90 b3 83 bd 5e 18 21 3d
       -0.08216854 -0.01234555 -0.06430733 0.03932988
0000f0 6b 41 97 bd 00 ef e5 3b c0 51 f7 bc 5b 3c c4 bd
       -0.07385524 0.0070170164 -0.030190349 -0.095818244

0.model_cnn.layer3.1.running_mean f4 [64]
000000 d3 06 08 3d 35 84 fd bd 95 6a d1 be ff de 16 3e
       0.033209633 -0.12378732 -0.40901628 0.14733504
000010 b2 b5 57 3e f5 7a ec be b9 e0 81 bc 46 a0 08 3d
       0.21065405 -0.4618756 -0.015854226 0.033355974
000020 58 12 42 bd ee 45 1d bf 0e f5 f1 3d 8c 65 24 bf
       -0.047380775 -0.6143483 0.118143186 -0.6421745
000030 51 6e 89 bd a2 2e e6 be c9 92 94 be d2 45 ae bd
       -0.06710494 -0.44957453 -0.29018238 -0.08509411
000040 35 d5 ba 3e 6c 0c 8c bd bd ac b7 3d 70 13 89 3e
       0.3649079 -0.06838307 0.08968494 0.26772642
000050 0d f3 fa 3d 04 5d 7e be 29 a6 6d 3e a0 2f e2 be
       0.122533895 -0.2484017 0.23207916 -0.4417696
000060 50 29 ba bd f4 1b ec 3c 47 6f 66 be b2 99 9c 3b
       -0.09089911 0.028821923 -0.22503386 0.004779064
000070 48 71 94 3e 48 a7 3f 3e c0 65 32 3e 46 90 66 3e
       0.28992677 0.18716156 0.17421627 0.22515973
000080 88 e1 0c bd 4a 18 51 bd 40 d4 2d 3e d7 bb a7 3c
       -0.03439477 -0.051048554 0.16975498 0.020475311
000090 c0 fe 2d bd 47 49 76 3e 8b d4 5b bc c6 7e a2 be
       -0.042479277 0.2405139 -0.013417373 -0.31737345
0000a0 09 76 ed bd 3a bb 8b be 46 ad 24 3e 13 70 fb bd
       -0.11594779 -0.2729128 0.16081724 -0.12277236
0000b0 fb 31 ca be 6f 03 6f be 16 6f 15 3e d5 86 cf be
       -0.39491257 -0.23341154 0.14593157 -0.40532556
0000c0 54 a0 99 be 31 01 65 be a6 cb e8 be e7 56 60 3e
       -0.30005133 -0.22363736 -0.4546787 0.2190815
0000d0 b4 31 de be 16 15 c1 bd a6 8e 1f bf 0e 39 a2 be
       -0.43397295 -0.0942785 -0.6232704 -0.31684154
0000e0 32 2d ce bb e5 66 dd 3c 4a a0 58 3d 19 0b 26 bf
       -0.006292009 0.027026603 0.05288724 -0.64860684
0000f0 d0 17 a1 bd 1f a0 86 3e 37 9d 4b bd 5b 53 0a be
       -0.0786587 0.26294038 -0.04971048 -0.1350836

0.model_cnn.layer3.1.running_var f4 [64]
000000 3c 1f 1f 3e a2 7d 5c 3e 98 4e ec 3d 80 ea 3e 3e
       0.15539259 0.215323 0.11538428 0.18644142
000010 3a ec 8e 3e 99 14 e0 3e b9 ab dd 3d fe e0 10 3e
       0.27914602 0.43765715 0.10823769 0.14148328
000020 da bd da 3e 20 45 bb 3e 42 05 d9 3d c4 6a 13 3f
       0.4272297 0.36576176 0.10596706 0.57584786
000030 c1 22 19 3e f2 82 b6 3e 1c 70 5d 3e 49 a6 00 3e
       0.14954664 0.35646778 0.21624798 0.12563433
000040 dd 51 d3 3d ba fa 8d 3e 10 16 00 3e af 32 45 3e
       0.103183486 0.27730352 0.12508416 0.19257616
000050 4c f6 ae 3d 32 95 79 3d e9 bd 03 3e dc 93 02 3e
       0.08543071 0.0609333 0.12865414 0.12751716
000060 44 f7 dc 3d 88 14 ac 3d 66 92 1c 3e 6a d5 21 3e
       0.1078935 0.084023535 0.15290222 0.15804067
000070 37 f1 76 3e 3f e7 c3 3d 28 4e fa 3d 8b f7 dc 3d
       0.24115454 0.09565591 0.12221938 0.107894026
000080 17 42 17 3e 33 b0 ca 3d b3 20 38 3e 6c 8a e9 3d
       0.14771305 0.098968886 0.17981224 0.11403355
000090 3f 7d 3c 3e 05 a6 37 3e 73 75 d0 3d 65 d9 9b 3e
       0.18407153 0.17934425 0.10178652 0.30439296
0000a0 1a 77 ab 3e 93 38 0b 3e c2 b0 11 3e ee c1 58 3e
       0.33489305 0.135958 0.14227584 0.21167728
0000b0 fe bb 01 3e a7 9d 9e 3e 5e 84 16 3e 73 9c 07 3f
       0.1266937 0.30979654 0.14698932 0.529731
0000c0 75 01 38 3f 73 d3 2c 3e 03 81 3f 3e 5b e0 76 3f
       0.71877223 0.16877536 0.18701558 0.9643609
0000d0 a8 da 33 3e 41 e1 21 3e 19 7e 9d 3e 84 78 4a 3e
       0.1756388 0.15808584 0.30760267 0.19772536
0000e0 c5 a9 f2 3d 05 ba 71 3e 12 47 cf 3d cd e6 86 3e
       0.11848787 0.23606117 0.101209775 0.26347962
0000f0 5a 34 61 3e 7d 9d 92 3d 9d e6 0d 3e 3b 1d 58 3e
       0.21992627 0.07158945 0.13857503 0.211049

0.model_cnn.layer4.0.weight f4 [128, 64, 3]
000000 23 dd 2e 3c 08 2a 23 3c ca e1 05 bb ae 0c fb bd
       0.01067284 0.0099587515 -0.002042877 -0.12258278
000010 c9 60 3f 3d a8 4c 97 bb ab fe b4 bd 87 81 59 bd
       0.04672316 -0.0046172924 -0.088376366 -0.053102043
000020 11 19 71 bd 5d 3c b6 bc 59 2f 86 3c ee 98 e9 bc
       -0.058861796 -0.02224558 0.016379999 -0.028515305
000030 88 47 99 3d 58 e0 08 bd c2 2f 3a bd fd 68 97 bc
       0.07484347 -0.033417076 -0.0454557 -0.01848268
000040 6b 7a a8 3d b4 ef 85 3c 63 25 9b 3d c1 70 b2 3b
       0.082264744 0.01634965 0.0757549 0.00544557
000050 c4 59 60 3d 71 a1 d3 ba e6 b3 62 3d f7 b5 0b bb
       0.054773107 -0.0016146136 0.055347346 -0.0021318176
000060 1d b0 ac 3d f1 ca 8d 3d 8d 98 75 bb 66 b1 3e bd
       0.084320284 0.069234736 -0.003747496 -0.0465559
000070 85 b6 ee bd ab 83 66 3d f2 f0 80 bd 20 33 7d 3d
       -0.116559066 0.056277912 -0.06295957 0.061816335
000080 6c 96 2c bd 2c 67 97 3d b0 a1 c1 3c 7d a4 ee bb
       -0.04213564 0.07392725 0.023636669 -0.007282792
000090 f2 9e cf bd 63 5f 4c 3d ad fb 3f bc 5f 59 bd bd
       -0.10137738 0.049895655 -0.011717719 -0.09245562
0000a0 5c ba 86 bc b6 01 37 3d 6e bb b8 3c f1 17 96 3d
       -0.016446285 0.044679366 0.022550311 0.07328785
0000b0 cc 6d a4 bc 38 7a 35 bd 2e 9d b8 3c 96 61 17 3d
       -0.020071886 -0.04430601 0.022535887 0.0369583
0000c0 dc 72 60 bd 8f bd 7f 3d 54 55 5d 3d b6 41 f8 3c
       -0.05479704 0.062436637 0.054036453 0.03030477
0000d0 8d 4d a0 3d 1c 07 9e 3c c2 58 03 3e 34 37 b9 bc
       0.07827292 0.0192905 0.12826827 -0.02260933
0000e0 49 45 88 3c 57 3a 39 3d 0f 3f 82 3c be 89 97 36
       0.0166346 0.045221653 0.01589921 4.516186e-06
0000f0 d7 de bd 3d c4 b6 f8 3d 6b b0 ae bb ef 10 ae 3c
       0.09271019 0.12144235 -0.0053310893 0.021248309
000100 2d 6d a6 bc 48 c5 a6 3d e0 95 bc 3c 5a b7 cb 3b
       -0.020315731 0.08143097 0.023020685 0.0062169256
000110 41 aa b2 3d 28 68 29 3d 2f 64 94 bd 4c 60 81 bd
       0.087238796 0.041359097 -0.07245671 -0.06317195
000120 90 bb 30 bc 65 7c 3d 3c 06 13 93 3b 0b a6 8c 3d
       -0.010786906 0.0115653025 0.0044883518 0.06867608
000130 6f 9a bb bc a7 53 c6 3d c5 f3 df ba f2 71 6b 3d
       -0.022900788 0.09683924 -0.0017086199 0.057481714
000140 a0 90 a4 bd f4 9b 60 3c 49 8a 2d bd 5e 7c 6d bd
       -0.080353975 0.013709057 -0.042368207 -0.057979934
000150 a8 36 22 3a b4 b4 02 bd 4e d8 af bd 1f 8b 96 3d
       0.0006187954 -0.031910613 -0.08586179 0.07350754
000160 90 b4 6c 3d a3 3f 69 3d d8 da bd 3d 49 38 9c bb
       0.057789385 0.056945454 0.09270257 -0.004767452
000170 e5 96 cb 3d 98 ba 91 bc a4 1f 20 3d 69 71 0b bd
       0.0994089 -0.01778917 0.039092675 -0.034043703
000180 3b 63 46 bd b0 20 14 3d 35 6d 09 3c ee 15 50 bd
       -0.048434477 0.036163986 0.008387853 -0.050802164
000190 ac 3e a8 3d 3f ce 51 bc 7b 68 1d bd 08 e0 49 bb
       0.08215079 -0.012805521 -0.03842972 -0.00308037
0001a0 9a 57 a4 bd 04 1c 51 3d 24 82 3e bc 91 29 70 3d
       -0.08024521 0.05105211 -0.011627708 0.05863339
0001b0 6b b0 02 be 8b 82 73 3c e3 98 fa 3c 4b bc a7 3c
       -0.1276261 0.014862667 0.03059048 0.020475527
0001c0 9f 99 64 bc d0 0a b4 3c 8e aa 24 bd 8f ad b0 bd
       -0.013952642 0.021977812 -0.040201716 -0.08626854
0001d0 ba 5f b6 3c ac 9c d6 bc 33 c1 53 bc f5 2a 88 bd
       0.022262443 -0.026197754 -0.01292448 -0.066488184
0001e0 cc f0 70 3d 33 75 5e 3d 32 86 29 bd 2c 28 dc bc
       0.05882339 0.05431099 -0.041387744 -0.026874624
0001f0 a4 17 15 b9 8a 6d e7 bc 29 6a 8a 3d 09 fb 05 3b
       -0.00014218554 -0.028250474 0.0675853 0.0020443818
000200 82 eb 39 3d 90 86 30 3d c9 a9 72 3c 31 bf 01 3d
       0.045390613 0.04309708 0.014810988 0.031676475
000210 c1 1e 23 3d c5 24 20 3d c0 db db 3b 2c 39 3d 3d
       0.03982425 0.039097566 0.006709546 0.0461971
000220 13 8e 34 bd 61 53 aa bd c2 27 51 3d b9 bc ea bc
       -0.044080805 -0.083166845 0.051063307 -0.028654443
000230 e6 32 b3 3c d2 0d 86 bc ba 73 bd 3a fb 79 98 3d
       0.021874856 -0.016364012 0.0014454045 0.07445141
000240 bd 57 66 bc 3b ec a5 3d 44 5a 50 3c b5 17 b5 bd
       -0.014059004 0.08101698 0.0127168335 -0.088424124
000250 42 c1 be 3c 16 ab 95 3c 30 2b 2b bd 73 78 4f bd
       0.023285512 0.018270057 -0.041789234 -0.05065198
000260 94 ac 0a ba 04 84 f8 bc f6 ed 75 3d cd a9 8e bd
       -0.00052899984 -0.030336387 0.06004139 -0.06965981
000270 cd 8b 55 bd b7 1c 92 3d 5b d0 a0 3c c6 cd a9 ba
       -0.052135278 0.07134383 0.019630602 -0.0012955002
000280 ca e1 a8 bd fc 82 37 3d 7a 2d 98 3d 06 78 16 3d
       -0.08246191 0.04480265 0.07430549 0.036735557
000290 15 87 e1 3d 1e c1 1f 3d 21 a7 9c 3d 74 fd 2e 3d
       0.11012093 0.03900253 0.07649065 0.04272218
0002a0 21 b5 d5 3d a0 4a 8b 3d 07 48 3d bd 31 8a ec bd
       0.10434938 0.06801343 -0.04621127 -0.115497954
0002b0 cb f6 21 bd 08 8f 10 bd 51 0e fc bb 50 49 1f 3d
       -0.039542 -0.035292655 -0.0076921363 0.038888276
0002c0 f6 c1 c5 3d 8c dd ad bd a5 46 46 3b 16 f8 1f 3d
       0.09656136 -0.08489522 0.003025451 0.039054953
0002d0 84 e2 a4 3a 14 71 d5 3a 1f 05 01 bd c6 b9 98 3c
       0.0012579714 0.001628431 -0.031499024 0.018643271
0002e0 f0 bd 86 3d 28 1c 3f 3c 40 7d 85 3d 6a 5f ca 3d
       0.065791965 0.011664428 0.0651803 0.0988148
0002f0 a0 c7 d5 3d 2b 5a 82 3d 2e a1 c0 3c c4 24 31 bb
       0.10438466 0.063648544 0.023514356 -0.002702997
000300 67 5e 93 bd 6e 6e 81 3b c3 72 10 bd 7f 60 ec 3b
       -0.0719574 0.003949932 -0.035265695 0.0072136517
000310 c4 cf c2 3c 7f d1 1e bd bf a4 3d bc bf c6 8e 3d
       0.023780711 -0.03877401 -0.011574923 0.069715016
000320 64 14 c9 bc 07 19 eb bc 16 bd b3 bd ed 12 a7 bd
       -0.024545856 -0.028698457 -0.087763 -0.08157907
000330 a0 80 ad bd 8f a2 be bd 0a a4 80 bd 1a fb a7 3c
       -0.08471799 -0.09308349 -0.06281288 0.020505477
000340 f7 31 a9 bd 89 d4 40 bd 88 f8 33 bc d9 69 f2 3c
       -0.08261483 -0.04707769 -0.010984547 0.029591488
000350 94 32 af 3c e7 2e b9 bd 32 fb 80 3d 7b f5 65 bd
       0.021386422 -0.09042149 0.06297912 -0.05614231
000360 52 2a 5a 3d fd f9 04 bc 23 27 8a 3d ea b4 ff 3b
       0.053263016 -0.0081162425 0.06745746 0.007803549
000370 d5 eb f0 3c 46 21 78 bd 6b e6 70 3d d4 af 8e 3d
       0.029409328 -0.060578607 0.058813494 0.0696713
000380 3a d1 9a bd 75 98 0e 3d 09 5b 37 bd c2 04 19 bd
       -0.07559438 0.034813363 -0.044764552 -0.037358053
000390 e6 35 18 bd 5a 07 38 bd bc c9 0d bd 9d 27 17 3d
       -0.037160777 -0.044928886 -0.034616217 0.036903013
0003a0 50 0f 9f bc 3c a1 8f 3d bd 1f c8 3b 31 99 ba 3c
       -0.019416481 0.07013175 0.006107299 0.022778125
0003b0 11 f3 d3 bd bb d6 a7 3d 85 e1 c7 3c c8 73 da 3c
       -0.103490956 0.081952535 0.024399528 0.026666537
0003c0 21 eb b1 3d 6d 1e 7d bd 3e 97 e3 bc 6a be ef bd
       0.086874254 -0.061796594 -0.027782079 -0.117062405
0003d0 95 a4 ab bc 58 17 0c be 21 da ae 3c f5 c0 af 3b
       -0.020952502 -0.1368078 0.021344246 0.0053635784
0003e0 b7 70 93 bd fb f4 a6 bb 0d 63 85 3c 62 5a 6b bc
       -0.07199233 -0.005095122 0.016282583 -0.014364811
0003f0 c0 0d 63 3d 04 51 56 bd e8 78 0e 3d e4 e7 96 bd
       0.055433035 -0.052323356 0.034783274 -0.073684484

0.model_cnn.layer4.0.bias f4 [128]
000000 3c 60 17 39 cd 3f 90 b8 48 a8 6e b8 4e af f0 36
       0.00014436332 -6.878339e-05 -5.6900346e-05 7.1729655e-06
000010 f5 0a 22 b9 d0 64 81 37 f1 30 80 b6 fc c3 10 b8
       -0.00015453606 1.5424943e-05 -3.820395e-06 -3.45148e-05
000020 2a ef 95 b8 59 dc d5 38 87 21 20 b8 09 bd 4f 38
       -7.1494214e-05 0.000101976744 -3.8178197e-05 4.95287e-05
000030 47 7c 28 b8 df 22 ce 37 67 05 10 39 b5 57 4b b7
       -4.0170064e-05 2.4573352e-05 0.00013734923 -1.2120164e-05
000040 e7 be 88 b7 fa 86 81 39 14 86 5b 38 7d 15 eb b8
       -1.630136e-05 0.00024705363 5.233854e-05 -0.00011209676
000050 88 78 e3 b7 38 2c b1 39 f0 cc 9b b7 92 0b 21 b7
       -2.7116635e-05 0.00033793016 -1.8572871e-05 -9.599042e-06
000060 9e 85 a6 36 bc 79 19 33 82 a0 72 38 35 8b bf b5
       4.9627406e-06 3.5733805e-08 5.784678e-05 -1.4271124e-06
000070 0a 04 21 b8 81 4d 8d b8 2c 60 35 38 ba 72 88 36
       -3.8389153e-05 -6.73784e-05 4.324333e-05 4.066472e-06
000080 1a 0f 14 b8 56 6a 8f 39 52 76 43 b8 14 48 70 38
       -3.5300014e-05 0.00027354312 -4.6601817e-05 5.7287587e-05
000090 77 ac 0e b8 a3 48 77 36 83 0b b2 39 f6 50 31 38
       -3.401606e-05 3.6848148e-06 0.00033959383 4.227549e-05
0000a0 2c 6f 4b 38 ad 1c 5a 37 be bc 07 37 6f 00 06 b8
       4.850251e-05 1.3000489e-05 8.090572e-06 -3.1948493e-05
0000b0 4d 9d 33 39 8c bd 92 38 63 78 8e b8 20 ee d8 36
       0.0001712937 6.9971284e-05 -6.7935114e-05 6.465023e-06
0000c0 6a 22 6c b9 9e 4d 2d 38 a8 51 64 36 46 9e 57 b7
       -0.00022519534 4.13187e-05 3.4022178e-06 -1.28518495e-05
0000d0 30 83 22 b9 a8 4b 5b b8 00 2d e9 b7 94 65 c7 b7
       -0.00015498395 -5.228413e-05 -2.779672e-05 -2.376995e-05
0000e0 d9 80 45 b8 99 de f3 b8 07 4e 0e 38 e1 33 33 b7
       -4.708846e-05 -0.00011628605 3.3928107e-05 -1.068131e-05
0000f0 34 cc 1f b8 3a b8 1e b7 11 a5 fa 36 bc 3f d8 38
       -3.8098733e-05 -9.4604275e-06 7.469797e-06 0.00010311554
000100 56 8d 95 38 fb 82 c5 37 f8 fc 1f 38 1d 4c 5e b7
       7.1311995e-05 2.3545223e-05 3.814415e-05 -1.3249953e-05
000110 35 5f 56 39 6e 01 b6 b7 75 7f 9c 37 0e cb d1 37
       0.00020444098 -2.1696756e-05 1.8656001e-05 2.5009296e-05
000120 00 88 8f b8 ac f3 8e b7 25 f3 36 b8 f2 27 dc b7
       -6.844103e-05 -1.7041188e-05 -4.3618627e-05 -2.6244645e-05
000130 60 2c 97 36 cf 59 a8 38 a8 f3 12 b8 a1 42 8c b7
       4.5053166e-06 8.0275924e-05 -3.5036035e-05 -1.6720327e-05
000140 8a d2 39 38 51 44 11 b7 7e 55 77 b8 a8 4b e1 b8
       4.4303517e-05 -8.65858e-06 -5.896901e-05 -0.00010742928
000150 2a c1 32 38 af ce 75 b8 78 d7 e4 b6 c3 da cf b6
       4.2618405e-05 -5.860504e-05 -6.8200134e-06 -6.194548e-06
000160 75 b6 7a b8 09 07 f2 b7 4d 28 a9 37 34 31 fc 37
       -5.977457e-05 -2.8851924e-05 2.0165136e-05 3.0063653e-05
000170 ce 42 16 b9 73 f3 76 b8 47 23 9e b9 3a cf 04 38
       -0.00014330001 -5.88777e-05 -0.00030162392 3.1664247e-05
000180 58 b1 b8 b7 8b d4 24 36 b2 13 84 b8 94 ff 9c b8
       -2.2017091e-05 2.456162e-06 -6.297919e-05 -7.486265e-05
000190 f7 ca 74 b7 08 0c e8 b5 ad 90 c2 35 15 1d de b7
       -1.459079e-05 -1.7288849e-06 1.4496233e-06 -2.6478005e-05
0001a0 e8 9f de 36 99 68 ff 36 39 f3 e0 b7 73 8d f7 37
       6.634731e-06 7.611769e-06 -2.681614e-05 2.9510562e-05
0001b0 6e 9b bd 38 2e de 2b 38 36 44 a3 b8 2c 93 31 b8
       9.041173e-05 4.0976498e-05 -7.785151e-05 -4.2337153e-05
0001c0 02 ed d5 36 6f e1 c5 36 20 5e 21 38 0c 01 a6 b8
       6.375486e-06 5.8973014e-06 3.8473052e-05 -7.915692e-05
0001d0 fb 83 2b b7 6c 69 9c b7 ef be 22 b7 61 c8 9a 38
       -1.0223123e-05 -1.864574e-05 -9.700408e-06 7.380616e-05
0001e0 93 4b 9f b9 11 53 2e b9 71 84 04 b8 e8 70 30 38
       -0.0003038315 -0.00016624878 -3.1594598e-05 4.2066822e-05
0001f0 4b 5d 30 b8 14 89 0e 38 90 f4 21 b7 1e 6e cb b7
       -4.2048556e-05 3.3983102e-05 -9.653289e-06 -2.4250763e-05
