checkpoint_adabn/CNN_1d_0930-141644/0-0.7027-best_model.pth (torch, 937791 bytes, 30 tensors)

layer1.0.weight f4 [16, 1, 15]
0	0x3cb9320b	0.02260687
1	0x3c8279ab	0.015927156
2	0xbe32f3c7	-0.17475806
3	0x3e3f6241	0.18689825
4	0xbe790184	-0.24316984
5	0xbe7afc50	-0.24510312
6	0x3d7ef433	0.062244605
7	0x3e27a207	0.16370402
8	0x3d64570a	0.05574707
9	0x3d318c62	0.04334677
10	0xbe513ba1	-0.20432903
11	0xbe28db79	-0.16489972
12	0xbe0ffba1	-0.14060833
13	0xbe074dc4	-0.13213259
14	0x3ded5873	0.11589136
15	0x3dbb6a37	0.09151118
16	0x3c29ff1c	0.010375764
17	0xbd8c1c02	-0.068412796
18	0x3d8699e0	0.06572318
19	0xbe5ca647	-0.21547805
20	0xbd1a7d78	-0.037717313
21	0x3de0637f	0.109564774
22	0xbe0de190	-0.13855577
23	0x3e6c29dd	0.23062845
24	0x3dedac87	0.116051726
25	0xbdd94ddf	-0.10610556
26	0xbe193ba6	-0.1496416
27	0xbc9f6025	-0.019455025
28	0xbe4a6e66	-0.19768676
29	0xbcaceb4d	-0.021108294
30	0xbda5254b	-0.08063754
31	0xbe69db2a	-0.2283751
32	0xbce2d0e3	-0.027687496
33	0x3e48a216	0.19593081
34	0x3d8bc93b	0.06825491
35	0xbd2b619b	-0.04184113
36	0xbddd02f1	-0.10791577
37	0x3e15b9a3	0.14621596
38	0xbe78cc1d	-0.24296613
39	0x3d8441b5	0.06457845
40	0xbd8e84c8	-0.0695892
41	0xbe2dab1d	-0.16959806
42	0xbdd0496e	-0.101702556
43	0xbdf2cdfd	-0.118556954
44	0x3dcf39bd	0.101184346
45	0xbce3e307	-0.027818216
46	0x3e8291e6	0.25501937
47	0x3e378225	0.1792074
48	0x3e466260	0.19373465
49	0x3c4c1459	0.012456023
50	0x3e47d062	0.19513085
51	0xbe34674b	-0.17617528
52	0x3e048839	0.1294259
53	0x3e4adf3d	0.19811721
54	0x3e628292	0.22120121
55	0x3e54941e	0.20759627
56	0x3e20244e	0.15638849
57	0x3e5ffec8	0.21874535
58	0x3dc98fe7	0.098419
59	0x3e4b44ae	0.19850418
60	0xbdb9729c	-0.09055063
61	0x3dac9199	0.08426208
62	0xbda13163	-0.07870748
63	0xbe22bde7	-0.15892754
64	0x3db03cf5	0.08605377
65	0xbe79d4ec	-0.2439763
66	0xbe025e65	-0.12731321
67	0x3e3f2fd1	0.18670584
68	0x3e7e0cac	0.24809521
69	0x3e4941c5	0.19653995
70	0xbe676484	-0.22596937
71	0x3dfa68fb	0.12227055
72	0xbd15c049	-0.03656033
73	0x3e36e786	0.17861757
74	0x3e4f7b3d	0.20261855
75	0x3da2dc4f	0.07952177
76	0x3e85b534	0.2611481
77	0x3e582ea5	0.21111543
78	0x3e2bcf20	0.1677823
79	0x3e23880b	0.15969865
80	0xbe31f678	-0.17379177
81	0x3cee5424	0.029092856
82	0x3e618559	0.22023524
83	0xbd29f442	-0.041492708
84	0xbd0467f3	-0.032325696
85	0x3e86590b	0.2623981
86	0x3dcf825e	0.101322874
87	0x3dfd8b6c	0.12380108
88	0x3e83d06c	0.2574495
89	0x3e557d42	0.20848563
90	0xbe123895	-0.14279397
91	0x3d897ee8	0.067136586
92	0xbdea6f43	-0.11447003
93	0xbe223973	-0.15842228
94	0xbd1c3514	-0.038136557
95	0x3e7e78a4	0.24850708
96	0xbe7e52f3	-0.2483633
97	0x3db6bcf7	0.08922761
98	0x3de95e2b	0.11394914
99	0x3d3d7702	0.046256073
100	0xbcd0b3d7	-0.02547638
101	0x3e6d6399	0.23182525
102	0xbbd41ee8	-0.006473411
103	0xbe1afdde	-0.15135905
104	0xbdbd5f82	-0.09246732
105	0x3d4dff30	0.050292194
106	0xbe73d37b	-0.23811142
107	0xbcc47d2e	-0.023985472
108	0xbb0a6bbf	-0.002112135
109	0xbd68645b	-0.05673633
110	0x3dd9e5be	0.10639523
111	0x3d86cf0e	0.06582461
112	0xbe32f353	-0.17475633
113	0x3e317809	0.17330946
114	0xbc88b766	-0.016689014
115	0xbd0f6169	-0.035005007
116	0xbdf5d62b	-0.1200374
117	0x3d3c7a15	0.046014864
118	0x3e7a624d	0.24451561
119	0x3dda9670	0.10673225
120	0x3d2a3bb4	0.041560844
121	0xbdc2878f	-0.09498512
122	0xbe386d35	-0.18010409
123	0x3c0c7c63	0.008574578
124	0x3e4509af	0.19241975
125	0xbc227ecd	-0.009917927
126	0xbd2c6e93	-0.04209764
127	0xbe76bd8f	-0.24095748
128	0xbc014150	-0.007889107
129	0x3e534867	0.20633088
130	0x3d1e62f0	0.038668573
131	0xbe26f1fa	-0.16303244
132	0x3db4580d	0.08805857
133	0xbda52da1	-0.08065344
134	0xbe6a575a	-0.22884884
135	0xbc718631	-0.014741466
136	0x3d27c0dc	0.04095541
137	0x3e3b4af5	0.18290313
138	0x3e4af1c6	0.19818792
139	0x3e2967d0	0.16543508
140	0x3c9bac0a	0.019002933
141	0xbcccf4b9	-0.025019037
142	0xbde6751a	-0.11252804
143	0xbe77bab3	-0.24192314
144	0x3db39aaa	0.08769734
145	0xbc87d5c6	-0.016581427
146	0x3e4d1983	0.20029263
147	0x3d95f58c	0.07322225
148	0x3e19dc73	0.15025501
149	0x3d655967	0.055993464
150	0x3e82e441	0.2556477
151	0xbdd8f32e	-0.10593258
152	0x3e70e53e	0.23524949
153	0x3d3f7fff	0.046752926
154	0x3e694af2	0.22782496
155	0x3dd161de	0.10223745
156	0xbe1b65e5	-0.15175588
157	0xbe2ebb44	-0.17063624
158	0xbe35c97f	-0.17752646
159	0xbdf2e340	-0.11859751
160	0xbe853fcc	-0.26025236
161	0x3e810fcd	0.25207368
162	0x3e0aef14	0.13567764
163	0xbe2c6adb	-0.16837637
164	0x3e3fc5c9	0.18727793
165	0x3dc0231f	0.09381699
166	0xbe8463cc	-0.2585739
167	0x3e13ce60	0.14434195
168	0x3de527ed	0.11189256
169	0x3db8a8fe	0.09016608
170	0x3e4455f4	0.19173414
171	0x3c190bd4	0.009341199
172	0x3e4457c0	0.19174099
173	0xbe1f5e98	-0.15563428
174	0x3e01e190	0.12683702
175	0xbde7a208	-0.11310202
176	0x3e27efec	0.16400117
177	0xbe0f5ab5	-0.13999446
178	0xbdd07b4b	-0.10179766
179	0x3d67e4eb	0.056614798
180	0xbe2a79ed	-0.16648073
181	0x3e24abd1	0.16081168
182	0xbe07341b	-0.1320347
183	0xbd611fb3	-0.05496187
184	0x3d9cf96a	0.076647595
185	0x3e77c299	0.24195327
186	0x3da055b6	0.07828848
187	0xbcafcf00	-0.02146101
188	0xbc1c5937	-0.009542755
189	0x3e01ac0b	0.12663285
190	0x3e08086a	0.1328446
191	0xbddae3f4	-0.1068801
192	0xbb34fbbb	-0.0027615863
193	0x3e887569	0.26652077
194	0x3e3ed045	0.18634136
195	0x3e0f2f18	0.13982809
196	0x3cc77231	0.024346443
197	0x3d971ff4	0.073791414
198	0x3e0a02cc	0.1347763
199	0xbd4d2b63	-0.050090205
200	0xbe86b492	-0.2630964
201	0xbe3ac010	-0.18237329
202	0xbe030535	-0.12794955
203	0x3e5699b4	0.2095707
204	0xbd74872a	-0.059699215
205	0xbe772725	-0.24136026
206	0x3dd644bd	0.104623295
207	0xbe230f3d	-0.15923782
208	0x3e401f75	0.18762
209	0x3e465b96	0.19370875
210	0x3d803e59	0.06261892
211	0xbe2e5ff0	-0.17028785
212	0x3dc020e7	0.093812756
213	0x3e5f14ea	0.21785322
214	0xbcab8dc9	-0.020941632
215	0xbe23bd9a	-0.15990296
216	0xbe7dccca	-0.24785152
217	0x3cdb27e8	0.026752427
218	0x3cccbd5d	0.02499264
219	0x3e88cd28	0.26719022
220	0x3e529eae	0.20568344
221	0xbe5b8446	-0.21437177
222	0xbd490a27	-0.049081948
223	0xbd89650b	-0.067087255
224	0x3e667515	0.22505601
225	0x3e83af6c	0.25719774
226	0xbcc1e82c	-0.023670278
227	0x3cc5a73b	0.024127593
228	0x3e889a40	0.26680183
229	0xbe364454	-0.17799503
230	0x3e54b11f	0.20770691
231	0xbe586890	-0.21133637
232	0x3e39b890	0.18136811
233	0xbe5710c7	-0.21002494
234	0x3e7aa2c1	0.24476148
235	0xbddc748b	-0.10764416
236	0x3cbe158c	0.023203634
237	0x3db71ff0	0.089416385
238	0x3d15ffa0	0.036620736
239	0xbe2e9923	-0.17050605

layer1.0.bias f4 [16]
0	0x3de980a4	0.114014894
1	0x3a0477cd	0.0005053252
2	0xbe4b16bd	-0.19832893
3	0x3e3d0e03	0.18462376
4	0xbd97519a	-0.07388611
5	0xbb13b182	-0.0022536223
6	0x3e480add	0.19535394
7	0xbc35de7f	-0.0111004105
8	0xbe596d70	-0.21233153
9	0x3ccf855f	0.025332151
10	0x3deee4da	0.11664744
11	0xbd145cec	-0.03622143
12	0x3e47299b	0.19449465
13	0xbd99a4f9	-0.07502169
14	0x3e57232c	0.21009511
15	0x3e2e50f0	0.17023063

layer1.1.weight f4 [16]
0	0x3f80b57c	1.0055385
1	0x3f80a457	1.0050153
2	0x3f80ead3	1.0071663
3	0x3f7fedea	0.99972403
4	0x3f7e03f5	0.9922479
5	0x3f80cc23	1.0062298
6	0x3f7dd5f4	0.9915459
7	0x3f7d645b	0.98981255
8	0x3f79cdad	0.9757946
9	0x3f80060f	1.0001849
10	0x3f81a7ed	1.0129372
11	0x3f80fa80	1.0076447
12	0x3f7d570b	0.9896094
13	0x3f7dac30	0.9909086
14	0x3f821a00	1.0164185
15	0x3f7dd8bd	0.9915884

layer1.1.bias f4 [16]
0	0x3c7fa0e5	0.015602325
1	0x355103c2	7.7864036e-07
2	0x3c78e9a9	0.015192428
3	0xbb38855f	-0.0028155667
4	0xbb10acb8	-0.0022075605
5	0x3c4780e6	0.012176728
6	0x3be455e5	0.0069682472
7	0xb90d54c1	-0.00013478381
8	0xb989fc01	-0.00026318434
9	0xbb20ce2a	-0.0024536946
10	0x3b87cf60	0.004144594
11	0x3c0ccd11	0.0085938135
12	0xbbbf298d	-0.0058338107
13	0xbc15dd00	-0.009146929
14	0x3b85f718	0.0040882938
15	0x3c018285	0.007904653

layer1.1.running_mean f4 [16]
0	0x3df644a0	0.12024808
1	0x3928dd75	0.00016104228
2	0xbe4ff0b2	-0.20306662
3	0x3e423966	0.18967208
4	0xbda50dad	-0.08059249
5	0xba36b2d0	-0.0006969394
6	0x3e4ce6fb	0.20009987
7	0xbc8f6546	-0.017504346
8	0xbe5e0cd9	-0.21684588
9	0x3d043c02	0.03228379
10	0x3dfb7927	0.12278967
11	0xbd31702f	-0.043319877
12	0x3e4c1787	0.1993085
13	0xbda76c15	-0.08174912
14	0x3e5bc573	0.2146204
15	0x3e33a5cc	0.17543715

layer1.1.running_var f4 [16]
0	0x3ec586ab	0.38579306
1	0x3e671c55	0.22569402
2	0x3e9cafe8	0.30602956
3	0x3fcaf127	1.5854844
4	0x3ead7aef	0.33882853
5	0x3fa36789	1.2765971
6	0x3e772605	0.24135597
7	0x3e477397	0.19477688
8	0x3e90dfe1	0.28295806
9	0x3e94edd2	0.29087692
10	0x3eb55903	0.35419473
11	0x3e89613b	0.26831993
12	0x3ed71a1a	0.420121
13	0x3e85207e	0.26001352
14	0x3e8ff1a3	0.28114042
15	0x3ea5e03f	0.3239765

layer2.0.weight f4 [32, 16, 3]
0	0xbb321fd5	-0.0027179618
1	0xbd8f3eeb	-0.069944225
2	0x3cd978e4	0.026546903
3	0xbdb6bf3c	-0.08923194
4	0xbcff74fa	-0.031183708
5	0xbe0b78f7	-0.13620363
6	0x3dec56df	0.11540007
7	0xbcb33d92	-0.021879945
8	0xbd932e52	-0.07186569
9	0x3dfaaaf0	0.12239635
10	0x3df50714	0.11964241
11	0xbd13a27c	-0.03604363
12	0xbd0d24ed	-0.034459043
13	0xbd4e2412	-0.050327368
14	0xbc8ae332	-0.016954038
15	0xbccb7964	-0.024838157
16	0x3da8452a	0.08216317
17	0x3e034004	0.12817389
18	0xbe07233e	-0.13197038
19	0xbcacc5e4	-0.021090455
20	0xbd71a8e3	-0.058998954
21	0xbe0f5f5f	-0.14001225
22	0x3c6a0d77	0.014285437
23	0xbe056faa	-0.13030878
24	0x3d7623d0	0.060092747
25	0x3dbbd8e2	0.091722265
26	0x3d9caff6	0.076507494
27	0x3d29d986	0.041467212
28	0x3df7ec37	0.12105601
29	0xbb0f8923	-0.0021901808
30	0x3de11ab5	0.10991422
31	0xbd1d3f70	-0.038390577
32	0xbcd89e62	-0.02644271
33	0xbc87084a	-0.016483445
34	0xbdccb799	-0.09995956
35	0xbdb85d77	-0.09002202
36	0x3c227234	0.009914923
37	0xbd4fc5ab	-0.05072562
38	0x3d58e305	0.052950878
39	0x3d567347	0.05235603
40	0xbe0b1a0c	-0.13584155
41	0xba0b1c6b	-0.0005306664
42	0x3dc8a9a7	0.097979836
43	0xbc86814a	-0.016419072
44	0x3c4ee73b	0.012628372
45	0xbe042ee5	-0.12908514
46	0xbdf6fc54	-0.120598465
47	0x3d9b99d1	0.075976975
48	0x3d834599	0.06409759
49	0x3c2a98a6	0.010412371
50	0x3d0f1f26	0.034941815
51	0x3dd98e09	0.10622794
52	0xbd0d477d	-0.034492005
53	0xbc398d20	-0.011325151
54	0x3dbb9b96	0.09160535
55	0x3df1173c	0.1177201
56	0x3dc295ff	0.09501266
57	0x3b86e663	0.0041168197
58	0xbca7bf5a	-0.020476986
59	0x3daddc3d	0.08489273
60	0xbd8c2e0c	-0.0684472
61	0xbdf726a9	-0.12067921
62	0xbe0439c1	-0.12912656
63	0xbd996d31	-0.0749153
64	0xbde6103d	-0.11233566
65	0xbdf64a9b	-0.120259486
66	0x3da47e44	0.08031896
67	0xbd633bcf	-0.05547696
68	0xbd578d28	-0.05262485
69	0xbc88ddd5	-0.01670734
70	0xbc5f5527	-0.013631142
71	0x3d9c9555	0.0764567
72	0x3da9f9df	0.08299612
73	0xbe096d8e	-0.13420698
74	0x3dd95fce	0.106139764
75	0x3de49b75	0.111624636
76	0x3c961268	0.018319324
77	0xbd84f463	-0.064919256
78	0x3c9aa9c1	0.018879773
79	0xbdafa862	-0.08577038
80	0xbd76f59c	-0.060292825
81	0x3d9b0ff0	0.07571399
82	0xbcadbf9e	-0.021209534
83	0x3c53652a	0.012902537
84	0x3df84c75	0.12123958
85	0xbda56dcc	-0.08077583
86	0xbe05cc5d	-0.1306624
87	0xbbe8c340	-0.0071033537
88	0xbda1b5f2	-0.078960314
89	0xbe141cb5	-0.14464076
90	0xbd936b1c	-0.07198164
91	0xbcfeb5ce	-0.03109255
92	0xbe02f0bb	-0.12787144
93	0xbd8d93c8	-0.06912953
94	0x3cc68bdb	0.02423661
95	0x3dd6e8a2	0.1049359
96	0xbe14eb22	-0.14542821
97	0xbdd6d395	-0.10489575
98	0xbd96ba81	-0.073597915
99	0xbd0201c4	-0.031739965
100	0xbcc249cc	-0.02371683
101	0xbd89cb4a	-0.067282274
102	0x3ce1c5be	0.027560111
103	0xbb879a91	-0.004138299
104	0x3cafc903	0.021458155
105	0x3d1dc261	0.038515452
106	0xbd390e90	-0.045179904
107	0xbd00beaa	-0.03143183
108	0xbdcfa5c4	-0.10139039
109	0xbdf3da2c	-0.11906847
110	0x3dc56192	0.09637751
111	0xbda86792	-0.082228795
112	0xbd688ad8	-0.056773037
113	0xbcaebe7d	-0.021331066
114	0x3d137d45	0.03600814
115	0x3d8cfafc	0.06883809
116	0x3bc87acf	0.0061181556
117	0x3da3523c	0.07974669
118	0x3da969bd	0.08272121
119	0xbbdab8a8	-0.006674845
120	0xbcb89bb6	-0.022535186
121	0xbdc8c7f1	-0.09803761
122	0x3d925c7a	0.07146545
123	0xbdf94f8d	-0.12173376
124	0x3cf8bff3	0.030364966
125	0xbcd94a2d	-0.026524628
126	0xbe07b0ea	-0.13251081
127	0xbdf61f8f	-0.12017738
128	0xbd9eab33	-0.077474974
129	0x3cc83f66	0.024444293
130	0x3df2e140	0.11859369
131	0xbd2a358b	-0.04155497
132	0x3d2ae202	0.041719444
133	0x3c99b5d2	0.018763456
134	0xbcd0ef6e	-0.025504794
135	0xbde52444	-0.11188558
136	0xbd209a9a	-0.03920994
137	0xbdcdae5e	-0.100430235
138	0xbdfaa503	-0.12238505
139	0xbd110cba	-0.035412528
140	0xbd72114e	-0.059098534
141	0xbd0853af	-0.033282932
142	0xbdcea434	-0.10089913
143	0xbc929c2b	-0.017896732
144	0xbe052aee	-0.13004658
145	0xbdf9f047	-0.122040324
146	0x3da10f9c	0.078643054
147	0x3dcc8276	0.09985821
148	0xbe06f34d	-0.1317875
149	0xbd16108e	-0.03663688
150	0x3d71ffe3	0.059081923
151	0x3dbcdf04	0.09222224
152	0xbd3a27fc	-0.04544829
153	0xbdd76d30	-0.10518873
154	0x3df63fcf	0.12023889
155	0xbd823a1f	-0.06358742
156	0x3e03c1d2	0.12866905
157	0xbd0f6794	-0.03501089
158	0x3dd0c5d3	0.10193982
159	0xbdc5080b	-0.09620675
160	0x3c0998cf	0.008398249
161	0x3e141d36	0.14464268
162	0x3dbd971a	0.09257336
163	0x3de45456	0.11148898
164	0xbc3d3433	-0.01154809
165	0xbd84d1f8	-0.06485361
166	0xbcaf77a1	-0.021419348
167	0x3e0805a1	0.13283397
168	0x3d53acee	0.05167859
169	0x3dcd26ec	0.100171894
170	0x3e07c0e7	0.1325718
171	0xbd1ea772	-0.038733907
172	0x3e029a82	0.12754253
173	0xbdb6f917	-0.08934229
174	0xbdd4f9c2	-0.103992
175	0xbd7ac1ac	-0.061219856
176	0x3c2e91e5	0.010654901
177	0x3af01f26	0.001831983
178	0x3da3a15e	0.07989763
179	0xbdc92feb	-0.09823593
180	0x3dac930d	0.08426485
181	0x3df62409	0.12018592
182	0x3d77dd94	0.060514048
183	0xbd21568e	-0.039389186
184	0x3daef269	0.0854233
185	0xbaa6bca5	-0.0012721015
186	0x3dfb567c	0.12272355
187	0xbd7b260a	-0.061315574
188	0xbde9cc9b	-0.114159785
189	0xbe048064	-0.12939602
190	0x3cfbd666	0.030741882
191	0xbd13aaa1	-0.036051396
192	0xbdc0ca8f	-0.09413635
193	0x3d047839	0.032341216
194	0xbd2fd433	-0.04292698
195	0xbdbce12d	-0.09222636
196	0xbdf75406	-0.12076573
197	0xbda0f33d	-0.07858894
198	0xbd608205	-0.054811496
199	0x3df1814d	0.1179224
200	0x3c878e49	0.016547339
201	0xbdcb58d1	-0.0992905
202	0xbdf4eae3	-0.119588636
203	0x3ddc6a77	0.10762494
204	0x3dad51d1	0.08462871
205	0x3a8eeb73	0.001090391
206	0xbde82867	-0.11335831
207	0xbc6fa6e1	-0.014627189
208	0xbdeb8e2c	-0.115017265
209	0x3e011159	0.12604274
210	0x3d41ea4a	0.047342576
211	0x3c952cc8	0.01820983
212	0xbda1e198	-0.07904357
213	0x3d75d95c	0.060021743
214	0x3b7edcaa	0.003888885
215	0x3da24517	0.07923334
216	0xbd9b3c55	-0.07579867
217	0x3ded260e	0.11579524
218	0xbddc7ed0	-0.10766375
219	0xbd839c08	-0.06426245
220	0xbdbcef44	-0.09225324
221	0xbca1c01b	-0.019744923
222	0xbc83eeac	-0.016105019
223	0xbc6b9119	-0.014377856
224	0x3db9252b	0.09040292
225	0x3db1269e	0.08649944
226	0x3d370978	0.044686764
227	0x3e14e7bd	0.14541526
228	0x3ca58e37	0.020209415
229	0x3d3aa71f	0.045569535
230	0xbda5b1dc	-0.080905646
231	0x3d2f66af	0.042822536
232	0x3db6daef	0.08928477
233	0xbdaab9ed	-0.08336244
234	0x3e0c616b	0.13709037
235	0x3d00cccf	0.03144532
236	0x3d86cdf2	0.0658225
237	0xbe0506b5	-0.1299084
238	0x3ddeb39d	0.10874102
239	0xbe05fdc6	-0.13085088
240	0x3dc23bf0	0.094840884
241	0xbda541c0	-0.080691814
242	0xbd9a929f	-0.07547497
243	0x3ddba56e	0.107249126
244	0xbe0b602b	-0.13610904
245	0xbc9388d9	-0.01800959
246	0xbdef15c5	-0.11674074
247	0x3dc916a6	0.09818773
248	0x3d17c701	0.03705502
249	0xbd413292	-0.04716737
250	0x3c99cba7	0.018773867
251	0xbd5a6c3f	-0.053325888
252	0x3ca1709d	0.019707019
253	0x3b8adb3b	0.00423756
254	0x3cfc3c3a	0.030790437
255	0x3da15758	0.078779876

layer2.0.bias f4 [32]
0	0x3a8f2330	0.0010920521
1	0xbd073571	-0.03300995
2	0xbb230e77	-0.0024880448
3	0x3dd7132d	0.10501704
4	0xbc828d7d	-0.015936607
5	0xbcdca326	-0.026933264
6	0x3d49b5a1	0.04924548
7	0xbcf0fc04	-0.029417045
8	0x3bdb4584	0.0066916365
9	0xbd6dedaa	-0.058087982
10	0xbddae482	-0.10688116
11	0xbd44f454	-0.048084572
12	0x3bae13bc	0.005312411
13	0xbd54c8e0	-0.05194938
14	0xbb191046	-0.0023355647
15	0xbd8ca1cf	-0.068668
16	0xbd7bd60a	-0.06148342
17	0x3d4e621d	0.050386537
18	0x3d05748c	0.03258185
19	0xbd95b45d	-0.07309792
20	0xb9d96357	-0.0004146348
21	0x3a203683	0.00061116385
22	0xbd45e85f	-0.04831731
23	0xbd24fe66	-0.040281676
24	0xbdc012a4	-0.093785554
25	0x3b205cac	0.00244693
26	0xbd537282	-0.051622875
27	0x3d4c5bc2	0.049892195
28	0xbdb158ed	-0.08659539
29	0xbb14b0cf	-0.0022688394
30	0xba8743db	-0.0010319905
31	0x3c361216	0.01111271

layer2.1.weight f4 [32]
0	0x3f7fe753	0.9996235
1	0x3f8022ff	1.001068
2	0x3f81368c	1.0094771
3	0x3f8018e3	1.0007595
4	0x3f7f6de6	0.99777067
5	0x3f7f254f	0.99666303
6	0x3f801eaf	1.0009364
7	0x3f81c577	1.0138386
8	0x3f7d96e7	0.99058384
9	0x3f7ebdb6	0.99508226
10	0x3f7f73a5	0.99785835
11	0x3f8040ef	1.0019816
12	0x3f81febd	1.0155865
13	0x3f7dce64	0.9914305
14	0x3f7fbf00	0.9990082
15	0x3f810bd3	1.0081733
16	0x3f7d187b	0.9886548
17	0x3f80089b	1.0002626
18	0x3f7f6fc0	0.9977989
19	0x3f8194af	1.01235
20	0x3f7fb8b0	0.99891186
21	0x3f812b21	1.0091287
22	0x3f800542	1.0001605
23	0x3f7cdf57	0.9877829
24	0x3f7ec5b0	0.995204
25	0x3f81027e	1.0078886
26	0x3f808773	1.0041336
27	0x3f7d0f57	0.9885153
28	0x3f818c33	1.012091
29	0x3f80bb27	1.0057114
30	0x3f802ed4	1.0014291
31	0x3f7fb7b0	0.9988966

layer2.1.bias f4 [32]
0	0x3b57a1da	0.0032902868
1	0x3bd83907	0.006598595
2	0x3c156617	0.009118578
3	0xbbd95c52	-0.00663332
4	0x3bdb6527	0.006695408
5	0x3c88aeed	0.016684974
6	0x3c585c7f	0.013205647
7	0x3ca4fe74	0.020140864
8	0xbbe20715	-0.006897817
9	0xbc3e3300	-0.011608839
10	0x3c8cb6a5	0.017176935
11	0xba5abb1d	-0.0008343922
12	0x3c6c361d	0.0144171985
13	0xbbdfdd34	-0.0068317894
14	0x3c0c1e26	0.00855211
15	0x3c4e03d2	0.012574153
16	0x3b5b673b	0.0033478278
17	0x3b1717b8	0.002305491
18	0x3c69e452	0.014275627
19	0x3c9682d9	0.01837294
20	0x3ba8fe66	0.00515728
21	0x3c51a489	0.012795576
22	0x3c057d7d	0.0081475945
23	0xbc0c1767	-0.008550501
24	0x3a94b58e	0.0011345611
25	0x3c4fdd98	0.012687109
26	0x3c057348	0.008145161
27	0x3c169e98	0.009193085
28	0x3b267931	0.0025401826
29	0x3c112c7c	0.008860704
30	0x3bacd17e	0.005273997
31	0x3afd7355	0.001933674

layer2.1.running_mean f4 [32]
0	0xbd99489a	-0.07484551
1	0xbe44414b	-0.19165532
2	0xbefb50cc	-0.4908508
3	0x3e8d67e7	0.27618334
4	0xbd845b70	-0.06462753
5	0xbe2a5d33	-0.16637115
6	0x3ddeda01	0.10881425
7	0x3c239fbc	0.009986814
8	0x3e37a4cf	0.17933963
9	0xbd2e5794	-0.04256399
10	0xbd23d2af	-0.039995845
11	0x3d93f844	0.07225087
12	0xbef5da94	-0.48018324
13	0x3a51a99c	0.0007997991
14	0xbea2af9e	-0.3177461
15	0xbe1edb48	-0.15513337
16	0xbe0e5166	-0.13898239
17	0xbd6dfa93	-0.058100294
18	0xbe9787f9	-0.29595926
19	0xbeb3581f	-0.3502817
20	0xbe62c370	-0.22144866
21	0x3da98cb7	0.08278792
22	0xbe9b3579	-0.30314234
23	0x3e7ba3b4	0.24574167
24	0xbd184ee5	-0.037184615
25	0xbe33ecb3	-0.17570762
26	0x3e2f6b87	0.17130862
27	0xbe7d71d1	-0.24750449
28	0x3c3e88f5	0.011629333
29	0xbf4201ee	-0.75784194
30	0xbe9080b2	-0.28223187
31	0x3e78eb2a	0.24308458

layer2.1.running_var f4 [32]
0	0x3e2392d5	0.1597398
1	0x3e52f95c	0.20602936
2	0x3e554333	0.20826416
3	0x3def4e93	0.11684909
4	0x3ddbb665	0.10728148
5	0x3e232beb	0.15934722
6	0x3db64d85	0.089015044
7	0x3e3f904d	0.1870739
8	0x3e5702e9	0.20997204
9	0x3e101bfe	0.14073178
10	0x3dbc6409	0.09198768
11	0x3e6d35e6	0.23165092
12	0x3e88847d	0.2666358
13	0x3e109642	0.14119819
14	0x3f117629	0.56820923
15	0x3e70ebf7	0.23527513
16	0x3e1eaab9	0.15494813
17	0x3dd6d64b	0.10490092
18	0x3e3c8630	0.18410563
19	0x3dc1edfc	0.0946922
20	0x3e3e939e	0.18610999
21	0x3de42d2d	0.11141429
22	0x3e02e1a5	0.12781389
23	0x3e2b4b2e	0.16727898
24	0x3df9a892	0.12190355
25	0x3dc95757	0.09831112
26	0x3df8b1ac	0.12143263
27	0x3e38c271	0.18042924
28	0x3dd9697b	0.10615822
29	0x3ef5a385	0.47976318
30	0x3e1b09c2	0.15140441
31	0x3e1abfe5	0.15112264

layer3.0.weight f4 [64, 32, 3]
0	0x3dc15dcb	0.09441718
1	0xbd5ab1a2	-0.05339206
2	0x3db58a47	0.08864265
3	0x3d802adc	0.06258175
4	0x3d812eef	0.0630778
5	0xbd41967e	-0.04726266
6	0x3da7e238	0.08197445
7	0xbdbbe188	-0.09173876
8	0xbdc1cef9	-0.09463305
9	0x3db62623	0.08893993
10	0xbdafa4c9	-0.08576352
11	0x3d99e242	0.075138584
12	0xbd8848cb	-0.06654509
13	0x3d2c68be	0.042092077
14	0x3dcda97d	0.10042093
15	0x3d2a1784	0.041526332
16	0xbc923633	-0.01784811
17	0xbd97a21c	-0.07403967
18	0x3db240b6	0.08703749
19	0x3d62ee7b	0.055403214
20	0xbc954666	-0.018222045
21	0xbd8fbe01	-0.07018662
22	0xbd075766	-0.033042334
23	0xbda5d611	-0.080974706
24	0xbddb9cb4	-0.10723248
25	0x3b93d864	0.0045118798
26	0x3d414e26	0.04719367
27	0x3d5d9da8	0.05410543
28	0x3bffaf77	0.0078028995
29	0x3cbe93f7	0.023263915
30	0xbd4ebe66	-0.050474547
31	0xbdca2ba4	-0.09871605
32	0xbdb079cb	-0.0861698
33	0xbd4d570a	-0.050131835
34	0x3d210570	0.039311826
35	0xbdab2074	-0.08355799
36	0xbd2facf1	-0.04288954
37	0x3d7da7b3	0.06192751
38	0xbd2751f9	-0.04084966
39	0x3d54dc4e	0.05196791
40	0x3d80594c	0.06267032
41	0xbdb4c3c6	-0.08826403
42	0x3dbf1d8b	0.09331807
43	0xbda377c8	-0.07981831
44	0x3de0e9cf	0.109820955
45	0x3d1b7ff8	0.037963837
46	0x3d85d67b	0.065350495
47	0xbd9d6953	-0.076861046
48	0xbcfaa7d7	-0.03059761
49	0x3ce71940	0.028210282
50	0x3d85a3ad	0.06525359
51	0xbd75abfa	-0.059978463
52	0x3d088826	0.033332966
53	0x3c40b002	0.0117607135
54	0xbdb9e6cc	-0.09077224
55	0x3d02ef1d	0.031966317
56	0xbc6f5d98	-0.014609717
57	0x3be62390	0.0070232823
58	0x3d03ee0f	0.032209452
59	0x3d91532d	0.07095943
60	0xbd487f7d	-0.048949707
61	0xbd1f986a	-0.038963713
62	0x3dc92b1d	0.09822676
63	0xbcc235a6	-0.023707222
64	0xbdd417c1	-0.10356093
65	0xbd42a503	-0.04752065
66	0x3db8e560	0.09028125
67	0xbd89878c	-0.06715307
68	0x3c7ab2fe	0.015301464
69	0xbcc0af4d	-0.02352109
70	0xbd744d8b	-0.059644263
71	0xbcf73cde	-0.03018039
72	0x3d05a622	0.03262914
73	0x3db9dff6	0.0907592
74	0xbdc2b334	-0.095068365
75	0x3de79402	0.11307527
76	0xbda08c97	-0.078393154
77	0x3d6516a8	0.05592981
78	0x3c645ebc	0.013938602
79	0x3d0108ba	0.031502463
80	0x3d08156b	0.03322355
81	0x3c06d73c	0.008230027
82	0xbd5dbb13	-0.054133486
83	0x3c74a8cc	0.014932822
84	0xbd983bce	-0.07433282
85	0xbc23fbc4	-0.010008756
86	0xbd6da49f	-0.058018323
87	0x3cb0004a	0.021484513
88	0x3d725fc6	0.059173368
89	0xbdc2e50e	-0.09516345
90	0x3d361f71	0.04446358
91	0xbc3d21d7	-0.011543713
92	0xbc77a22c	-0.015114348
93	0x3c05f38c	0.008175742
94	0xbcecb763	-0.02889604
95	0xbca06850	-0.01958099
96	0x3dc89c69	0.09795458
97	0x3b0d4640	0.0021556765
98	0xbd33df81	-0.04391432
99	0x3d4c868d	0.049933005
100	0x3dd9af12	0.10629095
101	0x3d230417	0.039798822
102	0x3cb78814	0.022403754
103	0xbd595acb	-0.053065103
104	0x3d8bc399	0.06824417
105	0xbcd235e2	-0.025660459
106	0x3dc65100	0.09683418
107	0x3d83c1a2	0.06433417
108	0x3d13fca9	0.036129627
109	0x3d71889b	0.058968168
110	0xbdb82577	-0.08991521
111	0x3d0c1f14	0.034209326
112	0x3b950b25	0.0045484477
113	0xbddbc67a	-0.10731216
114	0x3d11acbb	0.03556512
115	0xbd87b1fb	-0.06625744
116	0x3d3d3153	0.046189617
117	0x3c8e6929	0.017384129
118	0xbd80cf84	-0.062895805
119	0xbdc16bd2	-0.09444393
120	0x3dc7d553	0.09757485
121	0x3d126388	0.03573945
122	0x3da1576c	0.078780025
123	0xbddc9e73	-0.10772409
124	0x3d81cae0	0.063375235
125	0xbdb2d63e	-0.0873227
126	0xbdce5d4b	-0.10076388
127	0x3cf786e4	0.030215688
128	0xbd078aa9	-0.03309122
129	0xbdd9f797	-0.10642927
130	0xbd6cf7fa	-0.057853676
131	0xbc973c2d	-0.018461311
132	0xbdb7ef91	-0.089812405
133	0x3db553ff	0.088539116
134	0x3c447221	0.011990101
135	0xbd6883e6	-0.056766413
136	0xbdd0251a	-0.101633266
137	0x3c27d54d	0.010243726
138	0x3be7e87c	0.007077275
139	0xbc5137f4	-0.012769688
140	0x3dbdc053	0.092651986
141	0xbcf59976	-0.029980402
142	0xbddb678f	-0.107131116
143	0x3d0eae9f	0.0348345
144	0x3bc6189a	0.006045413
145	0xbca6d69d	-0.020366007
146	0xbd90b8ae	-0.07066475
147	0x3d10c67a	0.035345532
148	0x3db33bfa	0.08751674
149	0xbd959801	-0.07304383
150	0xbd8a6842	-0.06758167
151	0x3cfb11a7	0.030648066
152	0xbcf06581	-0.029345276
153	0xbb8cbed3	-0.004295209
154	0xbc5aeb7f	-0.013361811
155	0x3d89bcaf	0.06725442
156	0xbd9d26da	-0.07673426
157	0x3d3052d2	0.043047734
158	0x3ce8548e	0.028360631
159	0xbd9567bc	-0.072951764
160	0xbca9b544	-0.020716317
161	0x3c24a7b6	0.010049751
162	0x3d5990d2	0.053116627
163	0x3d0b528a	0.034014262
164	0xbdad115e	-0.08450578
165	0xbd5c23c4	-0.053745046
166	0x3c0c5641	0.008565486
167	0x3c225b13	0.009909409
168	0x3d55cf7c	0.052199826
169	0x3ce10014	0.027465858
170	0xbd2f174c	-0.042746827
171	0x3cbb7c2b	0.022886356
172	0x3da18283	0.07886221
173	0xb954e59f	-0.00020303436
174	0x3d770c68	0.060314566
175	0xbd02a951	-0.031899754
176	0x3cb97af7	0.022641642
177	0xb8bbcc89	-8.9549525e-05
178	0xbd8a4602	-0.06751634
179	0x3db2bee6	0.08727817
180	0x3d366a15	0.04453476
181	0xbd4c4b9b	-0.04987679
182	0xbd8b220a	-0.06793602
183	0xbda8683f	-0.08223008
184	0xbdd436f9	-0.10362048
185	0xbdd792cc	-0.10526046
186	0xbc784304	-0.0151526965
187	0xbd013d12	-0.03155238
188	0x3dacca71	0.0843705
189	0xbcc9cd31	-0.024633976
190	0x3cbfee99	0.023429202
191	0xbdaecd07	-0.085351996
192	0xbd4c3509	-0.049855266
193	0x3dc196d1	0.09452594
194	0xbda5d7f4	-0.080978304
195	0x3d714d79	0.058911774
196	0x3c81d535	0.015848735
197	0xbd1d1132	-0.038346477
198	0xbd84aec4	-0.064786464
199	0xbda12b42	-0.07869579
200	0x3dcfc610	0.10145199
201	0x3bee39b2	0.0072700614
202	0xbcb9ec0b	-0.022695562
203	0x3d06e70b	0.032935183
204	0xbd85b77c	-0.065291375
205	0x3da727a9	0.081618614
206	0xbd895ce0	-0.067071676
207	0x3d9e9751	0.07743705
208	0x3dacd5eb	0.08439239
209	0x3ab54b32	0.0013831614
210	0x3d15b0ed	0.036545683
211	0xbd3ddd00	-0.04635334
212	0xbd85b641	-0.06528903
213	0x3dabf45a	0.08396216
214	0x3d97181a	0.07377644
215	0xbdd8ff0e	-0.10595523
216	0xbdb07008	-0.08615118
217	0xbb27f355	-0.0025627215
218	0x3d72c4f7	0.05926987
219	0x3dcbc8b1	0.09950388
220	0xbcb4e858	-0.022083446
221	0xbd816703	-0.06318476
222	0x3dc673d3	0.096900605
223	0xbd347679	-0.044058297
224	0xbd965ab1	-0.07341517
225	0xbd9f774f	-0.07786428
226	0x3d9b8d7d	0.07595346
227	0x3dbaa6c1	0.09113837
228	0x3c917991	0.017758163
229	0x3c5c9f22	0.013465675
230	0xbad45e5e	-0.001620244
231	0xbd1b79d7	-0.037957992
232	0xbdb454f3	-0.08805265
233	0x3d8bc106	0.06823926
234	0x3d771da2	0.060330994
235	0xbd6539be	-0.05596327
236	0xbcddd0fd	-0.027077192
237	0x3cf06faf	0.02935013
238	0xbd701800	-0.05861664
239	0xbc058a2d	-0.008150619
240	0xbd343c46	-0.044002794
241	0x3d995afe	0.074880585
242	0xbd9e3436	-0.07724802
243	0xbd05eeaf	-0.03269833
244	0xbda13f6f	-0.07873427
245	0xbdad192a	-0.08452065
246	0xbd0ae118	-0.033906072
247	0x3dad85da	0.08472796
248	0x3d45ae78	0.04826209
249	0x3d99f441	0.07517291
250	0x3d73b7fc	0.059501633
251	0x3d5b424c	0.053530023
252	0x3d9bd57a	0.07609077
253	0xbd1ff9b0	-0.03905648
254	0x3d57fc2c	0.052730724
255	0xbd1045ca	-0.035222806

layer3.0.bias f4 [64]
0	0xbd4e0abc	-0.050303206
1	0x3d7059ed	0.05867951
2	0xba05b2e8	-0.00051002065
3	0xbaa74307	-0.0012761065
4	0x3cbff1af	0.023430673
5	0x37d469d0	2.5321642e-05
6	0xb6c02119	-5.725899e-06
7	0x3d2415a3	0.040059697
8	0xbd29ca37	-0.041452613
9	0xbc8966a3	-0.016772574
10	0x3d188e24	0.03724493
11	0xbab8b90d	-0.0014093235
12	0xbc4d149f	-0.0125171235
13	0xba5da723	-0.0008455386
14	0x3d5dc47a	0.054142453
15	0xbd0d1e42	-0.034452684
16	0xbc8a32ff	-0.01687002
17	0x3c7e86a6	0.015535032
18	0xbc92b430	-0.017908186
19	0x3caba1f6	0.020951252
20	0x3d1d55d8	0.038411945
21	0x3c5adf03	0.013358834
22	0x3ab6122f	0.0013890917
23	0xbd45abe9	-0.04825965
24	0xbced2293	-0.02894715
25	0xbd65387e	-0.05596208
26	0x3c9ed4be	0.019388553
27	0x3bba21d0	0.0056803003
28	0xbd2b7271	-0.041857187
29	0xbc8cc027	-0.01718147
30	0xbd35132b	-0.044207733
31	0xbb00e00e	-0.0019664797
32	0x3d08950e	0.033345275
33	0x3a3f7e02	0.00073048484
34	0xba932811	-0.0011227151
35	0x3d74afae	0.059737854
36	0x3d036c7c	0.03208588
37	0xba634b0e	-0.0008670547
38	0x3d5fedc0	0.054670095
39	0x3a31106c	0.0006754461
40	0x3d834d46	0.06411223
41	0x3d36e4d5	0.044651825
42	0xbd69b99a	-0.05706177
43	0x3b14dc8f	0.002271447
44	0x391d69de	0.00015012125
45	0x3d8649e9	0.06557066
46	0xbb17b42c	-0.0023148162
47	0xbd490a86	-0.0490823
48	0xbb03d632	-0.0020116684
49	0x3c8345cb	0.01602449
50	0x3cef1d16	0.029188674
51	0x3c2d91d8	0.010593854
52	0x3792438f	1.7436016e-05
53	0x3d402c8c	0.046917483
54	0xb9ceb924	-0.00039429322
55	0xba4f7d3b	-0.0007915084
56	0x3b18f411	0.0023338834
57	0xbd3d71e7	-0.046251204
58	0xbcd5ecc1	-0.02611387
59	0x3d84b700	0.06480217
60	0x3cf04488	0.029329553
61	0x3d84ead0	0.064900994
62	0xbce7708f	-0.028251914
63	0x3ab4ebc9	0.001380318

layer3.1.weight f4 [64]
0	0x3f81f184	1.015183
1	0x3f8185b5	1.0118929
2	0x3f80bcdc	1.0057635
3	0x3f8170a8	1.0112505
4	0x3f7e2ade	0.9928416
5	0x3f7e75bb	0.9939839
6	0x3f7f9789	0.998406
7	0x3f80f6ee	1.0075357
8	0x3f822a57	1.0169171
9	0x3f7d164c	0.9886215
10	0x3f7e0b82	0.9923631
11	0x3f7d9bd3	0.99065894
12	0x3f8118b2	1.0085661
13	0x3f8095b8	1.004569
14	0x3f7e25d6	0.99276483
15	0x3f7e387c	0.9930494
16	0x3f7e94d1	0.99445826
17	0x3f808696	1.0041072
18	0x3f823df2	1.0175154
19	0x3f7e4317	0.9932112
20	0x3f7f4a63	0.9972288
21	0x3f81bcf8	1.0135794
22	0x3f8162fa	1.010833
23	0x3f80c4e9	1.0060092
24	0x3f7d0c6c	0.9884708
25	0x3f7d4b82	0.9894334
26	0x3f7e4826	0.9932884
27	0x3f8019e9	1.0007907
28	0x3f815ba7	1.0106095
29	0x3f803aae	1.0017908
30	0x3f8163c7	1.0108575
31	0x3f811adb	1.0086321
32	0x3f7d754c	0.99007106
33	0x3f815e0f	1.010683
34	0x3f7ea461	0.9946957
35	0x3f80fb91	1.0076772
36	0x3f81b5ae	1.0133569
37	0x3f80779c	1.0036502
38	0x3f7fd40d	0.9993294
39	0x3f7e278b	0.9927909
40	0x3f81cfaa	1.0141499
41	0x3f813f86	1.0097511
42	0x3f814df3	1.0101913
43	0x3f80b7d0	1.0056095
44	0x3f80fd3a	1.0077279
45	0x3f800a72	1.0003188
46	0x3f7fbf3c	0.99901175
47	0x3f8007b9	1.0002357
48	0x3f81b999	1.0134765
49	0x3f7d46fb	0.9893643
50	0x3f7edb0f	0.99553007
51	0x3f82ef17	1.0229214
52	0x3f814e1e	1.0101964
53	0x3f7e8a54	0.9942982
54	0x3f800da0	1.0004158
55	0x3f81e9b0	1.0149441
56	0x3f809b8a	1.0047467
57	0x3f81d1b1	1.0142118
58	0x3f7bfb37	0.984302
59	0x3f7c95fa	0.98666346
60	0x3f7d56f5	0.9896081
61	0x3f80e588	1.0070047
62	0x3f7ec3d4	0.9951756
63	0x3f7ecfe8	0.9953599

layer3.1.bias f4 [64]
0	0x3c321f8f	0.010871782
1	0x3a936e71	0.0011248124
2	0x3ca4a727	0.020099236
3	0x3c54c1dd	0.012985674
4	0xbb89ea27	-0.0042088213
5	0xbbca4277	-0.006172474
6	0x3c321df2	0.010871397
7	0x3c5a7c2e	0.013335271
8	0x3c1259a1	0.008932502
9	0x3bc3fcc0	0.005981058
10	0x3b93e14e	0.0045129424
11	0xba0e4607	-0.0005427305
12	0x3c833863	0.016018098
13	0x3a6cf3af	0.0009038997
14	0xbba05c35	-0.0048938044
15	0xb9a9ff0f	-0.00032424225
16	0xbbe1aa86	-0.006886783
17	0x3bfbe9bd	0.007687776
18	0x3ca677d3	0.020320809
19	0x3992abfb	0.00027975425
20	0xbb7f2b98	-0.0038935896
21	0x3af3d8a4	0.0018603993
22	0x3cad577c	0.02115988
23	0x3c511373	0.012760985
24	0xba9ae390	-0.0011817086
25	0x3bcbba9f	0.0062173153
26	0x3b3d327e	0.0028869207
27	0x3b548d9b	0.0032433036
28	0x3c866124	0.016403742
29	0x3c33195c	0.010931339
30	0x3c1e0e19	0.009646916
31	0x3c638334	0.013886262
32	0x3c4d37dc	0.012525525
33	0x3cb12efb	0.021628847
34	0x3b95d8b5	0.0045729526
35	0x3c4c7f7c	0.0124815665
36	0x3b09566d	0.0020956055
37	0xbbcc7b24	-0.0062402654
38	0x3af26bea	0.0018495296
39	0xbc00dad3	-0.007864672
40	0x3c385acc	0.011252116
41	0x3c24a053	0.01004799
42	0x3c8e9aa3	0.01740772
43	0x3acffcd3	0.0015868194
44	0x3b97746e	0.004622034
45	0x3bd900ed	0.006622425
46	0x3c5d1ddf	0.013495891
47	0x3c1278d0	0.008939937
48	0x3c25c1c0	0.010116994
49	0x3c8685a5	0.016421149
50	0x3ba98b66	0.0051740883
51	0x3c890f15	0.016730824
52	0x3c0dc02d	0.008651775
53	0xbc859d13	-0.01631025
54	0x3c806f56	0.01567809
55	0x3caacd19	0.020849751
56	0x3bf46758	0.0074586086
57	0x3c96a5de	0.018389639
58	0x3a897fb3	0.0010490328
59	0x3a4448a8	0.0007487633
60	0xbb5758ac	-0.003285925
61	0x3c3a1e17	0.011359713
62	0x3b64034f	0.003479201
63	0x3b10b103	0.0022078163

layer3.1.running_mean f4 [64]
0	0xbe0c3eeb	-0.13695876
1	0xbe1809d4	-0.14847499
2	0xbe4b16ff	-0.19832991
3	0xbebf6a89	-0.37385967
4	0xbdbfd24f	-0.09366285
5	0xbef3f113	-0.47644863
6	0xbe2caa8b	-0.16861932
7	0xbec05a27	-0.3756878
8	0xbec85ff3	-0.39135703
9	0x3e3b1f83	0.1827374
10	0xbeb4975b	-0.35271725
11	0x3e625d18	0.22105825
12	0x3e8e8cee	0.27841896
13	0x3f1b6858	0.6070609
14	0xbd97baf5	-0.07408706
15	0xbdcfd779	-0.1014852
16	0x3e0c200a	0.13684097
17	0xbe1c1d28	-0.15245497
18	0xbf014475	-0.5049508
19	0xbdfa73c3	-0.12229111
20	0xbec7bf3e	-0.39013094
21	0x3ee238b0	0.44183874
22	0xbf1ac633	-0.6045868
23	0xbde6f179	-0.11276526
24	0x3e98d8c3	0.29852876
25	0x3eeb0319	0.459008
26	0xbe90a9b6	-0.2825448
27	0xbe409150	-0.18805432
28	0x3c61df85	0.013786201
29	0x3e2b52ce	0.16730806
30	0xbe8a35ce	-0.26994175
31	0xbe87831b	-0.26467213
32	0x3ca9d771	0.020732613
33	0x3deb0570	0.114756465
34	0xbcce35d5	-0.025172153
35	0xbe341611	-0.17586543
36	0x3e6504e6	0.2236515
37	0x3f0d3c0c	0.5516975
38	0x3e399a9e	0.18125388
39	0x3e381ce4	0.17979771
40	0xbe95301d	-0.2913827
41	0x3d5c3fdf	0.05377185
42	0xbe494ebb	-0.1965894
43	0xbd1dc70e	-0.03851991
44	0xbdc96eb0	-0.09835565
45	0xbce2df6c	-0.027694426
46	0x3e23e70e	0.16006109
47	0xbede2917	-0.43390724
48	0xbe9b70ee	-0.30359596
49	0xbe23689e	-0.15957877
50	0x3f0198e3	0.5062391
51	0xbf09be1c	-0.5380571
52	0xbea54eb5	-0.3228661
53	0x3e3cca0b	0.18436448
54	0x3e59facf	0.21287082
55	0x3c329627	0.010900057
56	0x3e3d795e	0.18503329
57	0x3dca082a	0.098648384
58	0xbdf3e649	-0.11909158
59	0x3d7d2389	0.061801467
60	0x3e5ea7d4	0.21743709
61	0xbdfb0afc	-0.122579545
62	0x3f49d1e6	0.78835905
63	0xbe682c2f	-0.22673105

layer3.1.running_var f4 [64]
0	0x3e3b0a0c	0.18265551
1	0x3e9ac86a	0.3023103
2	0x3e8150d3	0.25256976
3	0x3f04f8d9	0.5194221
4	0x3e25048b	0.16115014
5	0x3e0fdf5c	0.14050049
6	0x3e3f2e29	0.18669952
7	0x3e35a2d0	0.1773789
8	0x3e2468e9	0.16055645
9	0x3e629224	0.2212606
10	0x3e3f50c1	0.18683149
11	0x3e6962cf	0.22791599
12	0x3e751dfb	0.23937218
13	0x3e836359	0.25661734
14	0x3e925c26	0.2858593
15	0x3deba3bd	0.1150584
16	0x3e3b4f68	0.1829201
17	0x3eb9ceb2	0.36290509
18	0x3eb500ba	0.35352117
19	0x3e0c8d5f	0.13725804
20	0x3e8b50ed	0.2721018
21	0x3e910341	0.28322795
22	0x3e5fdc01	0.21861269
23	0x3e1598f2	0.14609125
24	0x3e802adb	0.25032696
25	0x3eaf4e68	0.34239507
26	0x3e350cad	0.17680617
27	0x3e0c7faf	0.13720582
28	0x3de319a9	0.11088879
29	0x3e04f5bd	0.12984367
30	0x3df348e9	0.11879141
31	0x3eabc767	0.3355057
32	0x3e05c438	0.13063133
33	0x3e260242	0.16211799
34	0x3ea7d78a	0.3278163
35	0x3e863332	0.26210934
36	0x3eef29ed	0.46711674
37	0x3e9a5090	0.3013959
38	0x3e00b916	0.12570605
39	0x3e1d0cf4	0.15336972
40	0x3e88a6b6	0.2668969
41	0x3ec45d5d	0.3835248
42	0x3e164923	0.14676337
43	0x3dfc1158	0.123079956
44	0x3e00456c	0.12526482
45	0x3e1e7250	0.15473294
46	0x3e0627f0	0.13101172
47	0x3e95a6fc	0.2922896
48	0x3e0178b2	0.12643698
49	0x3e3b7ea9	0.18310036
50	0x3e8c67ed	0.2742304
51	0x3ee1b5fd	0.4408416
52	0x3e084b95	0.13310082
53	0x3e68484a	0.22683826
54	0x3dece162	0.11566426
55	0x3e979f66	0.296138
56	0x3df4c5b9	0.11951775
57	0x3e5516a7	0.20809422
58	0x3e1560b6	0.14587674
59	0x3e3657f3	0.17806987
60	0x3e140450	0.1445477
61	0x3e3e0374	0.18556005
62	0x3e11744d	0.14204521
63	0x3e215e68	0.1575867

layer4.0.weight f4 [128, 64, 3]
0	0xbd060563	-0.03271998
1	0xbcc30865	-0.023807714
2	0x3d2f8a50	0.042856514
3	0xbd3d9b0a	-0.046290435
4	0xbd05d641	-0.03267503
5	0x3d85214d	0.06500492
6	0x3ca0ebb0	0.019643635
7	0x3c4652d6	0.012104711
8	0x3c95a9c3	0.018269425
9	0x3d2e64d4	0.042576626
10	0x3d104c31	0.03522891
11	0x3d0bdb44	0.034144655
12	0xbd0834c2	-0.03325344
13	0xbd7c4ae8	-0.061594874
14	0x3d85c0e6	0.06530933
15	0x3d774031	0.060363952
16	0xbd71ee7d	-0.05906533
17	0xbd30013d	-0.04296993
18	0x3ce02562	0.027361576
19	0x3d7c43a7	0.061587956
20	0x3ca1a214	0.019730605
21	0xbc3a970d	-0.011388552
22	0xbcefab95	-0.029256621
23	0x3cb9ffb9	0.022704946
24	0x3d7cceca	0.061720647
25	0x3d633f08	0.055480033
26	0x3d824019	0.06359882
27	0x3d60caa6	0.05488076
28	0x3cfcb047	0.030845774
29	0xbd381742	-0.044944055
30	0xbb5ba322	-0.0033513983
31	0xbd10d573	-0.03535981
32	0x3d059426	0.03261199
33	0xbd328151	-0.043580357
34	0xbd8b1f07	-0.06793027
35	0x3d76d9f4	0.06026645
36	0x3d0290f3	0.031876516
37	0x3c02d340	0.007984936
38	0x3d623b18	0.055232137
39	0x3c9f0ede	0.019416269
40	0xbd0751dc	-0.03303705
41	0x3d4d02d7	0.050051536
42	0xba818ec1	-0.0009884463
43	0x3c2e5e48	0.010642596
44	0x3bb0da57	0.005397122
45	0x3bcc8594	0.0062415097
46	0x3b724e8e	0.0036973092
47	0xbd80927b	-0.06277939
48	0xbcb91ac1	-0.022595765
49	0x3d257371	0.040393297
50	0xbbba53a2	-0.0056862393
51	0xbd8079a8	-0.06273204
52	0x3d4a3015	0.04936226
53	0xbc393a4f	-0.011305406
54	0xbc03709f	-0.008022456
55	0xbd547b60	-0.051875472
56	0x3d0c3fdb	0.034240585
57	0x3cf4fd78	0.02990602
58	0x3d88bbeb	0.066764675
59	0xbd446a25	-0.04795279
60	0x3d6b212c	0.057404682
61	0x3cd2ce05	0.025733003
62	0x3b023ce7	0.0019872726
63	0x3cc2e9be	0.023793098
64	0x3b0794e7	0.0020688118
65	0x3d071fec	0.032989427
66	0xbbb33923	-0.0054694577
67	0xbd20ef9a	-0.039291
68	0x3d5b5008	0.05354312
69	0xbcc34b3f	-0.023839591
70	0xbc12639b	-0.008934881
71	0x3d5aa26d	0.053377558
72	0x3d2e4988	0.042550594
73	0xbb4f63fa	-0.0031645284
74	0xbb5691d6	-0.0032740734
75	0xba04812e	-0.00050546497
76	0x3b9dbea3	0.0048139854
77	0xbc880070	-0.016601771
78	0xbd68b020	-0.05680859
79	0xbd128e16	-0.035780035
80	0xbd1ce309	-0.038302455
81	0x3d69391d	0.056939233
82	0xbd677181	-0.05650473
83	0x3d1c8532	0.038212962
84	0x3ccc4ffe	0.024940487
85	0x3d76aee5	0.060225386
86	0x3d812afa	0.06307025
87	0x3d32ee98	0.043684572
88	0x3c9bde51	0.019026907
89	0xbd8d7e99	-0.06908912
90	0x3caedb59	0.021344827
91	0x3c2589a2	0.010103615
92	0xbd748d0d	-0.05970483
93	0x3c76baae	0.015059156
94	0xbd380386	-0.044925235
95	0x3c5bccee	0.013415558
96	0xbd5d817f	-0.054078575
97	0xbd2e3ed6	-0.042540394
98	0x3d5adba9	0.05343214
99	0x3d54f5b5	0.051992137
100	0x3d8a350c	0.06748399
101	0x3d37a98a	0.04483942
102	0x3b2ea988	0.0026651341
103	0x3d6c0cc5	0.057629365
104	0x3d2b2d27	0.041791108
105	0xbcb31a7d	-0.021863217
106	0xbd8253c4	-0.06363633
107	0xbd623c3b	-0.05523322
108	0xbd12d5e7	-0.035848524
109	0x3d2c194d	0.042016316
110	0xbcee78d8	-0.029110357
111	0xbcdfbe36	-0.02731238
112	0x3cdb8bc0	0.026800036
113	0xbd3247d2	-0.043525524
114	0xbd90c5b6	-0.0706896
115	0xbd147da5	-0.036252636
116	0x3d25d269	0.040483866
117	0x3d7aeefe	0.061263077
118	0x3d331241	0.04371858
119	0xbc870080	-0.01647973
120	0xbd948d2e	-0.072534904
121	0xbcb4e6e2	-0.02208275
122	0x3d404d40	0.04694867
123	0xbc8b4bf4	-0.01700399
124	0xbd670632	-0.056402393
125	0x3d1c262d	0.038122345
126	0x3b79211e	0.0038014124
127	0x3d17ffa5	0.037109036
128	0xbab7fe28	-0.0014037536
129	0xba4c1795	-0.00077854964
130	0x3c8a0f5f	0.016853033
131	0xbc0bb0c3	-0.00852603
132	0xbcc28102	-0.023743156
133	0x3d62d424	0.055378094
134	0x3d609362	0.054828055
135	0xbd676cc7	-0.056500223
136	0xbd0db5da	-0.034597255
137	0x3b62e81d	0.0034623214
138	0xbd5d0bee	-0.053966455
139	0xbd8ab188	-0.06772143
140	0x3c6cbd90	0.014449492
141	0xbbf67a09	-0.007521872
142	0x3c79ca2b	0.0152459545
143	0xbccb8192	-0.024842057
144	0x3bfb4e08	0.007669214
145	0x3d08b833	0.03337879
146	0xbc4fcbff	-0.012682914
147	0x3bd29ab5	0.006427134
148	0x3d300b0e	0.042979293
149	0xbd4ccdaf	-0.050000843
150	0x3d8b4aa2	0.068013445
151	0x3d8ba60c	0.0681878
152	0x3d67eec4	0.05662419
153	0xbcbfeede	-0.02342933
154	0x3d22fc4a	0.039791383
155	0x3d0bbda7	0.034116413
156	0x3ce3e263	0.02781791
157	0xbd2c01d2	-0.041993923
158	0xbd20cfa0	-0.039260507
159	0xbd0d705c	-0.034530982
160	0x3d629552	0.055318184
161	0xbc157a6b	-0.009123425
162	0x3d1973ad	0.037463833
163	0x3d233531	0.03984565
164	0xbaa52122	-0.0012598375
165	0x3d07e7f4	0.033180192
166	0x3d37c4ff	0.044865604
167	0x3d2fa3d0	0.042880833
168	0xbb84c749	-0.004052077
169	0x3d8e3e8e	0.06945525
170	0xbd620a11	-0.05518538
171	0x3d386249	0.045015607
172	0x3d5737ab	0.052543323
173	0x3ce01ccb	0.02735748
174	0xbd6f53ec	-0.058429644
175	0xbd6921da	-0.05691705
176	0x3ce38e2d	0.027777756
177	0xbc2f1e52	-0.010688381
178	0x3cf0319a	0.029320527
179	0x3caaf0db	0.020866802
180	0x3d57382c	0.052543804
181	0x3d9909c2	0.07472564
182	0xbd7d1a87	-0.061792877
183	0xbd77e6d2	-0.06052286
184	0xbcf06b8b	-0.029348155
185	0x3baf2cc9	0.005345915
186	0xbd51451c	-0.0510913
187	0xbd676c07	-0.056499507
188	0x3d90c4e7	0.07068806
189	0x3ceb045c	0.028688602
190	0xbbab41f2	-0.005226367
191	0x3cc3ff01	0.023925306
192	0xbd164915	-0.03669079
193	0xbd8af457	-0.067848854
194	0xbd2755b4	-0.040853217
195	0x3d4899ac	0.048974678
196	0xbd154495	-0.036442358
197	0xbc146348	-0.009056874
198	0xbd87553d	-0.06608055
199	0xbc2165a9	-0.009850898
200	0xbd3a4f59	-0.045485828
201	0xbd492a50	-0.049112618
202	0x3ced9154	0.028999962
203	0xbb8102a3	-0.003937082
204	0x3c0a17fe	0.008428572
205	0xbd249e56	-0.040190063
206	0x3d115130	0.035477817
207	0xbc93aa54	-0.018025555
208	0x3c5c1caf	0.013434573
209	0x3cd45393	0.025918758
210	0xbc218504	-0.009858374
211	0x3b6a5734	0.0035757544
212	0x3cbb868e	0.02289131
213	0xbd191a65	-0.037378687
214	0xbc1260f8	-0.008934252
215	0x3d348b0d	0.04407792
216	0x3c3381a8	0.010956205
217	0xbcdcd7b5	-0.026958326
218	0xbd4c45e6	-0.049871348
219	0x3c20defb	0.009818788
220	0xbc2025b1	-0.009774611
221	0x3c7d3b75	0.01545607
222	0xbc185662	-0.009297939
223	0x3d432913	0.047646593
224	0xbad56aeb	-0.0016282474
225	0xbd66e044	-0.05636622
226	0xbd36be73	-0.04461522
227	0xbd413f2d	-0.04717939
228	0x3d01dbe1	0.031703833
229	0x3d2fcf18	0.04292211
230	0xbd4324eb	-0.04764263
231	0x3cdfedd8	0.027335092
232	0x3d6bfcf9	0.0576143
233	0x3ca6eb55	0.020375887
234	0x3c9de6ae	0.019275036
235	0xbd458b42	-0.04822851
236	0xbd365db3	-0.044522952
237	0xbd08c280	-0.033388615
238	0x3d008182	0.03137351
239	0xbceed73a	-0.029155362
240	0xbca5b87a	-0.020229567
241	0xbd87d028	-0.066314995
242	0xbd1d2b5a	-0.03837142
243	0x3d814234	0.06311455
244	0x3d617205	0.055040378
245	0xbd21d7e8	-0.039512545
246	0xbbff1210	-0.0077841356
247	0xbd41dd2a	-0.04733006
248	0x3c9deacc	0.019276999
249	0x3c1ed6c4	0.009694759
250	0xbd96bdd3	-0.07360425
251	0x3d211917	0.03933057
252	0x3cc44d3f	0.023962615
253	0x3d7f971b	0.062399965
254	0xbd2ec773	-0.04267068
255	0x3d2e5570	0.04256195

layer4.0.bias f4 [128]
0	0x3c8a708e	0.016899373
1	0x3b0eae6f	0.002177145
2	0xbb01bbc1	-0.0019795748
3	0x3a4abe25	0.0007734022
4	0x3af9dce5	0.0019063024
5	0x3ca6cf6c	0.020362578
6	0x3d0155cc	0.031575963
7	0xbd1434ca	-0.036183156
8	0xbcaddc29	-0.021223145
9	0xbc53d5f1	-0.012929426
10	0x39c88901	0.00038249049
11	0xbb0bfc86	-0.0021360232
12	0xbd03ef07	-0.032210376
13	0x3b1460fc	0.0022640815
14	0x38d556e0	0.00010172813
15	0x3c924135	0.017853359
16	0xbc42b304	-0.011883501
17	0x3d1384de	0.036015384
18	0xbc589ae1	-0.01322052
19	0x3b9fb93c	0.0048743766
20	0x399888c5	0.000290936
21	0xbb069fc6	-0.002054201
22	0x3c3ae18b	0.011406313
23	0xbb35d57d	-0.0027745657
24	0xb7af6d8f	-2.0912643e-05
25	0x3b0df0c0	0.002165839
26	0x396b0176	0.0002241189
27	0x3b269d9d	0.0025423535
28	0xbc2f4fa6	-0.010700142
29	0x3b0afdf9	0.0021208508
30	0xbc6d06f1	-0.014466987
31	0x3cc42aa4	0.023946114
32	0x3c13c028	0.009017982
33	0xbcbdaafa	-0.023152817
34	0xbc36f7ca	-0.011167476
35	0xbce2be78	-0.027678713
36	0x3d13259d	0.035924543
37	0x3d12991e	0.035790555
38	0x3cd4a0fe	0.025955673
39	0x3c1afed7	0.009460173
40	0xb96a40c0	-0.000223401
41	0x3c8d04a6	0.01721413
42	0x3d174528	0.036931187
43	0xbc519899	-0.01279273
44	0x39e65179	0.0004392972
45	0xbb0725c3	-0.0020621873
46	0xba40994a	-0.00073470606
47	0xb7de2936	-2.6483653e-05
48	0x37780992	1.478418e-05
49	0xba23cc20	-0.00062483735
50	0x3d1a3cb8	0.037655562
51	0x3adf4d43	0.0017036576
52	0xba41af98	-0.0007388531
53	0xbd0a0e29	-0.03370491
54	0xbaee072e	-0.0018160099
55	0xba415293	-0.000737467
56	0xbcf4d86a	-0.02988835
57	0xbca22e49	-0.019797461
58	0x38fbb4c4	0.00012002283
59	0x3cfcce2c	0.03086003
60	0x3c40c586	0.011765843
61	0x3b1437c6	0.0022616251
62	0xbc848727	-0.016177727
63	0xbd001f24	-0.031279698
64	0xbb689bd2	-0.0035493267
65	0x3d053d4c	0.03252916
66	0x39baa769	0.00035601415
67	0xba4d8074	-0.00078392704
68	0x3a46c393	0.00075822434
69	0x39373551	0.00017472102
70	0x3c59c246	0.013290947
71	0xbb172744	-0.0023064176
72	0xbaa8a8da	-0.0012867704
73	0x3b03bdd5	0.0020102162
74	0x3cf82af8	0.030293927
75	0x39bbe47d	0.00035837656
76	0xbd170317	-0.03686818
77	0xbcc0000f	-0.023437528
78	0x3cb4dbda	0.02207749
79	0xbb04193d	-0.0020156645
80	0xbb8ce267	-0.00429945
81	0xbb76f95b	-0.0037685249
82	0x3c7d78ac	0.015470665
83	0x3a0e785c	0.0005434805
84	0xbc0bfd02	-0.0085442085
85	0x3b896e9b	0.0041940934
86	0x3a8dddbc	0.0010823528
87	0xbcbd45e2	-0.023104612
88	0xbada9179	-0.0016675434
89	0x3aafffbd	0.0013427656
90	0xb9c4d2d2	-0.00037541107
91	0x3bda922e	0.006670258
92	0xbb0e2af5	-0.0021693085
93	0x3aacf4f3	0.0013195559
94	0x3d023d75	0.03179689
95	0xbb5d1af0	-0.003373798
96	0x3949bb2b	0.00019238579
97	0xbcb89a0e	-0.022534396
98	0x3c501bb9	0.012701922
99	0x3caedba8	0.021344975
100	0xbd0709b5	-0.03296824
101	0xbc614e6d	-0.013751608
102	0xbb14e1bd	-0.0022717558
103	0x3ab241c9	0.0013599928
104	0xbbbcd097	-0.0057621705
105	0x399742f5	0.0002885085
106	0x3caaef80	0.020866156
107	0xb85016c7	-4.9612278e-05
108	0xbd02475e	-0.031806342
109	0xb99da301	-0.0003006682
110	0xbd19b8fc	-0.03752993
111	0xbb0fa589	-0.0021918735
112	0xbcf2fd0b	-0.029661676
113	0x3af4ffe2	0.0018691982
114	0xba9d8da0	-0.0012020357
115	0xbc0d513f	-0.008625328
116	0x3b051d36	0.00203116
117	0xb915f856	-0.0001430226
118	0xbcc06099	-0.023483561
119	0x3c3f02e8	0.011658408
120	0xbcfeedc9	-0.031119244
121	0x3ad0ae1b	0.0015921028
122	0x3b09f261	0.002104901
123	0xbb15477e	-0.0022778208
124	0x3a0295dc	0.0004981437
125	0xbd176543	-0.036961805
126	0xb9d3531e	-0.00040306983
127	0x3b52cadd	0.0032164373

layer4.1.weight f4 [128]
0	0x3f7d7137	0.9900088
1	0x3f806795	1.0031611
2	0x3f7bcf9d	0.9836367
3	0x3f803052	1.0014746
4	0x3f7fc4a2	0.9990941
5	0x3f7bf290	0.98416996
6	0x3f8059b9	1.0027381
7	0x3f7f729b	0.9978425
8	0x3f7d0b37	0.9884524
9	0x3f7cd4b6	0.9876207
10	0x3f7eedd6	0.9958166
11	0x3f802240	1.0010452
12	0x3f7c9ddd	0.9867838
13	0x3f803c52	1.0018408
14	0x3f7d9733	0.99058837
15	0x3f7e9ac6	0.99454916
16	0x3f802f5c	1.0014453
17	0x3f7e762e	0.9939908
18	0x3f805aeb	1.0027746
19	0x3f7d325f	0.98904985
20	0x3f7e49f7	0.9933161
21	0x3f7e29a6	0.992823
22	0x3f7dcd0f	0.9914102
23	0x3f7ccb10	0.9874735
24	0x3f7cf120	0.9880543
25	0x3f7e6872	0.9937812
26	0x3f7ea63d	0.9947241
27	0x3f7d0b4e	0.98845375
28	0x3f7ce9ed	0.9879444
29	0x3f7f1c20	0.9965229
30	0x3f7dcc5c	0.9913995
31	0x3f7f4533	0.99714965
32	0x3f7e6891	0.99378306
33	0x3f7df446	0.99200857
34	0x3f7e83a3	0.9941961
35	0x3f7deb70	0.99187374
36	0x3f7ee01c	0.99560714
37	0x3f7dffe3	0.9921858
38	0x3f7c68c1	0.9859734
39	0x3f7f2061	0.9965878
40	0x3f7cc64c	0.98740077
41	0x3f7fd25a	0.99930346
42	0x3f7d995d	0.9906214
43	0x3f80f5d3	1.007502
44	0x3f7dedf1	0.99191195
45	0x3f7d610c	0.98976207
46	0x3f7ec03b	0.9951207
47	0x3f7ed2cd	0.99540406
48	0x3f7d4f16	0.989488
49	0x3f805933	1.0027221
50	0x3f8030d9	1.0014907
51	0x3f7d5ed9	0.9897285
52	0x3f7d4abf	0.9894218
53	0x3f7e0d2b	0.9923884
54	0x3f7e6425	0.9937156
55	0x3f7f9064	0.998297
56	0x3f7d2ab9	0.98893315
57	0x3f7ebc0f	0.99505705
58	0x3f7e5a89	0.99356896
59	0x3f7dd27f	0.99149317
60	0x3f7faac0	0.9986992
61	0x3f7e6159	0.9936729
62	0x3f7f34e7	0.996901
63	0x3f7ea81c	0.99475265
64	0x3f80cde2	1.006283
65	0x3f7fdc98	0.99945974
66	0x3f7e71fd	0.9939268
67	0x3f7d7ed0	0.99021626
68	0x3f7dbaf0	0.9911337
69	0x3f7e836b	0.9941928
70	0x3f7d8992	0.9903804
71	0x3f7f66bf	0.99766153
72	0x3f7ffe78	0.99997663
73	0x3f7ce696	0.98789346
74	0x3f7e5636	0.993503
75	0x3f7d7a48	0.9901471
76	0x3f7de37e	0.9917525
77	0x3f7f8156	0.99806726
78	0x3f802253	1.0010475
79	0x3f7effe7	0.99609226
80	0x3f7db1d7	0.9909949
81	0x3f7db420	0.99102974
82	0x3f801d8a	1.0009015
83	0x3f7ce1e1	0.98782164
84	0x3f7c04a4	0.9844458
85	0x3f813906	1.0095527
86	0x3f8001d8	1.0000563
87	0x3f7ed5e0	0.995451
88	0x3f7f6806	0.997681
89	0x3f7c59d6	0.9857458
90	0x3f7d2c8e	0.9889611
91	0x3f7d0a0b	0.9884345
92	0x3f7c6c8a	0.9860312
93	0x3f7d54c0	0.98957443
94	0x3f7f8390	0.99810123
95	0x3f7c294d	0.9850052
96	0x3f7fd2f7	0.9993128
97	0x3f7e0b75	0.9923623
98	0x3f7fe3b9	0.9995685
99	0x3f7e7a5c	0.99405456
100	0x3f7cf33a	0.98808634
101	0x3f801bd9	1.0008498
102	0x3f7cc8cc	0.9874389
103	0x3f7dc930	0.9913511
104	0x3f7e6f49	0.9938856
105	0x3f813ed0	1.0097294
106	0x3f7e10b5	0.9924424
107	0x3f7da9a8	0.99087
108	0x3f7ed613	0.995454
109	0x3f7eceb2	0.9953414
110	0x3f7e1c2e	0.9926175
111	0x3f7f59f1	0.99746615
112	0x3f7e3e89	0.9931417
113	0x3f7ea188	0.9946523
114	0x3f7e58f2	0.9935447
115	0x3f7cc4c2	0.9873773
116	0x3f7d430e	0.9893044
117	0x3f7eb717	0.9949812
118	0x3f7e45ab	0.99325055
119	0x3f7ddece	0.991681
120	0x3f7c6883	0.9859697
121	0x3f7ef6e4	0.99595475
122	0x3f8058cf	1.0027102
123	0x3f7d8978	0.99037886
124	0x3f812055	1.0087992
125	0x3f7e55ec	0.99349856
126	0x3f7be1b2	0.9839126
127	0x3f7d28c9	0.9889036
