checkpoint_adabn/CNN_1d_0930-141644/1-0.7942-best_model.pth (torch, 937791 bytes, 30 tensors)

layer1.0.weight f4 [16, 1, 15]
0.014797576 0.014363307 -0.16136481 0.18663567 -0.23487484 -0.2583488 0.054540005 0.17030062
0.057527468 0.04042613 -0.21045868 -0.15343432 -0.13447203 -0.14504217 0.122027695 0.07743216
0.013430487 -0.045608222 0.061898 -0.22236893 -0.049855437 0.10211155 -0.14300907 0.23682907
0.11224056 -0.110953055 -0.16176751 -0.024374725 -0.18957345 -0.043139778 -0.07997475 -0.2518363
-0.03717979 0.19079119 0.069717966 -0.0365855 -0.11161895 0.13586433 -0.23882376 0.065209955
-0.05983804 -0.15173385 -0.123029985 -0.10358212 0.10212222 -0.03471465 0.26209754 0.16716404
0.20390022 0.013493566 0.18684082 -0.16609353 0.1284199 0.187764 0.2254138 0.20548654
0.15032579 0.2176558 0.11897772 0.20630693 -0.072776146 0.09794525 -0.097935945 -0.15501013
0.101073004 -0.23809518 -0.1222807 0.19166124 0.24150337 0.1963232 -0.22440048 0.12823613
-0.029747477 0.17294928 0.21076426 0.09966109 0.25402695 0.19980167 0.17938568 0.14780165
-0.17484476 0.03867815 0.22748144 -0.042651154 -0.038023215 0.2629506 0.098483145 0.124971464
0.25860494 0.20209533 -0.112530604 0.089772485 -0.09662759 -0.13975817 -0.025261978 0.2678316
-0.23852916 0.09648024 0.13938126 0.05365094 -0.03445871 0.23856057 0.0047888937 -0.15091412
-0.09336381 0.059576064 -0.23715612 -0.011354449 -0.0009779199 -0.06351492 0.11242414 0.06498167
-0.19050431 0.15905562 -0.01961284 -0.030672012 -0.14345728 0.019914772 0.24942552 0.08112996
0.056188308 -0.086757846 -0.16839743 0.00055758096 0.17523624 0.018497659 -0.04928274 -0.24695002
-0.0006802143 0.20934281 0.0220875 -0.17981428 0.10620498 -0.08089759 -0.22805674 -0.01781743
0.043995023 0.1859123 0.211886 0.16211823 0.023084601 -0.035237886 -0.102376595 -0.232089
0.07958674 -0.010849041 0.19386458 0.08231188 0.16165473 0.05225944 0.2644742 -0.11453839
0.21697782 0.056862928 0.22967638 0.09697095 -0.15290473 -0.16777049 -0.18366076 -0.11826174
-0.25541878 0.25687584 0.12393551 -0.16745712 0.19801602 0.09986508 -0.26380742 0.1279462
0.12342704 0.10224474 0.19342455 0.005388261 0.18037839 -0.15471584 0.13517974 -0.098135464
0.16249605 -0.15990771 -0.078260206 0.055099133 -0.16152392 0.16220814 -0.15042488 -0.056958638
0.07923961 0.23632285 0.08327494 -0.015785705 -0.01716841 0.12738751 0.13351186 -0.103261955
-0.0006657702 0.26567385 0.18118604 0.15390007 0.036955882 0.06834161 0.13371752 -0.04613971
-0.27114183 -0.17116629 -0.11960641 0.20313567 -0.066852055 -0.24654362 0.11390262 -0.16592874
0.17484741 0.19155207 0.058229737 -0.17194593 0.08164065 0.22189538 -0.0029461675 -0.1671755
-0.25551516 0.0067660124 0.02406207 0.2796391 0.19136143 -0.20368113 -0.06741093 -0.06373149
0.22003114 0.2569464 -0.02428815 0.033257067 0.27276087 -0.17768237 0.20720178 -0.20154686
0.17552821 -0.21185222 0.25498542 -0.12027431 0.03493777 0.087030984 0.027011996 -0.15744881
00000000: 8871 723c 1354 6b3c d13c 25be 6c1d 3f3e
00000010: 0883 70be 4b46 84be 5765 5f3d 4963 2e3e
00000020: eca1 6b3d df95 253d 7b82 57be e31d 1dbe
00000030: 09b3 09be ef85 14be a8e9 f93d c194 9e3d
00000040: 8c0b 5c3c b0cf 3abd c288 7d3d aeb4 63be
00000050: 3735 4cbd dc1f d13d f870 12be 5283 723e
00000060: 61de e53d 5b3b e3bd 62a6 25be 81ad c7bc
00000070: 8b1f 42be 56b3 30bd cdc9 a3bd b0f0 80be
00000080: d649 18bd c45e 433e 4bc8 8e3d adda 15bd
00000090: 7a98 e4bd 0520 0b3e 378e 74be cc8c 853d
000000a0: bc18 75bd 1e60 1bbe 25f7 fbbd dd22 d4bd
000000b0: 7425 d13d f330 0ebd a631 863e 0d2d 2b3e
000000c0: 38cb 503e 1e14 5d3c 3353 3f3e 6c14 2abe
000000d0: 8280 033e 3545 403e e0d2 663e 106b 523e
000000e0: 01ef 193e 29e1 5e3e 97aa f33d 2042 533e
000000f0: a90b 95bd 8597 c83d a492 c8bd faba 1ebe
00000100: 5dff ce3d 39cf 73be 4e6e fabd d842 443e
00000110: a94c 773e f308 493e 3dc9 65be 5550 033e
00000120: fbb0 f3bc 9e19 313e 96d2 573e 1d1b cc3d
00000130: d20f 823e cf98 4c3e e1b0 373e 5159 173e
00000140: 810a 33be fb6c 1e3d e5f0 683e fab2 2ebd
00000150: 3bbe 1bbd 76a1 863e 88b1 c93d 0af1 ff3d
00000160: de67 843e 14f2 4e3e 7276 e6bd a3da b73d
00000170: b0e4 c5bd c41c 0fbe 35f2 cebc 3921 893e
00000180: fd40 74be 6f97 c53d f6b9 0e3e 17c1 5b3d
00000190: 9424 0dbd 3949 743e 27ec 9c3b 3b89 1abe
000001a0: 8635 bfbd 0806 743d 0ed9 72be 0308 3abc
000001b0: 8c2d 80ba 1c14 82bd a13e e63d 1c15 853d
000001c0: 9013 43be 7adf 223e 1bab a0bc df43 fbbc
000001d0: 77e6 12be 4e24 a33c 6769 7f3e 7727 a63d
000001e0: b625 663d 19ae b1bd 6070 2cbe a02a 123a
000001f0: 2171 333e 6788 973c b3dc 49bd 77e0 7cbe
00000200: 6950 32ba f65d 563e d8f0 b43c 3c21 38be
00000210: ff81 d93d a3ad a5bd b587 69be dcf5 91bc
00000220: 2034 343d cb5f 3e3e a5f8 583e 5202 263e
00000230: eb1b bd3c 9a55 10bd d2aa d1bd bda8 6dbe
00000240: 5ffe a23d 2dc0 31bc 7084 463e 2293 a83d
00000250: d188 253e ff0d 563d 2a69 873e 1a93 eabd
00000260: 6f2f 5e3e 1ae9 683d 4930 6b3e b598 c63d
00000270: 0f93 1cbe 07cc 2bbe 9111 3cbe 3633 f2bd
00000280: 40c6 82be 3b85 833e e7d1 fd3d e179 2bbe
00000290: b6c4 4a3e 1086 cc3d c411 87be 5404 033e
000002a0: 51c7 fc3d b165 d13d 1611 463e 0290 b03b
000002b0: 1db5 383e d46d 1ebe 8f6c 0a3e 3ffb c8bd
000002c0: 5d65 263e d9be 23be e346 a0bd a1af 613d
000002d0: 8766 25be e419 263e fb08 1abe 764d 69bd
000002e0: 6048 a23d 9efe 713e 0d8c aa3d 0651 81bc
000002f0: c4a4 8cbc df71 023e 55b7 083e 017b d3bd
00000300: 1587 2eba 6706 883e d588 393e fb97 1d3e
00000310: 0d5f 173d b0f6 8b3d 3fed 083e fefc 3cbd
00000320: 1ad3 8abe 3746 2fbe 35f4 f4bd cc02 503e
00000330: bbe9 88bd ee75 7cbe c745 e93d 39e9 29be
00000340: 330b 333e 3a26 443e 4e82 6e3d 9812 30be
00000350: 3733 a73d 8b38 633e 7d14 41bb 0e30 2bbe
00000360: e2d2 82be 6db5 dd3b d11d c53c db2c 8f3e
00000370: 40f4 433e c991 50be be0e 8abd a885 82bd
00000380: d84f 613e 7b8e 833e f1f7 c6bc 9038 083d
00000390: 50a7 8b3e 5ef2 35be b42c 543e 4d62 4ebe
000003a0: abbd 333e caef 58be 738d 823e 6152 f6bd
000003b0: e81a 0f3d 4d3d b23d 4348 dd3c 433a 21be

layer1.0.bias f4 [16]
0.08268055 0.0008658972 -0.1647349 0.151282 -0.045144264 0.00013891228 0.16181786 0.00019026679
-0.17852095 0.006066994 0.08518821 -0.013375158 0.16096148 -0.046185628 0.17633757 0.13719
00000000: 6c54 a93d 61fd 623a 44b0 28be abe9 1a3e
00000010: 31e9 38bd fba8 1139 95b3 253e 5a82 4739
00000020: 32ce 36be a2cd c63b 2877 ae3d 7b23 5bbc
00000030: 16d3 243e 242d 3dbd d691 343e 897b 0c3e

layer1.1.weight f4 [16]
1.0098584 1.0048287 1.0334433 0.98778427 0.97993416 1.0063888 0.99833214 0.99203014
0.9650348 0.9870124 1.0139673 1.0076913 0.9890655 0.9973863 1.0222806 0.9833779
00000000: 0a43 813f 3a9e 803f df47 843f 6edf 7c3f
00000010: f7dc 7a3f 59d1 803f b292 7f3f b0f5 7d3f
00000020: 850c 773f d8ac 7c3f aec9 813f 07fc 803f
00000030: 6633 7d3f b554 7f3f 17da 823f a7be 7b3f

layer1.1.bias f4 [16]
0.023432884 -0.0038866447 0.023839096 -0.0046610874 -0.014498996 0.010481247 0.014198335 -0.005031861
-0.0024005235 -0.007763587 0.007528263 0.012770087 -0.01966503 -0.01573926 0.006702157 0.013087739
00000000: 52f6 bf3c 14b7 7ebb 354a c33c 09bc 98bb
00000010: 328d 6dbc 89b9 2b3c 22a0 683c 4fe2 a4bb
00000020: 1a52 1dbb b065 febb a6af f63b a139 513c
00000030: 8f18 a1bc 9fef 80bc c59d db3b f56d 563c

layer1.1.running_mean f4 [16]
0.090922326 0.00027571444 -0.17334478 0.15939315 -0.05243804 -0.0002475925 0.17054898 -0.0015720378
-0.18725209 0.009897303 0.093190506 -0.01873206 0.16945615 -0.053367343 0.18509704 0.14568403
00000000: 7c35 ba3d c48d 9039 4b81 31be f537 233e
00000010: 45c9 56bd 4ecf 81b9 64a4 2e3e d60c ceba
00000020: 03bf 3fbe 4c28 223c aada be3d fa73 99bc
00000030: ea85 2d3e b797 5abd 148a 3d3e 322e 153e

layer1.1.running_var f4 [16]
0.3814537 0.22142264 0.3059966 1.5611644 0.35237414 1.2689829 0.2277326 0.18281552
0.2632614 0.2929772 0.34341216 0.2531418 0.40797907 0.25297472 0.25977015 0.328409
00000000: e64d c33e 9ebc 623e 96ab 9c3e 3cd4 c73f
00000010: 626a b43e 086e a23f bc32 693e fe33 3b3e
00000020: 33ca 863e 1c01 963e b8d3 af3e cd9b 813e
00000030: a2e2 d03e e785 813e 9800 853e 3925 a83e

layer2.0.weight f4 [32, 16, 3]
0.0041898307 -0.07200424 0.030754684 -0.08922606 -0.03547171 -0.13406792 0.12654908 -0.0121441195
-0.07814863 0.122793354 0.12189015 -0.030820101 -0.03936455 -0.04246975 -0.011029037 -0.02016966
0.081394054 0.13314204 -0.14034057 -0.026887095 -0.058512166 -0.12937337 0.018152246 -0.13357113
0.064397946 0.10037616 0.07495732 0.039054528 0.1266362 -0.0009351514 0.108896896 -0.03256683
-0.015844839 -0.015045987 -0.093772404 -0.088159375 0.016026473 -0.049880482 0.06277734 0.047795694
-0.13919184 0.0067575006 0.105042785 -0.014256786 0.009679237 -0.11835155 -0.114520825 0.06783024
0.058065332 0.028925573 0.026285477 0.09929519 -0.03091413 -0.010544531 0.087124296 0.12341813
0.09414915 0.0061818506 -0.017098378 0.08824629 -0.05785706 -0.12234425 -0.13528535 -0.06326198
-0.103585385 -0.113611914 0.08948715 -0.06064391 -0.050057806 -0.028779143 -0.007564634 0.08375025
0.07527401 -0.14733641 0.10687301 0.116399124 0.022961812 -0.055522207 0.029274676 -0.082613625
-0.059114132 0.072645344 -0.021398399 0.011529597 0.1214572 -0.07858881 -0.12430689 0.0012199533
-0.06736086 -0.15113993 -0.07391041 -0.02339939 -0.12548776 -0.082236886 0.021244511 0.10598453
-0.14395244 -0.097740404 -0.07870845 -0.031986073 -0.024133485 -0.055988297 0.022422563 -0.0035807379
0.016127642 0.036660805 -0.051092904 -0.03899074 -0.095021 -0.12454156 0.08827502 -0.089907974
-0.06240569 -0.02895723 0.03923431 0.05904233 0.0020500887 0.072481886 0.08122239 -0.00830016
-0.025566943 -0.10296743 0.0757646 -0.12741299 0.026510399 -0.036590498 -0.13051434 -0.12277368
-0.07756181 0.029324522 0.12001963 -0.040734652 0.033576377 0.020312307 -0.028565861 -0.11308316
-0.04318284 -0.115234755 -0.13019785 -0.036853466 -0.061981764 -0.036886614 -0.092952825 -0.016752891
-0.13857484 -0.11230282 0.08259034 0.08799147 -0.12492178 -0.025159547 0.067099474 0.09557837
-0.0340044 -0.11546742 0.11339126 -0.07714234 0.13660322 -0.031156898 0.09703234 -0.09854999
0.003419908 0.13044383 0.09176918 0.11807541 0.0011259394 -0.06514459 -0.02002759 0.14417136
0.043983806 0.10772152 0.1344371 -0.042652775 0.118053496 -0.09221881 -0.0990681 -0.07244442
0.019195406 0.005713124 0.069834866 -0.087057605 0.08331173 0.12783743 0.04708445 -0.03525811
0.09017897 0.006193895 0.12139518 -0.06733604 -0.106913604 -0.14134735 0.03604577 -0.027904324
-0.10017936 0.02776267 -0.047073133 -0.09347538 -0.12346106 -0.08105379 -0.063101135 0.119829595
0.023502808 -0.10004858 -0.1244225 0.103499845 0.06898197 0.0050801863 -0.116552904 -0.019366244
-0.11426545 0.121846154 0.048554022 0.014923253 -0.084751904 0.05390254 -0.0036486217 0.08478137
-0.06997837 0.12331689 -0.10058733 -0.07908446 -0.094322 -0.014607731 -0.01529805 -0.004669775
0.08332942 0.08054891 0.05301502 0.14693122 0.014601706 0.034485456 -0.07520724 0.03819449
0.08250127 -0.08983705 0.13707413 0.04353148 0.07634467 -0.12338968 0.10995366 -0.13349335
0.09303598 -0.08640507 -0.07503289 0.1131996 -0.13531385 -0.017761085 -0.114938125 0.09315387
0.0356416 -0.050641727 0.021132814 -0.05801122 0.00816014 0.0053509637 0.035173543 0.07967282
00000000: d94a 893b f576 93bd 3ff1 fb3c 27bc b6bd
00000010: c94a 11bd 1a49 09be 1596 013e 21f8 46bc
00000020: 640c a0bd 157b fb3d 8ba1 f93d 707a fcbc
00000030: b93c 21bd c3f4 2dbd 22b3 34bc d83a a5bc
00000040: edb1 a63d 6356 083e 70b5 0fbe 5342 dcbc
00000050: 74aa 6fbd 747a 04be 05b4 943c dfc6 08be
00000060: 12e3 833d 0492 cd3d 3983 993d a4f7 1f3d
00000070: ecac 013e f324 75ba 5605 df3d cc64 05bd
00000080: 09cd 81bc 7283 76bc bf0b c0bd e78c b4bd
00000090: f349 833c 7a4f 4cbd 6891 803d 6bc5 433d
000000a0: 4e88 0ebe 066e dd3b ac20 d73d 4b95 69bc
000000b0: aa95 1e3c 4c62 f2bd e589 eabd 95ea 8a3d
000000c0: ead5 6d3d 53f5 ec3c a454 d73c 475b cb3d
000000d0: a13f fdbc f8c2 2cbc 396e b23d a5c2 fc3d
000000e0: 45d1 c03d 1f91 ca3b e611 8cbc 79ba b43d
000000f0: 86fb 6cbd 9f8f fabd 3e88 0abe 7f8f 81bd
00000100: 9324 d4bd 5dad e8bd 0a45 b73d c065 78bd
00000110: 6a09 4dbd 3dc2 ebbc c0e0 f7bb 4085 ab3d
00000120: 4329 9a3d 5bdf 16be 3de0 da3d aa62 ee3d
00000130: 691a bc3c 416b 63bd 72d1 ef3c 5531 a9bd
00000140: a921 72bd 15c7 943d b24b afbc a3e6 3c3c
00000150: 8dbe f83d 2cf3 a0bd 9c94 febd d7e6 9f3a
00000160: 7ef4 89bd 6dc4 1abe 575e 97bd 14b0 bfbc
00000170: dd7f 00be d06b a8bd f808 ae3c 6b0e d93d
00000180: 4568 13be 1f2c c8bd e531 a1bd d403 03bd
00000190: 96b3 c5bc fc53 65bd 86af b73c d0aa 6abb
000001a0: 1e1e 843c a429 163d cb46 51bd c1b4 1fbd
000001b0: 5f9a c2bd a50f ffbd 89c9 b43d ac21 b8bd
000001c0: 1c9d 7fbd b637 edbc 28b4 203d 5fd6 713d
000001d0: c85a 063b 6271 943d ed57 a63d 65fd 07bc
000001e0: c471 d1bc 97e0 d2bd 782a 9b3d 8d78 02be
000001f0: 562c d93c ebdf 15bd 8da5 05be c470 fbbd
00000200: bad8 9ebd fb39 f03c dacc f53d 61d9 26bd
00000210: 6287 093d ff65 a63c f402 eabc 2598 e7bd
00000220: 7de0 30bd 3300 ecbd 9652 05be a9f3 16bd
00000230: 97e0 7dbd 6b16 17bd 0d5e bebd 5c3d 89bc
00000240: 90e6 0dbe 05ff e5bd 2025 a93d df34 b43d
00000250: fdd6 ffbd 651b cebc 736b 893d 98be c33d
00000260: 3348 0bbd 2f7a ecbd ad39 e83d cefc 9dbd
00000270: b7e1 0b3e c03c ffbc e4b8 c63d 94d4 c9bd
00000280: 8920 603b 1193 053e 7bf1 bb3d 85d1 f13d
00000290: 4294 933a 876a 85bd e710 a4bc a8a1 133e
000002a0: 5d28 343d 1a9d dc3d e1a9 093e adb4 2ebd
000002b0: 08c6 f13d 37dd bcbd 37e4 cabd bd5d 94bd
000002c0: af3f 9d3c 2835 bb3b 9505 8f3d 424b b2bd
000002d0: 579f aa3d d1e7 023e a0db 403d cf6a 10bd
000002e0: c0af b83d 28f6 ca3b 099e f83d 7ae7 89bd
000002f0: 85f5 dabd 5cbd 10be bba4 133d 9c97 e4bc
00000300: d62a cdbd 8a6e e33c c2cf 40bd 0570 bfbd
00000310: 27d9 fcbd 88ff a5bd 2b3b 81bd 3869 f53d
00000320: f688 c03c 45e6 ccbd 39d1 febd baf7 d33d
00000330: 6b46 8d3d b177 a63b 4ab3 eebd f5a5 9ebc
00000340: 0104 eabd 7a8a f93d 95e0 463d a980 743c
00000350: 6892 adbd e9c8 5c3d b71d 6fbb dba1 ad3d
00000360: d250 8fbd 918d fc3d bb00 cebd 09f7 a1bd
00000370: e52b c1bd 4455 6fbc aca4 7abc e904 99bb
00000380: 9da8 aa3d d4f6 a43d 4726 593d 2375 163e
00000390: fe3b 6f3c 9f40 0d3d 4106 9abd d371 1c3d
000003a0: 6df6 a83d 7dfc b7bd 295d 0c3e 114e 323d
000003b0: 985a 9c3d bbb3 fcbd 622f e13d 7bb2 08be
000003c0: a689 be3d 24f5 b0bd d8aa 99bd 31d5 e73d
000003d0: b78f 0abe b27f 91bc ae64 ebbd 75c7 be3d
000003e0: edfc 113d b36d 4fbd b91e ad3c 2c9d 6dbd
000003f0: 1cb2 053c 2357 af3b 2212 103d 812b a33d

layer2.0.bias f4 [32]
-0.00048305644 -0.011048445 0.00030242626 0.07411832 -0.0013339515 -0.0070218723 0.023620253 -0.008645579
-0.0009329919 -0.031106222 -0.075891346 -0.022661196 -0.0009870693 -0.025940293 0.0003927667 -0.04044595
-0.03409123 0.024549399 0.0107272 -0.044458836 0.0001309121 -5.890087e-05 -0.022892147 -0.016492702
-0.06354688 -0.00050000614 -0.02563674 0.024189426 -0.056828246 0.00027997198 0.00010992086 -0.00032597542
00000000: bd42 fdb9 8904 35bc f78e 9e39 59cb 973d
00000010: fcd7 aeba bc17 e6bb 437f c13c 30a6 0dbc
00000020: 0794 74ba 7ad2 febc ec6c 9bbd f9a3 b9bc
00000030: 8d60 81ba bd80 d4bc 41ec cd39 a7aa 25bd
00000040: 3fa3 0bbd d21b c93c 23c1 2f3c 781a 36bd
00000050: 7345 0939 540c 77b8 5088 bbbc b41b 87bc
00000060: de24 82bd d812 03ba 2404 d2bc e728 c63c
00000070: bcc4 68bd 34c9 9239 5085 e638 aee7 aab9

layer2.1.weight f4 [32]
0.99627155 1.0050122 1.0119623 1.0114051 0.9880907 0.995533 0.99944127 1.0201745
0.9826741 0.9856682 0.99771464 0.99905914 1.018631 0.98839873 1.0064843 1.0113763
0.9835809 0.998224 1.0053856 1.0200833 1.0108389 1.0087478 0.9961371 0.9818588
1.0022457 1.0062091 1.0007138 0.9823094 1.0264702 1.0081578 0.9986405 0.9909624
00000000: a70b 7f3f 3da4 803f fb87 813f b975 813f
00000010: 83f3 7c3f 40db 7e3f 62db 7f3f 1495 823f
00000020: 8890 7b3f c054 7c3f 3a6a 7f3f 57c2 7f3f
00000030: 8062 823f b307 7d3f 7ad4 803f c774 813f
00000040: f5cb 7b3f 9c8b 7f3f 7ab0 803f 1792 823f
00000050: 2b63 813f a61e 813f d702 7f3f 195b 7b3f
00000060: 9649 803f 76cb 803f 6417 803f a178 7b3f
00000070: 6063 833f 510b 813f e7a6 7f3f b6af 7d3f

layer2.1.bias f4 [32]
-0.00038510398 0.012767299 0.01508411 -0.0160545 -0.0028544336 0.017068718 -0.008236685 0.015074015
-0.011789215 -0.017910609 0.0061252117 -0.0029298712 0.018658414 -0.013368495 0.01599924 0.013992244
-0.0063814903 -0.0030868966 0.037471373 0.026092844 0.006572017 0.015288982 0.015154018 -0.0074124
-0.0062675346 0.008825902 -0.0019197172 0.014101102 0.0095879985 0.013521054 0.0068154815 -0.005201242
00000000: c8e7 c9b9 ef2d 513c 5823 773c ba84 83bc
00000010: 7311 3bbb b2d3 8b3c 29f3 06bc 00f9 763c
00000020: 8d27 41bc 45b9 92bc 00b6 c83b 1503 40bb
00000030: 88d9 983c 8807 5bbc d710 833c ba3f 653c
00000040: d21b d1bb 884d 4abb 957b 193d a9c0 d53c
00000050: 135a d73b a37e 7a3c 8f48 783c b8e3 f2bb
00000060: e45f cdbb 849a 103c 059f fbba 4f08 673c
00000070: fb16 1d3c 6987 5d3c 6754 df3b 2e6f aabb

layer2.1.running_mean f4 [32]
-0.05617922 -0.14871769 -0.52616495 0.25884226 -0.06724015 -0.16896728 0.078726426 0.037655998
0.16355981 -0.005548679 0.00946309 0.10720761 -0.48733866 0.042770386 -0.27631176 -0.1152352
-0.13366576 -0.07572827 -0.35487795 -0.29061016 -0.22935891 0.07220519 -0.3653219 0.23309714
0.020332266 -0.101570494 0.25548512 -0.30082747 -0.007126368 -0.80063456 -0.31108057 0.25479054
00000000: 2f1c 66bd 7349 18be bfb2 06bf f986 843e
00000010: 34b5 89bd c205 2dbe 523b a13d 2d3d 1a3d
00000020: 397c 273e b1d1 b5bb 140b 1b3c aa8f db3d
00000030: 7484 f9be 0030 2f3d bc78 8dbe 6f00 ecbd
00000040: addf 08be 6c17 9bbd 90b2 b5be dbca 94be
00000050: 10dd 6abe 51e0 933d 790b bbbe 04b1 6e3e
00000060: da8f a63c 3104 d0bd f2ce 823e 0f06 9abe
00000070: 4f84 e9bb 63f6 4cbf f445 9fbe e873 823e

layer2.1.running_var f4 [32]
0.14568233 0.19394664 0.19793727 0.09461857 0.09004359 0.14782296 0.071641065 0.18566264
0.2173287 0.12793474 0.08317382 0.24791403 0.28425932 0.13240671 0.5159469 0.2129709
0.150936 0.095791295 0.15836696 0.09039284 0.17856908 0.101645276 0.15525275 0.14369324
0.10966418 0.06517116 0.11643715 0.17653608 0.061761897 0.52624685 0.14791058 0.13422859
00000000: c02d 153e f399 463e 11b0 4a3e 61c7 c13d
00000010: c668 b83d e75e 173e 8db8 923d 591e 3e3e
00000020: 6a8b 5e3e 5301 033e 0957 aa3d 2ddd 7d3e
00000030: 708a 913e a095 073e 1915 043f 0b15 5a3e
00000040: f78e 1a3e 3a2e c43d f32a 223e e21f b93d
00000050: d0da 363e 662b d03d 94fa 1e3e 5224 133e
00000060: 9d97 e03d 7578 853d 9a76 ee3d e0c5 343e
00000070: 0bfa 7c3d 1db8 063f df75 173e 3873 093e

layer3.0.weight f4 [64, 32, 3]
0.10270236 -0.047417704 0.10092603 0.069162495 0.0661189 -0.038472023 0.060568284 -0.1114252
-0.10339338 0.0865941 -0.09122649 0.07606107 -0.07261721 0.04595303 0.09626174 0.030426716
-0.02382575 -0.078633755 0.09426688 0.05846941 -0.00971735 -0.06515543 -0.034869798 -0.08112922
-0.09923072 0.003682873 0.058137096 0.05144725 0.010112065 0.020745521 -0.05439453 -0.09016789
-0.08404034 -0.04334432 0.041217048 -0.08019428 -0.05060581 0.052323792 -0.05325769 0.05659025
0.06186463 -0.089616425 0.10292073 -0.07804956 0.11734775 0.03659868 0.065474294 -0.082545586
-0.020855788 0.030696789 0.059930235 -0.052789696 0.025869086 0.0139823025 -0.10644738 0.015163307
-0.023505438 0.0035523176 0.010004912 0.06660196 -0.063870385 -0.04556297 0.08200892 -0.01735467
-0.09483132 -0.03672436 0.091195785 -0.067012325 0.011062174 -0.019693466 -0.057018287 -0.030253781
0.03854247 0.104701675 -0.08299276 0.11895644 -0.08088554 0.060202137 0.013972642 0.02803797
0.033118967 -0.0113313 -0.067725256 -0.008302595 -0.073061705 -0.010238541 -0.05851523 -0.0055484027
0.037127793 -0.1251621 0.040916644 -0.009217094 -0.002671468 0.0083230985 -0.023913987 -0.027724404
0.10314815 0.017590415 -0.032362204 0.04396324 0.10683886 0.030892178 0.018160908 -0.06175365
0.059848953 -0.024339648 0.09172508 0.07136582 0.033693068 0.05777505 -0.08840168 0.04141364
0.00018752525 -0.10891176 0.036263607 -0.06199042 0.04742244 0.00641886 -0.067618266 -0.10336977
0.094425716 0.027802214 0.07796567 -0.1108577 0.0620789 -0.08563634 -0.10444317 0.037397567
-0.032618206 -0.10406571 -0.051256415 -0.016827663 -0.09589177 0.0836005 0.0020437774 -0.060972735
-0.09689889 0.010761916 0.0046432936 -0.020717965 0.08529107 -0.030416163 -0.10443036 0.03501349
0.0068130624 -0.01956447 -0.069504 0.044853117 0.09054753 -0.06919564 -0.07294342 0.03151731
-0.028962146 -0.008478652 -0.013003987 0.053530496 -0.08433206 0.028356 0.018041149 -0.07052947
-0.0154078435 0.017635595 0.05880808 0.03792222 -0.08165407 -0.0558287 0.0039281845 0.01021456
0.05184405 0.036045324 -0.03636259 0.031931292 0.087230474 0.0033854228 0.05729861 -0.03351169
0.020398574 -0.009224794 -0.075902246 0.07674674 0.03670207 -0.05260326 -0.070625626 -0.088663384
-0.108317725 -0.11179575 -0.0024845346 -0.03783833 0.093639165 -0.02427807 0.023354571 -0.08582734
-0.053149384 0.09472256 -0.08466729 0.066455476 0.020964451 -0.03373492 -0.077115424 -0.08895254
0.09427879 0.011442981 -0.02136684 0.032364197 -0.057113416 0.08516474 -0.061708234 0.082829416
0.082065105 -0.0018543787 0.04113575 -0.03977811 -0.062143736 0.100211404 0.091423824 -0.09542376
-0.0764159 0.008272627 0.06697823 0.10471579 -0.01713934 -0.059003837 0.098719135 -0.03801907
-0.063170195 -0.08116384 0.078103594 0.08971875 0.02280847 0.018194985 -0.0024981038 -0.04254807
-0.07955946 0.07483345 0.074944645 -0.042687293 -0.020898618 0.03167645 -0.0520865 -0.004504806
-0.042126667 0.082226224 -0.07724002 -0.019632997 -0.08233523 -0.091552734 -0.036306966 0.082388826
0.042516157 0.07240643 0.060834296 0.052479632 0.09048262 -0.02472633 0.05965602 -0.03301157
00000000: 9d55 d23d 1139 42bd 4eb2 ce3d 11a5 8d3d
00000010: 5969 873d d794 1dbd 7316 783d e532 e4bd
00000020: e9bf d3bd 3f58 b13d f4d4 babd e8c5 9b3d
00000030: 55b8 94bd 3f39 3c3d e024 c53d 7341 f93c
00000040: 382e c3bc bc0a a1bd fe0e c13d 9f7d 6f3d
00000050: 8535 1fbc 3670 85bd a2d3 0ebd 1427 a6bd
00000060: 7a39 cbbd 5b5c 713b 2a21 6e3d 5aba 523d
00000070: 13ad 253c 83f2 a93c cccc 5ebd f1a9 b8bd
00000080: 571d acbd d089 31bd 35d3 283d e63c a4bd
00000090: 0a48 4fbd 7951 563d bc24 5abd 2ecb 673d
000000a0: c465 7d3d d188 b7bd 1bc8 d23d 73d8 9fbd
000000b0: 0454 f03d 7fe8 153d 6317 863d a90d a9bd
000000c0: c2d9 aabc d577 fb3c 6879 753d 023a 58bd
000000d0: 68eb d33c 0716 653c 1501 dabd 856f 783c
000000e0: 7a8e c0bc 00ce 683b a4eb 233c 9c66 883d
000000f0: 7ace 82bd 3da0 3abd 4bf4 a73d 622b 8ebc
00000100: ec36 c2bd 486c 16bd dbc4 ba3d c23d 89bd
00000110: 1f3e 353c 3154 a1bc 028c 69bd c7d6 f7bc
00000120: b6de 1d3d d56d d63d 1cf8 a9bd 6f9f f33d
00000130: 51a7 a5bd 8496 763d 82ed 643c e3af e53c
00000140: c1a7 073d eba6 39bc 8ab3 8abd 9b07 08bc
00000150: 60a1 95bd 8ebf 27bc aaad 6fbd 60cf b5bb
00000160: 5013 183d 7e2a 00be 3698 273d 4b03 17bc
00000170: cc13 2fbb 9b5d 083c 44e7 c3bc 4a1e e3bc
00000180: 563f d33d c619 903c 3b8e 04bd cc12 343d
00000190: 55ce da3d 9811 fd3c 2fc6 943c 65f1 7cbd
000001a0: 2d24 753d f163 c7bc 5cda bb3d 3e28 923d
000001b0: be01 0a3d 88a5 6c3d f10b b5bd 59a1 293d
000001c0: 6da2 4439 210d dfbd 2689 143d abe9 7dbd
000001d0: 083e 423d 4d55 d23b 727b 8abd 88b3 d3bd
000001e0: 4562 c13d 78c1 e33c 77ac 9f3d 5d09 e3bd
000001f0: 7246 7e3d 1b62 afbd 4de6 d5bd 312e 193d
00000200: ab9a 05bd 6720 d5bd 3ff2 51bd 2bda 89bc
00000210: e862 c4bd bd36 ab3d e5f0 053b 8cbe 79bd
00000220: ed72 c6bd bf52 303c c526 983b b9b8 a9bc
00000230: 16ad ae3d 512b f9bc 96df d5bd 4e6a 0f3d
00000240: 1c40 df3b ab45 a0bc 1d58 8ebd e7b7 373d
00000250: fc70 b93d 72b6 8dbd 5c63 95bd 4b18 013d
00000260: 0642 edbc 0bea 0abc ad0e 55bc cb42 5b3d
00000270: 49b6 acbd d84a e83c 08cb 933c c171 90bd
00000280: 2e71 7cbc 8678 903c bee0 703d 5454 1b3d
00000290: 403a a7bd a3ac 64bd 00b8 803b f85a 273c
000002a0: 6d5a 543d 43a4 133d f0f0 14bd 63ca 023d
000002b0: e4a5 b23d f8dd 5d3b f3b1 6a3d 8e43 09bd
000002c0: e91a a73c 9723 17bc a372 9bbd 652d 9d3d
000002d0: e954 163d 8476 57bd 2ba4 90bd 2695 b5bd
000002e0: afd5 ddbd 2cf5 e4bd 93d3 22bb 5dfc 1abd
000002f0: e4c5 bf3d cee2 c6bc 1652 bf3c 3fc6 afbd
00000300: 2bb3 59bd e7fd c13d 0b66 adbd cf19 883d
00000310: a4bd ab3c a12d 0abd b1ee 9dbd c02c b6bd
00000320: 3d15 c13d 577b 3b3c 8309 afbc 5290 043d
00000330: c2ef 69bd da6a ae3d c6c1 7cbd 78a2 a93d
00000340: c011 a83d a00e f3ba f67d 283d 5fee 22bd
00000350: 6e8a 7ebd a33b cd3d 6a3c bb3d 886d c3bd
00000360: f07f 9cbd ea89 073c e22b 893d 3b75 d63d
00000370: cd67 8cbc 02ae 71bd 422d ca3d e2b9 1bbd
00000380: 605f 81bd 3a39 a6bd c7f4 9f3d 77be b73d
00000390: d4d8 ba3c a60d 953c 3ab7 23bb e346 2ebd
000003a0: 12f0 a2bd 4842 993d 947c 993d dfd8 2ebd
000003b0: 9433 abbc 2abf 013d a758 55bd 0d9d 93bb
000003c0: 038d 2cbd 3966 a83d 0430 9ebd 61d5 a0bc
000003d0: 609f a8bd 0080 bbbd 9db6 14bd 79bb a83d
000003e0: 6c25 2e3d d349 943d 622d 793d e2f4 563d
000003f0: f44e b93d df8e cabc df59 743d 2437 07bd

layer3.0.bias f4 [64]
-0.024506478 0.031630915 7.189773e-05 -0.00019539686 0.0049255276 -0.00025422464 4.8192476e-05 0.016293598
-0.017393999 -0.0015978591 0.014184656 -0.00013757491 -7.927886e-05 0.00010670148 0.027726809 -0.012138109
-0.0016464911 0.0010896322 -0.0020638513 0.003609336 0.015032345 0.0002976392 -0.00048643127 -0.022826215
-0.008288943 -0.029280424 0.0027820887 -0.0009833236 -0.017650867 -0.0017678839 -0.019512823 1.315273e-05
0.011304188 0.00018693416 0.00047704382 0.032542903 0.010424734 1.3395594e-05 0.028195672 0.0003062851
0.03638009 0.019894697 -0.030231176 -0.00028090263 0.00012504206 0.03766589 0.00042071095 -0.023484506
0.0006164909 0.0012640683 0.0084648505 -0.0004100665 -4.163565e-06 0.021698732 0.00037480876 -6.8157125e-05
-0.00027463253 -0.021183662 -0.006500853 0.03701107 0.008569186 0.037115984 -0.007840965 0.00012363085
00000000: cfc1 c8bc 6b8f 013d cdc7 9638 72e3 4cb9
00000010: 5266 a13b 7449 85b9 4722 4a38 277a 853c
00000020: dc7d 8ebc 416f d1ba c266 683c fc41 10b9
00000030: 8442 a6b8 ecc4 df38 5523 e33c ebde 46bc
00000040: 13cf d7ba fdd1 8e3a ae41 07bb 9c8a 6c3b
00000050: 3a4a 763c 750c 9c39 b307 ffb9 0bfe babc
00000060: 59ce 07bc 80dd efbc b453 363b dde2 80ba
00000070: 8d98 90bc 57b8 e7ba 5bd9 9fbc 8caa 5c37
00000080: 3335 393c c203 4439 bd1b fa39 b54b 053d
00000090: 81cc 2a3c a3bd 6037 9cfa e63c e494 a039
000000a0: 4a03 153d 34fa a23c 5fa7 f7bc 1d46 93b9
000000b0: b91d 0339 8c47 1a3d de92 dc39 9462 c0bc
000000c0: 019c 213a 18af a53a 28b0 0a3c 32fe d6b9
000000d0: c0b4 8bb6 8ac1 b13c fb81 c439 94ef 8eb8
000000e0: 8efc 8fb9 5c89 adbc 1c05 d5bb eb98 173d
000000f0: c565 0c3c ee06 183d 6477 00bc e7a2 0139

layer3.1.weight f4 [64]
1.0188607 1.014965 1.011623 1.0061295 0.99288666 0.9820739 1.0025009 1.0057749
1.0375233 0.98788595 0.9876277 0.984091 0.9984018 0.9973855 0.989032 0.9970475
1.0008303 0.99864596 1.0134254 0.99672186 1.0041127 1.0168604 1.0108341 1.0226524
0.9790596 0.9841339 0.98554957 0.9907013 1.0155376 0.99750274 1.0166079 1.0002747
0.9830931 1.0027398 0.9877841 1.013125 1.0126123 1.0028191 0.99469006 1.0055676
1.016312 1.0065119 1.0046607 1.0059581 1.0024805 0.995339 1.0002869 1.0035454
1.0086561 0.9876016 0.9970108 1.0330797 1.0297637 0.9897808 1.0028679 1.0168073
1.013674 1.0210805 0.9793485 0.9778588 0.9806808 1.008706 0.98738605 0.98943245
00000000: 076a 823f 60ea 813f dd7c 813f dac8 803f
00000010: d22d 7e3f 3269 7b3f f351 803f 3bbd 803f
00000020: 90cd 843f 18e6 7c3f 2bd5 7c3f 63ed 7b3f
00000030: 4397 7f3f a854 7f3f 3331 7d3f 813e 7f3f
00000040: 351b 803f 43a7 7f3f ecb7 813f 2a29 7f3f
00000050: c486 803f 7b28 823f 0363 813f 46e6 823f
00000060: a6a3 7a3f 33f0 7b3f fa4c 7c3f 9a9e 7d3f
00000070: 23fd 813f 575c 7f3f 3520 823f 0009 803f
00000080: fdab 7b3f c759 803f 6bdf 7c3f 14ae 813f
00000090: 489d 813f 605c 803f 02a4 7e3f 70b6 803f
000000a0: 8316 823f 62d5 803f b998 803f 3cc3 803f
000000b0: 4851 803f 89ce 7e3f 6709 803f 2d74 803f
000000c0: a51b 813f 75d3 7c3f 1a3c 7f3f f53b 843f
000000d0: 4ccf 833f 4662 7d3f fa5d 803f be26 823f
000000e0: 12c0 813f c4b2 823f 95b6 7a3f f454 7a3f
000000f0: e60d 7b3f 471d 813f 55c5 7c3f 724b 7d3f

layer3.1.bias f4 [64]
0.0014149481 -0.0028060724 0.030893637 0.021596292 -0.014074102 -0.014140582 0.002158888 0.012008647
0.004971431 0.004899794 -0.006822058 -0.002615223 0.013880976 -0.010415346 -0.008005394 -0.01232771
-0.017370252 0.0025642838 0.027888045 -0.00050032814 -0.004491169 -0.0033336524 0.028031357 0.017187087
-0.010155932 0.0030543706 -0.004825783 -0.013712876 0.018402651 0.004462602 0.007283726 0.013483816
0.013318217 0.020230714 0.003184503 0.022050189 -0.0009384257 -0.009548056 -0.0036673313 -0.009758357
0.019377543 0.011133454 0.0109267505 0.009325333 -0.006869117 0.005761283 0.0062385905 0.010246105
0.009015717 0.012949829 0.0069884504 0.026491107 0.0059915404 -0.02088975 0.010751754 0.026176743
0.0050600288 0.015625888 0.0027228661 -0.005609452 -0.012813158 0.009137879 -0.00924651 0.0005648094
00000000: c875 b93a 15e6 37bb a714 fd3c b5ea b03c
00000010: 1097 66bc e6ad 67bc 217c 0d3b ebbf 443c
00000020: 63e7 a23b 738e a03b 928b dfbb 2964 2bbb
00000030: 086d 633c 21a5 2abc 0e29 03bc 2afa 49bc
00000040: 0f4c 8ebc 8b0d 283b 7875 e43c 7428 03ba
00000050: a82a 93bb 6879 5abb 04a2 e53c efcb 8c3c
00000060: 1165 26bc d62b 483b 9a21 9ebb f8ab 60bc
00000070: 28c1 963c 053b 923b 52ac ee3b 39eb 5c3c
00000080: a734 5a3c e2ba a53c 18b3 503b 99a2 b43c
00000090: af00 76ba 736f 1cbc 9c57 70bb 84e1 1fbc
000000a0: a7bd 9e3c 1769 363c 1d06 333c 48c9 183c
000000b0: 5416 e1bb 25c9 bc3b 176d cc3b 47df 273c
000000c0: a8b6 133c 852b 543c 5fff e43b e103 d93c
000000d0: af54 c43b fb20 abbc 2028 303c 9c70 d63c
000000e0: 99ce a53b dd01 803c 1d72 323b 7ecf b7bb
000000f0: 48ee 51bc 0bb7 153c ad7e 17bc b80f 143a

layer3.1.running_mean f4 [64]
-0.0979542 -0.21560891 -0.08192887 -0.50710076 -0.083731115 -0.5090589 -0.11993507 -0.41616446
-0.30624536 0.23535708 -0.36260852 0.27071214 0.30067608 0.6651543 -0.06775547 -0.030752765
0.18988235 -0.08797306 -0.60298234 -0.039704256 -0.38944274 0.50546736 -0.7158626 -0.05428951
0.29377472 0.5079278 -0.19084673 -0.27336574 -0.012158688 0.27131298 -0.25487408 -0.4471286
-0.034802012 0.10005497 0.002646366 -0.21971521 0.21432321 0.64877456 0.1347969 0.14233139
-0.3018376 0.05473868 -0.1492271 -0.09249319 -0.1415221 -0.11109914 0.23639625 -0.48162138
-0.21178263 -0.25456122 0.6068695 -0.589419 -0.3723096 0.1948376 0.2795488 0.02068156
0.22471277 0.14289847 -0.1356444 -0.07691569 0.18316957 -0.04703919 0.7243911 -0.19223438
00000000: 369c c8bd 95c8 5cbe 53ca a7bd 5bd1 01bf
00000010: 387b abbd af51 02bf 85a0 f5bd 8213 d5be
00000020: 31cc 9cbe 7201 713e d3a7 b9be c89a 8a3e
00000030: 37f2 993e 8d47 2a3f 61c3 8abd 39ed fbbc
00000040: 8570 423e 382b b4bd 0d5d 1abf eea0 22bd
00000050: 0a65 c7be 4f66 013f c542 37bf ad5e 5ebd
00000060: a469 963e 8e07 023f 536d 43be 98f6 8bbe
00000070: 3c35 47bc 89e9 8a3e db7e 82be 0aee e4be
00000080: 8e8c 0ebd 9fe9 cc3d a76e 2d3b 06fd 60be
00000090: 8b77 5b3e 1716 263f 3308 0a3e 52bf 113e
000000a0: 758a 9abe ab35 603d fdce 18be 126d bdbd
000000b0: 2beb 10be f287 e3bd dc11 723e 1497 f6be
000000c0: 8cdd 58be d955 82be cd5b 1b3f 2ae4 16bf
000000d0: 5d9f bebe 8283 473e 0521 8f3e 606c a93c
000000e0: 1b1b 663e fa53 123e 5ee6 0abe f985 9dbd
000000f0: ce90 3b3e 2aac 40bd b271 393f 17d9 44be

layer3.1.running_var f4 [64]
0.12154848 0.23661369 0.23758084 0.62675005 0.15666853 0.1451864 0.13118814 0.16957939
0.12125614 0.2830117 0.13108519 0.20757121 0.23501109 0.29277954 0.25050515 0.107040584
0.18753897 0.33262548 0.39486933 0.12737411 0.20222954 0.25894743 0.26015824 0.12858687
0.25015438 0.32412115 0.23740903 0.14430349 0.117045335 0.12563883 0.09112915 0.45729658
0.1393449 0.23808344 0.41387376 0.36288312 0.3944035 0.29616418 0.11668411 0.15746598
0.26065964 0.34317964 0.14481841 0.11193254 0.113126725 0.18950698 0.12177115 0.34502563
0.118323654 0.16308208 0.34379297 0.5116655 0.101765096 0.1974582 0.13124682 0.28138512
0.10795497 0.22360443 0.19303252 0.15711302 0.13271643 0.1621036 0.11235051 0.13209063
00000000: 69ee f83d dc4a 723e 6448 733e b172 203f
00000010: b76d 203e beab 143e 2f56 063e 38a6 2d3e
00000020: 2455 f83d e9e6 903e 323b 063e 8c8d 543e
00000030: bfa6 703e 33e7 953e 3642 803e 1838 db3d
00000040: 370a 403e e34d aa3e 502c ca3e 5c6e 023e
00000050: 4315 4f3e c294 843e 7633 853e 47ac 033e
00000060: 3c14 803e 35f3 a53e 5a1b 733e 4bc4 133e
00000070: 77b5 ef3d 77a7 003e eba1 ba3d c722 ea3e
00000080: 6eb0 0e3e 25cc 733e 43e7 d33e d1cb b93e
00000090: 41ef c93e d5a2 973e 14f8 ee3d c33e 213e
000000a0: 2e75 853e 3eb5 af3e 474b 143e e33c e53d
000000b0: fcae e73d 1e0e 423e 2763 f93d 33a7 b03e
000000c0: ac53 f23d fdfe 263e a205 b03e 83fc 023f
000000d0: 386a d03d 7b32 4a3e 9165 063e b611 903e
000000e0: 7f17 dd3d 8ff8 643e 51aa 453e 3ce2 203e
000000f0: d1e6 073e 7cfe 253e 0618 e63d c442 073e

layer4.0.weight f4 [128, 64, 3]
-0.031748414 -0.021067893 0.03709604 -0.04651221 -0.03149429 0.06860435 0.021828655 0.014763054
0.023563275 0.048232608 0.04163676 0.040915746 -0.039391242 -0.062328946 0.06180821 0.060806707
-0.060160775 -0.037207022 0.026736055 0.062394984 0.014460788 -0.009600351 -0.02454309 0.02856498
0.062385168 0.048624963 0.04892219 0.060175 0.034474213 -0.046455998 0.003934414 -0.03559928
0.032021124 -0.046912026 -0.07062761 0.056614928 0.039477147 0.010046815 0.059408706 0.017972002
-0.03910854 0.04852895 -0.011340089 0.0042027025 -0.0016493555 0.005252642 -0.0025865168 -0.069607764
-0.018285459 0.039379995 -0.00713743 -0.06624259 0.04594402 -0.0106682405 -0.0027090725 -0.04746102
0.046829276 0.025827903 0.06314832 -0.048986748 0.060009878 0.023705391 0.00086906506 0.013859005
-0.009085572 0.032959204 0.004246746 -0.03321784 0.06016579 -0.027404614 -0.024895577 0.047255993
0.044441365 0.0029476588 -0.0014990637 -0.004446337 0.0013206801 -0.018152433 -0.065665 -0.036320012
-0.04304163 0.04999052 -0.058719844 0.035967905 0.03780366 0.06968704 0.066990286 0.03157436
0.020334445 -0.06852579 0.027578678 0.0112102665 -0.06656959 0.017136246 -0.04094652 0.017104264
-0.055812523 -0.034698144 0.05548356 0.051422928 0.07045786 0.043737773 0.0034033004 0.06379717
0.04635099 -0.0199828 -0.061021835 -0.051832657 -0.04086917 0.04064105 -0.023434613 -0.030624801
0.01967223 -0.047947057 -0.07018656 -0.042245425 0.036547907 0.05857089 0.043948524 -0.016493192
-0.06863112 -0.016831 0.051309224 -0.010067566 -0.05293867 0.041705016 0.006575071 0.042781357
0.0024916714 -0.010823329 0.024141716 -0.016402023 -0.024938721 0.051184095 0.055446427 -0.05587084
-0.032195684 0.0037825708 -0.049045116 -0.058778428 0.02158877 -0.0042214603 0.018377274 -0.021796731
0.007751559 0.024041736 -0.009854228 0.009590406 0.041786447 -0.039183237 0.05706053 0.066199444
0.056019455 -0.018882992 0.052083608 0.043823842 0.018690547 -0.04801412 -0.04831409 -0.04015333
0.05279242 -0.015125173 0.03743429 0.045293994 -0.0012778868 0.0370809 0.05067262 0.047170334
0.0018545241 0.075006306 -0.04870585 0.044150773 0.051689938 0.034049068 -0.056802895 -0.055937003
0.029405935 -0.005729764 0.029932644 0.03682144 0.05219132 0.07883655 -0.059459444 -0.0630114
-0.03691833 0.006303246 -0.051422544 -0.053607464 0.07014222 0.031705234 -0.0023741245 0.025478145
-0.02771324 -0.059171412 -0.03335895 0.048261095 -0.035580635 -0.007825732 -0.07112366 -0.012367782
-0.04690426 -0.04708317 0.025213685 -0.0070727915 0.0121878125 -0.04097549 0.041172743 -0.03148736
0.012342945 0.012968773 -0.008587927 0.008553202 0.03066098 -0.03120609 -0.007953852 0.040779892
0.018764677 -0.016059557 -0.032218505 0.009995019 -0.010108973 0.01739195 -0.0072953645 0.05748576
0.0027372842 -0.05290522 -0.041908212 -0.039103653 0.023917377 0.04171651 -0.056368135 0.029275168
0.058929443 0.024126254 0.022638423 -0.046644878 -0.040322274 -0.028702779 0.03682345 -0.022117695
-0.01968883 -0.06271697 -0.0364241 0.065738805 0.04755015 -0.043248236 -0.010727642 -0.049740504
0.016262574 0.0070038238 -0.065930136 0.04098306 0.028325064 0.06987817 -0.03686434 0.044134457
00000000: a00a 02bd 9396 acbc 04f2 173d 9683 3ebd
00000010: 2800 01bd 7080 8c3d 02d2 b23c bde0 713c
00000020: c507 c13c 8e8f 453d 4f8b 2a3d 4597 273d
00000030: b658 21bd a34c 7fbd 9b2a 7d3d 7410 793d
00000040: 256b 76bd 6466 18bd 9205 db3c e291 7f3d
00000050: f1ec 6c3c ca4a 1dbc 970e c9bc 1b01 ea3c
00000060: 9787 7f3d f82a 473d a262 483d 107a 763d
00000070: d534 0d3d a548 3ebd 42ec 803b 8dd0 11bd
00000080: 9528 033d d326 40bd 35a5 90bd 0ee5 673d
00000090: cab2 213d 659b 243c 8b56 733d 053a 933c
000000a0: 4730 20bd 4bc6 463d c8cb 39bc d3b6 893b
000000b0: 302f d8ba 5b1e ac3b 8d82 29bb 848e 8ebd
000000c0: 63cb 95bc eb4c 213d 1ae1 e9bb 32aa 87bd
000000d0: cc2f 3c3d d8c9 2ebc b28a 31bb 7d66 42bd
000000e0: 0ed0 3f3d 0a95 d33c e853 813d 54a6 48bd
000000f0: ebcc 753d cf31 c23c f8d1 633a e110 633c
00000100: a7db 14bc 3b00 073d 4a28 8b3b 6e0f 08bd
00000110: 6770 763d a47f e0bc cff1 cbbc 808f 413d
00000120: 2608 363d 822d 413b 3b7c c4ba 94b2 91bb
00000130: ac1a ad3a 69b4 94bc 5f7b 86bd 4bc4 14bd
00000140: 6c4c 30bd dcc2 4c3d 3884 70bd 1553 133d
00000150: 03d8 1a3d 14b8 8e3d 3432 893d 1e54 013d
00000160: 6c94 a63c 4057 8cbd aeec e13c 44ab 373c
00000170: a355 88bd 5061 8c3c 8ab7 27bd 3e1e 8c3c
00000180: ac9b 64bd a41f 0ebd bb42 633d d9a0 523d
00000190: 364c 903d 6126 333d e809 5f3b 17a8 823d
000001a0: 89da 3d3d f8b2 a3bc 08f2 79bd 7b4e 54bd
000001b0: 6e66 27bd 3b77 263d f2f9 bfbc dde0 fabc
000001c0: a827 a13c 2264 44bd f9bd 8fbd 8a09 2dbd
000001d0: 42b3 153d 08e8 6f3d 5e03 343d bb1c 87bc
000001e0: 798e 8cbd 2ae1 89bc 9f29 523d 6ff2 24bc
000001f0: 38d6 58bd e1d2 2a3d b173 d73b 813b 2f3d
00000200: 4f4b 233b 5554 31bc d9c4 c53c 895d 86bc
00000210: 4a4c ccbc 6aa6 513d cb1b 633d d2d8 64bd
00000220: 9fdf 03bd 02e5 773b 88e3 48bd a6c1 70bd
00000230: efda b03c 2d54 8abb f08b 963c 0f8f b2bc
00000240: ca00 fe3b 2df3 c43c a173 21bc 1421 1d3c
00000250: 4428 2b3d 9a7e 20bd 4db8 693d 9393 873d
00000260: a874 653d 81b0 9abc 9f55 553d a180 333d
00000270: eb1c 993c 74aa 44bd ffe4 45bd d177 24bd
00000280: dd3c 583d 93cf 77bc b354 193d 3286 393d
00000290: c47e a7ba 24e2 173d 188e 4f3d ae35 413d
000002a0: 8113 f33a e89c 993d c97f 47bd 71d7 343d
000002b0: d4b8 533d 0977 0b3d 27aa 68bd 331e 65bd
000002c0: b7e4 f03c bec0 bbbb 4e35 f53c 14d2 163d
000002d0: 91c6 553d 0f75 a13d bf8b 73bd 1f0c 81bd
000002e0: ad37 17bd 768b ce3b 72a0 52bd 8093 5bbd
000002f0: b9a6 8f3d 59dd 013d 3397 1bbb 8bb7 d03c
00000300: e006 e3bc b95d 72bd 65a3 08bd 6dad 453d
00000310: 00bd 11bd 8037 00bc 48a9 91bd 3da2 4abc
00000320: ae1e 40bd 48da 40bd ee8c ce3c e0c2 e7bb
00000330: 64af 473c ead5 27bd c0a4 283d e4f8 00bd
00000340: 103a 4a3c fa7a 543c 60b4 0cbc bb22 0c3c
00000350: bc2c fb3c eaa3 ffbc e050 02bc d108 273d
00000360: 61b8 993c 558f 83bc 8df7 03bd 26c2 233c
00000370: 1ba0 25bc 9079 8e3c f40d efbb 3076 6b3d
00000380: 0264 333b 25b3 58bd f2a7 2bbd 272b 20bd
00000390: 60ee c33c eede 2a3d 46e2 66bd 7ad2 ef3c
000003a0: 0060 713d 6ca4 c53c 3774 b93c b30e 3fbd
000003b0: f828 25bd 1722 ebbc 30d4 163d 2b30 b5bc
000003c0: 784a a1bc c171 80bd 7031 15bd 11a2 863d
000003d0: f2c3 423d 1025 31bd fec2 2fbc b3bc 4bbd
000003e0: 1739 853c 5580 e53b 6106 87bd dadd 273d
000003f0: f709 e83c 491c 8f3d 10ff 16bd 55c6 343d

layer4.0.bias f4 [128]
0.0016436074 -0.0006108303 0.00040542177 0.000119996526 -0.00061935146 0.00326093 0.010071365 -0.013341336
-0.003685377 -0.00018921797 -0.00027650813 0.0004398966 -0.0105114225 -0.0004275853 -3.451961e-05 0.0020484123
0.00010730184 0.013237925 -0.00027777173 -0.0009741255 -1.9893689e-05 0.00041216175 -0.000244825 0.00077737775
1.1740733e-06 -0.00018950118 6.9185706e-05 -0.0007400497 0.0004004829 -0.00065580255 -0.00069980556 0.0052186586
-0.0007168892 -0.004759734 0.00029761868 -0.0074893353 0.0131776165 0.013080118 0.0064052674 -0.0006391539
8.49744e-05 0.0017824951 0.013912657 -0.00013909773 -0.0002859364 0.00040153626 -5.236062e-05 -3.8633207e-05
-0.000103031125 -0.00010949374 0.014461101 7.060026e-05 -0.000105760526 -0.011567545 0.00034797305 -0.000104570354
-0.008928031 -0.002982825 -1.1964226e-05 0.009591405 -0.00013782074 -0.0006877701 -0.0013607417 -0.009870093
0.00089781743 0.0107089225 -1.0815742e-05 6.295265e-05 6.44916e-05 0.00016961335 0.00029684242 0.00039879195
-0.00022253451 -0.0006364648 0.009200184 -3.223493e-05 -0.013869185 -0.0049271304 0.004172402 0.0006554089
0.0009575684 0.0009128119 0.0010866871 -0.00032862122 0.0007941022 -0.0010225378 -0.00045889194 -0.0047324896
-6.69107e-05 -0.00021645357 5.3225554e-05 -0.0009830022 0.0001790563 0.00017120596 0.010229858 0.00086271367
-0.00017998481 -0.0044155465 0.000116360214 0.0037759927 -0.011053029 -0.00042970106 0.00070745015 -0.00022246571
0.0010010917 -1.803871e-05 0.0035045547 0.00019820602 -0.010233802 0.00014545587 -0.014368991 0.00043244666
-0.008763763 1.427143e-05 0.00018971747 0.00078910316 -8.739365e-05 4.966975e-05 -0.004937264 -0.00017025006
-0.009762407 0.00011525606 -0.0003844908 0.0006971408 0.00012053963 -0.013942723 -0.00019844408 -0.0008063554
00000000: 506e d73a 2120 20ba ca8e d439 a5a6 fb38
00000010: f95b 22ba 54b5 553b 5e02 253c 9e95 5abc
00000020: 5e86 71bb d068 46b9 4bf8 90b9 eca1 e639
00000030: 1a38 2cbc 872d e0b9 26c9 10b8 a83e 063b
00000040: 3d07 e138 e2e3 583c e4a1 91b9 755c 7fba
00000050: 5fe1 a6b7 6a17 d839 db5b 80b9 f0c8 4b3a
00000060: da94 9d35 d6b4 46b9 cb17 9138 e5ff 41ba
00000070: e8f7 d139 2aea 2bba 2873 37ba 4801 ab3b
00000080: 9fed 3bba 8bf7 9bbb b409 9c39 1969 f5bb
00000090: eee6 573c fe4d 563c 47e3 d13b e48c 27ba
000000a0: 4934 b238 9ca2 e93a eaf1 633c c3da 11b9
000000b0: bce9 95b9 4985 d239 ca9d 5bb8 170a 22b8
000000c0: 6a12 d8b8 01a0 e5b8 41ee 6c3c 3a0f 9438
000000d0: c0cb ddb8 cd85 3dbc 2770 b639 c84c dbb8
000000e0: e046 12bc 807b 43bb f6b9 48b7 4525 1d3c
000000f0: f983 10b9 784b 34ba ea5a b2ba 2cb6 21bc
00000100: 825b 6b3a 7a74 2f3c 4275 35b7 7205 8438
00000110: aa3f 8738 3dda 3139 84a1 9b39 f314 d139
00000120: 2758 69b9 6ed8 26ba 5ebc 163c fe33 07b8
00000130: 943b 63bc c473 a1bb a5b8 883b bfcf 2b3a
00000140: 5405 7b3a c549 6f3a 2b6f 8e3a cb4a acb9
00000150: 4c2b 503a ad06 86ba 6f97 f0b9 0013 9bbb
00000160: 6952 8cb8 d0f7 62b9 813e 5f38 15d8 80ba
00000170: 0fc1 3b39 c085 3339 229b 273c bc27 623a
00000180: 4eba 3cb9 4ab0 90bb 6a06 f438 a576 773b
00000190: c417 35bc 8049 e1b9 2d74 393a af45 69b9
000001a0: 1037 833a d651 97b7 acac 653b 86d5 4f39
000001b0: adab 27bc 8385 1839 eb6b 6bbc 02ba e239
000001c0: e395 0fbc 536f 6f37 e5ee 4639 d1db 4e3a
000001d0: 1c47 b7b8 7d54 5038 c6c8 a1bb 2785 32b9
000001e0: 81f2 1fbc a0b5 f138 7b95 c9b9 54c0 363a
000001f0: 39ca fc38 0570 64bc 6d15 50b9 9861 53ba

layer4.1.weight f4 [128]
0.9913569 1.0068147 0.97593665 1.0014654 1.0031492 0.97966385 1.0007911 0.99757224
0.98843867 0.9859955 1.0006192 1.0053253 0.9838501 1.0022976 0.9933906 0.9971236
0.99436843 0.98939997 0.9979999 0.9919422 0.9912164 0.99082935 0.9940928 0.9870601
0.98045677 0.98901904 0.99784464 0.9861498 0.99213845 1.0015724 0.9881601 0.9956984
0.99010944 0.99283195 0.991282 0.9876718 0.9950274 0.9880473 0.9815208 0.9909226
0.9874315 1.0022963 0.9847315 1.0152874 0.9899805 0.994535 0.99193925 1.0009487
0.9850634 1.002996 1.0073662 0.98546785 0.98746485 0.9923025 0.9876883 0.9998157
0.9905061 0.9922767 0.9871217 0.99205506 1.0050908 0.9907391 1.003466 0.99074703
1.0095012 1.003746 0.99447674 0.9874727 0.9900673 0.9980144 0.9874312 0.9959892
1.0040772 0.9839726 0.99294835 0.9870444 0.9883516 1.0002381 1.0048481 0.99421465
0.9872097 0.9872953 1.0091797 0.98890847 0.9795182 1.0126152 1.0018368 0.9910364
1.0014205 0.97807634 0.99003386 0.9901082 0.98487943 0.9869874 1.000651 0.9787172
1.0081512 0.99376386 1.0039812 0.9919876 0.98644054 0.9977149 0.9792838 0.9938512
0.9952234 1.0151095 0.99102163 0.9890837 0.9934978 0.99783415 0.9931215 0.9989127
0.9905187 0.99918 0.99424416 0.98313177 0.9893782 0.989629 0.9923567 0.9890114
0.98577243 0.9937667 1.0118606 0.99078625 1.0204887 0.98827565 0.9829486 0.99192303
00000000: 91c9 7d3f 4edf 803f fcd6 793f 0530 803f
00000010: 3167 803f 40cb 7a3f ec19 803f e560 7f3f
00000020: 510a 7d3f 336a 7c3f 4a14 803f 80ae 803f
00000030: 9add 7b3f 4a4b 803f d94e 7e3f 7e43 7f3f
00000040: ee8e 7e3f 5149 7d3f ec7c 7f3f edef 7d3f
00000050: 5cc0 7d3f fea6 7d3f de7c 7e3f f9af 7c3f
00000060: 37ff 7a3f 5a30 7d3f bf72 7f3f 5074 7c3f
00000070: c9fc 7d3f 8633 803f 0ff8 7c3f 17e6 7e3f
00000080: d077 7d3f 3c2a 7e3f a8c4 7d3f 0fd8 7c3f
00000090: 1eba 7e3f abf0 7c3f f244 7b3f 1aad 7d3f
000000a0: 50c8 7c3f 3f4b 803f 5d17 7c3f f0f4 813f
000000b0: 5d6f 7d3f d999 7e3f bbef 7d3f 161f 803f
000000c0: 1d2d 7c3f 2c62 803f 60f1 803f 9f47 7c3f
000000d0: 7fca 7c3f 8907 7e3f 24d9 7c3f ecf3 7f3f
000000e0: cf91 7d3f d905 7e3f 02b4 7c3f 52f7 7d3f
000000f0: d1a6 803f 14a1 7d3f 9371 803f 99a1 7d3f
00000100: 5637 813f c07a 803f 0796 7e3f 03cb 7c3f
00000110: 0d75 7d3f df7d 7f3f 4bc8 7c3f 26f9 7e3f
00000120: 9a85 803f a1e5 7b3f dd31 7e3f f1ae 7c3f
00000130: 9c04 7d3f cd07 803f dd9e 803f da84 7e3f
00000140: c6b9 7c3f 63bf 7c3f cd2c 813f 1b29 7d3f
00000150: b4c1 7a3f 609d 813f 303c 803f 90b4 7d3f
00000160: 8c2e 803f 3663 7a3f dc72 7d3f bb77 7d3f
00000170: 0f21 7c3f 35ab 7c3f 5515 803f 368d 7a3f
00000180: 190b 813f 4f67 7e3f 7582 803f e6f2 7d3f
00000190: 5e87 7c3f 3e6a 7f3f 58b2 7a3f 086d 7e3f
000001a0: f6c6 7e3f 1cef 813f 98b3 7d3f 9734 7d3f
000001b0: df55 7e3f 0f72 7f3f 363d 7e3f beb8 7f3f
000001c0: a292 7d3f 43ca 7f3f c986 7e3f 86ae 7b3f
000001d0: e447 7d3f 5358 7d3f 170b 7e3f da2f 7d3f
000001e0: 955b 7c3f 7f67 7e3f a684 813f 2ba4 7d3f
000001f0: 609f 823f a2ff 7c3f 85a2 7b3f abee 7d3f

layer4.1.bias f4 [128]
-0.010332294 -0.01096249 -0.029481234 -0.0064995443 -0.020825742 -0.024562437 0.0037344887 -0.016716015
-0.015999809 -0.00926036 -0.008788385 -0.007308741 -0.005415487 -0.009484048 -0.009720195 -0.016986698
-0.012073992 -0.015326001 -0.011211983 -0.018911747 -0.015528051 -0.0046320218 -0.018443828 -0.008314722
-0.017696012 -0.015793623 -0.019728871 -0.015606733 -0.009342688 -0.008511187 -0.012227924 -0.010551763
-0.006350838 -0.009141095 -0.022967054 -0.022099413 -0.00795161 -0.012851073 -0.018471295 -0.01063126
-0.013538944 -0.011086818 -0.013852765 -0.014945143 -0.009334196 -0.00889844 -0.0070657553 -0.007845694
-0.015435822 -0.008758037 -0.010547695 -0.015027777 -0.016374605 -0.012225437 -0.009210658 -0.0050925533
-0.017460845 -0.011005283 -0.007192891 -0.015609196 -0.015655486 -0.007152266 -0.011340034 -0.0074225953
-0.008460453 -0.011679417 -0.018521516 -0.009844041 -0.004358583 -0.015652215 -0.008196144 -0.007342681
0.0031887735 -0.017071713 -0.006784283 -0.011051171 -0.011815397 -0.015329475 -0.011366526 -0.007626678
-0.008802827 -0.01504428 -0.013531176 -0.013017463 -0.019962871 -0.0067993444 -0.0046242997 -0.010817011
-0.006326668 -0.022297865 -0.008569288 -0.014891928 -0.010972418 -0.013843158 -0.013511201 -0.018635916
-0.013441669 -0.020248596 -0.007122372 -0.010729409 -0.019263322 -0.0049160854 -0.020039484 -0.010491239
-0.012431273 -0.008336726 -0.013419911 -0.009222006 -0.0067077363 -0.017160533 -0.009748951 -0.00062278984
-0.0095993215 -0.018661238 -0.00834765 -0.012436886 -0.017290914 -0.012580311 -0.016117593 -0.015884174
-0.011884323 -0.012588013 -0.010126915 -0.01577029 -0.01261869 -0.0028382966 -0.01877575 -0.0051611457
00000000: c848 29bc 049c 33bc a182 f1bc 21fa d4bb
00000010: bf9a aabc 2a37 c9bc 53be 743b 06f0 88bc
00000020: 0812 83bc c4b8 17bc 29fd 0fbc 2a7e efbb
00000030: 6674 b1bb fb62 1bbc 7441 1fbc b027 8bbc
00000040: fed1 45bc e819 7bbc 77b2 37bc cfec 9abc
00000050: 5e69 7ebc 37c8 97bb 8317 97bc 793a 08bc
00000060: 3af7 90bc a161 81bc 719e a1bc 62b3 7fbc
00000070: 1312 19bc 8172 0bbc a157 48bc 4de1 2cbc
00000080: b11a d0bb 88c4 15bc 6725 bcbc d409 b5bc
00000090: 7847 02bc 4f8d 52bc 1d51 97bc bd2e 2ebc
000000a0: 72d2 5dbc 7ca5 35bc b5f6 62bc 79dc 74bc
000000b0: 75ee 18bc c3ca 11bc da87 e7bb 3a8b 00bc
000000c0: 88e6 7cbc df7d 0fbc 3dd0 2cbc 1137 76bc
000000d0: 0924 86bc 334d 48bc 4de8 16bc 6fdf a6bb
000000e0: 0c0a 8fbc 814f 34bc 58b2 ebbb b7bd 7fbc
000000f0: ef3f 80bc 8e5d eabb 8dcb 39bc 3e39 f3bb
00000100: b69d 0abc 075b 3fbc 6fba 97bc e748 21bc
00000110: 72d2 8ebb 1339 80bc 1f49 06bc df9a f0bb
00000120: befa 503b fad9 8bbc b14e debb f90f 35bc
00000130: 5e95 41bc 7a28 7bbc aa3a 3abc 36e9 f9bb
00000140: bc39 10bc 497c 76bc deb1 5dbc 3247 55bc
00000150: 2d89 a3bc 09cd debb 7087 97bb d539 31bc
00000160: f04f cfbb 03aa b6bc 3366 0cbc 46fd 73bc
00000170: a8c5 33bc 6ace 62bc 165e 5dbc 59aa 98bc
00000180: 723a 5cbc 62e0 a5bc c962 e9bb 67ca 2fbc
00000190: 1dce 9dbc 1d17 a1bb d829 a4bc 72e3 2bbc
000001a0: 8aac 4bbc c396 08bc 30df 5bbc e617 17bc
000001b0: 92cc dbbb 3f94 8cbc 10ba 1fbc b842 23ba
000001c0: 7946 1dbc 74df 98bc 95c4 08bc 15c4 4bbc
000001d0: ada5 8dbc a61d 4ebc 0b09 84bc 871f 82bc
000001e0: 77b6 42bc f43d 4ebc 5ceb 25bc b230 81bc
000001f0: 9fbe 4ebc b702 3abb 9acf 99bc d41e a9bb
