checkpoint_adabn/CNN_1d_0930-141644/3-0.8382-best_model.pth (torch, 937791 bytes, 30 tensors)

layer1.0.weight f4 [16, 1, 15]
0	0x3bf3c392	0.0074390853
1	0x3b8dc982	0.004327
2	0xbe203e2e	-0.1564872
3	0x3e45f8d4	0.19333202
4	0xbe658eb0	-0.22417712
5	0xbe8827f2	-0.26592976
6	0x3d2c9a4d	0.04213934
7	0x3e3b43e4	0.18287617
8	0x3d2f167c	0.042746052
9	0x3d6008b1	0.05469579
10	0xbe6055f5	-0.2190779
11	0xbe0c16f7	-0.13680635
12	0xbdda6519	-0.10663814
13	0xbe205b4b	-0.15659826
14	0x3e0ba485	0.13636978
15	0x3d8cf2fb	0.06882282
16	0x3c9591cd	0.018258
17	0xbcbe1975	-0.023205498
18	0x3d9133bb	0.07089945
19	0xbe62b3ce	-0.22138903
20	0xbd36eac8	-0.0446575
21	0x3dd865db	0.105663024
22	0xbe092539	-0.13393106
23	0x3e6b239a	0.229628
24	0x3ddb7a44	0.1071668
25	0xbde3f018	-0.111297786
26	0xbe382309	-0.17982115
27	0xbcca0dd6	-0.0246648
28	0xbe4b1955	-0.19833882
29	0xbd6ccf12	-0.057814665
30	0xbda1de39	-0.07903714
31	0xbe8e3b54	-0.2777964
32	0xbd4ca12f	-0.049958404
33	0x3e372c45	0.17887981
34	0x3d7218f6	0.059105836
35	0xbcd05278	-0.02542995
36	0xbdeaa34f	-0.1145693
37	0x3e16e94b	0.14737432
38	0xbe5df65c	-0.2167601
39	0x3da89054	0.082306534
40	0xbd5f3948	-0.054497987
41	0xbe016b3a	-0.1263856
42	0xbe0c7ed3	-0.13720255
43	0xbdace3d0	-0.08441889
44	0x3df2deec	0.11858925
45	0xbd055b94	-0.03255804
46	0x3e7954ef	0.24348806
47	0x3e147682	0.14498332
48	0x3e5b2d1f	0.21403931
49	0x3bf97af5	0.0076135346
50	0x3e37ada9	0.1793734
51	0xbe23c50c	-0.15993136
52	0x3e0cc079	0.13745297
53	0x3e2e1545	0.17000301
54	0x3e6eb7ee	0.23312351
55	0x3e4700ea	0.19433942
56	0x3e1ef84b	0.15524404
57	0x3e715c94	0.23570472
58	0x3e1a8cd9	0.15092792
59	0x3e5fb02d	0.2184455
60	0xbd930f9d	-0.07180712
61	0x3df9b4bf	0.12192678
62	0xbe047513	-0.12935285
63	0xbe23d661	-0.15999748
64	0x3dd5dfb2	0.10443057
65	0xbe6f9f56	-0.23400626
66	0xbdeb52cb	-0.11490401
67	0x3e2b56f9	0.16732396
68	0x3e661f51	0.22472884
69	0x3e4bfdfe	0.19921109
70	0xbe790d57	-0.24321495
71	0x3df52278	0.11969465
72	0xbd35c2bc	-0.044375166
73	0x3e100414	0.14064056
74	0x3e62dab9	0.22153749
75	0x3df7cb56	0.1209933
76	0x3e6bf220	0.23041582
77	0x3e438ea1	0.19097377
78	0x3e43f29a	0.19135514
79	0x3e097be9	0.13426174
80	0xbe351cf6	-0.17686829
81	0x3d863706	0.06553464
82	0x3e62e4e8	0.22157633
83	0xbd582423	-0.052768838
84	0xbd2d75f7	-0.04234883
85	0x3e8698fd	0.26288596
86	0x3de68a87	0.11256891
87	0x3dfb4e1c	0.122707576
88	0x3e89fdd1	0.2695146
89	0x3e4d2fc1	0.20037748
90	0xbdd574bb	-0.10422655
91	0x3de49e60	0.1116302
92	0xbdba061f	-0.09083199
93	0xbdf483c0	-0.11939192
94	0xbbaa1eae	-0.0051916456
95	0x3e8bf294	0.2733351
96	0xbe6ec4ac	-0.23317212
97	0x3dc560fa	0.096376374
98	0x3e199d16	0.1500133
99	0x3d4aac83	0.049480926
100	0xbd646f56	-0.05577024
101	0x3e60674e	0.21914408
102	0x3bd48f13	0.0064867823
103	0xbe2a3656	-0.1662229
104	0xbdf6a90c	-0.12043962
105	0x3db739e6	0.0894659
106	0xbe71fd33	-0.23631744
107	0x3b3a5b95	0.0028435935
108	0x3c8012be	0.015633937
109	0xbd9b8f3a	-0.07595678
110	0x3df8d88d	0.12150679
111	0x3d89c559	0.06727094
112	0xbe3b38e8	-0.18283427
113	0x3e16dca6	0.14732608
114	0xbd4cca16	-0.04999741
115	0xbcaf84cb	-0.021425625
116	0xbe1486aa	-0.14504495
117	0xbc8d4cc9	-0.017248528
118	0x3e851b96	0.2599761
119	0x3d59f4e1	0.05321205
120	0x3d82d781	0.0638876
121	0xbdb739b9	-0.089465566
122	0xbe220691	-0.15822817
123	0xbc3fe370	-0.01171194
124	0x3e28d8ac	0.16488904
125	0x3cd0d646	0.025492799
126	0xbd8948f4	-0.06703368
127	0xbe819282	-0.2530709
128	0x3af85cc7	0.0018948548
129	0x3e4d6cd2	0.20061043
130	0x3c67feaa	0.014159838
131	0xbe48d862	-0.19613793
132	0x3de4e55e	0.11176561
133	0xbdb0648d	-0.086129285
134	0xbe67201e	-0.22570845
135	0xbc8b7d26	-0.017027449
136	0x3d22a8d2	0.03971178
137	0x3e368b5c	0.17826599
138	0x3e591f96	0.21203455
139	0x3e1b5061	0.15167381
140	0x3bee7722	0.0072773853
141	0xbd50da27	-0.050989296
142	0xbdedece5	-0.1161745
143	0xbe6aff5d	-0.22948976
144	0x3daf57db	0.08561679
145	0xbd012b5f	-0.031535503
146	0x3e48f442	0.19624427
147	0x3d8a59f2	0.06755437
148	0x3e35c986	0.17752656
149	0x3d666b9a	0.05625496
150	0x3e848323	0.258813
151	0xbdf03723	-0.117292665
152	0x3e5ab177	0.2135676
153	0x3d3ba416	0.04581078
154	0x3e64d08b	0.22345178
155	0x3db23ae8	0.08702642
156	0xbe219b44	-0.15781885
157	0xbe294dea	-0.16533628
158	0xbe4de54e	-0.20107004
159	0xbddc7751	-0.10764945
160	0xbe829f8b	-0.25512347
161	0x3e887b40	0.26656532
162	0x3dd7dc9b	0.10540124
163	0xbe2773b0	-0.16352725
164	0x3e5f371b	0.21798365
165	0x3ddd8b8d	0.10817633
166	0xbe8bb3aa	-0.2728551
167	0x3dd6d4b0	0.10489786
168	0x3de8c6c3	0.11366036
169	0x3dc0742c	0.09397158
170	0x3e2c81a6	0.16846332
171	0x3abf1077	0.001457705
172	0x3e334987	0.17508517
173	0xbe2b8db6	-0.16753277
174	0x3e260109	0.16211332
175	0xbdca35a9	-0.09873516
176	0x3e2031be	0.15643975
177	0xbe43472f	-0.19070123
178	0xbd49b6ed	-0.049246717
179	0x3d3e8e36	0.04652234
180	0xbe4130c5	-0.1886626
181	0x3e34c962	0.17654946
182	0xbe272d22	-0.1632581
183	0xbd678060	-0.056518912
184	0x3d5c0d89	0.053723846
185	0x3e7a8225	0.24463709
186	0x3dc8397f	0.097765915
187	0xbcf2035a	-0.029542614
188	0xbc9e1dc4	-0.019301303
189	0x3df81b3e	0.12114571
190	0x3df873af	0.1213144
191	0xbdf10d7a	-0.117701486
192	0xbc1de8e1	-0.009638042
193	0x3e649273	0.22321491
194	0x3e2c6214	0.16834289
195	0x3e354cc7	0.1770507
196	0x3d328edf	0.043593284
197	0x3d658a11	0.056039874
198	0x3e0a61d8	0.13513887
199	0xbd4748c1	-0.048653368
200	0xbe89c159	-0.26905325
201	0xbe2d6572	-0.1693323
202	0xbdfa8da0	-0.12234044
203	0x3e49570d	0.19662113
204	0xbd974391	-0.07385934
205	0xbe82008a	-0.25391036
206	0x3dffea5d	0.12495873
207	0xbe33c4c4	-0.17555529
208	0x3e1f0edc	0.15533012
209	0x3e358738	0.17727363
210	0x3d5e53dd	0.054279197
211	0xbe349e4f	-0.17638515
212	0x3d8e165d	0.06937859
213	0x3e5cce4a	0.21563068
214	0xbb344559	-0.0027507155
215	0xbe1c8fa3	-0.15289168
216	0xbe8b6792	-0.27227455
217	0xbb519220	-0.0031977966
218	0x3caddf2f	0.021224586
219	0x3e93c1f5	0.28858915
220	0x3e303a39	0.1720971
221	0xbe489607	-0.19588481
222	0xbd8c3d84	-0.06847671
223	0xbd25d963	-0.04049052
224	0x3e7fc7ec	0.24978608
225	0x3e75c110	0.23999429
226	0xbd0a1600	-0.033712387
227	0x3d10d1dc	0.035356387
228	0x3e8635bd	0.26212874
229	0xbe462896	-0.1935142
230	0x3e53ad9e	0.20671698
231	0xbe5f3b33	-0.21799926
232	0x3e1dd943	0.1541491
233	0xbe670606	-0.22560892
234	0x3e8209ec	0.25398195
235	0xbe090f08	-0.1338464
236	0x3c8b4674	0.017001368
237	0x3d78961c	0.06069003
238	0x3c6510c2	0.013981046
239	0xbe257b17	-0.16160236

layer1.0.bias f4 [16]
0	0x3d193bb4	0.037410453
1	0xb94168b3	-0.00018444918
2	0xbddcce67	-0.107815556
3	0x3dc3f69f	0.095685236
4	0xbc44cc51	-0.012011603
5	0xb6d39818	-6.305996e-06
6	0x3dd78159	0.10522718
7	0xba04bdc9	-0.00050636806
8	0xbdf6e0fd	-0.12054632
9	0x3956fc74	0.00020502676
10	0x3d20f886	0.03929951
11	0xb9cdc664	-0.0003924846
12	0x3dd5e282	0.104435936
13	0xbc4f9a15	-0.012671013
14	0x3df2cb2b	0.118551575
15	0x3daa1caa	0.083062485

layer1.1.weight f4 [16]
0	0x3f801769	1.0007144
1	0x3f7eef29	0.9958368
2	0x3f84f679	1.0387717
3	0x3f7b7ed2	0.9824039
4	0x3f7cc39e	0.9873599
5	0x3f7f002c	0.9960964
6	0x3f80fa6e	1.0076425
7	0x3f7f5df9	0.99752766
8	0x3f736f76	0.9509195
9	0x3f794aa4	0.9737952
10	0x3f819aff	1.0125426
11	0x3f811744	1.0085225
12	0x3f80d097	1.0063657
13	0x3f7d7743	0.99010104
14	0x3f837fae	1.027334
15	0x3f7de07d	0.99170667

layer1.1.bias f4 [16]
0	0x3d3c3289	0.04594663
1	0xbbb445ee	-0.0055015003
2	0x3ce78019	0.028259324
3	0xbb4b989c	-0.0031066304
4	0xbc0fae4d	-0.008769584
5	0x3bdf06f5	0.0068062493
6	0x3c7e239a	0.015511418
7	0x3bcdca30	0.006280206
8	0x3cb81213	0.022469556
9	0xbad94e90	-0.00165792
10	0x3d0e381c	0.03472148
11	0x3d1a8105	0.0377207
12	0xbc96ed6e	-0.018423762
13	0xbd06e548	-0.032933503
14	0x3d0ce3cc	0.03439693
15	0x3d445786	0.04793503

layer1.1.running_mean f4 [16]
0	0x3d2ea7c6	0.04264047
1	0xb8cc17e2	-9.7319265e-05
2	0xbdeab05d	-0.1145942
3	0x3dcfe2e6	0.10150699
4	0xbc7a1543	-0.015263858
5	0xba3da92f	-0.0007234988
6	0x3de5992f	0.11210858
7	0xb9f30f61	-0.0004636003
8	0xbe029343	-0.12751488
9	0xb8d48c9b	-0.000101351376
10	0x3d358cb7	0.04432365
11	0xba8027cd	-0.0009777487
12	0x3de35514	0.11100212
13	0xbc80543c	-0.015665166
14	0x3e009aff	0.12559126
15	0x3db75349	0.08951432

layer1.1.running_var f4 [16]
0	0x3ebfcc45	0.37460533
1	0x3e6b7b13	0.22996168
2	0x3e932457	0.28738663
3	0x3fce70b8	1.6128149
4	0x3eb00eb0	0.34386206
5	0x3fa60599	1.2970458
6	0x3e7182fa	0.2358512
7	0x3e436564	0.19081646
8	0x3e90ec4a	0.28305274
9	0x3e84b47f	0.25918958
10	0x3eaa4ba0	0.33260822
11	0x3e6cd580	0.23128319
12	0x3ead960b	0.33903536
13	0x3e872b43	0.26400194
14	0x3e82b6cd	0.2553009
15	0x3e8f4184	0.27979672

layer2.0.weight f4 [32, 16, 3]
0	0x3ab8bfb4	0.0014095218
1	0xbd9ff539	-0.078104444
2	0x3cfb834f	0.030702261
3	0xbdc5333d	-0.096289136
4	0xbd0dd724	-0.034629002
5	0xbe10149d	-0.14070363
6	0x3e04b86d	0.12960978
7	0xbc6cc634	-0.014451552
8	0xbda2de87	-0.079526
9	0x3dee8619	0.11646671
10	0x3de68732	0.11256255
11	0xbcfd8280	-0.030946016
12	0xbd48bbaa	-0.049007095
13	0xbd0c0e00	-0.03419304
14	0xbc33efc9	-0.010982462
15	0xbcebc0d1	-0.028778465
16	0x3d9cdd13	0.07659354
17	0x3e0917ff	0.1338806
18	0xbe0f511e	-0.13995788
19	0xbd192297	-0.037386503
20	0xbd7fdb13	-0.062464785
21	0xbdf64d57	-0.1202647
22	0x3cb3e866	0.021961402
23	0xbe1b3ccc	-0.15159911
24	0x3d881efd	0.066465355
25	0x3dccb3eb	0.09995254
26	0x3d867aae	0.06566368
27	0x3ce4b769	0.027919488
28	0x3deb38df	0.11485457
29	0xbb00b590	-0.001963947
30	0x3de77503	0.11301615
31	0xbce45662	-0.027873222
32	0xbc6cacde	-0.014445512
33	0xbc7ca4bd	-0.015420136
34	0xbdd78af3	-0.10524549
35	0xbdb24ff0	-0.08706653
36	0x3c521f99	0.012824916
37	0xbd862e7f	-0.06551837
38	0x3d817eed	0.06323037
39	0x3d3aca65	0.045603175
40	0xbe0e7284	-0.13910872
41	0x3c16dfd9	0.009208643
42	0x3def1814	0.116745144
43	0xbc0bab46	-0.0085247215
44	0x3c98f5df	0.018671928
45	0xbdcd39e0	-0.100208044
46	0xbe030df8	-0.12798297
47	0x3d80ab81	0.06282712
48	0x3d2b2c4f	0.041790303
49	0x3cf37e73	0.029723382
50	0x3c4bf00b	0.012447367
51	0x3db15379	0.08658499
52	0xbc21a722	-0.009866508
53	0xbc8fd281	-0.01755643
54	0x3d9e59b9	0.07731957
55	0x3de42120	0.111391306
56	0x3dba9fc1	0.09112502
57	0x3a8c03e3	0.0010682311
58	0xbcec1e0a	-0.028822917
59	0x3d98106d	0.07425008
60	0xbd65d7c1	-0.056113962
61	0xbdfa330c	-0.12216768
62	0xbe1f347b	-0.15547363
63	0xbd6d8efd	-0.057997692
64	0xbdd43c26	-0.10363035
65	0xbdfdbcc8	-0.12389523
66	0x3db0135c	0.085974425
67	0xbd897c56	-0.06713168
68	0xbd3fa8e9	-0.046791945
69	0xbd819903	-0.06328013
70	0xbac0faac	-0.0014723144
71	0x3daf020b	0.085453115
72	0x3d626ec7	0.055281427
73	0xbe1d5314	-0.15363723
74	0x3dd642ef	0.10461985
75	0x3deb60ae	0.114930496
76	0x3c93b921	0.018032612
77	0xbd65af1a	-0.056075193
78	0x3cf84a12	0.030308757
79	0xbdba1bfc	-0.09087369
80	0xbd80e7a4	-0.06294182
81	0x3d8c5079	0.068512864
82	0xbd049c67	-0.03237572
83	0x3b77eadb	0.0037829194
84	0x3dd71f8f	0.10504066
85	0xbda344fd	-0.07972143
86	0xbe0d6b7d	-0.13810535
87	0xbb6a557d	-0.0035756521
88	0xbd54fab8	-0.051996917
89	0xbe2ff57a	-0.17183486
90	0xbd943351	-0.0723635
91	0xbcb65707	-0.022258295
92	0xbe075c6e	-0.13218853
93	0xbdbf6237	-0.09344905
94	0x3cbf8a4d	0.023381377
95	0x3de961eb	0.113956295
96	0xbe08a785	-0.13345154
97	0xbda306b2	-0.079602614
98	0xbd908c86	-0.07058053
99	0xbc377f53	-0.01119979
100	0xbc573b0f	-0.013136639
101	0xbd3c82c1	-0.046023134
102	0x3b813a12	0.00394369
103	0xbc08617a	-0.0083240215
104	0x3c933468	0.017969325
105	0x3d401d61	0.046903018
106	0xbd315ad7	-0.043299522
107	0xbd129f0d	-0.035796214
108	0xbdbf406b	-0.093384586
109	0xbe08adb9	-0.1334752
110	0x3d97bd81	0.07409192
111	0xbdb24c7e	-0.08705996
112	0xbd7c9514	-0.06166561
113	0xbd00b95c	-0.031426772
114	0x3d363290	0.044481814
115	0x3d74b832	0.059745975
116	0xbc6c7b33	-0.01443367
117	0x3d8b3335	0.06796876
118	0x3d8a920d	0.06766138
119	0xbc4a5561	-0.0123494575
120	0xbc46461b	-0.012101675
121	0xbded727c	-0.11594102
122	0x3d98a86f	0.07454001
123	0xbe0f6e53	-0.14006929
124	0x3c72674d	0.014795137
125	0xbd314052	-0.04327423
126	0xbe2478ab	-0.16061656
127	0xbdfcca78	-0.12343305
128	0xbddaefa9	-0.10690243
129	0x3ca6a992	0.02034453
130	0x3df75cc4	0.120782405
131	0xbcf3e541	-0.029772403
132	0x3c218f46	0.009860819
133	0x3ccb2a2e	0.024800386
134	0xbc9376fd	-0.018001074
135	0xbdd8e378	-0.10590261
136	0xbd511cbb	-0.05105279
137	0xbe13d09b	-0.14435045
138	0xbe1193d3	-0.14216547
139	0xbd357b9b	-0.044307332
140	0xbd8949b9	-0.067035146
141	0xbcafe37c	-0.021470778
142	0xbdc1e000	-0.09466553
143	0xbcb6acb2	-0.022299144
144	0xbe090c08	-0.13383496
145	0xbdc73460	-0.097267866
146	0x3da713fc	0.081581086
147	0x3da7b097	0.08187979
148	0xbde8d4e1	-0.113687284
149	0xbc8c1258	-0.01709859
150	0x3da20de1	0.079128034
151	0x3ddc5d20	0.1075995
152	0xbcc404c8	-0.023928061
153	0xbdf00538	-0.117197454
154	0x3dd53baa	0.10411771
155	0xbda3a5fe	-0.07990645
156	0x3e1eb17b	0.15497391
157	0xbcce76b8	-0.025203094
158	0x3d986619	0.074413486
159	0xbdccfdc3	-0.10009339
160	0xb9f20951	-0.00046164778
161	0x3debf7f7	0.11521905
162	0x3dc415fe	0.09574507
163	0x3e001faf	0.12512086
164	0x3c8a5298	0.016885087
165	0xbd498e1e	-0.0492078
166	0xbb85fde1	-0.0040891026
167	0x3e22a6b5	0.15883906
168	0x3d31c2e2	0.043398745
169	0x3ddf0110	0.108888745
170	0x3e0e9dd3	0.13927393
171	0xbd7a2b53	-0.061076473
172	0x3de7a375	0.11310474
173	0xbdb4db5b	-0.08830901
174	0xbdcaad71	-0.098963626
175	0xbd9941b4	-0.07483235
176	0x3c52c712	0.012864845
177	0x3cb53390	0.022119313
178	0x3da5adf5	0.0808982
179	0xbd8cd77a	-0.068770364
180	0x3dcec50c	0.100961775
181	0x3e16495e	0.14676425
182	0x3d4774b2	0.048695274
183	0xbd0790fc	-0.033097252
184	0x3dba737f	0.091040604
185	0xbbe0324d	-0.006841934
186	0x3dfa86ac	0.12232718
187	0xbd92a011	-0.071594365
188	0xbddd762e	-0.108135566
189	0xbe12dffc	-0.14343256
190	0x3d0733be	0.03300833
191	0xbcb392ec	-0.021920644
192	0xbddf27a0	-0.1089623
193	0x3d209695	0.039206106
194	0xbd33d358	-0.043902725
195	0xbdab2556	-0.08356731
196	0xbdf0146a	-0.11722644
197	0xbdb292af	-0.08719384
198	0xbd81c890	-0.063370824
199	0x3df020b0	0.11724985
200	0x3d01167f	0.031515595
201	0xbde1a2f5	-0.1101741
202	0xbe01af09	-0.12664427
203	0x3db9f103	0.090791725
204	0x3d774d14	0.06037624
205	0x3cba1003	0.022712713
206	0xbdd56bd6	-0.10420959
207	0xbcceb4c9	-0.02523269
208	0xbdef392b	-0.11680826
209	0x3df7584a	0.12077387
210	0x3d5eb41e	0.054370992
211	0x3d141f1f	0.036162492
212	0xbdb97394	-0.09055248
213	0x3d82a4a1	0.06379057
214	0xbc832415	-0.016008416
215	0x3dcc5f7b	0.09979149
216	0xbd6178e0	-0.055046916
217	0x3dff6cac	0.124718994
218	0xbdc5d606	-0.09659962
219	0xbdb0ff6d	-0.086424686
220	0xbdd7f9e1	-0.105457075
221	0xbc7b00df	-0.015320032
222	0xbc2c9d69	-0.010535576
223	0x3a2b172a	0.0006526584
224	0x3da187e0	0.07887244
225	0x3da6d7f0	0.081466556
226	0x3d28be86	0.041197322
227	0x3e206fa2	0.15667585
228	0xba09d80d	-0.00052583293
229	0x3d2b2f60	0.041793227
230	0xbd90862d	-0.07056842
231	0x3d395e5b	0.045256
232	0x3dab5bd6	0.08367126
233	0xbd9ddaa2	-0.077077165
234	0x3e12fb88	0.14353764
235	0x3d4ee7d5	0.05051406
236	0x3dab0167	0.08349877
237	0xbdd62c98	-0.10457724
238	0x3dcff0d0	0.10153353
239	0xbdfa25cb	-0.1221424
240	0x3dadf58c	0.084941
241	0xbdaa982c	-0.08329806
242	0xbdb2cda1	-0.08730627
243	0x3dd5598a	0.10417469
244	0xbe0a8aac	-0.13529462
245	0xbcc42e81	-0.023947956
246	0xbe031e5d	-0.12804551
247	0x3db9b781	0.09068204
248	0x3d0eb88a	0.03484396
249	0xbd50f0bd	-0.051010836
250	0x3ccd1b7d	0.025037521
251	0xbd5450b0	-0.051834762
252	0x3bc164f0	0.0059019253
253	0xbab6c59a	-0.0013944388
254	0x3d08292e	0.033242397
255	0x3db7f653	0.089825295

layer2.0.bias f4 [32]
0	0x37740086	1.4543655e-05
1	0x37efe5d3	2.859804e-05
2	0x389a76f6	7.3654504e-05
3	0x3cfd72e4	0.030938573
4	0xb7dce801	-2.6334079e-05
5	0x39a470bc	0.0003136451
6	0x3b140093	0.002258335
7	0x38e7401d	0.000110268804
8	0xb8a4a40c	-7.8506855e-05
9	0xbbaa1ebb	-0.0051916516
10	0xbd0424f1	-0.032261793
11	0xbb18eca9	-0.002333442
12	0x396de28a	0.00022686474
13	0xbb58dbe4	-0.003309005
14	0xb9189cc1	-0.00014554245
15	0xbc1da3b6	-0.009621551
16	0xbbd5d80e	-0.006526
17	0x3b3b76a6	0.0028604656
18	0x375a853d	1.30248345e-05
19	0xbc408537	-0.011750511
20	0x39c0c125	0.00036764998
21	0xb996def8	-0.00028776354
22	0xbb194c75	-0.002339152
23	0xba6977c1	-0.00089060894
24	0xbcc0c0f1	-0.023529502
25	0x392cbe7c	0.00016474159
26	0xbb5704df	-0.00328093
27	0x3b36d5c8	0.002789842
28	0xbc9b11e4	-0.01892943
29	0x391d55a9	0.00015004598
30	0xb8f99f02	-0.00011902863
31	0x38bfbda3	9.142912e-05

layer2.1.weight f4 [32]
0	0x3f7c7a25	0.9862388
1	0x3f7fd2ad	0.9993084
2	0x3f821927	1.0163926
3	0x3f838dd3	1.0277656
4	0x3f7bda06	0.9837955
5	0x3f7d68c1	0.98987967
6	0x3f809e3b	1.0048288
7	0x3f8240de	1.0176046
8	0x3f799d82	0.9750596
9	0x3f7b57fa	0.98181117
10	0x3f7d4fe4	0.9895003
11	0x3f7e87a5	0.9942573
12	0x3f817baa	1.0115864
13	0x3f77e6d3	0.96836585
14	0x3f805075	1.0024554
15	0x3f81e11e	1.0146825
16	0x3f7b1818	0.9808364
17	0x3f7d7ae7	0.9901566
18	0x3f8329ea	1.0247166
19	0x3f830304	1.0235295
20	0x3f832a85	1.0247351
21	0x3f8109ea	1.008115
22	0x3f7d0c1b	0.98846596
23	0x3f79bd0b	0.9755408
24	0x3f8003b2	1.0001128
25	0x3f81bf09	1.0136424
26	0x3f7ef16f	0.9958715
27	0x3f801d24	1.0008893
28	0x3f84747d	1.0348049
29	0x3f8394c7	1.0279778
30	0x3f8077f0	1.0036602
31	0x3f7d6c71	0.98993593

layer2.1.bias f4 [32]
0	0xba20b39c	-0.00061302795
1	0x3cbc092d	0.022953594
2	0x3c96c8ed	0.018406356
3	0xbd066870	-0.032814443
4	0xbc9c486f	-0.019077508
5	0xbb718907	-0.0036855356
6	0xbcd3012c	-0.025757395
7	0x3c776a79	0.015101069
8	0xbc3e50aa	-0.0116159115
9	0xbc854689	-0.016268985
10	0xbcb44fde	-0.02201074
11	0xbc568d4d	-0.013095212
12	0x3c3b872e	0.011445804
13	0xbcf83018	-0.03029637
14	0x3c57014e	0.01312287
15	0xbb00d481	-0.0019657912
16	0xbc177253	-0.009243566
17	0xbc86d6be	-0.016459819
18	0x3d5d5a78	0.054041356
19	0x3cc5a3b0	0.024125904
20	0x3c2e20df	0.010627954
21	0x3c8988c6	0.016788851
22	0x3c95693a	0.018238652
23	0x3c8a7ab2	0.016904209
24	0xbcc78cac	-0.02435907
25	0x3c1b998b	0.009497057
26	0xbc41848e	-0.011811389
27	0x3ce6e612	0.028185878
28	0x3c2f96c0	0.010717094
29	0x3cd17568	0.025568679
30	0x3ca4eefc	0.020133488
31	0xbc2b7049	-0.010463783

layer2.1.running_mean f4 [32]
0	0xbdbceec8	-0.092252314
1	0xbe5216a1	-0.20516445
2	0xbf1380a2	-0.57618153
3	0x3e80dc09	0.25167874
4	0xbd4278c6	-0.04747846
5	0xbe43d461	-0.19123985
6	0x3d7565e0	0.05991161
7	0x3c210403	0.009827617
8	0x3e085ec4	0.133174
9	0x3cfe29f7	0.03102587
10	0x3e011f0e	0.12609503
11	0x3d89ae4f	0.067227
12	0xbee939ad	-0.45551816
13	0x3d1d6c94	0.038433626
14	0xbea5aa89	-0.3235667
15	0xbe061b70	-0.13096404
16	0xbe2bf319	-0.16791953
17	0xbe1e92c3	-0.15485673
18	0xbe9f01e3	-0.31056127
19	0xbe4e34de	-0.20137355
20	0xbe667138	-0.22504127
21	0x3d097e8e	0.033567958
22	0xbec5f41e	-0.3866281
23	0x3e802787	0.25030157
24	0x3d9807b8	0.07423347
25	0xbe256be0	-0.16154432
26	0x3ea85918	0.32880473
27	0xbeb464a9	-0.35233048
28	0xbd622ace	-0.055216603
29	0xbf31a4f6	-0.69392335
30	0xbe82907a	-0.25500852
31	0x3ea5224a	0.32252723

layer2.1.running_var f4 [32]
0	0x3e2783ef	0.16358922
1	0x3e5e049e	0.21681449
2	0x3e5e7723	0.21725135
3	0x3dce9c33	0.100883864
4	0x3dd79170	0.10525787
5	0x3e1bcd29	0.15214981
6	0x3d8eaa40	0.06966066
7	0x3e3a6f17	0.1820644
8	0x3e5b7768	0.21432269
9	0x3e121eff	0.14269637
10	0x3de89342	0.11356212
11	0x3e543a80	0.20725441
12	0x3e6afeba	0.22948733
13	0x3e289bda	0.16465703
14	0x3efb6c5f	0.49106118
15	0x3e4fcc2e	0.20292732
16	0x3e1da485	0.1539479
17	0x3db8e151	0.09027351
18	0x3e20600c	0.15661639
19	0x3db1074b	0.08643969
20	0x3e385cf5	0.1800421
21	0x3db4a339	0.08820195
22	0x3e441041	0.19146825
23	0x3e01681d	0.12637372
24	0x3e026495	0.12733681
25	0x3d9e6fcb	0.077361666
26	0x3e00a5e8	0.12563288
27	0x3e3d0b36	0.18461308
28	0x3d7cf439	0.061756346
29	0x3ecf0ed6	0.40441006
30	0x3e0ba30d	0.13636418
31	0x3e18e08a	0.14929405

layer3.0.weight f4 [64, 32, 3]
0	0x3dc1b002	0.09457399
1	0xbd247c86	-0.040157817
2	0x3dd70f8a	0.10501011
3	0x3d861a02	0.06547929
4	0x3d80d269	0.062901326
5	0xbd3ca269	-0.046053324
6	0x3d652473	0.055942964
7	0xbdeb4baf	-0.11489045
8	0xbdd0b385	-0.10190491
9	0x3d9d43f6	0.07678978
10	0xbdc5e91b	-0.09663602
11	0x3d90dc83	0.07073309
12	0xbd9574ed	-0.072976924
13	0x3d51bb8d	0.051204253
14	0x3dcb9e2d	0.09942279
15	0x3c938800	0.018009186
16	0xbcbb3237	-0.022851093
17	0xbda6c8ab	-0.08143743
18	0x3dd20f19	0.10256786
19	0x3d8a002c	0.06738314
20	0xbc25a62e	-0.010110421
21	0xbd88df47	-0.06683212
22	0xbd3dc2a2	-0.046328194
23	0xbdae7a83	-0.08519461
24	0xbdc87931	-0.097887404
25	0x3acf1a5a	0.00158007
26	0x3d66d746	0.056357644
27	0x3d2b41ad	0.04181068
28	0x3c31b2d6	0.0108458605
29	0x3ca989cb	0.020695588
30	0xbd596594	-0.053075388
31	0xbdb536c2	-0.08848335
32	0xbd9892d0	-0.07449877
33	0xbd543f26	-0.051818036
34	0x3d26e0e4	0.040741816
35	0xbdab31ec	-0.08359131
36	0xbd2c5bb1	-0.04207963
37	0x3d39db0d	0.04537492
38	0xbd3c85f9	-0.046026204
39	0x3d3c4da9	0.0459725
40	0x3d3d8aa0	0.04627478
41	0xbdc69896	-0.09697072
42	0x3dec7a8c	0.115468115
43	0xbd9598e0	-0.07304549
44	0x3df0becf	0.11755144
45	0x3cdc93f9	0.026926028
46	0x3d65a34f	0.056063946
47	0xbdd7fde1	-0.105464704
48	0xbc9ba643	-0.019000178
49	0x3cfdc701	0.030978682
50	0x3d74c487	0.059757736
51	0xbd661144	-0.05616881
52	0x3cc24675	0.023715237
53	0x3c0f97a2	0.008764179
54	0xbe08453b	-0.1330766
55	0x3c284b2c	0.010271829
56	0xbcdb8811	-0.02679828
57	0xbc38f086	-0.011287814
58	0xbc3c08ec	-0.0114767365
59	0x3d81c294	0.06335941
60	0xbdb6b6c6	-0.0892158
61	0xbd846ef5	-0.06466476
62	0x3d51d2a9	0.05122629
63	0xbcfebf15	-0.031096974
64	0xbdb79713	-0.08964362
65	0xbd21631c	-0.03940116
66	0x3daea728	0.08527976
67	0xbd8204d2	-0.06348576
68	0x3a497d06	0.00076861714
69	0xbd012610	-0.03153044
70	0xbd7389f4	-0.059457734
71	0xbd1508dd	-0.036385406
72	0x3d36f373	0.044665765
73	0x3dd39420	0.10330987
74	0xbd9555aa	-0.0729173
75	0x3e020fdb	0.12701361
76	0xbd940c62	-0.07228924
77	0x3d8b9090	0.068146825
78	0x3bd4f844	0.006499322
79	0x3cc2acea	0.023764092
80	0x3cf7d391	0.03025225
81	0xbcd45c4d	-0.025922919
82	0xbd99d127	-0.07510596
83	0xbc8cd979	-0.017193543
84	0xbd96b8ee	-0.07359491
85	0xbc60f0e5	-0.013729309
86	0xbd73b24a	-0.0594962
87	0xbcb952df	-0.022622524
88	0x3c7b0c4e	0.015322758
89	0xbe1d938c	-0.15388316
90	0x3d09c254	0.03363259
91	0xbc191f26	-0.009345805
92	0x3c2f935d	0.0107162865
93	0x3bbc1629	0.0057399464
94	0xbcf60e89	-0.030036228
95	0xbd096498	-0.0335432
96	0x3ddf9482	0.109169975
97	0x3cd5bd23	0.026091164
98	0xbcd27c1c	-0.025693946
99	0x3d2aa731	0.041663352
100	0x3dcc2f80	0.099699974
101	0x3d03c2c8	0.03216818
102	0x3c620011	0.013793961
103	0xbd8de7a6	-0.06928949
104	0x3d454c13	0.048168253
105	0xbce20995	-0.02759246
106	0x3d9de397	0.07709425
107	0x3d91cca7	0.071191125
108	0x3ccef02d	0.02526101
109	0x3d676bf4	0.056499436
110	0xbdb772af	-0.08957421
111	0x3d1a33af	0.037646946
112	0xbaa9dc31	-0.0012959299
113	0xbde65165	-0.112459935
114	0x3d218407	0.03943255
115	0xbd5ce125	-0.053925652
116	0x3d4c89b3	0.049936008
117	0x3acfd0de	0.0015855094
118	0xbd8b83e6	-0.06812267
119	0xbde44313	-0.11145606
120	0x3db3ae48	0.08773476
121	0x3d173455	0.036915142
122	0x3da30d6e	0.07961546
123	0xbde536bb	-0.1119208
124	0x3d68e5eb	0.05685989
125	0xbdb490f1	-0.08816708
126	0xbdd36492	-0.10321917
127	0x3d0f7fd8	0.03503403
128	0xbcd58bba	-0.026067603
129	0xbdda910f	-0.10672199
130	0xbd4e7d65	-0.050412554
131	0xbc907f1b	-0.017638734
132	0xbdbfe9c1	-0.09370757
133	0x3da8d7b6	0.082442686
134	0x3c129029	0.008945503
135	0xbd85d442	-0.065346256
136	0xbdd6ea26	-0.10493879
137	0x3c26389c	0.010145333
138	0x3c4a6571	0.012353287
139	0xbcb4fbe4	-0.022092767
140	0x3db99a0b	0.090625845
141	0xbd289d53	-0.04116566
142	0xbddb0b5d	-0.10695527
143	0x3ce16e18	0.027518317
144	0x3bc3ef07	0.005979422
145	0xbcd51cba	-0.026014674
146	0xbd8adceb	-0.06780418
147	0x3d3dee3e	0.046369784
148	0x3db59fdf	0.088683836
149	0xbd86f14e	-0.06588994
150	0xbdb04fea	-0.086089924
151	0x3cff0369	0.031129556
152	0xbd30e6e4	-0.043188944
153	0xbc6af4de	-0.014340607
154	0xbc436f1b	-0.011928345
155	0x3d149b97	0.036281195
156	0xbdc9a4f5	-0.09845916
157	0x3ae522b3	0.0017481655
158	0x3a55c32d	0.00081543886
159	0xbd9570c8	-0.07296902
160	0xbc48c152	-0.012253122
161	0x3cae9b5f	0.021314321
162	0x3d47e1bc	0.04879926
163	0x3cee7298	0.029107377
164	0xbdab637f	-0.08368587
165	0xbd6b802f	-0.057495292
166	0x3b338f3a	0.0027398602
167	0x3c01ae4d	0.007915092
168	0x3d782cde	0.060589664
169	0x3d1ddbc2	0.038539656
170	0xbd11c4ce	-0.03558808
171	0x3d1e7315	0.03868397
172	0x3db229aa	0.08699353
173	0x3c0b7ebc	0.008514103
174	0x3d4ca010	0.049957335
175	0xbd0b7daf	-0.034055408
176	0x3c773fa1	0.015090854
177	0xbcbb8a2a	-0.02289303
178	0xbda5f107	-0.08102613
179	0x3d9c1f08	0.07623106
180	0x3cd135b7	0.025538309
181	0xbd48c221	-0.04901326
182	0xbd886c8c	-0.06661329
183	0xbdd29335	-0.10281984
184	0xbdfdf113	-0.12399497
185	0xbe04be3c	-0.12963194
186	0xbc3f854e	-0.011689497
187	0xbd1fdd77	-0.039029565
188	0x3dc23199	0.09482116
189	0xbcd69199	-0.026192473
190	0x3cc06d92	0.023489747
191	0xbdb06f31	-0.08614958
192	0xbd3cf059	-0.04612765
193	0x3db16c49	0.08663232
194	0xbda11550	-0.07865393
195	0x3d6992d6	0.0570248
196	0x3c6791bf	0.01413387
197	0xbd16c03f	-0.036804434
198	0xbdb45518	-0.08805293
199	0xbdcbf2ba	-0.09958406
200	0x3dbae6ff	0.0912609
201	0xb9f57062	-0.00046813773
202	0xbd057d2a	-0.03259007
203	0x3ccd8ce8	0.025091603
204	0xbd8aa3e4	-0.06769541
205	0x3daccaf8	0.08437151
206	0xbd8a2494	-0.06745258
207	0x3d981d8a	0.07427509
208	0x3daee1c9	0.08539159
209	0xbbd6eb03	-0.0065587773
210	0x3cfef99f	0.031124888
211	0xbd37f1f8	-0.044908494
212	0xbd9f8a2a	-0.077900246
213	0x3dc4fbf5	0.096183695
214	0x3db33483	0.0875025
215	0xbdcebbf9	-0.10094447
216	0xbda2a29c	-0.079411715
217	0x3b956abc	0.004559843
218	0x3d750130	0.059815586
219	0x3dccd9e8	0.100025
220	0xbcbb51a8	-0.022866085
221	0xbd6888be	-0.056771033
222	0x3db6d9a4	0.089282304
223	0xbd2c2961	-0.04203165
224	0xbd825924	-0.063646585
225	0xbdb04c50	-0.086083055
226	0x3da11b8a	0.07866581
227	0x3db612d9	0.08890314
228	0x3c63644b	0.013878892
229	0x3b3f2e40	0.0029171854
230	0xbcde5f10	-0.027144939
231	0xbd48787e	-0.048943035
232	0xbda3d858	-0.08000249
233	0x3da31640	0.07963228
234	0x3d8875f0	0.0666312
235	0xbd336e42	-0.043806322
236	0xbcd5764c	-0.026057385
237	0x3cf1e555	0.0295283
238	0xbd57b145	-0.05265929
239	0x3b508836	0.003181947
240	0xbd4b7cf6	-0.04967972
241	0x3da0e39a	0.078559116
242	0xbd9aec28	-0.075645745
243	0xbc649f94	-0.013954062
244	0xbd9a6745	-0.07539228
245	0xbdd0cd52	-0.10195412
246	0xbd2d64f6	-0.042332612
247	0x3d845df4	0.06463233
248	0x3d420f35	0.047377784
249	0x3d97d06a	0.07412799
250	0x3d38c677	0.045111146
251	0x3d682d19	0.056683633
252	0x3dc523c5	0.09625963
253	0xbcc0ea26	-0.02354915
254	0x3d6b122f	0.057390388
255	0xbcc77ad7	-0.024350567

layer3.0.bias f4 [64]
0	0xbb3b290e	-0.0028558406
1	0x3bb1c543	0.0054251268
2	0xb7467b55	-1.1830435e-05
3	0x37794fb9	1.4860118e-05
4	0xb91965e9	-0.00014629182
5	0x39008fb4	0.00012260565
6	0xb6cc940a	-6.096908e-06
7	0x3a675385	0.0008824396
8	0xba6b05c9	-0.00089654006
9	0xb8792615	-5.9401693e-05
10	0x39f7ec09	0.0004728737
11	0x36fb260a	7.4848112e-06
12	0xb8322faa	-4.2482898e-05
13	0x38d67f66	0.00010228045
14	0x3b808642	0.003922255
15	0xb946176c	-0.00018891477
16	0x3790f5f1	1.7280663e-05
17	0x3829f0ea	4.051711e-05
18	0x38418547	4.613891e-05
19	0xb8df3074	-0.00010642494
20	0x3a11ed3f	0.00055666635
21	0x37f9e786	2.9790925e-05
22	0xb7e7f09c	-2.7649388e-05
23	0xbb155bfc	-0.0022790423
24	0x3823b23c	3.9028222e-05
25	0xbb93dc38	-0.004512336
26	0xb88d6558	-6.742281e-05
27	0xb8109d2d	-3.4478657e-05
28	0xba919942	-0.0011108296
29	0x37457dd9	1.1771416e-05
30	0xbac0ff1c	-0.0014724466
31	0xb801f950	-3.0988187e-05
32	0x38f3f893	0.000116334435
33	0xb8afde52	-8.386061e-05
34	0xb64c894a	-3.0478282e-06
35	0x3bbe5313	0.005808243
36	0x388ecb34	6.808937e-05
37	0x38770690	5.88955e-05
38	0x3b85cd9a	0.0040833475
39	0xb8d04ce1	-9.932533e-05
40	0x3bf73e58	0.0075452738
41	0x3acd5082	0.0015664252
42	0xbb9ed3d3	-0.0048470288
43	0x37b4753f	2.1512269e-05
44	0xb92190d3	-0.00015408108
45	0x3c056cbc	0.0081436
46	0xb8e3f436	-0.00010869691
47	0xbb245688	-0.002507599
48	0x390fd272	0.0001371594
49	0xb68fcd6c	-4.2856464e-06
50	0xb7b3397b	-2.136523e-05
51	0x37c9f01e	2.407288e-05
52	0x39541a2e	0.00020227648
53	0x3b06ed55	0.0020588238
54	0x39a8096b	0.00032050474
55	0xb794b003	-1.7724937e-05
56	0xb7faf5db	-2.9916808e-05
57	0xbaf9bc6a	-0.0019053344
58	0x387d2d76	6.036224e-05
59	0x3c004951	0.00782998
60	0xb87e5c26	-6.064414e-05
61	0x3c006ab0	0.007837936
62	0x389ce448	7.4811804e-05
63	0x38b13a61	8.4508916e-05

layer3.1.weight f4 [64]
0	0x3f8234d0	1.0172367
1	0x3f826ca5	1.0189406
2	0x3f80f414	1.0074487
3	0x3f806ade	1.0032613
4	0x3f7c0745	0.9844859
5	0x3f7d7f4e	0.99022377
6	0x3f8113e4	1.0084195
7	0x3f828da7	1.0199479
8	0x3f86ea54	1.0540261
9	0x3f7bda38	0.9837985
10	0x3f7ca871	0.9869452
11	0x3f787ed0	0.970685
12	0x3f7fb7ab	0.9988963
13	0x3f7cc91e	0.9874438
14	0x3f7df92e	0.99208343
15	0x3f7dee16	0.99191415
16	0x3f7fee02	0.99972546
17	0x3f7e45dc	0.99325347
18	0x3f815b43	1.0105976
19	0x3f7de45b	0.9917657
20	0x3f804116	1.0019863
21	0x3f8116fb	1.0085138
22	0x3f80a113	1.0049156
23	0x3f8434fa	1.0328667
24	0x3f797b46	0.97453725
25	0x3f7a7aa9	0.97843415
26	0x3f7bd497	0.9837126
27	0x3f7cc219	0.9873367
28	0x3f82df08	1.0224314
29	0x3f7fa38d	0.99858934
30	0x3f81992b	1.0124868
31	0x3f7d780d	0.9901131
32	0x3f796184	0.9741442
33	0x3f821f00	1.016571
34	0x3f7a34a4	0.97736573
35	0x3f80cc56	1.0062358
36	0x3f80ed78	1.007247
37	0x3f800aab	1.0003256
38	0x3f7a7643	0.97836703
39	0x3f80dab2	1.006674
40	0x3f82df48	1.022439
41	0x3f7fa600	0.9986267
42	0x3f8123b1	1.0089017
43	0x3f80fa8e	1.0076463
44	0x3f7fc969	0.999167
45	0x3f7d5ca1	0.98969465
46	0x3f801056	1.0004985
47	0x3f805e4d	1.0028778
48	0x3f81184a	1.0085537
49	0x3f7c906e	0.9865788
50	0x3f7fc58d	0.99910814
51	0x3f858e09	1.0433971
52	0x3f863ec2	1.0487902
53	0x3f7b3f93	0.9814388
54	0x3f80d4b4	1.0064912
55	0x3f83bb47	1.0291528
56	0x3f82cedd	1.021938
57	0x3f81d523	1.0143169
58	0x3f76acb9	0.96357304
59	0x3f7c2c33	0.9850494
60	0x3f7cd0d9	0.98756176
61	0x3f80deae	1.0067956
62	0x3f7d33e3	0.989073
63	0x3f7cf21a	0.9880692

layer3.1.bias f4 [64]
0	0xbc0405c2	-0.008058013
1	0x3adf297a	0.0017025911
2	0x3cc0767d	0.023494
3	0x3ccbc9b8	0.02487646
4	0xbcc1ad7d	-0.023642296
5	0x3c48f3b7	0.012265137
6	0x388f226f	6.825185e-05
7	0x3cb07606	0.021540653
8	0xbc63470f	-0.013871922
9	0x3c00b377	0.007855288
10	0xbbc69e80	-0.006061375
11	0x3b6e36ef	0.003634866
12	0x3c3da7bc	0.0115756355
13	0xbc2c7524	-0.010525975
14	0xbcc3c76d	-0.023898805
15	0xbd32d424	-0.043659344
16	0xbd37594f	-0.044762906
17	0xbc17667a	-0.009240741
18	0x3ce26d90	0.027640134
19	0xbc097d60	-0.008391708
20	0xbc6a117f	-0.014286398
21	0xbbf4dd9c	-0.007472707
22	0x3cce0d0e	0.02515271
23	0x3c1642d3	0.009171206
24	0xbca7777e	-0.02044272
25	0x3b213d03	0.0024603016
26	0xbbec9dd2	-0.007220962
27	0xbd02129d	-0.031756032
28	0x3b77957a	0.0037778304
29	0xbbc007dc	-0.005860312
30	0xbc076e83	-0.008266094
31	0x3bd38bcd	0.0064558745
32	0x3bc02d58	0.0058647804
33	0x3c8421fa	0.016129483
34	0xbb5cfa13	-0.0033718392
35	0x3ca709fe	0.020390507
36	0x3adf6d22	0.0017046074
37	0x3a050109	0.00050737016
38	0xbcbae61b	-0.022814801
39	0xbc1a93bc	-0.009434637
40	0x3cd5939f	0.026071368
41	0x3c58195a	0.013189638
42	0x3b5ee0a4	0.0034008408
43	0x3c591b0c	0.013251077
44	0xbccd0210	-0.025025398
45	0x3b6081ae	0.0034256983
46	0xbc671fc8	-0.014106698
47	0xbc2c4055	-0.010513385
48	0x3bb6ce1c	0.0055787694
49	0x3b67d53e	0.0035374905
50	0xbad35fb5	-0.0016126545
51	0x3d04ad86	0.032392047
52	0x3b1b224b	0.0023671563
53	0xbc776710	-0.015100256
54	0xbc1efe74	-0.009704221
55	0x3cbe9ede	0.023269113
56	0xbb9d7d01	-0.0048061614
57	0xbb98701e	-0.0046520373
58	0xbc250868	-0.010072805
59	0x3b140548	0.0022586156
60	0xbc63c92a	-0.013902942
61	0xbc255168	-0.01009021
62	0xbcd25c83	-0.025678879
63	0xb77036c7	-1.4317869e-05

layer3.1.running_mean f4 [64]
0	0xbeae1bab	-0.34005484
1	0xbed6e159	-0.41968802
2	0xbe837f56	-0.25683087
3	0xbf2e603a	-0.6811558
4	0xbd901f5d	-0.07037232
5	0xbed8fdee	-0.42381233
6	0xbedb93e3	-0.42886266
7	0xbf11aa5c	-0.5690057
8	0xbf0f8613	-0.56063956
9	0x3e4d4b80	0.20048332
10	0xbf1a716f	-0.60329336
11	0x3ea6d7be	0.32586473
12	0x3eab7263	0.33485708
13	0x3f4fde88	0.8119893
14	0xbda3bc6f	-0.07994925
15	0xbdf7e2ff	-0.12103843
16	0x3e667a42	0.22507575
17	0x3d9a20ec	0.075258106
18	0xbf35220e	-0.7075509
19	0xbdee5fc6	-0.11639361
20	0xbf1deb7f	-0.61687464
21	0x3f056065	0.5210021
22	0xbf38b09d	-0.7214449
23	0xbe13dc31	-0.14439465
24	0x3e945695	0.28972307
25	0x3f267ccd	0.6503418
26	0xbda6fdc6	-0.08153872
27	0xbeccd0c3	-0.40003023
28	0xbc53afd5	-0.01292034
29	0x3e7b4017	0.24536167
30	0xbef2d9a1	-0.47431663
31	0xbefe622e	-0.4968428
32	0xbdeab722	-0.11460711
33	0x3e96fb2d	0.29488507
34	0x3c72f805	0.01482964
35	0xbe84cddb	-0.25938305
36	0x3e26d704	0.1629296
37	0x3f37c07b	0.71778077
38	0x3d8fd20e	0.070224866
39	0x3ce309f1	0.027714701
40	0xbeb82dcd	-0.35972443
41	0xbcfea3bf	-0.03108394
42	0x3ceb557e	0.02872729
43	0xbec82b3f	-0.39095494
44	0xbe02d298	-0.12775648
45	0xbe319595	-0.17342217
46	0x3e9016c3	0.28142366
47	0xbeefdb00	-0.4684677
48	0xbee048e3	-0.43805608
49	0xbe988f0c	-0.29796636
50	0x3f25208b	0.6450278
51	0xbeda99e5	-0.42695537
52	0xbf25f8de	-0.64832866
53	0x3d106278	0.035250157
54	0x3e9e569b	0.3092545
55	0x3e2013a3	0.15632491
56	0x3e907b08	0.28218865
57	0x3e330837	0.17483602
58	0xbe7370f6	-0.2377356
59	0xbda6cb37	-0.08144229
60	0x3e18e268	0.14930117
61	0xbcfa414c	-0.030548714
62	0x3f4411d6	0.76589715
63	0xbe0d860f	-0.1382067

layer3.1.running_var f4 [64]
0	0x3e0cd606	0.13753518
1	0x3e5a976d	0.21346827
2	0x3e828ec6	0.25499552
3	0x3f50308f	0.81324095
4	0x3e11079c	0.14163059
5	0x3e171a2b	0.14756076
6	0x3e3de460	0.1854415
7	0x3e0b1a2d	0.13584204
8	0x3e2dee68	0.16985476
9	0x3e252f1f	0.16131257
10	0x3e458b1c	0.19291347
11	0x3e90ce8e	0.2828259
12	0x3e735696	0.23763499
13	0x3e97174e	0.29509968
14	0x3e659ab3	0.22422294
15	0x3db51142	0.08841182
16	0x3e330d92	0.17485645
17	0x3e87691b	0.26447377
18	0x3ec7b507	0.390053
19	0x3e17d517	0.14827381
20	0x3e5522f2	0.20814112
21	0x3e93b582	0.28849417
22	0x3dfaa0e1	0.122377165
23	0x3e25e1d8	0.16199434
24	0x3e438edf	0.1909747
25	0x3eac8747	0.33696958
26	0x3e8f705e	0.28015417
27	0x3e15aee6	0.146175
28	0x3e18e94a	0.14932743
29	0x3ddaf5c0	0.10691404
30	0x3e0850b6	0.13312039
31	0x3eeba4bf	0.4602413
32	0x3e1dd591	0.154135
33	0x3e4f05b7	0.20217024
34	0x3e78beb3	0.24291496
35	0x3eae0623	0.33989057
36	0x3e956eec	0.2918619
37	0x3ec2321a	0.3792885
38	0x3e047f4c	0.12939185
39	0x3e2ee4f6	0.17079529
40	0x3e72d01b	0.23712198
41	0x3e8806e5	0.2656776
42	0x3dff3737	0.12461703
43	0x3e38d211	0.18048884
44	0x3dc3f07a	0.09567352
45	0x3e3c659b	0.18398134
46	0x3e09c43c	0.13453764
47	0x3e715397	0.23567043
48	0x3e03083a	0.12796107
49	0x3e38b73d	0.1803865
50	0x3eb1a686	0.3469736
51	0x3eb464e9	0.35233238
52	0x3e04e292	0.12977055
53	0x3e17cbd4	0.14823848
54	0x3e0bd085	0.13653763
55	0x3e4d3476	0.20039544
56	0x3dd44563	0.10364797
57	0x3e5084e8	0.203632
58	0x3e7dcf7a	0.24786177
59	0x3e15cece	0.14629671
60	0x3e21d51a	0.15803948
61	0x3e211548	0.15730774
62	0x3e049907	0.12949
63	0x3df5f672	0.12009896

layer4.0.weight f4 [128, 64, 3]
0	0xbceed7e9	-0.029155688
1	0xbc7f32b1	-0.015576051
2	0x3cdbf6cf	0.026851086
3	0xbd30b1a6	-0.04313817
4	0xbccdd565	-0.025126169
5	0x3d9f1484	0.07767585
6	0x3c2e76ec	0.01064847
7	0x3caf0d06	0.021368515
8	0x3c95dde8	0.01829429
9	0x3d3e060f	0.046392497
10	0x3d31d75c	0.043418273
11	0x3d2332fd	0.039843548
12	0xbd20b06f	-0.03923076
13	0xbd704a75	-0.058664758
14	0x3d3df2a7	0.04637399
15	0x3d6b6046	0.05746486
16	0xbdaafa7c	-0.08348557
17	0xbd1b7db0	-0.03796166
18	0x3cc03fc6	0.02346791
19	0x3d68bd87	0.056821372
20	0xbafbc2d3	-0.0019207842
21	0x3b80a395	0.0039257505
22	0xbc8d570e	-0.017253425
23	0x3cf6ed89	0.030142562
24	0x3d62d62f	0.055380043
25	0x3cfee5db	0.031115463
26	0x3cf45d10	0.029829532
27	0x3d7941b0	0.06085366
28	0x3d03a418	0.032138914
29	0xbd4fda34	-0.050745204
30	0x3caf99d2	0.021435652
31	0xbcfa137c	-0.030526869
32	0x3cea36ec	0.028590642
33	0xbd5583a0	-0.05212748
34	0xbd919323	-0.07108142
35	0x3d6ec24c	0.058290765
36	0x3d7e07e8	0.06201926
37	0x3cc785d7	0.024355812
38	0x3d7b094e	0.06128817
39	0x3c53bc02	0.0129232425
40	0xbd3d4975	-0.046212632
41	0x3d2b57ae	0.041831665
42	0xbc7c6eee	-0.015407307
43	0xb82dccb5	-4.1437062e-05
44	0xbba48a5b	-0.005021376
45	0xbc0ed337	-0.00871735
46	0xbc4edda6	-0.012626087
47	0xbda0e4af	-0.07856118
48	0xbc954332	-0.018220518
49	0x3d1c94fb	0.038228016
50	0xbc36a479	-0.011147612
51	0xbd929b86	-0.0715857
52	0x3d140dc4	0.03614594
53	0xbc16142a	-0.009160081
54	0xbbbb4e94	-0.0057161544
55	0xbd3aa727	-0.045569565
56	0x3d45be00	0.0482769
57	0x3c8b7038	0.017021284
58	0x3d6dc2fa	0.058047272
59	0xbd3d4525	-0.04620852
60	0x3d717a5c	0.05895458
61	0x3cf9f356	0.03051154
62	0x3b83c4b6	0.0040212525
63	0x3bd2fba3	0.006438689
64	0xbc4ea1d9	-0.01261183
65	0x3d06a177	0.03286883
66	0x3c6c3512	0.01441695
67	0xbd04b344	-0.032397524
68	0x3d8a5ec2	0.06756355
69	0xbc9e297f	-0.019306896
70	0xbd09879b	-0.03357659
71	0x3ce3572d	0.02775153
72	0x3d475afc	0.048670754
73	0x3b683b6c	0.0035435809
74	0xbb5cf42e	-0.0033714878
75	0xbc8617d0	-0.016368777
76	0xbc7e5a78	-0.015524499
77	0xbcd08724	-0.025455065
78	0xbd978f83	-0.074004196
79	0xbcfea918	-0.03108649
80	0xbd412648	-0.04715565
81	0x3d33e017	0.04391488
82	0xbd452945	-0.04813506
83	0x3d2e6516	0.04257687
84	0x3d472547	0.048619535
85	0x3db78cf9	0.08962435
86	0x3d96a399	0.073554225
87	0x3cc8d0c6	0.024513613
88	0x3ce13334	0.027490236
89	0xbd794bd2	-0.060863324
90	0x3d0cfaae	0.034418754
91	0x3c170302	0.009217026
92	0xbd8e6fc4	-0.06954911
93	0x3c71e34c	0.014763664
94	0xbd3b8180	-0.045777798
95	0x3c7141db	0.014725174
96	0xbd9c44f7	-0.076303415
97	0xbd35c740	-0.044379473
98	0x3d3c2e6b	0.045942705
99	0x3d4c7f1a	0.0499259
100	0x3db5f0c3	0.08883812
101	0x3d50e6ff	0.051001545
102	0xbc054e4e	-0.008136345
103	0x3d834261	0.06409145
104	0x3d6a2abc	0.05716966
105	0xbc900e97	-0.017585082
106	0xbd7c8269	-0.061647806
107	0xbd512725	-0.05106272
108	0xbd55467b	-0.05206917
109	0x3cebbef1	0.028777571
110	0xbce1c113	-0.027557885
111	0xbd06129e	-0.0327326
112	0x3c860828	0.016361311
113	0xbd5f8c78	-0.05457732
114	0xbd898371	-0.067145236
115	0xbcdb5bba	-0.026777137
116	0x3ce75cf9	0.028242575
117	0x3d8553d3	0.06510129
118	0x3d507be0	0.050899386
119	0xbc5c3e03	-0.013442519
120	0xbd8b1cd1	-0.06792606
121	0xbc9ac872	-0.018894408
122	0x3d5e60f0	0.054291666
123	0xbc0d17a6	-0.008611595
124	0xbd7b6ef8	-0.061385125
125	0x3d32baed	0.043635298
126	0x3c7021d4	0.014656503
127	0x3d545322	0.051837094
128	0x3c6b8713	0.014375466
129	0xbce00085	-0.027343998
130	0x3c90a336	0.01765595
131	0xbd4d4d42	-0.050122507
132	0xbcb00574	-0.021486975
133	0x3d802951	0.062578805
134	0x3d3c0bcf	0.0459097
135	0xbd49f761	-0.049308185
136	0xbd07f3ed	-0.03319161
137	0x3bf708a7	0.0075388732
138	0xbd4bd17f	-0.049760338
139	0xbd44296a	-0.047891058
140	0x3cb5a306	0.022172462
141	0xbb77f4ce	-0.0037835124
142	0x3c4867cd	0.012231779
143	0xbcb8d424	-0.022562094
144	0xbc364e6f	-0.011127098
145	0x3bd17aca	0.0063928114
146	0xbc81400f	-0.015777616
147	0xbbf753cb	-0.0075478307
148	0x3d00b6e1	0.031424407
149	0xbcfde01a	-0.030990649
150	0x3d443aac	0.047907516
151	0x3d86a6a3	0.06574752
152	0x3d7e7214	0.062120512
153	0xbc971fc7	-0.01844777
154	0x3d4c1770	0.04982704
155	0x3d31d36d	0.043414522
156	0x3c8f6e15	0.017508546
157	0xbd86b507	-0.06577497
158	0xbda932e5	-0.082616605
159	0xbd079089	-0.033096824
160	0x3d3c5ab1	0.045984928
161	0xbc6b7f00	-0.014373541
162	0x3d2d7d04	0.042355552
163	0x3d4157cd	0.047202874
164	0xbba4f0f6	-0.0050336076
165	0x3d36c61c	0.044622526
166	0x3d27892f	0.040902313
167	0x3d2f2a8b	0.04276518
168	0x3c9f666f	0.019458024
169	0x3da43e01	0.08019639
170	0xbd5832f6	-0.052782975
171	0x3d12941c	0.03578578
172	0x3d30195d	0.04299294
173	0x3cd19a4c	0.02558627
174	0xbd7d3ad7	-0.061823692
175	0xbd5b4575	-0.053533036
176	0x3cec4c13	0.028844869
177	0xbc02eb99	-0.007990741
178	0x3d683b56	0.056697212
179	0x3d80eef7	0.06295579
180	0x3d9181ba	0.071048215
181	0x3daeb564	0.08530691
182	0xbd8743f7	-0.0660476
183	0xbd879336	-0.06619875
184	0xbd260793	-0.040534567
185	0x3bd0be7a	0.006370363
186	0xbd06d377	-0.032916512
187	0xbd32a282	-0.04361201
188	0x3d8ac7ae	0.06776367
189	0x3d0e1af7	0.034693684
190	0xbb8f31c7	-0.0043699476
191	0x3c815aa6	0.015790295
192	0xbcd76680	-0.026293993
193	0xbd815927	-0.063158326
194	0xbcfbc7c8	-0.030734912
195	0x3cf90e56	0.030402344
196	0xbd1f6bf1	-0.0389213
197	0xbcad3abf	-0.021146176
198	0xbd910080	-0.070801735
199	0xbc048a0d	-0.0080895545
200	0xbd1c2473	-0.0381207
201	0xbd57b5e9	-0.052663717
202	0x3caf80e4	0.021423765
203	0xbc5964b3	-0.0132686375
204	0x3c755f96	0.014976403
205	0xbd25703e	-0.040390246
206	0x3d6cd9c8	0.05782488
207	0xbd5d3472	-0.054005094
208	0x3bfa1503	0.0076318993
209	0x3c85bc30	0.016325086
210	0xbc57eb6e	-0.013178689
211	0x3c938061	0.018005552
212	0x3d3f4121	0.04669297
213	0xbd1e08e8	-0.038582712
214	0xbc67550d	-0.014119399
215	0x3d157653	0.036489796
216	0x3cc79a75	0.024365643
217	0xbc2e4066	-0.010635471
218	0xbc67aa48	-0.014139719
219	0x3bef0734	0.00729456
220	0xbc5040bd	-0.012710747
221	0x3c936e9a	0.017997075
222	0xbc93066a	-0.017947394
223	0x3d82a28a	0.06378658
224	0x3c13785c	0.009000864
225	0xbd45e984	-0.0483184
226	0xbd0a4f71	-0.033767167
227	0xbd094de4	-0.033521548
228	0x3cdb3b02	0.026761536
229	0x3d312935	0.04325219
230	0xbd63c731	-0.055609886
231	0x3cec548b	0.028848907
232	0x3d70c445	0.058780927
233	0x3cd7257e	0.026262995
234	0x3cb71a9a	0.022351552
235	0xbd501d01	-0.05080891
236	0xbd189326	-0.037249707
237	0xbd0740e8	-0.033020884
238	0x3d135156	0.03596624
239	0xbc551fba	-0.0130080525
240	0xbc953399	-0.01821308
241	0xbd682feb	-0.056686323
242	0xbcf606da	-0.030032564
243	0x3d5f6242	0.054537065
244	0x3d19461c	0.037420377
245	0xbd5b77b9	-0.053580973
246	0xbca03710	-0.019557506
247	0xbd79e9a3	-0.06101383
248	0x3bfac38a	0.0076527046
249	0xbb83d802	-0.004023553
250	0xbd672368	-0.05643025
251	0x3d416388	0.04721406
252	0x3cc3cb65	0.023900697
253	0x3da2ec28	0.079551995
254	0xbcbe4e41	-0.023230674
255	0x3d314dd5	0.043287117

layer4.0.bias f4 [128]
0	0xb6c5da7d	-5.896493e-06
1	0x388bf6e7	6.674026e-05
2	0x37385c04	1.0988679e-05
3	0x37e44b64	2.7214825e-05
4	0x382a4f57	4.060505e-05
5	0xb86d97ee	-5.66467e-05
6	0x37cc8d46	2.438448e-05
7	0xb9b9de8b	-0.00035451757
8	0x38b6130f	8.681986e-05
9	0xb7538713	-1.26080295e-05
10	0x37a09a37	1.9145298e-05
11	0xb885b683	-6.37593e-05
12	0xb87748d8	-5.895723e-05
13	0x38882dd7	6.493524e-05
14	0xb6e46d80	-6.807677e-06
15	0xb87a1444	-5.962352e-05
16	0xb8277cdb	-3.9932183e-05
17	0x39b62b7c	0.00034746144
18	0xb8086d40	-3.2526674e-05
19	0xb7f64965	-2.9359662e-05
20	0x37e98f60	2.7842529e-05
21	0xb7480e74	-1.1924294e-05
22	0x378fe1fa	1.7152157e-05
23	0x367c8247	3.7626758e-06
24	0x36a486d4	4.903277e-06
25	0x3518bafc	5.689651e-07
26	0x383154a6	4.2278924e-05
27	0x35031b88	4.8841366e-07
28	0xb836f661	-4.362164e-05
29	0xb8a3d240	-7.811608e-05
30	0xb7ec65f9	-2.8180877e-05
31	0xb8ba94ae	-8.896865e-05
32	0x37c90b97	2.3966464e-05
33	0x38de560c	0.000106018124
34	0x3806b628	3.2117736e-05
35	0x38ae62e4	8.3153864e-05
36	0x39a2fc54	0.00031087047
37	0x39aeb0ec	0.00033319683
38	0xb8d6a565	-0.00010235122
39	0x383cf721	4.505285e-05
40	0x3695fa95	4.4697176e-06
41	0xb7ee986b	-2.8442786e-05
42	0x39e2314f	0.00043142817
43	0x3719648a	9.142919e-06
44	0xb7d73db0	-2.5658723e-05
45	0xb79edcda	-1.893791e-05
46	0xb868b084	-5.5477503e-05
47	0x38d9a0ad	0.000103772945
48	0x37ed5315	2.829129e-05
49	0xb881505e	-6.166169e-05
50	0x3a08fa78	0.0005225311
51	0xb76a9d23	-1.3984073e-05
52	0xb7b39652	-2.1408461e-05
53	0xb9487362	-0.0001911647
54	0x378de516	1.6915186e-05
55	0xb7d58acc	-2.5456211e-05
56	0x383cc526	4.50063e-05
57	0x3865e0d2	5.4807235e-05
58	0xb787c660	-1.618563e-05
59	0x38ab958b	8.18177e-05
60	0x387ab616	5.9774226e-05
61	0xb816e7b9	-3.5978595e-05
62	0x37aefd2f	2.0860314e-05
63	0xb7c1bf62	-2.3096512e-05
64	0x378f90b0	1.7114304e-05
65	0x38c27f99	9.274408e-05
66	0x38282047	4.0084382e-05
67	0x373864a6	1.0990689e-05
68	0x36f52036	7.305319e-06
69	0xb86eaa06	-5.690197e-05
70	0x3823e4fb	3.9075483e-05
71	0x380093bb	3.0655163e-05
72	0xb85cf3da	-5.2679192e-05
73	0xb5d21748	-1.5652995e-06
74	0xb70a0656	-8.226916e-06
75	0x36d4d2fa	6.3426533e-06
76	0xb9e258a9	-0.00043172136
77	0x38f1d221	0.00011530915
78	0xb8fa297f	-0.00011928658
79	0xb6ecaaf8	-7.0532515e-06
80	0x37514a02	1.2474602e-05
81	0x381e89cb	3.7798465e-05
82	0xb7b2a904	-2.1297958e-05
83	0xb71f89a7	-9.509188e-06
84	0xb7778018	-1.4752171e-05
85	0x3653570e	3.1492123e-06
86	0xb81d6bf4	-3.7532256e-05
87	0x38e082d7	0.00010705523
88	0x35b0f9d7	1.3185735e-06
89	0xb7836e2f	-1.5667725e-05
90	0xb7d808b4	-2.575326e-05
91	0x377a19a6	1.4907133e-05
92	0x3746c212	1.1846905e-05
93	0xb6db9964	-6.5445656e-06
94	0x38bbef40	8.961419e-05
95	0x3795dcc8	1.7864993e-05
96	0xb7c1bcde	-2.3095341e-05
97	0x3849df4f	4.8130107e-05
98	0x37930c58	1.7529514e-05
99	0xb8efcd27	-0.00011434621
100	0xb8e744bd	-0.00011027742
101	0xb87a3a51	-5.9658956e-05
102	0x378dff66	1.6927439e-05
103	0xb836b578	-4.3561187e-05
104	0xb706a0d3	-8.024467e-06
105	0x3984d675	0.00025336785
106	0xb8d32344	-0.00010067833
107	0x365aba65	3.2593027e-06
108	0xb7ec4d14	-2.8169285e-05
109	0xb82d3b88	-4.1301857e-05
110	0xba08158e	-0.00051912
111	0xb68beb77	-4.1699345e-06
112	0x3818d50b	3.6438036e-05
113	0x38c08eb5	9.181855e-05
114	0x38178587	3.6125562e-05
115	0xb744b5ec	-1.1724867e-05
116	0xb79aac6c	-1.843852e-05
117	0xb87a7e38	-5.9722195e-05
118	0x38aea873	8.328343e-05
119	0xb756cab3	-1.2802589e-05
120	0xb79b48b3	-1.8511293e-05
121	0x3806bd2a	3.2124262e-05
122	0xb8d0daa0	-9.958935e-05
123	0xb6f1b414	-7.2033235e-06
124	0xb7cc8756	-2.4381716e-05
125	0xb9f2c25b	-0.00046302643
126	0xb793afcb	-1.7605626e-05
127	0xb872bb25	-5.7871588e-05

layer4.1.weight f4 [128]
0	0x3f7e4c62	0.993353
1	0x3f817cda	1.0116227
2	0x3f78b79f	0.97155184
3	0x3f7f3d9f	0.997034
4	0x3f813834	1.0095277
5	0x3f79794d	0.97450715
6	0x3f802e10	1.0014057
7	0x3f7f7f6a	0.99803793
8	0x3f7cde6a	0.98776877
9	0x3f7c50a4	0.9856055
10	0x3f7fe252	0.9995471
11	0x3f81530f	1.0103472
12	0x3f79ff2d	0.9765499
13	0x3f807a0e	1.0037248
14	0x3f7e8bdb	0.9943215
15	0x3f805714	1.0026574
16	0x3f7dbe63	0.9911863
17	0x3f7b136a	0.980765
18	0x3f7df4cf	0.99201673
19	0x3f7e4286	0.99320257
20	0x3f7c115a	0.98463976
21	0x3f7cfc2f	0.988223
22	0x3f7e7bef	0.9940786
23	0x3f7bfd26	0.9843315
24	0x3f775654	0.966161
25	0x3f7c4f5c	0.9855859
26	0x3f8070fe	1.0034482
27	0x3f7d1c5c	0.988714
28	0x3f7edae2	0.9955274
29	0x3f8096ee	1.004606
30	0x3f7bc647	0.9834942
31	0x3f7e7b3c	0.9940679
32	0x3f7bc204	0.9834292
33	0x3f7eb44a	0.9949385
34	0x3f7e463f	0.9932594
35	0x3f798dfa	0.97482264
36	0x3f7f27fe	0.996704
37	0x3f7c2afd	0.98503095
38	0x3f79d9bf	0.9759788
39	0x3f7c25f0	0.9849539
40	0x3f7c51fb	0.9856259
41	0x3f811881	1.0085603
42	0x3f79ebfa	0.97625697
43	0x3f82a41c	1.0206332
44	0x3f7d7768	0.99010324
45	0x3f7fe901	0.9996491
46	0x3f7dc856	0.99133813
47	0x3f80d9e1	1.0066491
48	0x3f7b67f1	0.98205477
49	0x3f80be3a	1.0058053
50	0x3f81ccfd	1.0140682
51	0x3f7b013f	0.98048776
52	0x3f7b0e34	0.9806855
53	0x3f7f229f	0.996622
54	0x3f7be0aa	0.98389685
55	0x3f7fc00d	0.9990242
56	0x3f7d039e	0.98833644
57	0x3f7ddcce	0.99165046
58	0x3f7c1f08	0.9848485
59	0x3f7ee258	0.99564123
60	0x3f81b77e	1.0134122
61	0x3f7be74f	0.98399824
62	0x3f80fd3f	1.0077285
63	0x3f7c7f58	0.9863181
64	0x3f8163dc	1.01086
65	0x3f814c8f	1.0101489
66	0x3f7f2597	0.9966673
67	0x3f7c163e	0.9847144
68	0x3f7d3bad	0.98919183
69	0x3f80516b	1.0024847
70	0x3f79d7d0	0.9759493
71	0x3f7ec357	0.99516815
72	0x3f803af3	1.001799
73	0x3f7916ac	0.9730022
74	0x3f7e4141	0.9931832
75	0x3f7b5e46	0.98190725
76	0x3f7b4662	0.9815427
77	0x3f8061e5	1.0029875
78	0x3f814261	1.0098382
79	0x3f7f1b3b	0.99650925
80	0x3f7b8090	0.98243046
81	0x3f7c0ce1	0.9845715
82	0x3f829dbf	1.020439
83	0x3f7e9b49	0.99455696
84	0x3f7707f3	0.96496505
85	0x3f82668e	1.0187547
86	0x3f806541	1.00309
87	0x3f7d03e8	0.98834085
88	0x3f80081f	1.0002478
89	0x3f795298	0.97391653
90	0x3f7e40b4	0.9931748
91	0x3f7ddea7	0.99167866
92	0x3f7b75cd	0.98226625
93	0x3f7bde8c	0.98386455
94	0x3f80e14a	1.0068753
95	0x3f7b3b53	0.98137397
96	0x3f81b1d4	1.0132394
97	0x3f7fce6f	0.9992437
98	0x3f812187	1.0088357
99	0x3f7f5a70	0.9974737
100	0x3f7a73ae	0.97832763
101	0x3f800c75	1.0003802
102	0x3f793db4	0.97359776
103	0x3f7ffc17	0.99994034
104	0x3f7ea1f4	0.9946587
105	0x3f82f3b3	1.0230621
106	0x3f7df621	0.9920369
107	0x3f7bfa6b	0.9842898
108	0x3f7d788b	0.9901206
109	0x3f802f67	1.0014466
110	0x3f7fbfd7	0.999021
111	0x3f8001e7	1.000058
112	0x3f7af98d	0.98037034
113	0x3f80ca5b	1.0061754
114	0x3f7fbe3e	0.9989966
115	0x3f7a4585	0.9776233
116	0x3f7bd71f	0.98375124
117	0x3f7c2b13	0.98503226
118	0x3f7db303	0.99101275
119	0x3f7dccf5	0.99140865
120	0x3f7d5b32	0.9896728
121	0x3f7e03f3	0.99224776
122	0x3f82595c	1.018352
123	0x3f7e333e	0.9929694
124	0x3f83826b	1.0274175
125	0x3f7ccf72	0.98754036
126	0x3f7ac5ea	0.9795824
127	0x3f7e8183	0.9941637
