checkpoint_adabn/CNN_1d_0930-141644/model_temp.pth (torch, 937791 bytes, 30 tensors)

layer1.0.weight f4 [16, 1, 15]
0	0x3b6e8d1b	0.0036400023
1	0x3bf740e1	0.007545576
2	0xbe1b448b	-0.15162866
3	0x3e4d4578	0.20046031
4	0xbe69a1cb	-0.22815625
5	0xbe87350f	-0.26407668
6	0x3d2a87de	0.04163348
7	0x3e40f2ab	0.1884257
8	0x3d3c120d	0.045915652
9	0x3d723962	0.059136756
10	0xbe5e1690	-0.21688294
11	0xbe01025a	-0.12598553
12	0xbdc9dbad	-0.09856353
13	0xbe191eaa	-0.14953104
14	0x3e15babd	0.14622016
15	0x3d927d96	0.0715286
16	0x3caf5512	0.02140287
17	0xbc8fef2b	-0.017570099
18	0x3d96c9a4	0.07362679
19	0xbe62a87d	-0.22134586
20	0xbd2443f1	-0.040103856
21	0x3de33f75	0.11096088
22	0xbdfa98e4	-0.12236193
23	0x3e70f039	0.23529138
24	0x3de1cf20	0.11025834
25	0xbdd46722	-0.103712335
26	0xbe36f5a0	-0.17867136
27	0xbcbcf68f	-0.023066787
28	0xbe4bb1ac	-0.19891995
29	0xbd5515a8	-0.052022606
30	0xbdac7855	-0.08421389
31	0xbe92cd49	-0.28672245
32	0xbd5c145e	-0.05373036
33	0x3e3042ab	0.17212932
34	0x3d555672	0.052084394
35	0xbcc4ece5	-0.024038741
36	0xbde732a3	-0.11288955
37	0x3e194d67	0.14970933
38	0xbe6253b6	-0.22102246
39	0x3db1e46d	0.08686147
40	0xbd5b96e6	-0.053610705
41	0xbdff7e93	-0.12475314
42	0xbe03c549	-0.12868227
43	0xbda399e5	-0.079883374
44	0x3dfac0de	0.12243818
45	0xbd076abc	-0.033060774
46	0x3e762ae3	0.24039797
47	0x3e0d5ff8	0.1380614
48	0x3e5bc363	0.21461253
49	0x3bb7c339	0.005607989
50	0x3e3b7669	0.18306889
51	0xbe28b682	-0.16475871
52	0x3e154baf	0.14579652
53	0x3e2cc1ea	0.16870847
54	0x3e66edc3	0.22551636
55	0x3e480b7a	0.19535628
56	0x3e24cadd	0.16093011
57	0x3e6bb49f	0.2301812
58	0x3e207b35	0.15672
59	0x3e5fde05	0.21862037
60	0xbd93234a	-0.07184465
61	0x3e06e512	0.13173321
62	0xbe0bcbeb	-0.13652007
63	0xbe1d4798	-0.15359342
64	0x3dd5a27b	0.10431381
65	0xbe6e886d	-0.2329423
66	0xbdd1ee07	-0.10250478
67	0x3e227497	0.15864788
68	0x3e647f85	0.2231427
69	0x3e4eca9b	0.20194475
70	0xbe77b59e	-0.24190375
71	0x3de8f658	0.11375111
72	0xbd720eca	-0.059096135
73	0x3e15d376	0.14631447
74	0x3e6aa9d1	0.22916342
75	0x3dfd88fd	0.12379644
76	0x3e6baa9a	0.23014298
77	0x3e464e27	0.1936575
78	0x3e402f9c	0.18768162
79	0x3e073732	0.13204649
80	0xbe30da97	-0.17270885
81	0x3d885660	0.066571
82	0x3e69bc73	0.22825794
83	0xbd44539a	-0.04793129
84	0xbd14b78b	-0.036307853
85	0x3e8600f7	0.2617261
86	0x3dedcba8	0.1161111
87	0x3dfb3f70	0.12267959
88	0x3e89adca	0.26890403
89	0x3e4fbe93	0.20287542
90	0xbdd79191	-0.105258115
91	0x3de6100a	0.11233528
92	0xbdbe51cb	-0.092929445
93	0xbdf061c3	-0.117373966
94	0xbb13b1a3	-0.00225363
95	0x3e8e2678	0.27763724
96	0xbe6da54f	-0.23207591
97	0x3dbe2529	0.092844315
98	0x3e1b097a	0.15140334
99	0x3d4c1f96	0.04983481
100	0xbd8021cc	-0.06256446
101	0x3e5b26f0	0.21401572
102	0x3bf37e95	0.0074308612
103	0xbe2a127c	-0.16608614
104	0xbdf564de	-0.119821295
105	0x3dd6f671	0.10496224
106	0xbe6b7c26	-0.22996578
107	0x3c04f3a0	0.008114725
108	0x3cb4eda2	0.022085968
109	0xbda12d7e	-0.07870005
110	0x3e00c45c	0.12574905
111	0x3d86f01b	0.06588765
112	0xbe368807	-0.17825328
113	0x3e17ffa7	0.14843617
114	0xbd6f5e67	-0.05843964
115	0xbca5c61c	-0.020236067
116	0xbe165055	-0.14679082
117	0xbcaa7b97	-0.020810885
118	0x3e8458dd	0.25849047
119	0x3d313bcc	0.043269917
120	0x3d8629d0	0.06550944
121	0xbdb80828	-0.08985931
122	0xbe21a073	-0.15783863
123	0xbc75f48f	-0.015011921
124	0x3e270e02	0.16313937
125	0x3cd6081a	0.02612691
126	0xbd894f11	-0.06704534
127	0xbe82d06e	-0.25549644
128	0x3bbe29e7	0.005803335
129	0x3e52ea5c	0.20597214
130	0x3c910e34	0.017706968
131	0xbe506a24	-0.2035299
132	0x3ddf8f90	0.10916054
133	0xbd97a35f	-0.074042074
134	0xbe5c5a1a	-0.21518746
135	0xbc4a44e5	-0.012345527
136	0x3d21e186	0.039521717
137	0x3e2a8a33	0.16654281
138	0x3e5d1341	0.21589376
139	0x3e1befdc	0.15228218
140	0x3b9229a1	0.004460529
141	0xbd5c160a	-0.053731956
142	0xbdf30054	-0.11865297
143	0xbe64a480	-0.22328377
144	0x3db8754f	0.0900675
145	0xbd071fe2	-0.03298939
146	0x3e4d28e7	0.20035134
147	0x3d87311c	0.06601164
148	0x3e418114	0.18896896
149	0x3d6dee11	0.058088366
150	0x3e83ab55	0.25716653
151	0xbdf5ed29	-0.12008125
152	0x3e570c16	0.21000704
153	0x3d24d432	0.040241428
154	0x3e64f097	0.22357403
155	0x3dae20e6	0.08502369
156	0xbe26113f	-0.16217516
157	0xbe27873a	-0.16360179
158	0xbe4debd9	-0.201095
159	0xbddac405	-0.10681919
160	0xbe854240	-0.26027107
161	0x3e8c1551	0.27360013
162	0x3ddc45ae	0.10755478
163	0xbe22d0be	-0.15899941
164	0x3e5d76d8	0.21627367
165	0x3debdbd7	0.115165405
166	0xbe8b2db3	-0.27183303
167	0x3dc0f348	0.09421402
168	0x3dee7fc3	0.11645462
169	0x3dc1f447	0.0947042
170	0x3e25ffba	0.16210833
171	0x3c0b9fcb	0.008521984
172	0x3e360f35	0.17779239
173	0xbe307a1b	-0.1723408
174	0x3e2973fa	0.16548148
175	0xbdbec9d8	-0.093158424
176	0x3e1d18fd	0.15341564
177	0xbe4b9554	-0.19881183
178	0xbcd9bb77	-0.026578648
179	0x3d2e1e62	0.042509444
180	0xbe46d91d	-0.1941876
181	0x3e36756a	0.17818227
182	0xbe23cf58	-0.15997064
183	0xbd591e05	-0.053007144
184	0x3d3b11c2	0.045671232
185	0x3e80ba78	0.25142264
186	0x3dd4d911	0.10392965
187	0xbcf0839c	-0.029359631
188	0xbc40fc03	-0.011778834
189	0x3dfb8f33	0.122831725
190	0x3de8fc00	0.1137619
191	0xbdfeccab	-0.12441381
192	0xbb5db00b	-0.0033826854
193	0x3e5cf7d6	0.21578917
194	0x3e26ce87	0.16289721
195	0x3e37c6c0	0.17946911
196	0x3d58498d	0.05280452
197	0x3d536f9e	0.05162012
198	0x3e0b2d7a	0.13591567
199	0xbd2e0f7e	-0.042495243
200	0xbe8963af	-0.26833865
201	0xbe2a782b	-0.16647403
202	0xbdf93b0c	-0.121694654
203	0x3e4b97e3	0.19882159
204	0xbd9ab978	-0.075549066
205	0xbe8361af	-0.25660464
206	0x3e03e2ae	0.1287944
207	0xbe33bb40	-0.17551899
208	0x3e1e81cc	0.15479201
209	0x3e2fd627	0.17171536
210	0x3d512130	0.05105704
211	0xbe35d2c9	-0.1775619
212	0x3d848d76	0.06472294
213	0x3e56c0f2	0.2097204
214	0xbc00ca3b	-0.0078607155
215	0xbe1b9aa4	-0.1519571
216	0xbe8e4bc6	-0.27792186
217	0xbbd48d69	-0.006486584
218	0x3c3383bb	0.0109567
219	0x3e94df3f	0.29076573
220	0x3e2cccfd	0.16875072
221	0xbe4d3971	-0.20041443
222	0xbd8e932b	-0.06961664
223	0xbceabe74	-0.028655268
224	0x3e81f4aa	0.25381976
225	0x3e72b376	0.23701271
226	0xbd1537df	-0.036430236
227	0x3d03cb74	0.03217645
228	0x3e86efd3	0.26354846
229	0xbe428d5b	-0.18999235
230	0x3e569429	0.20954956
231	0xbe62cc14	-0.22148162
232	0x3e1aa982	0.15103725
233	0xbe6200fa	-0.22070685
234	0x3e82639a	0.25466615
235	0xbe0acb55	-0.13554128
236	0x3ca6bb03	0.020352846
237	0x3d7280ed	0.059204984
238	0x3c8387be	0.016055938
239	0xbe298033	-0.1655281

layer1.0.bias f4 [16]
0	0x3cbd6b2a	0.023122389
1	0xba715642	-0.0009206274
2	0xbdad825d	-0.084721304
3	0x3d96c8d6	0.07362525
4	0xbba67ae0	-0.005080566
5	0xb8cbe711	-9.722834e-05
6	0x3da8bd92	0.08239283
7	0xb9d20f43	-0.00040065692
8	0xbdc5e217	-0.09662264
9	0x384d531f	4.895322e-05
10	0x3cca72f6	0.02471302
11	0x37937635	1.757881e-05
12	0x3da73b9b	0.08165666
13	0xbbb00796	-0.005371998
14	0x3dc20e47	0.094753794
15	0x3d7eb5ec	0.062185213

layer1.1.weight f4 [16]
0	0x3f80be6a	1.005811
1	0x3f7e0558	0.99226904
2	0x3f85749e	1.0426214
3	0x3f7b4dd1	0.98165613
4	0x3f7cb76f	0.987174
5	0x3f7e7dfb	0.9941098
6	0x3f8169e6	1.0110443
7	0x3f7ecdd3	0.9953281
8	0x3f7237c0	0.9461632
9	0x3f798f02	0.9748384
10	0x3f817b06	1.0115669
11	0x3f8109d0	1.008112
12	0x3f81134f	1.0084018
13	0x3f7e06a7	0.992289
14	0x3f831907	1.0242013
15	0x3f7d9105	0.9904941

layer1.1.bias f4 [16]
0	0x3d41ce9f	0.04731619
1	0xbc13e345	-0.009026353
2	0x3cf58abd	0.029973382
3	0xbbcbfefa	-0.006225464
4	0xbbcb4533	-0.0062033175
5	0xba54154f	-0.00080903334
6	0x3c1c56b7	0.009542159
7	0x3be93ed2	0.0071180845
8	0x3cba6e07	0.022757543
9	0xbb86005f	-0.0040893997
10	0x3d16f382	0.03685332
11	0x3d4fc863	0.050728213
12	0xbcb1ec09	-0.021718996
13	0xbd145ba0	-0.036220193
14	0x3d2c7317	0.042101946
15	0x3d452235	0.048128325

layer1.1.running_mean f4 [16]
0	0x3cda9613	0.02668289
1	0xba45fe62	-0.00075528596
2	0xbdb9b4f8	-0.0906772
3	0x3da29190	0.0793792
4	0xbbd34723	-0.006447689
5	0xb7908370	-1.7227343e-05
6	0x3db4d023	0.088287614
7	0xb9629510	-0.0002160857
8	0xbdd2d103	-0.10293772
9	0x3898f2e1	7.2931645e-05
10	0x3ce73fc7	0.028228654
11	0xb90891c1	-0.00013024268
12	0x3db391cf	0.08768045
13	0xbbe82cd0	-0.00708542
14	0x3dceee30	0.101040244
15	0x3d8a0ed4	0.067411095

layer1.1.running_var f4 [16]
0	0x3eb68f94	0.35656416
1	0x3e637bdd	0.22215219
2	0x3e924fed	0.28576604
3	0x3fc7799a	1.5583985
4	0x3eb29cbe	0.3488521
5	0x3fa59b9b	1.2938112
6	0x3e78547d	0.2425098
7	0x3e4af7cf	0.19821094
8	0x3e90ab55	0.28255716
9	0x3e854cef	0.26035258
10	0x3eaee951	0.3416238
11	0x3e6c4647	0.23073684
12	0x3eadc1c5	0.33936897
13	0x3e8c31cc	0.27381742
14	0x3e8400fa	0.25781995
15	0x3e914955	0.2837626

layer2.0.weight f4 [32, 16, 3]
0	0x3ac43d99	0.0014971971
1	0xbd8aaf23	-0.06771686
2	0x3cf8ecf0	0.030386418
3	0xbdc5b0d6	-0.096528694
4	0xbd0001eb	-0.03125183
5	0xbe14134f	-0.1446049
6	0x3e0434b8	0.12910736
7	0xbc218a85	-0.009859686
8	0xbd9c96c9	-0.076459475
9	0x3df55023	0.119781755
10	0x3decf26b	0.11569675
11	0xbcd906cd	-0.0264925
12	0xbd54b231	-0.05192775
13	0xbcfdd083	-0.030983215
14	0xbca0ea97	-0.019643111
15	0xbcd3cac5	-0.025853524
16	0x3da47d6d	0.080317356
17	0x3e0dd2c4	0.13849932
18	0xbe0c75c3	-0.13716798
19	0xbd1ea3b6	-0.038730346
20	0xbd89f013	-0.06735244
21	0xbdf4a3fa	-0.119453385
22	0x3c83e19e	0.016098794
23	0xbe18a1a2	-0.14905408
24	0x3d93e7a5	0.07221917
25	0x3dd366fa	0.103223756
26	0x3d8857a4	0.06657341
27	0x3cdb798c	0.026791357
28	0x3df07374	0.11740771
29	0xb956140c	-0.00020416098
30	0x3ddd83e2	0.1081617
31	0xbcde3a9b	-0.027127555
32	0xbc7d67d8	-0.015466653
33	0xbcb0c050	-0.021576077
34	0xbdcfc89f	-0.10145687
35	0xbdb8ed70	-0.090296626
36	0x3c875140	0.016518235
37	0xbd83ec97	-0.0644161
38	0x3d891b3f	0.0669465
39	0x3d18d907	0.03731635
40	0xbe0db01d	-0.13836713
41	0x3bea2182	0.0071451077
42	0x3de7b2b0	0.11313379
43	0xbc654ed7	-0.013995848
44	0x3c972522	0.018450323
45	0xbddac8e9	-0.10682852
46	0xbe00f30f	-0.1259272
47	0x3d61682b	0.055030983
48	0x3d2b06cb	0.041754525
49	0x3cc5083f	0.024051784
50	0x3bd2db66	0.0064348457
51	0x3d98daf7	0.07463639
52	0xbc90f3fa	-0.017694462
53	0xbcbc2299	-0.022965716
54	0x3d9cec64	0.076622754
55	0x3ddbd9d4	0.10734907
56	0x3db2fb8a	0.087393835
57	0x3bfb4abc	0.007668821
58	0xbcdbc5ff	-0.02682781
59	0x3d99427b	0.07483383
60	0xbd41ece1	-0.047345046
61	0xbdf95e68	-0.1217621
62	0xbe2369d0	-0.15958333
63	0xbd7dbfab	-0.061950367
64	0xbdca3637	-0.09873622
65	0xbdefbe17	-0.11706179
66	0x3db1005d	0.086426474
67	0xbd91cb8f	-0.07118904
68	0xbd62c8fb	-0.05536745
69	0xbd8ead3a	-0.06966634
70	0x3b8b3af6	0.004248972
71	0x3da6cd50	0.08144629
72	0x3d3ffb2d	0.0468704
73	0xbe241088	-0.16021931
74	0x3dd4b330	0.1038574
75	0x3df0cf50	0.11758292
76	0x3cb2654f	0.021776823
77	0xbd50195c	-0.050805435
78	0x3cff7b43	0.031186705
79	0xbdc5e0b0	-0.09661996
80	0xbd8404ce	-0.06446229
81	0x3d8becf5	0.06832305
82	0xbd084625	-0.03327002
83	0x3be2103c	0.006898908
84	0x3de82e73	0.113369845
85	0xbd9e109f	-0.07718014
86	0xbe0d9a7f	-0.13828467
87	0xbb8e7b51	-0.0043481966
88	0xbd450111	-0.04809672
89	0xbe3abe35	-0.1823662
90	0xbd9790ba	-0.07400651
91	0xbcbfdf04	-0.023421772
92	0xbe05a675	-0.1305178
93	0xbdd65c17	-0.104667835
94	0x3c875cb4	0.016523696
95	0x3ded0c08	0.115745604
96	0xbe08588b	-0.13315026
97	0xbda204d9	-0.07911081
98	0xbd81e8c9	-0.06343228
99	0xb8a1c51f	-7.713795e-05
100	0xbc92120e	-0.017830875
101	0xbd4a2972	-0.04935593
102	0xbb3e5a74	-0.0029045613
103	0xbbd64bb8	-0.006539788
104	0x3cab7292	0.020928655
105	0x3d30af8b	0.04313616
106	0xbd31417f	-0.043275353
107	0xbd1b6b81	-0.03794432
108	0xbdd86301	-0.105657585
109	0xbe083aa6	-0.13303623
110	0x3d9003a3	0.07031944
111	0xbdb60e97	-0.088895015
112	0xbd82a3ce	-0.063788995
113	0xbd08051e	-0.033208005
114	0x3d189faa	0.037261643
115	0x3d811a43	0.06303837
116	0xbcd6b12d	-0.02620753
117	0x3da0040d	0.078132726
118	0x3d73592b	0.05941121
119	0xbc60190e	-0.0136778485
120	0xbbe47985	-0.006972494
121	0xbdf20295	-0.11816899
122	0x3d937e08	0.07201773
123	0xbe158c65	-0.14604338
124	0x3bf8f059	0.007597011
125	0xbd2e0bff	-0.04249191
126	0xbe239c3a	-0.15977564
127	0xbe02ed1c	-0.12785763
128	0xbdded3ef	-0.10880267
129	0x3c6664d8	0.014062129
130	0x3de03660	0.10947871
131	0xbcfc0133	-0.03076229
132	0xbb8e08f3	-0.004334563
133	0x3cd159ea	0.02555557
134	0xbcaa4173	-0.020783162
135	0xbdb9dea0	-0.090756655
136	0xbd80bb7a	-0.06285758
137	0xbe169dff	-0.14708708
138	0xbe14b637	-0.14522634
139	0xbd3ba01f	-0.045807
140	0xbd8d4f74	-0.0689992
141	0xbc92777a	-0.017879236
142	0xbdd58b67	-0.104269795
143	0xbd0a343f	-0.033741232
144	0xbe0b54b4	-0.1360653
145	0xbdc97fa6	-0.098388
146	0x3da9adcf	0.082851045
147	0x3da2fc73	0.07958307
148	0xbde97e6a	-0.11401065
149	0xbc793502	-0.015210392
150	0x3da80602	0.08204271
151	0x3de56bfa	0.112022355
152	0xbca55522	-0.020182196
153	0xbdebaa16	-0.11507051
154	0x3dda8b59	0.1067111
155	0xbd9d08df	-0.07667708
156	0x3e1dab78	0.15397441
157	0xbcab65c4	-0.02092255
158	0x3d9be742	0.07612468
159	0xbdccd771	-0.1000203
160	0xbaf7aaef	-0.0018895547
161	0x3def54d2	0.116861
162	0x3dc898bd	0.097947575
163	0x3e079621	0.13240863
164	0x3cc47ec2	0.023986224
165	0xbd4c2792	-0.049842425
166	0xba10e0b4	-0.00055266474
167	0x3e2510f6	0.16119751
168	0x3d24e650	0.040258706
169	0x3ddd329c	0.108006686
170	0x3e0f39a6	0.13986835
171	0xbd75e283	-0.06003047
172	0x3de93b2f	0.113882415
173	0xbdade97e	-0.08491801
174	0xbdc73479	-0.09726805
175	0xbd9a2fef	-0.07528674
176	0x3c53d278	0.012928598
177	0x3cd06c76	0.025442343
178	0x3daed760	0.08537173
179	0xbd84e16a	-0.06488307
180	0x3dd46c46	0.10372214
181	0x3e1b2f6a	0.15154806
182	0x3d5025d6	0.050817333
183	0xbd104ad5	-0.035227615
184	0x3db7275c	0.08943054
185	0xbc0c6767	-0.008569575
186	0x3df79374	0.12088671
187	0xbd87bbfb	-0.06627651
188	0xbdcf3eea	-0.10119422
189	0xbe0c677d	-0.13711353
190	0x3cf88e92	0.03034142
191	0xbca756ac	-0.02042707
192	0xbde63046	-0.11239676
193	0x3d2ec273	0.04266591
194	0xbd59b4a6	-0.053150795
195	0xbdac7716	-0.08421151
196	0xbdf9b66d	-0.12192998
197	0xbdb38ff8	-0.08767694
198	0xbd826368	-0.063666165
199	0x3dfb622b	0.122745834
200	0x3caf5999	0.021405028
201	0xbde92998	-0.113848865
202	0xbe030ed3	-0.12798624
203	0x3db16ae0	0.08662963
204	0x3d80bfe0	0.06286597
205	0x3cb0f994	0.021603383
206	0xbdd6e797	-0.10493391
207	0xbcd91835	-0.0265008
208	0xbdec5811	-0.11540235
209	0x3ded846d	0.11597524
210	0x3d539768	0.051658064
211	0x3d0948eb	0.033516806
212	0xbdc18758	-0.09449643
213	0x3d755fd3	0.05990584
214	0xbc93a498	-0.01802282
215	0x3dd4c747	0.10389572
216	0xbd809d31	-0.06279982
217	0x3decc01c	0.115600795
218	0xbdcbcb44	-0.09950879
219	0xbdbb60e6	-0.09149341
220	0xbddf0d5f	-0.10891222
221	0xbc95575b	-0.01823013
222	0xbc42d4c3	-0.011891547
223	0xbb952f54	-0.004552761
224	0x3d9d9f5b	0.0769641
225	0x3da3d28f	0.07999145
226	0x3d1f0cc1	0.038830522
227	0x3e1c1e52	0.15245941
228	0xbc2f9c5c	-0.010718431
229	0x3d46e41e	0.048557393
230	0xbd8fca86	-0.0702105
231	0x3d5edc35	0.054409225
232	0x3da5960e	0.08085261
233	0xbda7deef	-0.08196818
234	0x3e0fc3b3	0.14039497
235	0x3d5386fa	0.051642396
236	0x3d9747f0	0.07386768
237	0xbdd379c8	-0.10325962
238	0x3dce084e	0.10060178
239	0xbdfe9c0b	-0.124321066
240	0x3da93ad3	0.08263173
241	0xbda0a815	-0.07844559
242	0xbdbbdf1a	-0.091734126
243	0x3dd518df	0.104051344
244	0xbe0cc1eb	-0.13745849
245	0xbcc102ef	-0.02356097
246	0xbe060d0d	-0.13090916
247	0x3dc254cb	0.09488829
248	0x3d0dac8c	0.03458838
249	0xbd5e2605	-0.054235477
250	0x3cd3b700	0.025844097
251	0xbd548738	-0.051886767
252	0x3ac7db8b	0.0015247924
253	0xbbc07712	-0.0058735693
254	0x3d17cbdc	0.03705965
255	0x3db9d43d	0.09073684

layer2.0.bias f4 [32]
0	0xb9239842	-0.00015601612
1	0x3901e051	0.00012385963
2	0x396887fa	0.000221759
3	0x3c953c2b	0.018217167
4	0x38a8f71c	8.056892e-05
5	0x39369188	0.00017411087
6	0x39a97112	0.00032318436
7	0x3917ff40	0.0001449557
8	0xb84dd823	-4.90771e-05
9	0xbacfe29a	-0.0015860379
10	0xbc9d8dbd	-0.019232625
11	0xb9eab73b	-0.00044768475
12	0x391957af	0.00014623882
13	0xba4ddc9f	-0.00078530045
14	0x392503f9	0.00015737106
15	0xbb721b51	-0.0036942551
16	0xbb0ae065	-0.0021190878
17	0x3a153c18	0.00056928536
18	0x3902d925	0.00012478659
19	0xbb9de23b	-0.0048182285
20	0x3abc1863	0.001435053
21	0x38c5181d	9.3981835e-05
22	0xb9f93b1c	-0.0004753702
23	0xb948c04b	-0.00019145121
24	0xbc510f9c	-0.012760069
25	0xb8fb49f0	-0.000119823846
26	0xba591af8	-0.0008281912
27	0x3a2b1b01	0.0006527156
28	0xbc1963ed	-0.009362203
29	0x39eaab31	0.00044759506
30	0x38aad191	8.1452665e-05
31	0x392f5d2a	0.00016724007

layer2.1.weight f4 [32]
0	0x3f7d75b5	0.9900773
1	0x3f7f15ea	0.99642813
2	0x3f820ad2	1.0159552
3	0x3f83fb33	1.0311035
4	0x3f7ab071	0.9792548
5	0x3f7bae96	0.9831327
6	0x3f804c56	1.0023296
7	0x3f827f0a	1.0195019
8	0x3f7a789f	0.97840303
9	0x3f7b1549	0.98079354
10	0x3f7cd117	0.98756546
11	0x3f7f7b9b	0.9979798
12	0x3f8198cf	1.0124758
13	0x3f76a2ae	0.9634198
14	0x3f800309	1.0000926
15	0x3f81db30	1.0145016
16	0x3f7b38dc	0.98133636
17	0x3f7f07f2	0.996215
18	0x3f830433	1.0235656
19	0x3f834b68	1.0257387
20	0x3f83413a	1.025428
21	0x3f81879b	1.0119509
22	0x3f7d5f5c	0.9897363
23	0x3f7990d5	0.9748662
24	0x3f801680	1.0006866
25	0x3f816b0a	1.0110791
26	0x3f7eb7de	0.9949931
27	0x3f80c463	1.0059932
28	0x3f8499d0	1.035944
29	0x3f8439e5	1.0330168
30	0x3f80fa88	1.0076456
31	0x3f7c6a5a	0.9859978

layer2.1.bias f4 [32]
0	0x3a65ac7e	0.000876136
1	0x3cb57ae2	0.022153322
2	0x3c5bd976	0.013418546
3	0xbd3341d4	-0.04376395
4	0xbccc94e2	-0.024973337
5	0xbc8a273d	-0.016864413
6	0xbd122c3e	-0.035686724
7	0x3c8335b0	0.016016811
8	0xbc2df769	-0.010618069
9	0xbc1e7866	-0.00967226
10	0xbcc64873	-0.024204468
11	0xbc5991cb	-0.013279389
12	0x3c568067	0.013092137
13	0xbd1c0b71	-0.03809685
14	0x3bfedcf9	0.007777807
15	0xbc15ce15	-0.009143372
16	0xbc3763f0	-0.011193261
17	0xbc83cddc	-0.016089372
18	0x3d6d416a	0.05792371
19	0x3ca456c5	0.020060906
20	0x3c43b54b	0.011945079
21	0x3cbfe03f	0.023422359
22	0x3c923f7a	0.017852534
23	0x3ca0e8a6	0.019642185
24	0xbce38946	-0.027775418
25	0x3c03d4f6	0.008046379
26	0xbc91feae	-0.017821636
27	0x3d135c3a	0.035976626
28	0x3bb5a570	0.0055434033
29	0x3ce8c8bc	0.02841603
30	0x3cce8ea6	0.025214504
31	0xbca30972	-0.019901965

layer2.1.running_mean f4 [32]
0	0xbdbd0a36	-0.09230463
1	0xbe64a26e	-0.22327587
2	0xbf1a8609	-0.6036077
3	0x3e8c58a6	0.27411383
4	0xbd737bb6	-0.05944415
5	0xbe4f1b2e	-0.20225212
6	0x3c0514db	0.008122648
7	0x3d260026	0.040527485
8	0x3e1743e0	0.14771986
9	0x3d644e5e	0.0557388
10	0x3e0b4fd9	0.13604678
11	0x3d5c52ab	0.053789776
12	0xbedb663a	-0.4285143
13	0x3d61ef5c	0.05515991
14	0xbea3f6d8	-0.32024264
15	0xbdea812e	-0.1145042
16	0xbe11fc2b	-0.1425635
17	0xbe0ddf35	-0.13854678
18	0xbea00284	-0.3125192
19	0xbe46c0a9	-0.19409432
20	0xbe67ee2d	-0.2264945
21	0x3c974089	0.01846339
22	0xbedc41b4	-0.43018878
23	0x3e8b5af0	0.27217817
24	0x3da34ac9	0.079732485
25	0xbe3d3037	-0.18475424
26	0x3ea9b7be	0.33147997
27	0xbebc5751	-0.36785367
28	0xbd484fc5	-0.0489042
29	0xbf2e38ba	-0.6805531
30	0xbe92fa6f	-0.2870669
31	0x3ea9b45e	0.33145422

layer2.1.running_var f4 [32]
0	0x3e27c4d1	0.16383673
1	0x3e568931	0.20950772
2	0x3e83270f	0.25615737
3	0x3de65923	0.1124747
4	0x3dd9f78c	0.10642919
5	0x3e1f9f15	0.15588029
6	0x3d9ed0ee	0.07754694
7	0x3e2ebf05	0.17065056
8	0x3e54da38	0.20786369
9	0x3e1d857d	0.15382953
10	0x3dfad269	0.12247164
11	0x3e4e4a2d	0.20145483
12	0x3e657cfe	0.22410962
13	0x3e2e93af	0.17048524
14	0x3eed15d3	0.46305713
15	0x3e57e495	0.21083291
16	0x3e20d5fd	0.1570663
17	0x3dbbe53a	0.09174581
18	0x3e2a6d2d	0.1664321
19	0x3db8d59a	0.09025116
20	0x3e3e4d24	0.18584114
21	0x3db33a3b	0.08751341
22	0x3e557d96	0.20848688
23	0x3e0797f9	0.13241567
24	0x3e056200	0.13025665
25	0x3db2f54b	0.08738192
26	0x3e04b476	0.12959465
27	0x3e4aa12d	0.19788046
28	0x3d85a76c	0.06526074
29	0x3ed9b620	0.42521763
30	0x3e20d84b	0.15707509
31	0x3e1ed5ef	0.15511297

layer3.0.weight f4 [64, 32, 3]
0	0x3dc23301	0.094823845
1	0xbd1e3fb2	-0.038634963
2	0x3dd5e411	0.10443891
3	0x3d7f9b57	0.062404003
4	0x3d7f5cc8	0.062344342
5	0xbd45aace	-0.048258595
6	0x3d5d85fb	0.05408285
7	0xbdec3344	-0.11533216
8	0xbdd196e8	-0.10233861
9	0x3d98f6fc	0.074689835
10	0xbdcfb2e3	-0.10141542
11	0x3d876399	0.066107936
12	0xbd98a195	-0.07452694
13	0x3d43e712	0.047827788
14	0x3dd12cb4	0.102136046
15	0x3c61eba3	0.01378909
16	0xbcafbd25	-0.021452496
17	0xbd99faba	-0.075185254
18	0x3dcc56f7	0.09977525
19	0x3d83554a	0.06412752
20	0xbc999f18	-0.01875262
21	0xbd916f66	-0.07101326
22	0xbd5a8d41	-0.053357366
23	0xbdb5b6ac	-0.088727325
24	0xbdcd8be7	-0.1003645
25	0xbb56fc5b	-0.0032804224
26	0x3d50fc3e	0.051021807
27	0x3d0ecae5	0.034861464
28	0x3b839885	0.0040159845
29	0x3c972059	0.018448042
30	0xbd717e9f	-0.058958646
31	0xbdb75bee	-0.08953081
32	0xbd969bd4	-0.073539406
33	0xbd602e1d	-0.054731477
34	0x3d27da40	0.040979624
35	0xbdaaa326	-0.08331899
36	0xbd3777c2	-0.044791944
37	0x3d30a9ad	0.043130565
38	0xbd443305	-0.04790022
39	0x3d33c6b4	0.04389067
40	0x3d3ae798	0.04563102
41	0xbdc9c0bf	-0.098512165
42	0x3dee3af8	0.11632341
43	0xbd98b2a9	-0.07455952
44	0x3de6ffd3	0.11279263
45	0x3cc7db12	0.024396453
46	0x3d4bb793	0.049735617
47	0xbde2af27	-0.11068564
48	0xbcb9eb87	-0.022695316
49	0x3d061241	0.032732252
50	0x3d7900bb	0.060791712
51	0xbd78eaed	-0.060770918
52	0x3cbae109	0.022812383
53	0x3bf07438	0.007338073
54	0xbe086e31	-0.13323285
55	0x3c0752ae	0.0082594585
56	0xbce13a71	-0.027493687
57	0xbc311eed	-0.010810596
58	0xbc544a08	-0.012957104
59	0x3d77a1b5	0.06045695
60	0xbdc0a16f	-0.09405791
61	0xbd9aafd8	-0.07553071
62	0x3d2a54b1	0.041584674
63	0xbd168a23	-0.03675283
64	0xbdb2f464	-0.0873802
65	0xbd2874ff	-0.0411272
66	0x3db2be82	0.08727743
67	0xbd836a8c	-0.064168066
68	0x399ce588	0.00029925653
69	0xbd1b8fd8	-0.037978977
70	0xbd8291c4	-0.06375459
71	0xbd1c23b8	-0.03812
72	0x3d39ca4e	0.04535895
73	0x3dcd771a	0.100324824
74	0xbd9250a5	-0.07144288
75	0x3e03299d	0.12808843
76	0xbd9da19f	-0.076968424
77	0x3d8b9909	0.068162985
78	0x3b2d0a36	0.0026403791
79	0x3c924b3a	0.017858136
80	0x3cdc5cc8	0.02689971
81	0xbcfb969a	-0.03071146
82	0xbd8e5a21	-0.069507845
83	0xbc8bb9e9	-0.017056422
84	0xbd93dc4a	-0.07219751
85	0xbc852455	-0.016252676
86	0xbd6e9cab	-0.05825488
87	0xbce17a2d	-0.027524078
88	0x3c2a5236	0.010395577
89	0xbe2404a7	-0.160174
90	0x3d0a40cb	0.033753198
91	0xbc7c6ab6	-0.015406301
92	0x3c59c820	0.013292342
93	0x3b39c0d5	0.0028343697
94	0xbd070ebf	-0.032973047
95	0xbd21a346	-0.03946235
96	0x3de197dd	0.11015294
97	0x3cd96056	0.026535194
98	0xbcd89611	-0.026438745
99	0x3d1fb377	0.03898951
100	0x3dc70620	0.09717965
101	0x3d1a3676	0.037649594
102	0x3c3f4454	0.011674006
103	0xbd90225c	-0.070378035
104	0x3d410809	0.047126804
105	0xbcf977a9	-0.030452566
106	0x3d9294e7	0.07157307
107	0x3d8d9c4a	0.069145754
108	0x3c8369f3	0.016041731
109	0x3d531982	0.051537998
110	0xbdb9b9a7	-0.090686135
111	0x3d155934	0.036462024
112	0x3bd70c5e	0.0065627536
113	0xbddba7d5	-0.10725371
114	0x3d141a76	0.036158048
115	0xbd663ac7	-0.0562084
116	0x3d3a5921	0.045495156
117	0x35552444	7.9401457e-07
118	0xbd91d614	-0.0712091
119	0xbde1b71c	-0.110212535
120	0x3dadc4e9	0.08484823
121	0x3d0e05bc	0.034673437
122	0x3da0f887	0.07859903
123	0xbdf0664f	-0.11738264
124	0x3d62d244	0.055376306
125	0xbdb86f03	-0.09005549
126	0xbde3ff2c	-0.111326545
127	0x3d06c683	0.03290416
128	0xbcd5c1a4	-0.026093312
129	0xbddc0fe6	-0.1074522
130	0xbd5409e3	-0.05176724
131	0xbca0e0a2	-0.019638363
132	0xbdc0dc01	-0.094169624
133	0x3da668b5	0.0812544
134	0x3c212047	0.009834356
135	0xbd88031c	-0.06641218
136	0xbdd7c2d3	-0.10535207
137	0x3c247baa	0.010039249
138	0x3c68180d	0.01416589
139	0xbcb7cca4	-0.022436447
140	0x3db26251	0.087101586
141	0xbd2eb3bd	-0.04265188
142	0xbddff0e2	-0.109346166
143	0x3cc04633	0.023470974
144	0x3abdb577	0.0014473636
145	0xbcbaa3a8	-0.022783116
146	0xbd8d1ae1	-0.06889892
147	0x3d19ed6c	0.03757994
148	0x3dbe76f2	0.09300031
149	0xbd82fc30	-0.06395757
150	0xbdaeea06	-0.0854073
151	0x3cf4258b	0.029803058
152	0xbd2b5cd6	-0.041836582
153	0xbc356ea1	-0.011073739
154	0xbc25751a	-0.01009872
155	0x3d26f231	0.040758315
156	0xbdd7f47c	-0.105446786
157	0xbacb3296	-0.0015502747
158	0xba940636	-0.0011293355
159	0xbd9dd78b	-0.07707127
160	0xbc4006f6	-0.01172041
161	0x3ca33266	0.019921493
162	0x3d28dee4	0.04122819
163	0x3cbf2dbb	0.023337236
164	0xbdad052c	-0.08448252
165	0xbd7542c5	-0.05987813
166	0x3baf02f2	0.0053409273
167	0x3bbb1926	0.005709785
168	0x3d71a676	0.05899664
169	0x3d17b908	0.037041694
170	0xbd11c0e4	-0.035584345
171	0x3d2311e0	0.03981197
172	0x3da38b82	0.079855934
173	0x3c46e2d2	0.012139039
174	0x3d33e064	0.043915167
175	0xbd1d19c5	-0.038354654
176	0x3c5907b1	0.013246463
177	0xbce75643	-0.028239375
178	0xbda2fa86	-0.0795794
179	0x3da0d23a	0.078525975
180	0x3ced7f79	0.028991448
181	0xbd5ab511	-0.053395335
182	0xbd89bc51	-0.06725372
183	0xbddcbcda	-0.10778208
184	0xbe02aedb	-0.12762015
185	0xbe0a9a15	-0.1353534
186	0xbc9e4d5d	-0.019323999
187	0xbd226b97	-0.039653387
188	0x3dbda250	0.09259474
189	0xbcee7102	-0.02910662
190	0x3cb874b5	0.022516588
191	0xbdb26cdc	-0.087121695
192	0xbd335b25	-0.043788094
193	0x3dab3082	0.083588615
194	0xbda398b0	-0.07988107
195	0x3d695629	0.056966934
196	0x3c5677da	0.013090098
197	0xbd19812c	-0.037476704
198	0xbdb817d2	-0.08988918
199	0xbdcdc0bd	-0.100465275
200	0x3dbbbddd	0.09167073
201	0x3a527e03	0.00080296415
202	0xbd008c00	-0.031383514
203	0x3ce2af24	0.027671404
204	0xbd896324	-0.06708363
205	0x3dad9213	0.08475127
206	0xbd860a7f	-0.06544971
207	0x3d94fc35	0.07274667
208	0x3da8c12a	0.08239968
209	0xbb62a306	-0.0034582033
210	0x3cfeb3e7	0.031091643
211	0xbd2d5501	-0.042317394
212	0xbd9c8c1f	-0.076439135
213	0x3dc71abd	0.09721897
214	0x3db66669	0.08906252
215	0xbdcf69dd	-0.10127614
216	0xbd9e12ea	-0.07718451
217	0x3baa0eba	0.005189744
218	0x3d73cefc	0.059523568
219	0x3dd6a025	0.10479764
220	0xbc910ccd	-0.0177063
221	0xbd63519f	-0.05549776
222	0x3db99afd	0.09062765
223	0xbd24ada3	-0.040204655
224	0xbd77abff	-0.060466763
225	0xbdad71d7	-0.08468979
226	0x3da642c9	0.08118207
227	0x3db50078	0.0883798
228	0x3c89ae50	0.016806751
229	0x3b2e4ba2	0.0026595374
230	0xbcddea30	-0.027089208
231	0xbd4ed511	-0.050496165
232	0xbda4b1b1	-0.080417044
233	0x3da1dcff	0.0790348
234	0x3d89a8d0	0.067216516
235	0xbd290472	-0.041264005
236	0xbcbe8c84	-0.023260362
237	0x3d008449	0.031376157
238	0xbd5df7a3	-0.054191243
239	0x3b9339f5	0.004492993
240	0xbd50cd71	-0.050977174
241	0x3da0058c	0.07813558
242	0xbd989277	-0.07449811
243	0xbc103185	-0.008800869
244	0xbd9fca23	-0.078022264
245	0xbdd4f31d	-0.10397933
246	0xbd5fe7ab	-0.054664295
247	0x3d6814f1	0.056660596
248	0x3d2d6dfd	0.04234122
249	0x3d978550	0.07398474
250	0x3d3c756b	0.046010416
251	0x3d6c1aa2	0.057642587
252	0x3dc82480	0.09772587
253	0xbcbaa997	-0.022785945
254	0x3d6997b7	0.057029452
255	0xbcb100a3	-0.021606749

layer3.0.bias f4 [64]
0	0xba2a1bce	-0.00064891286
1	0x3ad8dd57	0.0016545457
2	0xb8cb1ee4	-9.685548e-05
3	0x359df341	1.1768208e-06
4	0xb8417928	-4.612762e-05
5	0x3916622b	0.00014341685
6	0x37bfa859	2.2847367e-05
7	0x384e7401	4.9222264e-05
8	0xb7e0bbbd	-2.6790303e-05
9	0xb8ba327e	-8.878576e-05
10	0xb823d386	-3.9059225e-05
11	0xb7ada7a3	-2.0701269e-05
12	0xb676b37e	-3.6761335e-06
13	0xb82d0c7b	-4.1258038e-05
14	0x3a842cf6	0.00100842
15	0x37bb8121	2.2352267e-05
16	0xb71fd95e	-9.527748e-06
17	0x36f606e8	7.3321753e-06
18	0xb6f5af8f	-7.3220067e-06
19	0x384808d1	4.7691927e-05
20	0x3790c468	1.7257596e-05
21	0x370c30d0	8.356015e-06
22	0x380df33f	3.384356e-05
23	0xb9e37f8f	-0.00043391853
24	0x383932ee	4.415487e-05
25	0xbaa30f3b	-0.0012440452
26	0xb8151129	-3.554035e-05
27	0xb8024143	-3.1055195e-05
28	0xb8811f1e	-6.1569954e-05
29	0xb7bfb339	-2.2852431e-05
30	0xb952d0b2	-0.00020104906
31	0xb76a3546	-1.3959891e-05
32	0xb82c18c3	-4.1031057e-05
33	0x3900b582	0.00012274648
34	0xb7025f59	-7.770804e-06
35	0x3aefd0e2	0.0018296505
36	0xb827c75a	-4.0001563e-05
37	0x378211a0	1.5505415e-05
38	0x3a8cdf03	0.0010747615
39	0x383f731e	4.564516e-05
40	0x3b309414	0.002694373
41	0x395ca4c5	0.00021042216
42	0xbab7db81	-0.0014027209
43	0x38bdcca2	9.050338e-05
44	0xb90250e7	-0.00012427905
45	0x3b42d9d8	0.0029731896
46	0x3821f994	3.861783e-05
47	0xba070088	-0.00051499205
48	0xb8dd25d0	-0.00010545144
49	0xb6041f6f	-1.968783e-06
50	0x37a41e28	1.9564366e-05
51	0x379b034f	1.847898e-05
52	0x3a72d00f	0.00092625705
53	0x39bc330f	0.00035896196
54	0xb892ce4c	-7.000248e-05
55	0xb914108e	-0.00014120547
56	0xb8cdbc0a	-9.810187e-05
57	0xb998f1c8	-0.0002917184
58	0x37aa7e2c	2.0324333e-05
59	0x3b394e1a	0.0028275312
60	0xb81a9426	-3.6854435e-05
61	0x3b379af6	0.0028015948
62	0x3832ceb4	4.2631014e-05
63	0xb7e069fa	-2.675223e-05

layer3.1.weight f4 [64]
0	0x3f823c37	1.0174626
1	0x3f827a96	1.019366
2	0x3f81719e	1.0112798
3	0x3f80aa81	1.0052034
4	0x3f7b11b5	0.98073894
5	0x3f7deff9	0.99194294
6	0x3f812e9e	1.0092351
7	0x3f83057a	1.0236046
8	0x3f871621	1.0553628
9	0x3f7c057b	0.9844586
10	0x3f7cea1b	0.98794717
11	0x3f78f069	0.97241837
12	0x3f7f8dad	0.99825555
13	0x3f7b2fed	0.98120004
14	0x3f7cb283	0.9870989
15	0x3f7d37f1	0.98913485
16	0x3f80009c	1.0000186
17	0x3f7dee0c	0.99191356
18	0x3f80fbad	1.0076805
19	0x3f7dd998	0.99160147
20	0x3f800e55	1.0004374
21	0x3f80ba08	1.0056772
22	0x3f8056ff	1.0026549
23	0x3f841bfd	1.0321041
24	0x3f790cc4	0.97285104
25	0x3f7a378c	0.9774101
26	0x3f7c28d4	0.984998
27	0x3f7c1d18	0.98481894
28	0x3f82e0b0	1.0224819
29	0x3f7f2103	0.99659747
30	0x3f81aa06	1.0130012
31	0x3f7d1c85	0.9887164
32	0x3f78f1b4	0.9724381
33	0x3f826dd9	1.0189773
34	0x3f7aec44	0.9801676
35	0x3f80ea40	1.0071487
36	0x3f80d05e	1.0063589
37	0x3f800e2c	1.0004325
38	0x3f79be6f	0.97556204
39	0x3f80c533	1.006018
40	0x3f82fc10	1.0233173
41	0x3f8026af	1.0011805
42	0x3f806cc6	1.0033195
43	0x3f81602d	1.0107476
44	0x3f801ffc	1.0009761
45	0x3f7e5ecf	0.99363416
46	0x3f7f3305	0.99687225
47	0x3f80f1b0	1.0073757
48	0x3f815815	1.0105006
49	0x3f7d6f0f	0.98997587
50	0x3f8002f8	1.0000906
51	0x3f85a7f3	1.0441879
52	0x3f869d75	1.0516802
53	0x3f7ab862	0.97937596
54	0x3f80a47e	1.0050199
55	0x3f84b2a7	1.036702
56	0x3f82831f	1.0196265
57	0x3f819c8f	1.0125903
58	0x3f76f71f	0.96470827
59	0x3f7b9533	0.98274535
60	0x3f7db8c4	0.99110055
61	0x3f80c016	1.005862
62	0x3f7c3a91	0.98526865
63	0x3f7c47f7	0.9854731

layer3.1.bias f4 [64]
0	0xbc5f2d83	-0.013621691
1	0x3b1ee844	0.0024247328
2	0x3cc10e25	0.023566315
3	0x3ce7ab91	0.028280051
4	0xbce1503b	-0.027504077
5	0x3c426a1a	0.011866117
6	0xbb2a49ef	-0.002598401
7	0x3c84504b	0.016151568
8	0xbca8ce53	-0.020606196
9	0x3c046b80	0.008082271
10	0xbbbeadfc	-0.0058190804
11	0x3a967fed	0.0011482217
12	0x3c13f6fe	0.0090310555
13	0xbc5d11a4	-0.013492975
14	0xbd1c072e	-0.038092785
15	0xbd4e48ba	-0.050362326
16	0xbd51bbe2	-0.05120457
17	0xbc54d632	-0.012990521
18	0x3cdc17fe	0.02686691
19	0xbc24ab7c	-0.010050651
20	0xbc91fed9	-0.017821716
21	0xbc7a734f	-0.015286281
22	0x3cc5a9cf	0.024128823
23	0x3ae77439	0.0017658538
24	0xbd03adb5	-0.03214808
25	0xbb3d8435	-0.0028917913
26	0xbc3a0abc	-0.011355098
27	0xbd05bae4	-0.032648936
28	0xbb770cc9	-0.003769683
29	0xbc4dbcf0	-0.012557253
30	0xbc82e728	-0.015979365
31	0x3bc8ede5	0.006131875
32	0xbbbd55f2	-0.0057780677
33	0x3c2fac95	0.010722299
34	0xbb2b08be	-0.002609774
35	0x3ccd6a69	0.025075154
36	0xbb66fc16	-0.003524547
37	0x3b91e982	0.004452885
38	0xbcd6090c	-0.02612736
39	0xbc48517f	-0.012226461
40	0x3ccc343c	0.024927251
41	0x3c729611	0.014806286
42	0xbb2b22e2	-0.002611332
43	0x3ccc9e06	0.024977695
44	0xbceaa4b2	-0.028642986
45	0x3c0d0b6e	0.008608682
46	0xbcb67c00	-0.022275925
47	0xbca1d4d6	-0.019754808
48	0x3c29e569	0.010369637
49	0x3b9aa986	0.004719916
50	0xbc3be59a	-0.0114683155
51	0x3d09fbfb	0.033687573
52	0x3c209f00	0.009803534
53	0xbc8a9047	-0.0169145
54	0xbc8a9f72	-0.016921733
55	0x3cb06661	0.021533193
56	0xbc4fab97	-0.012675188
57	0xbc5024e9	-0.012704113
58	0xbc35b7d5	-0.011091192
59	0xbb7cbff1	-0.0038566554
60	0xbc81c01a	-0.015838671
61	0xbc889caa	-0.016676266
62	0xbd23510c	-0.039872214
63	0x3b551415	0.003251319

layer3.1.running_mean f4 [64]
0	0xbed8e276	-0.42360276
1	0xbef5e13c	-0.48023403
2	0xbe8226e9	-0.2542031
3	0xbf309d57	-0.6899008
4	0xbd5f41a2	-0.05450595
5	0xbebd852f	-0.37015674
6	0xbefa51c5	-0.4889051
7	0xbf2fab36	-0.6862062
8	0xbf1bf226	-0.60916364
9	0x3e805095	0.2506148
10	0xbf2550db	-0.645765
11	0x3ebdc158	0.37061572
12	0x3e8fd8e3	0.2809516
13	0x3f4afda5	0.7929328
14	0x3c211283	0.009831074
15	0xbd0df30b	-0.034655612
16	0x3e3cebff	0.184494
17	0x3e6c56c1	0.23079969
18	0xbf4083fc	-0.7520139
19	0xbe4113f4	-0.18855268
20	0xbf302e31	-0.6882048
21	0x3efcfadd	0.49410143
22	0xbf4e9227	-0.8069176
23	0xbe1bad6d	-0.15202875
24	0x3e3bb5c3	0.18331055
25	0x3f1a016c	0.6015842
26	0xbdd0d1f1	-0.10196293
27	0xbefc50f1	-0.49280503
28	0xbbd0c757	-0.0063714194
29	0x3e832bc5	0.2561933
30	0xbf156da5	-0.5837043
31	0xbf061057	-0.5236868
32	0xbdfcae69	-0.123379536
33	0x3ebe569f	0.37175462
34	0x3d9b6554	0.07587686
35	0xbe966db7	-0.2938058
36	0x3da204a2	0.0791104
37	0x3f3051cb	0.68874806
38	0x3b47757c	0.0030435016
39	0xbd31d4f5	-0.043415982
40	0xbec45821	-0.38348487
41	0x3b959658	0.0045650415
42	0x3c407853	0.0117474375
43	0xbefee6d4	-0.49785483
44	0xbe3c5047	-0.18389998
45	0xbe66144b	-0.22468679
46	0x3e8f9fd5	0.2805163
47	0xbeddce6d	-0.43321553
48	0xbef392a7	-0.47572824
49	0xbe55a638	-0.20864189
50	0x3f2e09a0	0.67983437
51	0xbee01931	-0.4376922
52	0xbf3dee82	-0.7419206
53	0x3d412121	0.047150735
54	0x3e89d080	0.26916885
55	0x3e64bf4e	0.22338602
56	0x3e8ce16e	0.2751574
57	0x3e4abeee	0.19799396
58	0xbe5d1bc2	-0.2159262
59	0xbd8f7888	-0.070054114
60	0x3de64e8c	0.112454504
61	0x3c8a9b57	0.016919775
62	0x3f3f4c61	0.7472592
63	0xbd8f1b30	-0.069876075

layer3.1.running_var f4 [64]
0	0x3e1ea565	0.1549278
1	0x3e6a9867	0.229097
2	0x3e69d5ce	0.22835466
3	0x3f6ed6aa	0.932963
4	0x3e13cb07	0.14432918
5	0x3e184561	0.14870216
6	0x3e60551c	0.21907467
7	0x3e51df8b	0.20495431
8	0x3e4a16de	0.19735286
9	0x3e2e53bf	0.17024134
10	0x3e70815d	0.23486848
11	0x3e924cdd	0.28574267
12	0x3e7564ce	0.23964235
13	0x3ebaac47	0.36459562
14	0x3e8d7ecb	0.27635798
15	0x3dbb0f1f	0.091337435
16	0x3e1b5348	0.15168488
17	0x3e8dabf6	0.27670258
18	0x3ee9adac	0.45640314
19	0x3df7def1	0.121030696
20	0x3e64c7d8	0.2234186
21	0x3e9ed0aa	0.31018573
22	0x3e3882d4	0.18018657
23	0x3e3558e3	0.17709689
24	0x3e594493	0.21217565
25	0x3eaebf7b	0.34130463
26	0x3e81fc7c	0.25387943
27	0x3e1bffee	0.15234348
28	0x3e185d64	0.14879376
29	0x3dccfcd2	0.10009159
30	0x3e063cc2	0.13109115
31	0x3ee840d8	0.45361972
32	0x3e142fa6	0.14471301
33	0x3e41e279	0.18934049
34	0x3e5a4cb6	0.21318325
35	0x3eb06f36	0.34459847
36	0x3e9765eb	0.29569945
37	0x3edcfc6d	0.43161336
38	0x3df40c29	0.11916382
39	0x3e38df7a	0.18054
40	0x3e557ec3	0.20849137
41	0x3e73b0af	0.23797868
42	0x3e02daed	0.12778826
43	0x3e6d60c0	0.23181438
44	0x3dd5f7c1	0.10447646
45	0x3e47f2e3	0.19526248
46	0x3e06421a	0.13111153
47	0x3e3392cf	0.17536472
48	0x3e0d316f	0.13788389
49	0x3e1e8c5c	0.1548323
50	0x3ec4c95d	0.38434878
51	0x3eb6838a	0.3564723
52	0x3e1d0b6a	0.15336385
53	0x3e2539b9	0.161353
54	0x3dfad969	0.12248499
55	0x3e345742	0.17611411
56	0x3de2ed21	0.11080385
57	0x3e5859d9	0.21128024
58	0x3e4b774a	0.19869724
59	0x3e0e8c92	0.13920811
60	0x3e279a41	0.16367437
61	0x3e2d762c	0.1693961
62	0x3e002e6e	0.12517712
63	0x3ddde254	0.10834184

layer4.0.weight f4 [128, 64, 3]
0	0xbcfd1196	-0.030892175
1	0xbc3d2211	-0.011543767
2	0x3cd3cdab	0.025854906
3	0xbd317ac2	-0.04332996
4	0xbcbffc84	-0.023435839
5	0x3da224ce	0.07917176
6	0x3c195e79	0.009360903
7	0x3c88ec2b	0.016714176
8	0x3c923333	0.01784668
9	0x3d37b395	0.044848997
10	0x3d253825	0.040336747
11	0x3d15c442	0.03656412
12	0xbd17e215	-0.037080843
13	0xbd89df6c	-0.067320675
14	0x3d251e75	0.04031225
15	0x3d4daf68	0.05021611
16	0xbdb4e57c	-0.08832833
17	0xbd1450d2	-0.03620989
18	0x3c9b9754	0.018993057
19	0x3d5d3dc1	0.05401397
20	0xbbe7b62f	-0.0070712785
21	0xba5a643e	-0.0008330977
22	0xbc8888cb	-0.01666679
23	0x3cf8079b	0.030277064
24	0x3d5f8702	0.054572113
25	0x3cf68019	0.030090379
26	0x3cd2e0dd	0.025741989
27	0x3d6f5511	0.058430735
28	0x3d11091d	0.03540908
29	0xbd30b995	-0.043145735
30	0x3c3a66e7	0.011377073
31	0xbcf6da7d	-0.03013348
32	0x3ce2175f	0.027599035
33	0xbd56ef1a	-0.05247412
34	0xbd8e5fc4	-0.069518596
35	0x3d6f5903	0.058434498
36	0x3d741894	0.059593752
37	0x3cc29612	0.0237532
38	0x3d74102e	0.059585743
39	0x3c4924ad	0.012276811
40	0xbd34b119	-0.044114206
41	0x3d2af6ed	0.041739393
42	0xbc881b6c	-0.016614638
43	0xbb123a70	-0.0022312663
44	0xbbd3a068	-0.006458331
45	0xbc36bc3a	-0.011153275
46	0xbc902f98	-0.01760082
47	0xbdb9ba0d	-0.090686895
48	0xbc957a4c	-0.018246792
49	0x3d1a71c8	0.037706167
50	0xbc7fb0a6	-0.015606081
51	0xbd9496ea	-0.07255347
52	0x3cf9deb3	0.0305017
53	0xbc144832	-0.009050416
54	0xbc2bc7a2	-0.010484608
55	0xbd499ca1	-0.04922164
56	0x3d3a197e	0.045434467
57	0x3c7d262b	0.0154509945
58	0x3d64708b	0.05577139
59	0xbd4b1fea	-0.049590982
60	0x3d60531a	0.05476675
61	0x3d02454a	0.03180436
62	0xbb462bad	-0.0030238435
63	0x3b9a504e	0.00470928
64	0xbc80d207	-0.015725149
65	0x3cfbc81e	0.030735072
66	0x3c5278f1	0.0128462175
67	0xbcebec7b	-0.028799286
68	0x3d89a405	0.06720737
69	0xbc8dde27	-0.017317845
70	0xbcf2ceff	-0.029639719
71	0x3cc98d81	0.024603607
72	0x3d4c9cf4	0.04995437
73	0x3c0079dc	0.007841554
74	0x3b2e6632	0.0026611206
75	0xbc85f2eb	-0.016351184
76	0xbc9e3b6f	-0.01931545
77	0xbcd03d87	-0.025419964
78	0xbd96fc68	-0.073723614
79	0xbd083da3	-0.033261906
80	0xbd370a79	-0.044687722
81	0x3d06e72c	0.032935306
82	0xbd59e037	-0.053192344
83	0x3d361083	0.04444934
84	0x3d7f83cd	0.062381554
85	0x3dcf52f2	0.101232424
86	0x3d98f65b	0.074688636
87	0x3cfd8286	0.030946027
88	0x3cd5356c	0.02602645
89	0xbd709228	-0.058733135
90	0x3cff5dd3	0.031172669
91	0x3c4eefd7	0.012630424
92	0xbd8d604f	-0.06903135
93	0x3c43ab4f	0.011942699
94	0xbd4a78f6	-0.049431764
95	0x3c46d811	0.012136475
96	0xbda5e6fe	-0.08100699
97	0xbd45474f	-0.04816371
98	0x3d3f49f2	0.04670138
99	0x3d33f333	0.043933105
100	0x3dc053ca	0.093909815
101	0x3d68633c	0.056735262
102	0xbb73b353	-0.0037185743
103	0x3d912f73	0.07089128
104	0x3d8d835e	0.06909822
105	0xbc882f48	-0.016624108
106	0xbd7fba6f	-0.062433656
107	0xbd57eb1f	-0.052714463
108	0xbd4a51aa	-0.049394287
109	0x3ce1b0ce	0.027550127
110	0xbcc85e57	-0.024459047
111	0xbd0fad9c	-0.035077676
112	0x3c59fa18	0.013304256
113	0xbd67bce8	-0.05657664
114	0xbd86667c	-0.06562516
115	0xbcc1b972	-0.023647998
116	0x3cd8185e	0.026378807
117	0x3d854706	0.06507687
118	0x3d48b978	0.049005
119	0xbc8bd3c9	-0.01706876
120	0xbd8c1ea6	-0.06841783
121	0xbc9c47a5	-0.019077132
122	0x3d589e39	0.052885268
123	0xbbc4b1e1	-0.00600265
124	0xbd6c6d82	-0.057721622
125	0x3d46582c	0.04842393
126	0x3ca0fe87	0.019652618
127	0x3d54dc02	0.05196763
128	0x3c5450a1	0.012958677
129	0xbcf823b8	-0.03029047
130	0x3c6c661a	0.01442864
131	0xbd56dece	-0.052458577
132	0xbcb3eae1	-0.021962585
133	0x3d8617dc	0.065475196
134	0x3d2b93c1	0.041888956
135	0xbd4aae64	-0.049482718
136	0xbd2284e7	-0.039677527
137	0x3bff661e	0.0077941557
138	0xbd1f6c3e	-0.038921587
139	0xbd3eada9	-0.046552334
140	0x3c97d90b	0.018536111
141	0xbbdf388e	-0.0068121618
142	0x3c170d0b	0.009219418
143	0xbcd3db47	-0.025861396
144	0xbc897ae4	-0.016782232
145	0x3c20f0f2	0.009823071
146	0xbc81b3fc	-0.015832894
147	0xbc359af4	-0.011084307
148	0x3cfe9c3d	0.03108036
149	0xbd059de4	-0.03262128
150	0x3d42bb13	0.04754169
151	0x3d81dd42	0.0634103
152	0x3d7ec361	0.062198047
153	0xbc8bcf52	-0.017066631
154	0x3d3ef588	0.046620876
155	0x3d3014d1	0.042988602
156	0x3c504c7b	0.012713547
157	0xbd8a54a3	-0.067544244
158	0xbdb8a7eb	-0.09016403
159	0xbcfcbf5a	-0.030852962
160	0x3d39b3f4	0.045337632
161	0xbc6a7dc1	-0.014312209
162	0x3d1f8e46	0.038954042
163	0x3d3ffa22	0.046869405
164	0xbbcecc4b	-0.0063109747
165	0x3d52cdaf	0.051465686
166	0x3d3ab9a6	0.045587204
167	0x3d4b9c53	0.04970963
168	0x3c87600e	0.016525295
169	0x3da93ac6	0.08263163
170	0xbd48c068	-0.049011618
171	0x3d225330	0.039630115
172	0x3d1889d2	0.03724081
173	0x3ce01843	0.027355319
174	0xbd7e90fb	-0.062149983
175	0xbd5bbb88	-0.05364564
176	0x3cdcdf05	0.026961813
177	0xbb6e48d5	-0.003635933
178	0x3d8c0baa	0.06838162
179	0x3d8db227	0.069187455
180	0x3d9911ca	0.07474096
181	0x3daf7078	0.085663736
182	0xbd83d7f3	-0.064376734
183	0xbd854bb7	-0.06508582
184	0xbd28048a	-0.041019954
185	0x3b1e1761	0.0024122822
186	0xbcea981c	-0.028636985
187	0xbd230fff	-0.039810177
188	0x3d8a1665	0.06742553
189	0x3d17e6d6	0.037085377
190	0xbbbb82c7	-0.005722377
191	0x3bdf0054	0.006805459
192	0xbcc6f43a	-0.024286378
193	0xbd880225	-0.06641034
194	0xbcd6a5f8	-0.026202187
195	0x3d065805	0.032798786
196	0xbd20b80c	-0.03923802
197	0xbcb8be1e	-0.022551592
198	0xbd97b6d1	-0.07407916
199	0xbc1edc15	-0.009696026
200	0xbd20b231	-0.039232437
201	0xbd62affb	-0.05534361
202	0x3ca2da3e	0.019879457
203	0xbc794f9f	-0.015216737
204	0x3c4a76be	0.012357412
205	0xbd20a029	-0.03921524
206	0x3d7a4422	0.061100133
207	0xbd62af8d	-0.0553432
208	0x3c0d4324	0.008621965
209	0x3c711c27	0.014716185
210	0xbc9cdd1f	-0.019148408
211	0x3c9dc742	0.019260053
212	0x3d3eea12	0.046609946
213	0xbd1eabe2	-0.03873814
214	0xbc88ff10	-0.016723186
215	0x3d099a0e	0.033594184
216	0x3cbae4f8	0.022814259
217	0xbc2869e5	-0.0102791535
218	0xbc63e725	-0.01391009
219	0x3c3649ac	0.011125963
220	0xbc8a800c	-0.01690676
221	0x3cabd19a	0.02097397
222	0xbc30e33b	-0.010796363
223	0x3d7e2018	0.062042326
224	0x3c822319	0.015885876
225	0xbd4ec7b3	-0.050483417
226	0xbd0493c2	-0.032367475
227	0xbd1dc03c	-0.038513407
228	0x3cbdf867	0.023189737
229	0x3d3022ed	0.043002058
230	0xbd55dfe5	-0.052215476
231	0x3cdd2a61	0.026997747
232	0x3d6a3c68	0.057186514
233	0x3cd4bafd	0.02596807
234	0x3ca860fb	0.020554056
235	0xbd574227	-0.052553322
236	0xbd27d9f0	-0.040979326
237	0xbcd31e65	-0.02577133
238	0x3cebb73e	0.0287739
239	0xbc6e91e0	-0.0145611465
240	0xbc9b2a9f	-0.018941222
241	0xbd6c0a4a	-0.057627
242	0xbcff3c9b	-0.031156829
243	0x3d3ab0d6	0.0455788
244	0x3d144e68	0.036207587
245	0xbd6efbf1	-0.05834574
246	0xbcb685af	-0.022280542
247	0xbd8f5bcc	-0.06999931
248	0x3be9d6b7	0.0071361917
249	0x39b0aa1f	0.00033696086
250	0xbd731b10	-0.05935198
251	0x3d4af446	0.049549364
252	0x3cf743bc	0.030183665
253	0x3d9be142	0.07611324
254	0xbcab9d92	-0.020949159
255	0x3d246e84	0.04014446

layer4.0.bias f4 [128]
0	0xb83fe209	-4.574846e-05
1	0x3888cd10	6.523181e-05
2	0x37d5ab30	2.5471294e-05
3	0x377b75e7	1.4988217e-05
4	0x37526cbc	1.2542292e-05
5	0x36ec8c22	7.0496617e-06
6	0xb8477a7a	-4.7559362e-05
7	0x3690ac6c	4.311607e-06
8	0xb7b5853f	-2.1638929e-05
9	0x36c74ea4	5.939817e-06
10	0x36b13a89	5.2818255e-06
11	0x3878519e	5.920382e-05
12	0x381f70aa	3.801348e-05
13	0xb83f7fb2	-4.5656874e-05
14	0xb8b42177	-8.589302e-05
15	0xb6a2c6a1	-4.8510997e-06
16	0x3635a63a	2.7067858e-06
17	0xb7f5c12b	-2.9296227e-05
18	0x3673cad0	3.6327874e-06
19	0xb8098c65	-3.2794098e-05
20	0x389d6dc9	7.5067925e-05
21	0x37fc9e15	3.0114354e-05
22	0xb75f45c2	-1.33080775e-05
23	0xb49c3058	-2.909244e-07
24	0xb7bf0d66	-2.2775213e-05
25	0x37a7890a	1.9971765e-05
26	0x388cf0c4	6.720566e-05
27	0x38252e72	3.938232e-05
28	0x379c0b15	1.860181e-05
29	0xb7dcaed8	-2.6307462e-05
30	0xb68efd96	-4.261451e-06
31	0x371243ba	8.718047e-06
32	0xb6ed6fb2	-7.0761535e-06
33	0xb7040185	-7.868167e-06
34	0xb84b4d0c	-4.8470727e-05
35	0x37c1d8b1	2.3108298e-05
36	0xb784c57c	-1.5827587e-05
37	0xb7a55018	-1.970683e-05
38	0xb6d7cce0	-6.43135e-06
39	0xb627af2a	-2.4986898e-06
40	0x378f9baf	1.7119424e-05
41	0x36a60657	4.9479236e-06
42	0xb78997bb	-1.6402328e-05
43	0x375e4ed5	1.3250586e-05
44	0x37c862f2	2.3887933e-05
45	0x3782769a	1.5552436e-05
46	0xb7f2d9b7	-2.895003e-05
47	0x384f979d	4.9493847e-05
48	0xb6d7b18f	-6.42817e-06
49	0xb8406efe	-4.5879737e-05
50	0x379d7b66	1.877332e-05
51	0x3684b23a	3.954655e-06
52	0xb78c0dc8	-1.6695718e-05
53	0x383146a7	4.226589e-05
54	0x3734c86c	1.07755e-05
55	0x389ef2b2	7.5792326e-05
56	0x37c1bc20	2.3094995e-05
57	0x3586da60	1.0047333e-06
58	0xb8e3ca97	-0.00010861939
59	0x3792b1be	1.7487324e-05
60	0xb6c3b711	-5.8327646e-06
61	0x36c47736	5.855133e-06
62	0x383dccd0	4.5251858e-05
63	0x381934a4	3.6527068e-05
64	0x35f65f9b	1.8356253e-06
65	0xb7655a8c	-1.3670546e-05
66	0x3912d577	0.00014003167
67	0x36efc2f0	7.1454488e-06
68	0xb7d72197	-2.5645639e-05
69	0x38669f2f	5.4984524e-05
70	0x37203f2e	9.551453e-06
71	0x38156265	3.5616005e-05
72	0x380e69f8	3.395413e-05
73	0x3784710c	1.5788268e-05
74	0xb7dc1186	-2.6234204e-05
75	0xb70f80f0	-8.553485e-06
76	0x3788f407	1.6326097e-05
77	0xb7941051	-1.7650573e-05
78	0x36a2ea5e	4.85526e-06
79	0x3809fbf7	3.2898006e-05
80	0xb6b65d82	-5.4349084e-06
81	0xb6819884	-3.8622547e-06
82	0x388ee33a	6.813412e-05
83	0xb6a95188	-5.046084e-06
84	0x3775a87e	1.4642368e-05
85	0x3718ea2c	9.114428e-06
86	0x37b8610b	2.1979698e-05
87	0xb7f04946	-2.864435e-05
88	0xb7af3386	-2.0885618e-05
89	0x36204b10	2.388555e-06
90	0x371dd3d2	9.4072475e-06
91	0xb6f9964a	-7.438274e-06
92	0x37a87008	2.007933e-05
93	0x36d443c2	6.3259804e-06
94	0x3825d800	3.954023e-05
95	0x36ea5879	6.984043e-06
96	0xb7c931e9	-2.3984308e-05
97	0xb72beade	-1.02470785e-05
98	0x3818d2fc	3.643612e-05
99	0x378e343a	1.6952039e-05
100	0x381165a6	3.466536e-05
101	0xb82d22ac	-4.1278705e-05
102	0x3536b118	6.805799e-07
103	0x370863c4	8.12946e-06
104	0x36084b35	2.0309355e-06
105	0xb92d911a	-0.0001655262
106	0xb7c97fe1	-2.4020615e-05
107	0x37148900	8.853385e-06
108	0x381e5a77	3.7754387e-05
109	0x39a0a46e	0.00030640088
110	0xb795de50	-1.7865706e-05
111	0xb8a92ba8	-8.0666796e-05
112	0x379a67fb	1.840665e-05
113	0xb98f4987	-0.00027329868
114	0xb83333c9	-4.2725154e-05
115	0x3738fcfe	1.1026159e-05
116	0x389eec61	7.578056e-05
117	0x38598bdb	5.1867082e-05
118	0x3683f33c	3.9324204e-06
119	0x36f76bbe	7.3737165e-06
120	0x3823d360	3.9059087e-05
121	0x374fd85f	1.2388539e-05
122	0x3812bd6f	3.4985536e-05
123	0x37c31bca	2.3258752e-05
124	0xb897705f	-7.221172e-05
125	0x36b1b53c	5.2961095e-06
126	0x36da9595	6.51432e-06
127	0x3859794f	5.184981e-05

layer4.1.weight f4 [128]
0	0x3f7e659a	0.9937378
1	0x3f817ae0	1.0115623
2	0x3f786b61	0.9703885
3	0x3f7f6bb9	0.99773747
4	0x3f8143e7	1.0098847
5	0x3f78578f	0.97008604
6	0x3f800926	1.0002792
7	0x3f7fc68c	0.99912333
8	0x3f7d18fe	0.9886626
9	0x3f7c1d57	0.9848227
10	0x3f7fd29c	0.9993074
11	0x3f816603	1.0109257
12	0x3f79be88	0.9755635
13	0x3f809d6a	1.0048039
14	0x3f7eae5d	0.9948481
15	0x3f806c2c	1.0033011
16	0x3f7dc9b8	0.99135923
17	0x3f7b36c6	0.9813045
18	0x3f7db25a	0.9910027
19	0x3f7e5d57	0.99361175
20	0x3f7bca9e	0.98356044
21	0x3f7d7cd6	0.9901861
22	0x3f7ec0c2	0.99512875
23	0x3f7ba6e4	0.9830153
24	0x3f7664c3	0.962475
25	0x3f7c025b	0.98441094
26	0x3f80907f	1.0044097
27	0x3f7d6f66	0.98998106
28	0x3f7fc08c	0.9990318
29	0x3f806ec7	1.0033807
30	0x3f7b3cda	0.9813973
31	0x3f7e644a	0.9937178
32	0x3f7bdf65	0.9838775
33	0x3f7f8cea	0.9982439
34	0x3f7f335c	0.99687743
35	0x3f79136b	0.97295254
36	0x3f7f3444	0.99689126
37	0x3f7c547b	0.98566407
38	0x3f78cf6f	0.9719152
39	0x3f7bdf3e	0.98387516
40	0x3f7bc4fb	0.98347443
41	0x3f8151b7	1.0103062
42	0x3f793be6	0.9735702
43	0x3f82cf5b	1.021953
44	0x3f7dcd45	0.9914134
45	0x3f80207e	1.0009916
46	0x3f7db640	0.99106216
47	0x3f810f88	1.0082865
48	0x3f7b310b	0.9812171
49	0x3f80d18f	1.0063952
50	0x3f81d23e	1.0142286
51	0x3f7ae454	0.9800465
52	0x3f7a40de	0.9775523
53	0x3f7edff6	0.9956049
54	0x3f7bf482	0.98419964
55	0x3f7fb57b	0.9988629
56	0x3f7c9227	0.9866051
57	0x3f7d96fc	0.9905851
58	0x3f7ba4ad	0.9829815
59	0x3f7fad1b	0.99873513
60	0x3f82265b	1.0167955
61	0x3f7ac657	0.9795889
62	0x3f8104fa	1.0079644
63	0x3f7b6c11	0.9821177
64	0x3f81f6a0	1.0153389
65	0x3f816e13	1.0111717
66	0x3f7f18c1	0.99647146
67	0x3f7bf351	0.98418146
68	0x3f7dd61b	0.99154824
69	0x3f8085ac	1.0040793
70	0x3f791872	0.97302926
71	0x3f7e8f9c	0.9943788
72	0x3f808eeb	1.0043615
73	0x3f7879f6	0.970611
74	0x3f7e5400	0.99346924
75	0x3f7ad609	0.9798284
76	0x3f7a4265	0.9775756
77	0x3f80890d	1.0041825
78	0x3f816bb0	1.0110989
79	0x3f7f3924	0.99696565
80	0x3f7b43f0	0.9815054
81	0x3f7b5dce	0.9819001
82	0x3f82cd91	1.0218984
83	0x3f7e7819	0.99402004
84	0x3f765684	0.9622576
85	0x3f82a6d8	1.0207167
86	0x3f80864f	1.0040988
87	0x3f7c9b28	0.9867425
88	0x3f7ffe41	0.99997336
89	0x3f77d6bf	0.9681205
90	0x3f7e3666	0.99301755
91	0x3f7dd90b	0.99159306
92	0x3f7b51c4	0.9817164
93	0x3f7bd554	0.9837239
94	0x3f8109e2	1.0081141
95	0x3f7b595f	0.98183244
96	0x3f81c392	1.0137808
97	0x3f801fe2	1.000973
98	0x3f81585f	1.0105094
99	0x3f7f7c8b	0.9979941
100	0x3f7a1158	0.97682714
101	0x3f80bf8b	1.0058454
102	0x3f789aad	0.97111017
103	0x3f8001c6	1.0000541
104	0x3f7ee491	0.99567515
105	0x3f8310e4	1.023953
106	0x3f7e3f4a	0.9931532
107	0x3f7b295f	0.9811
108	0x3f7d47e3	0.98937815
109	0x3f803f99	1.0019408
110	0x3f800a9b	1.0003237
111	0x3f803f1d	1.0019261
112	0x3f7afa31	0.9803801
113	0x3f813f81	1.0097505
114	0x3f7fdfcf	0.9995088
115	0x3f7a0a01	0.97671515
116	0x3f7bc529	0.9834772
117	0x3f7c4207	0.9853825
118	0x3f7dab6e	0.99089706
119	0x3f7d8602	0.99032605
120	0x3f7d60c9	0.9897581
121	0x3f7df496	0.99201334
122	0x3f82672b	1.0187734
123	0x3f7e5d7d	0.993614
124	0x3f83a4cc	1.0284667
125	0x3f7c340b	0.9851691
126	0x3f79f43c	0.976383
127	0x3f7ee404	0.99566674
